Experimental_Models/Full_Model_Weight_Norm_v1.3.pt (torch_old, 460117 bytes, 33 tensors)

fc1.bias f4 [96]
000000 4e 5c 0c 3f d3 be c0 3e 3a 0d c0 be e8 51 d8 be
       0.54828346 0.37645587 -0.3751009 -0.4224999
000010 08 1f b6 3d 16 12 48 3e b8 ee 6a 3e de f0 9a be
       0.088926375 0.19538149 0.22942626 -0.30261892
000020 88 96 bd be 69 ae 11 bf c1 7c 09 bf 1d 93 2a be
       -0.3702891 -0.56906754 -0.53705984 -0.16657682
000030 46 e9 68 3e 0e 1c e9 be 17 bb 07 3f 81 f7 8c be
       0.22745237 -0.45529217 0.5301985 -0.2753258
000040 6e c5 b3 3e 16 ad 9f 3e e0 04 ce 3e 72 de 7f 3e
       0.35111564 0.31186742 0.40238094 0.249872
000050 7e 35 af 3e f7 2c 12 bf 34 e2 0a 3f 41 7b 10 be
       0.342205 -0.5709986 0.5425141 -0.14109518
000060 54 63 05 3e 80 3d 39 bd 83 04 0d 3f 0e c4 a2 3e
       0.13026172 -0.045224667 0.5508501 0.31790203
000070 98 a0 e9 be 07 11 0c bf 46 c0 a4 be cd c1 01 3f
       -0.45630336 -0.5471348 -0.32177943 0.5068634
000080 c6 09 9e 3e c4 1b b4 3e 8e c1 8d 3e 8c cc f3 be
       0.30866832 0.35177433 0.27686733 -0.47616994
000090 20 d8 8d 3c 25 c2 e0 be 4f 35 80 3e 1a 0b b4 be
       0.01731497 -0.4389812 0.2504067 -0.3516472
0000a0 77 59 05 bf b3 47 ad be 16 9f b3 be 55 44 ac 3e
       -0.5208964 -0.33843765 -0.3508231 0.33645883
0000b0 92 9a af 3e e0 09 f4 bc 71 74 6d bd ea ef 01 3d
       0.34297615 -0.029789865 -0.057972375 0.03172294
0000c0 dc bd 55 3e 60 08 a4 be 02 9a 0c 3f 70 b5 8c 3e
       0.20873207 -0.3203764 0.549225 0.27482176
0000d0 6a 18 9a 3e 86 8b f8 3e 69 69 8c 3e 62 4f 9c 3e
       0.3009675 0.48543948 0.27424172 0.30529314
0000e0 73 6d 89 be b0 07 14 3f b7 a1 3b 3d 6a b1 b2 be
       -0.26841316 0.5782423 0.04580852 -0.3490098
0000f0 6f dd 01 bf c0 be 5f 3d 58 8d d9 be 1f a2 15 3f
       -0.50728506 0.054625273 -0.4249065 0.584505
000100 bc 4f c0 bd 33 7d 32 3b 3e 74 b0 3e ff 7b dc be
       -0.09390208 0.002723527 0.34463686 -0.43063352
000110 5a 58 8d be 0e 13 d0 be 1a ee 1a bf f4 c9 05 3f
       -0.2760647 -0.40639538 -0.60519564 0.5226128
000120 ad 06 0a bf 01 2f 86 be 48 ae 9a 3e 6f 10 6b be
       -0.53916436 -0.26207736 0.3021109 -0.22955488
000130 b6 4c 99 be cc f6 01 3f cb ae 6f bd 40 66 e6 3c
       -0.29941338 0.5076721 -0.058516305 0.028124928
000140 0c 00 56 3e 32 0b 0f bf 80 c5 14 3f fd c6 0e bf
       0.20898455 -0.5587646 0.5811386 -0.5577238
000150 b9 bf 06 3f 00 f9 86 3d 8c a9 00 bf e4 a3 b8 be
       0.52636296 0.06590462 -0.5025871 -0.3606254
000160 f5 8a 15 3f f0 a4 e8 3e a8 09 84 be a3 f1 1d 3f
       0.58415157 0.45438337 -0.25788617 0.61696833
000170 a9 e3 b1 bd 56 21 cd 3e 4c 93 4e 3e b7 3f 83 3e
       -0.08686001 0.40064496 0.20173377 0.25634548

fc1.weight_g f4 [96, 1]
000000 8d a2 c9 3e dd 69 42 3e 6e 3e 30 3f 54 7c 06 3f
       0.3938183 0.18985696 0.6884526 0.5253346
000010 12 f5 1c 3f bb 9a 23 3f 0b 3c 2e 3f 10 b3 48 3f
       0.6131145 0.63907975 0.6806037 0.7839823
000020 45 8b f4 3e 7a 90 e4 3e 06 8f 9b 3e 65 ed 85 3e
       0.47762504 0.44641477 0.30382556 0.2615768
000030 b8 4a 15 3f f0 ff 3e 3f 82 ce 95 3e e4 d7 f2 3e
       0.58317137 0.7460928 0.29259115 0.47430336
000040 98 63 1f 3f 83 c2 a5 3e 60 05 49 3f 05 41 1a 3f
       0.62261343 0.32374963 0.78523827 0.6025546
000050 ea 7b 03 3f 17 96 d5 3e b8 0d a8 3e 61 f5 0b 3f
       0.5136095 0.41716072 0.32822967 0.54671293
000060 d7 18 33 3f 53 62 16 3f d3 e1 81 3e b0 a3 e7 3e
       0.6995978 0.5874378 0.25367603 0.4524207
000070 a7 0d 04 3f 26 c3 c1 3d 2e c5 1c 3f 4c 38 10 3f
       0.5158333 0.0946105 0.6123837 0.563359
000080 22 e7 46 3f ae d5 0d 3f c6 a3 49 3f e4 34 3c 3f
       0.7769643 0.55404174 0.78765523 0.73518205
000090 6b 03 aa 3e 86 5b 63 3e 98 f0 0a 3f 48 56 0e 3f
       0.33205733 0.22202882 0.54273367 0.55600405
0000a0 75 b3 59 3f f9 85 01 3f 7c 3b 0f 3f f1 b1 0f 3f
       0.85039455 0.5059505 0.5595014 0.5613089
0000b0 d0 e5 b2 3e 54 dd 5b 3f a1 c5 ec 3e 64 54 27 3f
       0.34940958 0.85884595 0.4624453 0.65363145
0000c0 69 3f 2c 3f 21 07 27 3f a1 c4 2d 3f a8 d7 43 3f
       0.67284256 0.6524525 0.67878157 0.7650094
0000d0 36 25 09 3f ba 84 2e 3f 22 e0 16 3f 71 b8 e9 3e
       0.53572404 0.68171275 0.5893575 0.4564853
0000e0 45 7a 60 3e f6 7c af 3e f1 9c f4 3e f7 f3 2b 3f
       0.21921642 0.34275025 0.47775987 0.67169136
0000f0 5a d5 07 3f 75 97 8a 3e dc 7b 16 3e 5a 94 6d 3e
       0.53059924 0.27068678 0.14695686 0.23201123
000100 01 4c 1b 3f 2e bd 31 3f 5b e5 e8 3e a4 ab 14 3f
       0.6066285 0.6942929 0.45487484 0.580744
000110 a7 b8 d0 3e d3 6e 88 3e 3f d2 ba 3d 42 7d 3a 3f
       0.4076588 0.26647052 0.091221325 0.7284738
000120 07 9e 24 3f 7c 86 dd 3e 00 3d 05 3f 8c 09 04 3f
       0.6430363 0.43266666 0.52046204 0.5157707
000130 ac 2a 1a 3f bc df 2c 3f 89 f6 18 3f 6f 4f 24 3f
       0.6022136 0.6752889 0.5975118 0.64183706
000140 66 94 27 3f a9 d1 0d 3f 4b 5c 1c 3f b0 37 43 3f
       0.65460813 0.5539804 0.6107833 0.7625685
000150 1c c3 8c 3e 8c 38 35 3f 66 a6 14 3f 0a c3 5d 3f
       0.27492607 0.7078941 0.58066404 0.8662573
000160 52 9f 00 3f 59 10 22 3f 1a 57 42 3f 9b bb f2 3e
       0.50243104 0.63306195 0.75914156 0.47408757
000170 77 7d 11 3f 13 56 25 3f 49 63 c0 3e ee 1b 0a 3f
       0.5683207 0.64584464 0.3757575 0.5394887

fc1.weight_v f4 [96, 3]
000000 82 b1 5c be 0f c9 9f be 10 37 d9 3d df ca e0 3d
       -0.21552089 -0.31208083 0.106062055 0.109761946
000010 03 82 11 3e aa 34 0f bd b4 10 c7 be 20 fa 4a bd
       0.14209752 -0.034962334 -0.3887993 -0.049554944
000020 d2 e4 10 3f 9f e4 97 3d 35 88 d7 3e 97 02 97 3e
       0.5659915 0.07416653 0.42096105 0.29494163
000030 54 2f 22 be b8 72 1c be a6 7f 12 3f 0a 65 a1 bc
       -0.15838367 -0.15278137 0.57226026 -0.0197015
000040 3c 5e dc be 74 38 f0 3e 07 b2 e9 be bc 7a ff be
       -0.43040645 0.4691807 -0.45643637 -0.49898326
000050 38 59 9d 3d 7b 35 71 be 5b 09 ff 3e f0 b8 e1 3e
       0.07683033 -0.23555557 0.49811825 0.4408641
000060 2e 64 27 3e 62 61 dd 3e 60 69 c1 3d d3 c8 c5 be
       0.1634681 0.4323836 0.09443927 -0.3862978
000070 24 81 af bd cc a3 53 be 3d c6 c8 3d 2f cf 7f be
       -0.085695535 -0.20667952 0.09803436 -0.24981378
000080 b8 47 21 bd 16 1a 61 bd c1 31 6c 3e 81 46 a8 bd
       -0.039375037 -0.054956518 0.23065855 -0.082165726
000090 39 a7 fd 3e 7b c2 4a be cb 44 7a 3e 5e 3c 9d bd
       0.49541643 -0.19800751 0.24440305 -0.0767753
0000a0 d1 83 0e 3f be b6 f0 be d6 03 98 bd a5 ff 32 3e
       0.55669886 -0.4701442 -0.07422607 0.17480333
0000b0 7b 49 20 3e c0 9f ad be 24 1d 32 be 58 8e 90 3e
       0.1565303 -0.33910942 -0.17393929 0.282336
0000c0 3f 9b e0 be eb f6 aa 3e f9 50 8e 3e 30 13 1c bd
       -0.43868443 0.33391508 0.27796152 -0.038104236
0000d0 4b 87 9d be 70 04 bf 3d 0b d8 72 be f4 5b 01 3f
       -0.30767283 0.09327018 -0.23715226 0.50530934
0000e0 55 60 e0 be 06 25 89 3e c2 25 97 be dd ac ea 3e
       -0.43823496 0.2678606 -0.29520994 0.4583501
0000f0 f8 e4 54 3e fc 02 87 bd 2a 32 e1 be ee 49 d2 3d
       0.2079047 -0.06592366 -0.43983585 0.10268007
000100 9a 81 e1 bd e8 17 b8 3e 91 2f 5d 3e ed 98 f7 3a
       -0.11011048 0.3595574 0.21600176 0.001889018
000110 e9 22 79 be cb 4f b0 be 02 18 c6 3e 4e a8 69 bd
       -0.24329723 -0.34435877 0.38690192 -0.057045273
000120 a4 d6 9b be c3 0d 03 bf a0 ed bb be 39 9a f9 be
       -0.30437195 -0.51192874 -0.3670473 -0.48750475
000130 2a a6 a7 be c0 ef 6a bc 21 06 0e 3e dc ec 4a 3e
       -0.3274396 -0.014339387 0.13869525 0.19816917
000140 8c e4 b0 bc 70 31 8e bd ee e6 d4 be fa 1d 28 be
       -0.021593355 -0.06943023 -0.41582435 -0.16417685
000150 8e f0 ef bd c5 91 9b 3e 08 f0 b0 3e 40 63 a8 bd
       -0.11715804 0.3038465 0.3455813 -0.082220554
000160 00 a6 a7 3c 60 6d 2c bd 5d 38 91 3c c9 53 5f 3e
       0.020464897 -0.042096496 0.017727071 0.21809305
000170 90 20 14 bf 6a 07 c0 bd 06 cc d6 3e bb ff b2 be
       -0.57862186 -0.09376414 0.41952533 -0.34960732
000180 0a 07 e0 be db 9a 05 3f d2 86 9c be cb 11 ed 3d
       -0.4375537 0.52189416 -0.3057161 0.11575659
000190 64 4d bf be 0b f5 98 be 2a bb e7 be a3 01 1c 3f
       -0.37363732 -0.29874453 -0.45259982 0.6094
0001a0 56 0c 26 be 25 ac 0a bf cc 91 28 3e 7c 21 f0 be
       -0.16215643 -0.5416892 0.16461867 -0.46900547
0001b0 87 7c a4 be 60 62 8d bd b0 dc 43 bd 9a bf d6 bd
       -0.32126257 -0.06903529 -0.047817886 -0.10485764
0001c0 ab 4d 19 3e f4 3d cc 3c fb 3b 9e 3e 77 d6 e8 bd
       0.14971034 0.024931885 0.30905136 -0.11369031
0001d0 ad d5 d8 be 70 34 9b 3e 73 c4 80 be a5 f8 c6 3e
       -0.42350522 0.30313444 -0.2514988 0.38861576
0001e0 7b e7 06 bf 0c 07 15 3f 81 e8 4a be 7a ea 8d 3d
       -0.5269696 0.5821388 -0.19815256 0.069294885
0001f0 b7 2d 74 bd f7 26 e7 3e e3 2b 36 3e dd aa 01 3f
       -0.05961391 0.45146915 0.17790179 0.5065134
000200 43 22 55 3e aa 29 5f 3e 52 69 b3 3e 46 24 c9 3e
       0.20813851 0.21793237 0.3504129 0.39285487
000210 55 fa ee 3d 38 e5 41 3e 9e 31 71 be 8e a6 04 bf
       0.11668841 0.18935096 -0.23554084 -0.5181664
000220 d6 6c 04 bf c0 d9 e5 3e ed dc 81 3e 28 a3 9f 3e
       -0.5172857 0.44892693 0.25363865 0.31179166
000230 c8 95 59 be e5 cf f0 3e c8 dc 69 3e 78 12 c7 be
       -0.21248543 0.4703361 0.22838128 -0.38881278
000240 36 12 ae be cc 07 ce be c1 4e d6 be 04 16 e2 3e
       -0.3399827 -0.40240324 -0.4185696 0.44157422
000250 54 0d 6c be 66 07 d7 be 09 7c ce 3e 9e b7 ab be
       -0.2305196 -0.41997832 0.40329006 -0.33538526
000260 d0 a2 e0 3e de 60 da be b3 da 81 3e 73 c9 0e bf
       0.43874216 -0.4265203 0.25362167 -0.5577614
000270 fc 41 ab be 91 47 9b be 1f a1 93 be dc 42 c7 3e
       -0.3344878 -0.30328038 -0.28833863 0.38918197
000280 59 1b 9b bc c8 8b 0c bf 42 cd 0d 3f 34 5c 52 be
       -0.018933939 -0.5490079 0.55391324 -0.20542985
000290 be 42 d8 3c 02 cf da be 60 68 9b bd 88 c1 10 3e
       0.026399013 -0.4273606 -0.07588267 0.14136326
0002a0 92 2d 3e 3e 3e d5 ee 3c 65 58 e6 3d be 03 b5 3d
       0.18572071 0.029154416 0.11247329 0.088386044
0002b0 f0 88 f7 3d a6 a2 a0 be aa ad 43 be f6 b3 ce 3e
       0.12086666 -0.3137409 -0.19109216 0.40371674
0002c0 f3 9e 88 bd 6e 03 04 bf 20 15 b6 3e e9 78 9b be
       -0.06670942 -0.51567733 0.35562992 -0.30365685
0002d0 f1 5a 00 3f 80 c0 28 3e b7 17 f8 bd 7c c3 5e be
       0.50138766 0.16479683 -0.12113898 -0.21754259
0002e0 40 91 fe 3c c4 d8 21 be 10 61 0c be f0 3a 0b 3d
       0.03107512 -0.15805346 -0.13708901 0.033991754
0002f0 d0 40 26 3d 5c af a7 bd 38 47 33 3e ba b2 da bd
       0.040589154 -0.08187744 0.17507637 -0.10678621
000300 47 ee 08 bf b0 92 60 bd 7e ce 8f 3e 5d eb 44 3e
       -0.5348858 -0.054827392 0.2808723 0.19230409
000310 3b cc ce 3e df e7 04 3f 24 f3 e0 3e fe 9c 97 bc
       0.4039019 0.5191631 0.43935502 -0.018507477
000320 35 47 a0 bd 59 e6 8d 3d e0 d1 aa be fe 6d ca 3e
       -0.07826082 0.06928701 -0.33363247 0.39537042
000330 7d e4 ef bd b2 f7 29 3e f7 9d a2 3e 1e 52 6d 3e
       -0.117135026 0.16598395 0.31761143 0.23175856
000340 9d dd c4 bd bd b6 97 bd 14 c7 81 3d d1 a4 5c 3d
       -0.09612582 -0.074079014 0.06336799 0.05386812
000350 70 1e 91 bc 02 7c 05 3f 9d c2 03 3d ad 09 02 3f
       -0.017714709 0.52142346 0.03216802 0.50796014
000360 b0 a2 0c bf 3c ad 36 3e 4f b4 90 be 69 6d b3 be
       -0.5493574 0.17839521 -0.28262565 -0.3504441
000370 42 ee 2c be 3e f0 41 be ec 27 e6 3e 3a a8 78 3e
       -0.16887763 -0.18939301 0.44952333 0.24282923
000380 c0 77 5f 3d 01 46 42 3d b0 09 76 bd 80 d2 ec 3e
       0.054557562 0.047430042 -0.060067832 0.4625435
000390 e3 22 7c 3e 23 fd 01 bf 12 45 0f be eb dc 0b bf
       0.24622683 -0.5077688 -0.13991192 -0.5463397
0003a0 30 ab 24 bd a7 2a ca be 96 41 fd 3e 97 3d 9e be
       -0.04020232 -0.39485666 0.494641 -0.30906364
0003b0 d2 40 ca 3d 17 0c 0e bf b0 6e f1 3d b8 bf 99 3e
       0.09875645 -0.554872 0.1178869 0.30029082
0003c0 d1 8c 0a bf 85 f2 a7 3e 2b 1e ba 39 58 35 26 be
       -0.5412112 0.32802215 0.00035499161 -0.16231287
0003d0 42 bb f9 be a6 74 53 be 2f 35 bb 3e 67 34 05 3e
       -0.4877568 -0.20649967 0.36564013 0.13008271
0003e0 ec 37 ef 3e fb 81 eb be 50 fb b6 be 98 fa fb 3e
       0.46722353 -0.45997605 -0.3573861 0.49214625
0003f0 17 7c 47 3e 9c 75 37 3e f1 c4 aa bc 00 a5 07 be
       0.1948093 0.17915958 -0.020845862 -0.13246536

fc2.bias f4 [48]
000000 20 1c e7 3c 9f 93 11 3d ce b2 06 be 98 60 5e bc
       0.028211653 0.035541173 -0.13154146 -0.013572834
000010 ca cf c3 bb 6c fe 48 3b fb 34 c8 bd c8 ae 93 3d
       -0.005975698 0.0030669225 -0.0977573 0.07211071
000020 70 36 3c bd 53 57 ed 3d d4 b1 dc 3d 8d a2 a8 bd
       -0.045950353 0.115889214 0.107761055 -0.08234129
000030 68 8b 47 3d 92 43 15 3d c4 a7 c8 3d a0 24 6e bd
       0.048716933 0.036441393 0.09797624 -0.058140397
000040 ae fa a7 3d 68 e2 b8 bd 2c ae 9a 3d 19 6f 95 bd
       0.0820211 -0.090275586 0.07552752 -0.07296581
000050 c9 07 b8 3d c0 2c b2 3d 71 5e 1b bd d2 f6 34 3d
       0.0898586 0.08699942 -0.037931863 0.0441807
000060 48 d9 37 bd e4 f0 b6 3c f2 b1 2e bd 1b de 77 bb
       -0.04488495 0.022331662 -0.04265017 -0.0037821594
000070 b8 e6 1c 3e e4 08 57 bd 74 2b 8c 3d 24 e4 0d be
       0.15322387 -0.052498713 0.068442255 -0.1385656
000080 b3 3f a5 bc bb 0f e3 bc fc bf 3d bd f3 b3 cc bd
       -0.020171976 -0.027717462 -0.04632567 -0.0999526
000090 56 1e ec 3d 18 0f 3b 3d 09 ec 99 bd c9 26 55 3a
       0.115292236 0.04566869 -0.07515723 0.00081310846
0000a0 d2 b4 94 bd 71 32 7d 3d 7e 8c 28 bd f6 fd 87 bd
       -0.07261051 0.061815683 -0.04114961 -0.06640236
0000b0 9e 99 04 3d ce f3 97 bb 60 e0 e7 bc c4 70 64 bd
       0.032373063 -0.004637218 -0.028305233 -0.055771604

fc2.weight_g f4 [48, 1]
000000 a1 da 0c 3f db 9e 12 3f 1b 79 09 3f f1 c6 11 3f
       0.550211 0.57273644 0.5370042 0.56944185
000010 e0 66 1a 3f ed d3 16 3f 0f 39 1b 3f 5b 5a 19 3f
       0.60313225 0.58917123 0.6063394 0.59903497
000020 ae 8e 06 3f b2 eb 1b 3f df 0c 1d 3f f7 ed 20 3f
       0.5256146 0.6090652 0.61347765 0.62863106
000030 59 fe 05 3f 3a af 24 3f 77 50 14 3f fc f1 16 3f
       0.5234123 0.64329875 0.5793528 0.5896299
000040 57 1b 0e 3f 40 bd 11 3f e5 f3 13 3f 36 e1 1a 3f
       0.5551047 0.569294 0.5779403 0.60499895
000050 88 98 19 3f 6e d3 09 3f 1d 6a 0b 3f 65 9a 13 3f
       0.5999837 0.5383824 0.5445879 0.5765746
000060 c2 03 0f 3f e0 8e 10 3f ac c5 05 3f ea b8 25 3f
       0.5586511 0.5646801 0.5225475 0.6473528
000070 b5 34 1b 3f 8f b0 12 3f 61 f8 17 3f 92 0d 18 3f
       0.606273 0.5730066 0.5936337 0.59395707
000080 09 5a 0e 3f 2c 01 0e 3f 2a 6b 19 3f 7e 6f 12 3f
       0.5560613 0.5547054 0.59929144 0.57201374
000090 73 24 1a 3f 76 6e 1b 3f 52 72 1d 3f 70 33 0e 3f
       0.6021187 0.60715425 0.61502564 0.5554724
0000a0 f6 5a 0c 3f 67 d9 19 3f fb cf 0f 3f e9 b1 19 3f
       0.54826295 0.60097355 0.5617673 0.60037094
0000b0 cf 08 1b 3f 8a 42 21 3f e4 8d 1e 3f db d3 1c 3f
       0.60560316 0.62992156 0.6193526 0.61260766

fc2.weight_v f4 [48, 96]
000000 80 50 32 bc 52 c9 1b bd 61 b0 63 bd c1 61 51 bd
       -0.0108834505 -0.03803379 -0.05558813 -0.051118616
000010 e0 03 3a bc 57 46 d0 bd f0 d2 e8 3c 88 77 9c 3c
       -0.011353463 -0.10169666 0.028420895 0.019099966
000020 72 a3 cb bd a8 dc 15 3d 68 93 f3 bc 88 a2 91 3d
       -0.09943284 0.036587387 -0.029733375 0.071110785
000030 fa 5b a2 3d 1c 6a 8f 3c e0 d6 1f bc 4a 42 8d bd
       0.079276994 0.017506652 -0.00975582 -0.06897409
000040 e0 bd ab 3b f0 ca 41 bc 23 09 b3 bd 10 66 c7 bd
       0.0052411407 -0.011828169 -0.08741977 -0.09736264
000050 44 8e a7 3c 60 11 81 3b a0 bd ad bb 38 3a 89 bc
       0.02045358 0.003938839 -0.005302146 -0.016751394
000060 6c b1 31 3d 30 ea ab 3b d8 a8 16 bc ae 8e 58 bd
       0.043382093 0.005246423 -0.009195529 -0.052870445
000070 cc 8e e7 bc 3c 2c 0e 3d 80 98 b0 3a b2 f1 8b 3d
       -0.028266333 0.034710154 0.0013473183 0.06833209
000080 a6 7d c6 3d 9c 35 00 bd 8c 15 90 3c df 9e c9 bd
       0.09691934 -0.031301126 0.0175884 -0.098447554
000090 7e c8 95 bd ff 05 c7 bd c4 75 83 bd 84 cf 81 3c
       -0.073136315 -0.097179405 -0.064189464 0.015846021
0000a0 6c 61 ab 3d d2 65 a3 3d a0 8f 57 bd 90 db e2 bb
       0.08368191 0.07978405 -0.052627206 -0.0069231465
0000b0 d8 dc ce 3c 04 33 a2 3d a8 b6 bb bc d0 6d 39 bd
       0.02525179 0.07919887 -0.022914246 -0.04527074
0000c0 f8 d5 ca bc 4c d1 30 3d 16 d2 be bd f4 4f 6d 3d
       -0.024760231 0.04316835 -0.093174145 0.057937577
0000d0 98 15 28 3d 97 e8 93 bd d0 5b a2 bc a4 ca 28 3d
       0.04103622 -0.07222097 -0.01981917 0.04120888
0000e0 34 3b 8f 3d 1c 77 b7 3d 18 27 ca bd 60 87 7b bb
       0.06993714 0.08958265 -0.09870738 -0.003838025
0000f0 e0 5e d0 bb 3f e3 ac bd bd ab 6f bd e1 bd be bd
       -0.006358966 -0.08441781 -0.05851339 -0.0931356
000100 70 bd cf bc 54 fb c7 bc 56 d2 9b bd 70 a2 97 bc
       -0.025358886 -0.024411835 -0.07608478 -0.018510073
000110 a6 92 ba 3d 74 0f 45 3d 04 40 91 bd 88 e5 47 3d
       0.09110002 0.04811044 -0.07092288 0.048802882
000120 68 c3 13 3c 40 ab 2f 3d 65 26 34 bd 5a cd 7a bd
       0.009018756 0.042887926 -0.04398193 -0.061230995
000130 1c 44 b6 3c b8 66 90 3d fc f2 29 3d b8 fa d5 3c
       0.022249274 0.07050842 0.041491494 0.026120529
000140 6c 4e 91 3d a4 28 ed bc 08 6d 81 bd 74 e9 b2 3d
       0.07095036 -0.028950043 -0.06319624 0.08735934
000150 96 c7 99 bd 08 57 9b bc ac 6f 0d 3d 78 30 29 3d
       -0.07508771 -0.018962398 0.034530327 0.04130599
000160 0c e3 66 3d d0 d8 dc 3c e3 55 a4 bd 94 96 79 3d
       0.056368873 0.026958853 -0.08024194 0.060934618
000170 66 53 24 bd b4 a4 67 3d 80 07 50 3d 98 3c a3 3d
       -0.040118597 0.056553558 0.050788403 0.07970542
000180 66 48 82 3d 2f 68 0b bd 3d a7 bf 3d 06 02 ae bd
       0.06361465 -0.034034904 0.0935807 -0.0849648
000190 ff 3d 58 3c 3b e4 2b bd d8 3a 8d bd 24 ba 83 3c
       0.013198375 -0.041965704 -0.06895989 0.01607997
0001a0 0b 94 a3 3d dc 98 fb bb a2 55 77 bc 22 b2 d9 bd
       0.07987221 -0.0076781344 -0.0150961 -0.10629679
0001b0 61 81 3e 3d ce 42 c6 bd 77 ed 8d 3d 47 0d 58 bd
       0.046510104 -0.09680711 0.069300584 -0.052747037
0001c0 38 22 1d bd e7 ed c4 3d 48 9c a0 bd d9 b1 84 bd
       -0.03836271 0.09615689 -0.07842308 -0.06479234
0001d0 df d4 97 3d 9d d2 85 bd f7 4c e5 bc 0a 35 45 bd
       0.07413649 -0.06534312 -0.027990801 -0.048146285
0001e0 13 49 19 3c b2 a4 29 bd b2 ec ef 3c 03 49 2a 3d
       0.009355801 -0.04141683 0.02928767 0.041573536
0001f0 89 62 7e bd 1c 1b 80 3d 66 0e 3c ba 63 f6 b5 3d
       -0.06210569 0.06255171 -0.00071737764 0.08884885
000200 ab 48 19 bc 95 d8 9a bd 95 3c 02 bd b9 16 bd 3c
       -0.009355704 -0.07560841 -0.031796057 0.023082124
000210 8e f1 5f bd d1 d7 35 3c 59 1a bb bc 34 85 1c bd
       -0.054673724 0.011098818 -0.022839712 -0.03821297
000220 67 65 17 bd 3f 98 a2 bd 0c 13 b2 3d 4c 32 6e 3d
       -0.03696194 -0.07939195 0.08695039 0.058153436
000230 9d 0c 1d 3c 2c 3b 07 3c 1f 0d 5c bd af 93 5b 3d
       0.009585527 0.008253854 -0.05372345 0.05360764
000240 68 e9 b3 3d 5f 56 89 3d b8 c7 7b bd 11 74 c2 3d
       0.08784753 0.06705927 -0.061469764 0.09494794
000250 18 79 7e 3c 66 27 9f bd ce 2d 68 3d 63 08 1a bd
       0.015531801 -0.077711865 0.056684308 -0.037605654
000260 b3 39 5e 3c 8f 2e 7e bd d2 61 11 3d bb 0e 6f bd
       0.013563561 -0.06205612 0.03549368 -0.058363657
000270 5b f9 64 bd 1a 9b 5c bd dc 95 85 bd d1 77 47 3d
       -0.055901866 -0.053858854 -0.06522724 0.04869825
000280 7c ba 89 3d a8 9d a8 3d ad fa 88 bd 9e 0c cf bc
       0.06725022 0.082331955 -0.066884376 -0.025274571
000290 45 5e 47 bd 58 1e c7 bd 6e 92 ae 3d 9d 41 d1 bd
       -0.048673887 -0.097225845 0.08524023 -0.10217593
0002a0 43 67 a9 bd b0 98 1b bd 15 cd 71 bb 2a ea 1b 3c
       -0.08271649 -0.03798741 -0.003689592 0.009516278
0002b0 a2 75 bf bd 73 57 d0 3d 23 58 9d 3d 3c ab 35 bd
       -0.093486086 0.101729296 0.07682826 -0.044352755
0002c0 6d fd cb bc 12 d2 b8 bb 16 f9 a1 3d ad 27 73 3d
       -0.024901116 -0.0056402767 0.079088375 0.05936401
0002d0 66 94 8a bd 75 fb f1 3c e0 ce 8c 3d 84 ce e8 bc
       -0.06766586 0.02953885 0.06875396 -0.028418787
0002e0 40 39 8f 3b a2 bf d2 3d 52 b5 67 3c fd 4f 41 3d
       0.0043708384 0.10290457 0.014142351 0.047195423
0002f0 27 40 b1 bd dc 94 03 bc 18 0f ec bc f4 18 59 bd
       -0.08654814 -0.008031096 -0.028815791 -0.053002313
000300 b5 98 d4 3b 43 4c 03 bd 81 3f ac 3c 2f 69 c8 3b
       0.0064879307 -0.03205515 0.021026375 0.0061160545
000310 bf 55 81 bc 76 d8 37 bb 2a f3 28 3b cf 5d 26 bd
       -0.015787957 -0.0028052605 0.0025779703 -0.040616807
000320 06 18 c8 bd 7e 6a a3 bc 37 28 ac bb 5e 7e e7 bc
       -0.09770207 -0.01994824 -0.0052538174 -0.028258499
000330 e0 9b b1 bd 42 22 a5 bd 47 13 73 bd 55 b2 95 3d
       -0.08672309 -0.08063175 -0.059344556 0.07309405
000340 3e 1e fc 3c 92 43 8f bd ad b3 fd bd 17 92 59 3d
       0.03077614 -0.0699531 -0.12387786 0.053117838
000350 48 13 9c 3d 4b 14 6c bc e4 97 40 3d 50 04 db 3c
       0.07620865 -0.014409135 0.047019854 0.026735455
000360 1a 53 1e 3d b3 c1 95 bb 0e c4 26 3c f8 0b fc 3b
       0.03865347 -0.00457021 0.010178579 0.0076918565
000370 85 71 e3 bb 2f 01 91 3c 5f 9f 95 3d dd c2 77 3d
       -0.006941023 0.01770076 0.07305788 0.06048857
000380 6e c1 b9 bd 88 e9 a9 bd 22 66 b4 bd bf 81 c4 3d
       -0.09070097 -0.08296496 -0.08808543 0.095950596
000390 37 d5 52 bc a6 07 66 3d b8 74 8e bd 52 ee bb 3d
       -0.012868217 0.056159638 -0.06955856 0.09176315
0003a0 ab 78 8b 3c fb c4 91 bc 82 a6 4c 3d 83 c5 71 3d
       0.017025312 -0.017794123 0.04996348 0.059026252
0003b0 7a a5 9d 3c 7f 5e 48 bd d0 06 04 bd 3c b7 07 3c
       0.019243944 -0.048918243 -0.03223306 0.008283433
0003c0 76 5d bd bd f3 11 1b 3d e1 a3 6f bd 26 21 22 3d
       -0.09246342 0.037858915 -0.058505896 0.039582394
0003d0 5e 0a c8 bb 60 4e 03 3d e5 68 63 bd a1 fc d7 bc
       -0.0061047515 0.032057166 -0.055519957 -0.02636558
0003e0 77 c5 92 bc de ba 32 3d cf 56 dc bc 98 75 af 3d
       -0.017916424 0.04363524 -0.026896862 0.08567351
0003f0 c1 43 ab 3d 6c b6 9f bc 7a e3 f6 ba e3 09 87 3c
       0.083625324 -0.019496165 -0.0018836104 0.016484207

fc3.bias f4 [24]
000000 fa 78 2c 3d ee 16 38 3e 81 88 14 be 22 f9 2d bd
       0.04210756 0.17977497 -0.14505197 -0.04247392
000010 bc 28 4e 3d c0 e4 7c bc c8 65 8d 3d c6 3a 0e be
       0.050331816 -0.015435398 0.06904179 -0.13889608
000020 7a 75 d3 3d 56 25 2a bd 34 b1 12 be 45 19 e5 3d
       0.10325141 -0.041539513 -0.1432541 0.111864604
000030 cd ed 30 bd 96 c0 43 3e df 23 30 be d6 73 1c 3e
       -0.043195534 0.19116434 -0.17201184 0.15278563
000040 29 88 fd bd 58 37 00 be f0 1e c1 3c 6b 53 2a 3e
       -0.12379486 -0.12521112 0.023574322 0.16633384
000050 05 e9 63 3d 5d 08 e8 bd b4 7a 91 bd a0 b6 fc 3c
       0.055642147 -0.1132972 -0.07103482 0.030848801

fc3.weight_g f4 [24, 1]
000000 ad 3d 21 3f 17 f0 1c 3f e3 28 13 3f 81 ae 13 3f
       0.62984735 0.6130385 0.57484263 0.57688147
000010 4c c0 18 3f f0 5c 0c 3f ac 98 19 3f 51 fd 22 3f
       0.5966842 0.5482931 0.59998584 0.6366778
000020 2e 9f 19 3f 0c f7 14 3f 27 26 1d 3f 32 13 17 3f
       0.60008514 0.58189464 0.6138634 0.59013665
000030 4c 75 24 3f d5 8f 09 3f 10 50 2e 3f f4 ef 14 3f
       0.6424148 0.53735095 0.68090916 0.5817864
000040 29 6d 2a 3f 88 93 25 3f 93 44 0f 3f 9a 5e 2a 3f
       0.66572815 0.6467824 0.5596401 0.665506
000050 a4 d0 32 3f 2d 0d 0e 3f bb 9c 13 3f 76 dd 28 3f
       0.6984961 0.55488855 0.57661027 0.6596292

fc3.weight_v f4 [24, 48]
000000 ba a4 62 3d b9 72 e8 3d ec fd 8c 3d 2a c8 35 bd
       0.055332877 0.113500066 0.06884369 -0.044380344
000010 70 10 a9 3c c3 5f fd bd 20 2d 1a bd d6 35 88 bd
       0.02063772 -0.12371781 -0.03764069 -0.066508934
000020 2b 0d d4 bc cd 1c b5 bd c8 e8 27 3d a7 26 09 be
       -0.025885185 -0.08843384 0.040993482 -0.13393651
000030 4f c2 04 bd 13 e6 ce bd 2d e2 96 bc c2 7f 7c 3d
       -0.03241187 -0.10102477 -0.018418396 0.061645277
000040 8a a3 eb bd 08 70 0a 00 e7 ae 97 bd f5 61 a9 3d
       -0.11505802 9.58544e-40 -0.07406407 0.08270637
000050 53 b8 d5 bd 41 07 d9 bc 70 64 a5 bd f5 ad f5 3d
       -0.10435548 -0.026492717 -0.080757976 0.1199607
000060 20 96 b4 3d 07 a6 2a bc e2 13 8a 3b 81 29 ac bd
       0.088176966 -0.010415561 0.004213796 -0.08406354
000070 4e a1 85 bd 96 5f 98 bd 71 96 af 3b 8f 67 97 bd
       -0.06524907 -0.074401066 0.00535851 -0.07392799
000080 40 61 4e bd 2c e3 05 3e 7c bc 09 3e 6a 3e 09 3e
       -0.050385714 0.1307494 0.13450807 0.13402715
000090 77 b4 e6 bd 24 ee 6a 3a fb 0e c4 3d 42 66 27 3d
       -0.1126489 0.00089618773 0.0957317 0.040869005
0000a0 e1 38 da bd fa 88 53 3d 5d 77 c2 bd 3a f2 c6 bd
       -0.1065538 0.051644303 -0.09495423 -0.0971417
0000b0 e7 87 47 bd 3b 9c 2a 3b de f5 8e bd b7 79 a9 bd
       -0.04871359 0.0026033062 -0.06980489 -0.082751684
0000c0 75 27 56 3d 60 64 31 3d 30 f4 e0 bd df 65 0f bd
       0.052283723 0.043308616 -0.10984075 -0.03500926
0000d0 cf 98 68 bd fa 35 f9 3d 13 4e 82 3d f3 b7 de 3b
       -0.056786355 0.12168498 0.06362548 0.006796831
0000e0 ec 6b f5 bd 53 46 07 be 60 c0 93 bc 97 77 ad bc
       -0.11983475 -0.1321042 -0.018036067 -0.021175189
0000f0 88 78 4e bd ed 11 c4 3c cb 62 83 39 f5 03 97 3b
       -0.050407916 0.023934329 0.00025059874 0.004608626
000100 14 9d 2b 3d ad 81 15 3d db 62 44 3d f6 99 9e 3d
       0.04189785 0.03650062 0.04794584 0.077442095
000110 21 76 1c 3d 2a 87 9d 3d 0d a9 9f bd 7a 68 cc 3d
       0.038198594 0.07691796 -0.07795916 0.09980865
000120 af d6 ae bd da 56 6b 80 28 06 ac bd a5 41 c4 3c
       -0.085370414 -9.857555e-39 -0.08399612 0.023957083
000130 cc b7 83 3c b6 ad e1 bd 07 40 fb 3d 2b 98 b9 bd
       0.016078852 -0.11019461 0.122680716 -0.09062227
000140 b7 54 96 bd 22 c9 5a bc ce ca e6 3d f3 82 ac bd
       -0.07340377 -0.013353618 0.11269151 -0.08423414
000150 57 58 2b 3e 38 29 54 3d a2 6d c4 bd 3d e8 8b 3d
       0.16732918 0.05179712 -0.09591223 0.06831405
000160 1d d7 26 be 91 00 67 bc 94 6e 77 3c 32 e2 90 3d
       -0.16292997 -0.014099256 0.0151020475 0.07074393
000170 69 84 0b 3b a8 3d 10 be 93 11 25 80 57 a4 5b 3c
       0.002128864 -0.1408602 -3.404218e-39 0.013405881
000180 b9 fa 9f 3d 0e f5 9d bd a9 20 10 bd 68 45 df bd
       0.078114934 -0.07712756 -0.035187397 -0.1090191
000190 2a 01 f5 bd a1 25 52 3d 8e 30 96 3c 8f 3a 06 be
       -0.11963113 0.051305417 0.0183337 -0.13108276
0001a0 92 40 d9 3d 13 4f 11 be 31 30 3e 3c c7 ab 1e bd
       0.10608019 -0.1419032 0.011608169 -0.03873804
0001b0 8b 77 c1 bc 6c b6 b8 3b 3a b6 8b 3d f9 e0 aa 3d
       -0.023616573 0.0056369808 0.06821866 0.083436914
0001c0 13 e2 ba 3d a3 66 7d 3d 7d 22 96 3d 1b 1e 12 be
       0.091251515 0.06186546 0.07330797 -0.14269297
0001d0 23 be 0e 3e cf c9 12 3e 1d 0f b1 3c 29 6d 98 3c
       0.13939719 0.14334796 0.021613652 0.01860674
0001e0 79 b7 b1 3d 08 db aa bd f2 67 85 3d 42 b5 25 3d
       0.08677573 -0.08342558 0.065139666 0.040456064
0001f0 b4 14 ac 3d 35 94 6a bd fe 61 18 be d2 f3 cb 3d
       0.08402386 -0.057270247 -0.14881131 0.099586144
000200 a9 3d 9c 3b 13 01 6f bd c5 8b 39 3d 16 3d 2d 3d
       0.0047680927 -0.058350634 0.04529931 0.042294584
000210 3a 32 f9 3d 8c b3 c3 3d c8 5d 4c 3c db 01 85 bd
       0.12167783 0.0955573 0.012473531 -0.064944945
000220 b1 2e 9e bd 77 f4 2a 3d c4 68 07 3d 54 e1 00 3e
       -0.077237494 0.041737046 0.033058897 0.12585956
000230 4f b5 74 38 fe b4 2c 3d 43 62 0c 3e 6e b5 97 bd
       5.834299e-05 0.042164795 0.13709359 -0.07407652
000240 63 97 37 bd 07 d1 6e b4 0a 6c fa bd d9 b4 48 3d
       -0.044822108 -2.2241521e-07 -0.12227638 0.049000595
000250 59 29 11 3d d5 f3 12 3e 46 0e ce bd ac 21 2b bc
       0.035439823 0.14350827 -0.10061316 -0.01044504
000260 d1 48 5e bd f0 31 17 bd 79 f2 95 bd 07 c9 51 3c
       -0.054268662 -0.03691286 -0.073216386 0.012804276
000270 16 64 ce 3d 71 7f a4 3d 22 0d cc bc 7a 29 84 3d
       0.10077684 0.0803212 -0.024908606 0.064532235
000280 7e 26 a5 bc 42 06 83 bc c6 8d e0 3d 03 d8 d3 3d
       -0.020159956 -0.015994195 0.10964541 0.10343935
000290 40 d3 28 3d 74 19 9e 8e 61 0b 96 bc 9d cf 31 bd
       0.04121709 -3.8974518e-30 -0.018315973 -0.043410886
0002a0 f3 d2 a3 bd 4e e2 89 3d 3a 63 8a 3d 6f a5 aa bd
       -0.0799922 0.06732617 0.06757207 -0.08332335
0002b0 d6 01 91 3d a5 1b 15 3d 8e da f5 bd cf 3e bf 3d
       0.07080428 0.036403317 -0.120045766 0.09338152
0002c0 18 fb 92 3c b8 6e 07 be 47 d1 fb 3d 9b f1 64 3d
       0.017941996 -0.1322583 0.12295776 0.055894475
0002d0 8c c9 1e be 06 3c 46 bd 3e c7 f2 3c 94 4b b1 bd
       -0.15506572 -0.048397087 0.029636022 -0.086569935
0002e0 05 06 e0 3d a0 45 89 3d 74 6e e1 bd 91 9c 67 3d
       0.10938648 0.06702733 -0.110073954 0.056545798
0002f0 37 7c 7c bd 1e 60 0e 3e 90 06 e9 3d e4 70 20 b6
       -0.061641898 0.13903853 0.11378205 -2.390757e-06
000300 f0 01 94 3d f3 45 fe bd c4 64 b0 bc 00 00 6f 36
       0.07226932 -0.124156855 -0.021532424 3.5613775e-06
000310 e0 6b ef 3d c0 c9 64 3b 20 db 3a 3d b0 12 be 3c
       0.116904974 0.0034910291 0.04561913 0.02320227
000320 54 56 46 3d a2 d2 b9 bd 3a 4d dd bd 80 3b af ba
       0.048422173 -0.09073378 -0.108057454 -0.0013369173
000330 94 88 9e bc eb 85 a5 bd 62 16 85 3d 42 3c 03 be
       -0.019352235 -0.080821835 0.0649841 -0.12815955
000340 04 47 dd bc 50 39 f5 bc 2a 80 8b bd e0 49 09 3e
       -0.027011402 -0.029934555 -0.06811555 0.13407087
000350 46 49 68 bd b8 8c a7 3d 60 45 b7 bd d2 c2 64 bd
       -0.056710504 0.08181137 -0.08948779 -0.055849858
000360 e8 cd f1 bd 00 db 31 3d f0 d3 a8 3c dc d2 c6 3d
       -0.118068516 0.043421745 0.020608872 0.09708187
000370 8f 29 b0 bd 60 20 07 3e 2c 43 ff bd f3 8b c4 bd
       -0.08601677 0.13195944 -0.12463984 -0.09597006
000380 dd f6 e6 bd 8c 70 fa bd 38 64 6f 3d de b2 11 be
       -0.11277554 -0.12228498 0.058445185 -0.14228389
000390 8e ab a4 3d 00 fb d9 3d 40 de d4 3c f2 02 0d be
       0.08040534 0.106435776 0.025984883 -0.13770655
0003a0 30 ea 79 bc fa 19 b0 3d c2 23 c7 bd f8 23 e8 3c
       -0.015253589 0.08598705 -0.09723617 0.028337464
0003b0 f6 e4 d5 bd 74 ae d0 bd 62 8f d7 3d f6 72 c5 3d
       -0.104440615 -0.10189524 0.10525395 0.09641068
0003c0 6f 74 fc bd 38 f1 88 bc 52 91 0c 3e 8b 49 02 be
       -0.123268954 -0.016716585 0.1372731 -0.12723367
0003d0 1c 4e 6f bd 81 08 94 bd 86 11 9c bd c0 a5 f2 bb
       -0.0584241 -0.072281845 -0.0762053 -0.007405013
0003e0 9c fc bc bc 0c 74 e1 bd 74 26 94 3d b8 2c fb 3c
       -0.023069672 -0.11008462 0.07233897 0.030660972
0003f0 f0 cd d3 3d 80 20 6f 3c 98 e1 2e 3d b1 86 0a be
       0.10342014 0.014595151 0.04269561 -0.13527943

fc4.weight f4 [2, 24]
000000 df 5a a1 3c 7f d3 06 bd e4 5f d3 3d d9 4b 59 3e
       0.019696651 -0.032916542 0.10321024 0.2122034
000010 08 0e 3b 3e 52 6e be bd 0e 19 0a 3d c7 76 5c bc
       0.18267071 -0.09298386 0.0337153 -0.013456053
000020 af 98 c0 bd 2a 6a 35 3d 39 10 4b be 4d fd 41 3e
       -0.09404122 0.0442907 -0.19830407 0.18944283
000030 d7 fd 96 3d 6e 34 4a be 3f 96 77 3e 56 dc 96 bd
       0.07372635 -0.19746563 0.24178408 -0.073662445
000040 ed 6a 31 3e 57 ee 7b 3d e3 c8 31 be fc 98 a5 bd
       0.17325945 0.061506595 -0.17361788 -0.0808582
000050 8f a8 25 3e 1b 6f c1 bc a3 5b c5 bc 58 37 05 3e
       0.16177581 -0.02361255 -0.024091547 0.13009393
000060 fd 41 65 be f3 00 ff 3d c7 30 f7 3d 4a e7 3c 3d
       -0.22388454 0.12451353 0.120698504 0.046119012
000070 8c 47 f6 3d e3 72 ff bd 09 f5 32 3e df 88 86 be
       0.12025365 -0.12473085 0.17476286 -0.262763
000080 4e c0 3d 3e 2d f7 e3 bd 1e b1 1c 3e 53 f4 40 be
       0.1853039 -0.111311294 0.1530194 -0.18843202
000090 48 b4 bd bc 10 55 d0 bd ad e7 4e 3e 9b 2b 51 be
       -0.023157254 -0.101724744 0.20205565 -0.2042679
0000a0 36 c0 a9 bd 83 65 10 be 0c 3b 20 be 00 44 32 3e
       -0.082886145 -0.14101224 -0.15647525 0.17408752
0000b0 7d 6d 71 3e 44 89 85 bd ec cf 4a be 1d 25 80 3c
       0.23576923 -0.06520322 -0.19805878 0.015642697

fc4.bias f4 [2]
000000 0f 95 09 3e cf 09 6a 3e
       0.13435768 0.22855304

exp_avg f4 [96]
000000 00 00 00 00 2f e2 6b b9 00 00 00 00 89 4c e7 39
       0.0 -0.00022495606 0.0 0.00044116777
000010 00 00 00 00 04 00 00 00 00 00 00 00 2a 69 9e 39
       0.0 6e-45 0.0 0.00030214462
000020 60 7d 8a 39 00 00 00 00 12 32 1c b7 09 55 c7 38
       0.00026414823 0.0 -9.3099825e-06 9.5048985e-05
000030 4a cd f7 39 2e e5 1e 39 c0 42 62 36 00 00 00 00
       0.00047264464 0.0001515343 3.3715478e-06 0.0
000040 88 72 08 34 00 00 00 00 36 6b a8 39 d8 0f a9 38
       1.2707653e-07 0.0 0.00032123335 8.061499e-05
000050 68 43 21 ba 3e 4d 73 3a 8e 0a 9f b9 1a da ff b5
       -0.0006151707 0.00092812243 -0.00030334707 -1.9062456e-06
000060 00 00 00 00 00 00 00 00 6c f1 e1 b7 00 00 00 00
       0.0 0.0 -2.6934511e-05 0.0
000070 50 fa d1 38 00 00 00 00 5f 1b af b9 b4 59 b0 b8
       0.00010012521 0.0 -0.00033398994 -8.4090425e-05
000080 95 f6 7d b7 72 80 a5 ba 41 ee 86 b8 00 00 00 00
       -1.5137387e-05 -0.0012626781 -6.433996e-05 0.0
000090 00 00 00 00 80 55 0f b7 78 a3 00 ba fe 6b 2c 39
       0.0 -8.543371e-06 -0.0004907171 0.00016443428
0000a0 d8 1f a9 b7 7b ab 39 3a 4e c4 86 39 a9 12 aa b8
       -2.0161198e-05 0.00070827425 0.0002570473 -8.1097074e-05
0000b0 b8 87 32 b9 00 00 00 00 86 bf b0 39 ec 71 8e b6
       -0.00017025962 0.0 0.00033712032 -4.245192e-06
0000c0 00 00 00 00 ce 61 11 b8 4c ea 7a b9 84 d2 c1 b5
       0.0 -3.466178e-05 -0.0002392914 -1.4440889e-06
0000d0 00 00 00 00 96 17 6e b9 f6 ad 83 39 00 00 00 00
       0.0 -0.00022706235 0.00025115878 0.0
0000e0 56 de af 39 41 a8 39 b9 42 eb 4d 38 41 74 d0 33
       0.00033544254 -0.00017705654 4.909491e-05 9.706901e-08
0000f0 7a e5 6f 37 00 00 00 00 00 00 00 00 b0 f6 bb b8
       1.4298939e-05 0.0 0.0 -8.962804e-05
000100 00 00 00 00 f6 53 b4 39 f6 df 76 b9 11 6a ce b8
       0.0 0.0003439483 -0.0002354382 -9.842602e-05
000110 8d d2 27 36 ee 43 7c b9 56 3f 93 39 30 a5 4a b7
       2.5007496e-06 -0.00024057899 0.00028085214 -1.2078599e-05
000120 00 00 00 00 00 00 00 00 4a 44 1b 39 5c d5 a9 3a
       0.0 0.0 0.00014807392 0.0012957263
000130 4e fc 97 b9 00 00 00 00 58 4e a7 b9 00 00 00 00
       -0.00028988946 0.0 -0.00031911093 0.0
000140 1a de 3d 35 00 00 00 00 07 86 b2 b8 00 00 00 00
       7.0731187e-07 0.0 -8.512666e-05 0.0
000150 e5 71 ab b8 00 00 00 00 54 b3 37 39 11 1d 08 39
       -8.17513e-05 0.0 0.00017519045 0.00012980799
000160 00 52 91 b4 00 00 00 00 22 dc c6 b8 40 59 ed b6
       -2.7068018e-07 0.0 -9.482379e-05 -7.0735405e-06
000170 e6 49 1f b9 00 00 00 00 00 00 00 00 7d 41 d4 b9
       -0.00015190951 0.0 0.0 -0.00040484584

exp_avg_sq f4 [96]
000000 00 00 00 00 d8 d3 2b 34 00 00 00 00 eb 0a 89 36
       0.0 1.6002684e-07 0.0 4.084189e-06
000010 00 00 00 00 28 c7 6c 28 00 00 00 00 92 8c de 35
       0.0 1.3143817e-14 0.0 1.65812e-06
000020 52 24 6a 34 00 00 00 00 94 90 54 33 5c 44 cb 33
       2.1806161e-07 0.0 4.949159e-08 9.4653586e-08
000030 73 7b 62 35 06 fd 54 35 ba 3f c9 36 00 00 00 00
       8.4371203e-07 7.934435e-07 5.9976855e-06 0.0
000040 58 e2 4c 2e 00 00 00 00 90 8b a6 36 89 f5 3c 36
       4.6585263e-11 0.0 4.9634327e-06 2.8157103e-06
000050 7d 4c 3d 37 89 fb 91 37 43 8f 10 35 4c 46 e2 2f
       1.1283087e-05 1.7402477e-05 5.3852654e-07 4.115911e-10
000060 00 00 00 00 00 00 00 00 8e 04 9c 34 00 00 00 00
       0.0 0.0 2.9060578e-07 0.0
000070 b7 7a f8 34 00 00 00 00 a4 13 f7 34 b1 b2 9d 36
       4.6282887e-07 0.0 4.6021626e-07 4.699767e-06
000080 0e aa 57 32 c5 6b 1e 37 e1 92 ce 31 00 00 00 00
       1.2553313e-08 9.442626e-06 6.0120873e-09 0.0
000090 00 00 00 00 2c f2 0b 31 3c 1c 57 37 77 1e d0 35
       0.0 2.036482e-09 1.2821572e-05 1.5506074e-06
0000a0 65 5c e2 31 24 7d ac 37 d8 68 85 35 17 40 72 34
       6.5879697e-09 2.0562271e-05 9.939786e-07 2.2561322e-07
0000b0 81 30 97 34 00 00 00 00 9b 81 2f 36 c1 44 b3 34
       2.8161233e-07 0.0 2.6152472e-06 3.3391373e-07
0000c0 00 00 00 00 eb dc fd 35 bd 70 68 35 4a aa 3a 2e
       0.0 1.8914265e-06 8.659079e-07 4.244275e-11
0000d0 00 00 00 00 39 ff 07 34 b9 55 7d 34 00 00 00 00
       0.0 1.2665704e-07 2.3593647e-07 0.0
0000e0 08 23 15 35 dd 5e a7 36 49 c2 6a 36 3f dc e3 2e
       5.55578e-07 4.9880314e-06 3.4981806e-06 1.03618884e-10
0000f0 b8 80 31 35 00 00 00 00 00 00 00 00 7e 6e 70 37
       6.612495e-07 0.0 0.0 1.4330841e-05
000100 00 00 00 00 66 70 2b 36 d5 af 4c 34 49 1e c2 33
       0.0 2.554641e-06 1.9062948e-07 9.039338e-08
000110 84 f3 82 31 2d 5e a0 36 b9 b9 42 37 f1 af 4c 35
       3.8111825e-09 4.779335e-06 1.1606543e-05 7.625195e-07
000120 00 00 00 00 00 00 00 00 83 43 31 35 c6 b1 be 37
       0.0 0.0 6.603588e-07 2.2732547e-05
000130 89 67 1f 36 00 00 00 00 28 ef 90 34 00 00 00 00
       2.3753112e-06 0.0 2.69961e-07 0.0
000140 0a 65 c8 2d 00 00 00 00 46 13 fd 34 00 00 00 00
       2.2782238e-11 0.0 4.7138946e-07 0.0
000150 74 6a 15 36 00 00 00 00 f2 c5 eb 35 e3 60 d2 35
       2.2264694e-06 0.0 1.7566474e-06 1.5674417e-06
000160 62 68 74 35 00 00 00 00 83 13 c0 34 0a 51 ea 36
       9.104898e-07 0.0 3.5776984e-07 6.9831776e-06
000170 7c 93 a3 36 00 00 00 00 00 00 00 00 80 70 00 36
       4.874948e-06 0.0 0.0 1.913897e-06

exp_avg f4 [96, 1]
000000 00 00 00 00 58 dd 46 bb 00 00 00 00 ae 86 f3 ba
       0.0 -0.0030344333 0.0 -0.0018579566
000010 00 00 00 00 04 00 00 80 00 00 00 00 9e 70 1c 3a
       0.0 -6e-45 0.0 0.0005967709
000020 d9 53 57 3b 00 00 00 00 7c 61 4f b9 80 88 9c 39
       0.0032856374 0.0 -0.00019777374 0.0002985634
000030 c5 f0 49 3b 16 cc e2 3a d0 5e c1 3a 00 00 00 00
       0.0030813676 0.0017303254 0.0014752988 0.0
000040 80 b9 5b b3 00 00 00 00 40 16 01 3a 12 6a 27 ba
       -5.1158622e-08 0.0 0.0004924275 -0.000638635
000050 f6 ee 3b 3a b0 71 86 b9 f2 bd fa ba 98 82 ec b6
       0.0007169092 -0.00025643175 -0.0019130094 -7.048551e-06
000060 00 00 00 00 00 00 00 00 49 f1 c0 b9 00 00 00 00
       0.0 0.0 -0.00036800865 0.0
000070 42 df b8 39 00 00 00 00 e7 fb db ba 39 59 f8 3a
       0.00035261555 0.0 -0.0016783447 0.0018947489
000080 66 5a ec b7 8c 14 60 b9 7c 40 70 b8 00 00 00 00
       -2.8175487e-05 -0.00021369959 -5.7280515e-05 0.0
000090 00 00 00 00 00 c6 f7 b7 1b 06 51 3b a6 44 ab b9
       0.0 -2.9536895e-05 0.0031894508 -0.0003266681
0000a0 9a 1c 0b b8 da cd c6 b9 2b c1 18 ba 32 87 16 3a
       -3.316682e-05 -0.00037918874 -0.0005827124 0.00057421916
0000b0 9c 54 d3 ba 00 00 00 00 39 dc ba ba cc 2f 18 bb
       -0.0016123238 0.0 -0.0014256305 -0.0023221849
0000c0 00 00 00 00 9a 39 93 bb 40 4c 3d b8 04 09 73 34
       0.0 -0.0044929506 -4.5132125e-05 2.2634418e-07
0000d0 00 00 00 00 ee b0 a4 ba 23 8c 04 3b 00 00 00 00
       0.0 -0.0012564936 0.002022513 0.0
0000e0 d4 65 d6 3a 96 5e 68 3b 18 75 bc 39 c1 1f 5c 35
       0.0016357251 0.0035456768 0.00035945396 8.2002595e-07
0000f0 94 49 43 bb 00 00 00 00 00 00 00 00 26 4b 32 3b
       -0.0029798495 0.0 0.0 0.0027205436
000100 00 00 00 00 31 17 f3 b9 e7 c1 79 bb b8 f1 b1 b8
       0.0 -0.0004636585 -0.003810996 -8.485041e-05
000110 ea 16 04 35 35 fa 86 3b 9e 7b 57 bc 5a 25 72 3b
       4.9207176e-07 0.0041191825 -0.013152031 0.0036948533
000120 00 00 00 00 00 00 00 00 e5 b9 ec ba c4 75 13 39
       0.0 0.0 -0.0018060772 0.00014062884
000130 c2 fd 8d b9 00 00 00 00 d8 cb 37 bb 00 00 00 00
       -0.0002708268 0.0 -0.0028045084 0.0
000140 d8 51 39 34 00 00 00 00 60 0c 06 3a 00 00 00 00
       1.7259242e-07 0.0 0.00051135384 0.0
000150 89 6c 06 bc 00 00 00 00 78 73 12 bb 16 82 98 bb
       -0.008204588 0.0 -0.0022346657 -0.0046541793
000160 3b 58 4e 3a 00 00 00 00 8a 12 4e bb d3 2c 0d 3c
       0.0007871424 0.0 -0.0031444156 0.008616644
000170 f3 ff 84 3b 00 00 00 00 00 00 00 00 80 4b 06 bb
       0.004058832 0.0 0.0 -0.002049178

exp_avg_sq f4 [96, 1]
000000 00 00 00 00 f0 45 0a 38 00 00 00 00 f8 93 47 39
       0.0 3.29669e-05 0.0 0.00019033242
000010 00 00 00 00 2a 62 a0 26 00 00 00 00 17 01 42 36
       0.0 1.1128838e-15 0.0 2.8908887e-06
000020 e3 b0 19 38 00 00 00 00 70 15 2f 35 6a 96 e9 35
       3.664278e-05 0.0 6.5223776e-07 1.7403629e-06
000030 c5 44 03 39 2e ab 72 37 92 e3 f2 36 00 00 00 00
       0.00012518752 1.446418e-05 7.2386547e-06 0.0
000040 3a 71 f8 2d 00 00 00 00 2d 2a 6f 36 63 cf 80 38
       2.8244618e-11 0.0 3.5638325e-06 6.1421444e-05
000050 7f 1a e4 39 4a 07 26 39 1b 05 89 38 41 7e 57 31
       0.0004350729 0.00015833709 6.53362e-05 3.1358385e-09
000060 00 00 00 00 00 00 00 00 03 05 85 38 00 00 00 00
       0.0 0.0 6.342868e-05 0.0
000070 d5 94 01 36 00 00 00 00 51 76 98 36 06 02 06 38
       1.930913e-06 0.0 4.543727e-06 3.1949974e-05
000080 84 99 d9 32 ce 4e e7 37 86 ab b7 31 00 00 00 00
       2.5331936e-08 2.7574042e-05 5.345501e-09 0.0
000090 00 00 00 00 cc 91 e8 32 47 da 64 3a f3 d0 9b 38
       0.0 2.7074655e-08 0.00087300356 7.429896e-05
0000a0 65 4c bd 32 fc 9a a7 38 d0 29 ba 38 98 62 e4 37
       2.2037236e-08 7.9920486e-05 8.876959e-05 2.722563e-05
0000b0 4a 9f c0 37 00 00 00 00 33 11 dc 39 00 db 88 38
       2.2962358e-05 0.0 0.00041974484 6.525777e-05
0000c0 00 00 00 00 91 2d 05 39 ef c2 53 38 48 b6 7b 2c
       0.0 0.00012700843 5.0487866e-05 3.5770432e-12
0000d0 00 00 00 00 cb 15 25 37 7c e7 1b 38 00 00 00 00
       0.0 9.8398405e-06 3.7170466e-05 0.0
0000e0 e5 90 f5 38 98 23 41 39 d8 37 53 36 d5 8d 51 2f
       0.00011709499 0.00018419174 3.1473955e-06 1.9058828e-10
0000f0 dd c9 54 39 00 00 00 00 00 00 00 00 f6 a5 9e 37
       0.00020293095 0.0 0.0 1.891235e-05
000100 00 00 00 00 d6 2d 1d 39 40 04 48 38 65 c5 66 34
       0.0 0.00014989762 4.7687674e-05 2.1492231e-07
000110 bb 92 7a 31 dc 71 41 3a 5d c8 3f 3b ce 74 bd 38
       3.6463195e-09 0.0007379332 0.0029263713 9.033979e-05
000120 00 00 00 00 00 00 00 00 8b 1a 41 39 8a c4 0c 38
       0.0 0.0 0.00018415802 3.3561642e-05
000130 a8 3d 03 38 00 00 00 00 f0 e3 ec 37 00 00 00 00
       3.1290256e-05 0.0 2.8239534e-05 0.0
000140 a1 14 4e 2d 00 00 00 00 52 68 83 38 00 00 00 00
       1.1714325e-11 0.0 6.265998e-05 0.0
000150 df ee 18 3a 00 00 00 00 f5 e4 6c 39 d8 f2 76 39
       0.00058339344 0.0 0.00022592007 0.00023550855
000160 84 ff 07 37 00 00 00 00 82 54 d2 37 62 67 91 3a
       8.106119e-06 0.0 2.5073303e-05 0.0011093433
000170 17 cb ac 39 00 00 00 00 00 00 00 00 14 eb b3 39
       0.0003295771 0.0 0.0 0.00034316687

exp_avg f4 [96, 3]
000000 00 00 00 00 00 00 00 00 00 00 00 00 b9 f1 98 ba
       0.0 0.0 0.0 -0.0011668719
000010 ba cb 47 3a 3a 8b 13 ba 00 00 00 00 00 00 00 00
       0.0007621605 -0.00056283514 0.0 0.0
000020 00 00 00 00 db 8d 33 bb 04 45 b9 b9 4e 60 9c 3a
       0.0 -0.0027397785 -0.0003533737 0.0011930557
000030 00 00 00 00 00 00 00 00 00 00 00 00 04 00 00 00
       0.0 0.0 0.0 6e-45
000040 04 00 00 00 04 00 00 00 00 00 00 00 00 00 00 00
       6e-45 6e-45 0.0 0.0
000050 00 00 00 00 2d 3c f8 3b f5 9c 82 3b 88 50 ef b9
       0.0 0.007575533 0.003985996 -0.00045645633
000060 9d a2 48 3b b2 08 83 ba da db 3d ba 00 00 00 00
       0.0030614503 -0.0009997098 -0.0007242538 0.0
000070 00 00 00 00 00 00 00 00 5c a5 7e ba 7b cd ca b9
       0.0 0.0 -0.00097139715 -0.00038681537
000080 0c 3e 1a 38 f0 af 54 3a 48 f8 80 39 bc 4e 1b 39
       3.6774247e-05 0.0008113375 0.00024599046 0.00014811283
000090 5c a0 0b 3b d2 37 72 3b 58 c2 ad ba a3 96 cd 3b
       0.0021305298 0.003695954 -0.0013256771 0.006274061
0000a0 c8 a6 e4 3a d7 81 88 3a ad e0 00 3c e4 49 9c 3b
       0.0017444724 0.0010414672 0.007866067 0.0047695506
0000b0 13 6e d1 ba 00 00 00 00 00 00 00 00 00 00 00 00
       -0.0015978239 0.0 0.0 0.0
0000c0 3b 2b af 36 56 69 e5 36 40 81 c7 32 00 00 00 00
       5.220439e-06 6.8369945e-06 2.3225425e-08 0.0
0000d0 00 00 00 00 00 00 00 00 fa 83 8a 3b 9b 67 e1 3a
       0.0 0.0 0.0042271586 0.0017197015
0000e0 2e 8e 9f b9 e8 74 87 bb 07 7f 3f bb cc e8 0b 3a
       -0.00030432775 -0.0041338094 -0.0029220001 0.00053371186
0000f0 80 7a 10 3b 37 d1 17 3b 7c 3b 36 3a 47 1e 88 bb
       0.0022045672 0.0023165473 0.0006951613 -0.004154
000100 a1 0c 31 bb 68 e9 bb 39 1a 73 ce ba 89 52 b8 ba
       -0.0027015584 0.0003584132 -0.0015750856 -0.0014062683
000110 74 9e b8 ba dc a3 54 b7 f6 48 3f b7 c8 6f 59 b5
       -0.0014085309 -1.2674336e-05 -1.1401475e-05 -8.100146e-07
000120 00 00 00 00 00 00 00 00 00 00 00 00 00 00 00 00
       0.0 0.0 0.0 0.0
000130 00 00 00 00 00 00 00 00 18 7f 8f b8 32 f2 16 38
       0.0 0.0 -6.8424444e-05 3.598835e-05
000140 2b ce e3 b8 00 00 00 00 00 00 00 00 00 00 00 00
       -0.00010862605 0.0 0.0 0.0
000150 68 db 3b 3b d5 86 c3 3a 3f 3f b2 b9 00 00 00 00
       0.0028664712 0.0014917502 -0.00033997928 0.0
000160 00 00 00 00 00 00 00 00 b7 dc fb bb a2 00 48 bb
       0.0 0.0 -0.0076862234 -0.0030517955
000170 82 82 b5 ba 8a 03 92 3b 42 f0 ef 3a 17 52 83 3a
       -0.0013848098 0.0044559883 0.0018305855 0.0010018972
000180 7c 73 84 b9 9e 7b 65 b9 10 7c 49 b7 92 ff b6 bb
       -0.00025263045 -0.00021885193 -1.2009419e-05 -0.0055846656
000190 c8 00 be ba a0 75 b7 b9 fd 8b 7e ba 7d cb 3d ba
       -0.0014496082 -0.00034992117 -0.0009710191 -0.00072401
0001a0 74 f7 23 b7 00 00 00 00 00 00 00 00 00 00 00 00
       -9.773172e-06 0.0 0.0 0.0
0001b0 00 00 00 00 00 00 00 00 00 00 00 00 04 47 b1 b8
       0.0 0.0 0.0 -8.4532454e-05
0001c0 dc c8 7b b8 0a 64 a1 36 3c f9 a0 3b 04 10 93 3b
       -6.003013e-05 4.80982e-06 0.0049125236 0.004487993
0001d0 98 ff 1b 3b 6d 48 a9 ba 0c 1d a8 ba 9e e3 39 39
       0.0023803469 -0.0012915261 -0.001282604 0.00017727769
0001e0 ba e7 2e b9 75 63 21 b9 7d fd 0e b7 09 a4 0a bc
       -0.00016680258 -0.00015391207 -8.522879e-06 -0.008461961
0001f0 55 be c6 bb aa 70 02 3a e4 f8 0d ba fc 85 9e 38
       -0.00606517 0.00049758947 -0.0005415811 7.5589836e-05
000200 51 2b 92 39 ef 28 25 3a 01 4d 95 38 6f 8f d8 b9
       0.00027879563 0.000630035 7.119217e-05 -0.00041305597
000210 4a 56 e3 ba ee 7a eb b9 c5 e1 9f ba 00 00 00 00
       -0.0017344442 -0.00044914283 -0.0012198022 0.0
000220 00 00 00 00 00 00 00 00 20 c2 2c ba 80 cf ec 38
       0.0 0.0 -0.0006590206 0.00011292007
000230 7c b6 22 ba d4 bf 46 ba 4b 28 4b ba cc dc b3 ba
       -0.0006207002 -0.0007581685 -0.00077498396 -0.0013722419
000240 00 00 00 00 00 00 00 00 00 00 00 00 4a e4 b5 bb
       0.0 0.0 0.0 -0.005550896
000250 f4 b7 be bb 16 16 2d bb a0 62 95 39 51 cd c5 39
       -0.0058202688 -0.002641087 0.00028492976 0.0003772774
000260 a0 30 dd 37 dc 79 ff b6 ac 72 50 b7 df 10 3a 34
       2.6367896e-05 -7.6137785e-06 -1.2424465e-05 1.7328738e-07
000270 00 00 00 00 00 00 00 00 00 00 00 00 81 4e c4 ba
       0.0 0.0 0.0 -0.0014977009
000280 7e 1d 8e ba 63 37 86 ba ee 65 4e 3a 5f 16 0a 3b
       -0.001084253 -0.0010239895 0.0007873465 0.0021070463
000290 66 01 08 b9 00 00 00 00 00 00 00 00 00 00 00 00
       -0.00012970492 0.0 0.0 0.0
0002a0 89 cc c6 39 f5 d8 3a 3a 17 c1 54 ba 11 8a e0 3b
       0.00037917893 0.0007127666 -0.0008115931 0.0068523963
0002b0 3e 30 2d 3b 48 41 41 3b 37 2c 73 3b 0a 23 e7 3a
       0.002642646 0.0029488374 0.0037105212 0.0017634344
0002c0 80 51 3a 38 fa 29 ce 35 8b 35 29 36 a0 4b b9 34
       4.442176e-05 1.5360413e-06 2.5214129e-06 3.451396e-07
0002d0 26 53 79 38 9a 56 24 ba a9 06 1f ba 00 00 00 00
       5.9443664e-05 -0.0006269008 -0.0006066361 0.0
0002e0 00 00 00 00 00 00 00 00 00 00 00 00 00 00 00 00
       0.0 0.0 0.0 0.0
0002f0 00 00 00 00 28 b3 07 3c f7 08 97 3b 4e 62 9e 3a
       0.0 0.00828246 0.004609223 0.001208374
000300 00 00 00 00 00 00 00 00 00 00 00 00 98 5e 13 ba
       0.0 0.0 0.0 -0.00056217005
000310 a4 2c 79 b9 c0 0b ce 39 7e ec 65 b9 08 77 1d bb
       -0.0002376312 0.00039300136 -0.00021927242 -0.0024027247
000320 34 71 2d ba 10 96 3b b9 54 1c 62 37 f8 fc 32 38
       -0.0006616295 -0.00017889612 1.3477245e-05 4.2674103e-05
000330 1e 21 c3 37 87 97 20 38 f4 88 40 b7 3c b5 0d 3b
       2.3261233e-05 3.8288093e-05 -1.1475979e-05 0.0021622917
000340 ce d3 90 3b e6 0f 87 3a d3 c1 19 bb 4c 58 f6 3a
       0.0044197803 0.0010304421 -0.0023461476 0.0018794625
000350 1f 34 2f bb 7e cc 2b 3b c3 fc 0e 3b 3e 6e 39 bb
       -0.0026733947 0.0026214416 0.0021818138 -0.002829447
000360 00 00 00 00 00 00 00 00 00 00 00 00 00 00 00 00
       0.0 0.0 0.0 0.0
000370 00 00 00 00 00 00 00 00 30 97 58 38 bc 15 1e b9
       0.0 0.0 5.1639217e-05 -0.00015076151
000380 a2 8e 80 39 79 af 6c 3b d8 6f d7 39 32 87 a6 b9
       0.00024520332 0.0036115332 0.00041091326 -0.00031762716
000390 66 39 84 3a ec 8d 00 3a 40 8d 8c b6 00 00 00 00
       0.0010087907 0.00049039605 -4.188769e-06 0.0
0003a0 00 00 00 00 00 00 00 00 e5 b7 29 bb 17 d2 81 bb
       0.0 0.0 -0.0025896963 -0.0039618122
0003b0 a5 00 15 3a 00 00 00 00 00 00 00 00 00 00 00 00
       0.0005683995 0.0 0.0 0.0
0003c0 6f 3e 81 36 a3 39 d5 36 f8 04 db ae 00 00 00 00
       3.851768e-06 6.3546045e-06 -9.9598496e-11 0.0
0003d0 00 00 00 00 00 00 00 00 98 05 a1 39 ad 92 e2 39
       0.0 0.0 0.0003071248 0.0004321536
0003e0 ba 22 bd b9 00 00 00 00 00 00 00 00 00 00 00 00
       -0.00036074762 0.0 0.0 0.0
0003f0 eb 53 d0 ba a4 93 da 3a dd 41 08 ba 00 00 00 00
       -0.001589415 0.001667608 -0.00051978027 0.0
