Experimental_Models/Full_Model_Weight_Nrom_v1.0.pt (torch_old, 28194 bytes, 12 tensors)

fc1.bias f4 [96]
000000 1a d4 00 bf 10 6d 02 bf a0 1a 31 bd 14 85 a7 3e
       -0.5032364 -0.50947666 -0.043238282 0.32718718
000010 70 5f de 3e ec b8 95 be 5d e5 a6 be 14 2c 79 be
       0.43432188 -0.29242647 -0.32596865 -0.2433322
000020 9c 4e 83 3e f8 03 06 3f 72 d7 b4 3e 82 05 b5 3e
       0.25645912 0.52349806 0.35320622 0.35355765
000030 c6 2e 94 3e c1 1d 03 bf 0f fc 89 be 38 b7 9a 3e
       0.28941935 -0.51217276 -0.26950118 0.3021791
000040 94 1d d9 3e e8 b5 cf be a4 78 5b be 18 0b f0 3d
       0.4240538 -0.4056847 -0.2143274 0.11720866
000050 3c 87 a5 bd 80 48 48 bc ce 32 ec be 6e 04 39 be
       -0.080824345 -0.012224317 -0.4613251 -0.18068096
000060 ed ce fb be 7a da d1 3e 4a 78 c0 3e de d2 07 3f
       -0.4918131 0.40986997 0.37591773 0.5305613
000070 fa 7b 01 bf 07 57 8a be a8 4a 1a 3e a5 61 96 be
       -0.505798 -0.27019522 0.15067542 -0.29371372
000080 40 12 58 bc 98 b9 79 be 00 32 03 bd 20 c0 a5 3c
       -0.013187945 -0.24387205 -0.032030106 0.020233214
000090 63 c4 85 be 30 0f 2c 3d ba ac 94 3e 64 b4 09 be
       -0.26126394 0.04200667 0.2903803 -0.1344772
0000a0 c4 95 70 3e fd 3a 99 be cc 4e cb 3e dc be 56 be
       0.23494631 -0.29927817 0.39708555 -0.20971245
0000b0 44 49 63 3e 1c fd 0f bf ca 54 07 3f cc 23 07 3f
       0.22195917 -0.5624559 0.5286375 0.52788997
0000c0 76 55 ab be 00 a7 be 3d 7c 57 c8 3e 39 6e 91 be
       -0.3346364 0.093091965 0.39129245 -0.28404406
0000d0 0c df f7 3e 10 11 f6 3e 58 95 ce 3d d5 f5 86 be
       0.4841236 0.48059893 0.10087079 -0.2635943
0000e0 29 33 03 bf 42 44 6e be 40 27 dd 3c 58 69 d2 3d
       -0.5124994 -0.23268226 0.026996255 0.10273999
0000f0 ac fa b1 3e 20 e7 59 3d 60 b1 4f 3e 0f e6 e8 be
       0.3476156 0.053198934 0.20282507 -0.4548802
000100 08 1c f7 3e b0 d9 33 3d 0c 72 3e 3e 9f 9f 02 bf
       0.48263574 0.043908775 0.18598193 -0.5102481
000110 50 dc d9 3d 70 49 17 3d bc bd fc 3e 10 4f a6 be
       0.106377244 0.03693527 0.49363506 -0.32482195
000120 38 d8 e4 be 08 61 ed bd 60 f1 59 3d 84 5d 1e be
       -0.44696212 -0.11590773 0.05320871 -0.15465361
000130 c5 9c cb be 30 9c fd 3e 2b 64 0a bf f0 34 13 bf
       -0.39768043 0.49533224 -0.54059094 -0.5750265
000140 e2 f6 0c 3f 2f 41 bb be 24 1c 18 3e 25 18 86 be
       0.55064213 -0.3657317 0.14854485 -0.26190296
000150 b2 eb 07 3f 0e 09 05 3f 40 5e 79 3d b2 02 c9 3e
       0.5309402 0.5196694 0.0608809 0.3925987
000160 80 24 bf bb 18 16 59 be 98 a7 f8 3e 7c 7e 9c 3e
       -0.0058332086 -0.21199834 0.48565364 0.3056525
000170 e0 30 bd 3e ca cf 12 be 6c 3e dd 3e 40 a9 65 3e
       0.3695135 -0.14337078 0.43211687 0.22427845

fc1.weight_g f4 [96, 1]
000000 c8 48 ae 3e a7 f0 f9 3e 46 ba 08 3f ea 17 e1 3e
       0.34039903 0.48816416 0.5340923 0.43963557
000010 53 fa b8 3e 0f 06 cf 3e 9e 6d 03 3f 23 b4 f5 3e
       0.36128482 0.4043431 0.5133914 0.47988996
000020 ba 4b 01 3f 1e 31 1b 3f 17 02 0a 3f 3a 0a 3c 3f
       0.50506175 0.6062182 0.5390944 0.73453104
000030 80 4e 1e 3f 23 6a 0a 3f 2f 67 43 3f 9f 82 cf 3e
       0.6183853 0.540682 0.7632932 0.40529343
000040 dd 5f 59 3f 0b 7f 58 3f cc 90 f6 3e f8 18 26 3f
       0.849119 0.8456885 0.48157346 0.6488185
000050 d4 49 dc 3e c0 62 dd 3e 2d e3 ca 3e 6c 9d 3f 3f
       0.43025076 0.43239403 0.39626446 0.7484958
000060 5a ce 62 3f 9a fb 2d 3f f8 ca 57 3f b8 c8 3f 3f
       0.8859612 0.6796204 0.8429408 0.7491565
000070 07 4e f7 3e fa 57 25 3f e8 8f 4f 3f d7 b4 d5 3e
       0.48301718 0.64587367 0.8107896 0.41739532
000080 96 55 8b 3e bd f8 36 3f 6d 39 27 3f 5b 2b 59 3f
       0.27213734 0.71473294 0.65322 0.8483178
000090 4e be 02 3f 98 31 d6 3e 4a e2 3e 3f f4 81 ee 3e
       0.5107163 0.41834712 0.7456404 0.4658352
0000a0 61 da 23 3f a0 0e 18 3f 2c 74 16 3f 00 b9 25 3f
       0.64005095 0.59397316 0.58771014 0.6473541
0000b0 64 e4 2a 3f cb af 32 3f 7c 9d 1b 3f 34 e9 cc 3e
       0.66754746 0.6979949 0.6078718 0.4002167
0000c0 fa 5a c6 3e 00 ef f8 3e 38 49 3f 3f 8c 52 1f 3f
       0.38741285 0.48619843 0.747211 0.6223533
0000d0 7c c2 2c 3f 9f 46 17 3f 97 fa 2e 3f 00 19 2a 3f
       0.6748426 0.59092134 0.6835112 0.66444397
0000e0 9b 72 02 3f ec 78 3a 3f dc 6f 04 3f 27 29 8b 3e
       0.50956124 0.7284076 0.51733184 0.27179834
0000f0 fe c6 fd 3e 41 3b db 3e f2 69 09 3f 0b 0a 24 3f
       0.49565881 0.42818645 0.53677285 0.64077824
000100 46 74 26 3f 61 9f 11 3f 69 4d 02 3f 48 70 5a 3f
       0.6502117 0.5688382 0.5089937 0.8532758
000110 a9 53 20 3f c8 de 36 3f ac ff 0d 3f 29 99 38 3f
       0.62627655 0.7143369 0.5546825 0.72108704
000120 de 4a 1d 3f e5 f2 11 3f 37 aa d9 3d 32 83 0b 3f
       0.61442363 0.5701125 0.10628169 0.54497063
000130 e8 42 1a 3f be c3 40 3f f8 ce 1e 3f 13 c6 26 3f
       0.6025834 0.7529868 0.6203456 0.6514599
000140 d0 fb 09 3f 45 2a 3f 3f 12 b4 1c 3f fb 2d 27 3f
       0.5389986 0.74673873 0.61212265 0.65304536
000150 1e ea 26 3f 90 bc f4 3e be f3 3f 3f da 93 38 3f
       0.65200984 0.47800112 0.74981296 0.72100604
000160 66 dd 08 3f f8 ff 32 3f ce 8b a7 3e e6 82 4c 3e
       0.5346283 0.6992183 0.3272385 0.19971809
000170 85 cd 4c 3f 54 ea ee 3e a1 41 0d 3f 1a cd 08 3f
       0.800011 0.46663153 0.55178267 0.5343796

fc1.weight_v f4 [96, 3]
000000 c5 df a6 be 44 e9 b6 bd 90 3d 27 3d f8 53 8f 3e
       -0.32592598 -0.08931211 0.040830195 0.2799375
000010 de 67 b8 be d8 01 32 3e 55 6b c9 be 8e 14 08 be
       -0.36016744 0.17383516 -0.393397 -0.13289091
000020 fa fb ab 3e a4 22 7e 3e e0 eb 78 3e 61 f3 89 be
       0.3359068 0.24817902 0.24308729 -0.26943496
000030 94 52 cf bd b4 73 63 3e ba 5e 88 3e 70 48 c8 3e
       -0.101231724 0.22212106 0.2663477 0.39117765
000040 00 6f c2 3d c0 83 1c 3d 70 30 ac 3d d8 c8 00 3f
       0.09493828 0.038211584 0.08407676 0.50306463
000050 30 cf 6f 3d 78 ac c5 3e e0 6e 09 bd 2a ea 90 be
       0.0585472 0.38608146 -0.033553004 -0.28303653
000060 b8 67 81 be b9 4c d4 be 64 2a 0e 3e 26 10 08 3f
       -0.25274444 -0.41464785 0.13883358 0.5314964
000070 38 c6 87 3e b8 37 f8 3d a0 0c 4b 3d 90 9d e4 be
       0.26518416 0.121200025 0.049572587 -0.4465146
000080 62 90 98 be ad 4d cf be 94 ec b6 3e 86 f3 fe be
       -0.29797655 -0.4048895 0.3572737 -0.4979517
000090 cf 02 ce be 7a e8 cf 3e e2 79 71 be 7c b5 ee 3e
       -0.40236518 0.40607053 -0.23581651 0.46622837
0000a0 c0 f2 65 3d 76 35 89 3e c6 fb ab 3e 56 58 bf be
       0.056139708 0.267986 0.33590525 -0.37372082
0000b0 3c 16 13 bf 5c 2e b0 be 50 65 2a 3d b8 19 57 3e
       -0.574558 -0.3441037 0.041600525 0.21005905
0000c0 74 68 ec 3e c8 43 0a bf d8 02 ee 3e 7f e3 0d bf
       0.4617344 -0.54009676 0.46486545 -0.55425256
0000d0 d2 89 12 3f 00 1e 91 be d4 28 c1 3e 98 ed 7f 3e
       0.5724155 -0.283432 0.37726462 0.24992979
0000e0 e4 a1 28 3e 4c a5 ec 3e a8 3d 52 3e 6c 17 d0 3e
       0.16468006 0.46219862 0.20531332 0.4064287
0000f0 a8 3e 67 3e c2 02 b7 be f4 3d a3 bd 80 e9 e7 bc
       0.22582495 -0.35744292 -0.07970801 -0.028309584
000100 96 ba a5 3e 18 11 92 3e 48 94 57 3e 78 40 ab 3e
       0.32368916 0.28528666 0.21052659 0.33447623
000110 00 f9 eb 3c 18 fd 0b 3f 24 16 80 be 34 31 e4 3e
       0.028805256 0.54683065 -0.25016892 0.4456879
000120 e8 65 13 bf 8e 5c c5 3e f5 56 0d bf 65 99 04 bf
       -0.5757737 0.38547176 -0.5521081 -0.5179656
000130 ec 09 38 3e 6e a0 cd 3e d6 97 09 3f 9e 30 11 bf
       0.17972535 0.4016146 0.5374731 -0.5671481
000140 b3 eb a1 be 16 81 b4 3e 78 ff 12 3f 68 a8 a7 be
       -0.31625137 0.35254735 0.57421064 -0.3274567
000150 78 07 cb be 20 22 89 3e 18 a8 86 3d e6 b4 ba be
       -0.39654136 0.26783848 0.0657503 -0.3646614
000160 38 fc 43 3e 4c bd fe 3e ee 9d c4 3e 84 56 dd 3e
       0.19139183 0.49753797 0.3840174 0.4323007
000170 a9 7f 11 bf 66 35 25 be e7 17 c5 be 00 f2 09 3b
       -0.5683542 -0.16133651 -0.384948 0.0021048784
000180 4c 6f 32 3e 80 94 7e bd 62 5e 4c be 48 55 c5 be
       0.17425269 -0.06215334 -0.19957879 -0.38541627
000190 ea 59 0f 3f 70 0f 62 3e 25 60 86 be 3c 84 fc 3e
       0.5599657 0.22076201 -0.26245227 0.49319637
0001a0 fc 4d ad 3e 82 20 c4 be bc 18 03 bf 07 b0 0e bf
       0.3384856 -0.38306051 -0.51209617 -0.55737346
0001b0 dc ab ab 3e 44 17 dd bd c0 56 bd 3e 90 72 57 3e
       0.33529556 -0.10795453 0.36980247 0.21039796
0001c0 f4 e4 b6 3e f0 ab 65 3d 48 81 f1 be 90 83 4a be
       0.35721552 0.056072176 -0.47168946 -0.1977675
0001d0 88 e5 0a 3f a4 6a da be a4 bc 3b be 90 a2 19 3d
       0.54256487 -0.42659485 -0.1833368 0.037508547
0001e0 64 27 e4 3e 55 f4 ab be ca 86 a0 be b2 1b bc 3e
       0.44561303 -0.33584848 -0.31352836 0.3673988
0001f0 a0 44 6f 3d 20 14 ed 3e 75 65 07 bf 60 e7 de 3d
       0.058415055 0.46304417 -0.52889186 0.10883975
000200 16 95 6d be e1 e5 aa be 30 b9 07 bf 70 ee 26 be
       -0.23201403 -0.3337851 -0.5301695 -0.16301894
000210 c2 33 dd be 84 88 c7 be 7a 8c a7 3e 9f 36 ef be
       -0.4320355 -0.3897134 0.32724363 -0.4672136
000220 46 b9 04 bf 80 45 30 bc 3b 80 07 bf 44 dc 98 3e
       -0.51845205 -0.010758758 -0.5293004 0.2985555
000230 40 94 6f 3c 48 a0 98 bd fa d9 a3 be d8 f7 69 3e
       0.014622748 -0.07452446 -0.3200224 0.22848451
000240 e8 cc 91 3e 6e eb 61 be 98 f9 11 be ea a1 b2 be
       0.28476644 -0.22062466 -0.14255369 -0.34889156
000250 e5 50 83 be f4 66 62 3e 6a 9e f5 be e0 e3 ab be
       -0.25647655 0.22109586 -0.47972423 -0.33572292
000260 41 ab ed be a6 10 58 be c4 72 6d 3e 4a a1 09 3f
       -0.4641972 -0.21100101 0.23188311 0.5376173
000270 ae 35 e0 be b0 8d a8 3e 38 c0 c9 be d4 25 70 be
       -0.43790954 0.329206 -0.39404464 -0.2345193
000280 98 cf 0a 3f 00 e0 58 3c 04 b8 52 be 26 37 09 bf
       0.5422301 0.0132369995 -0.20578009 -0.53599775
000290 62 e3 bd 3e 3c ec 87 be f4 e8 dc 3e f0 20 dc 3e
       0.37087542 -0.2654742 0.4314648 0.4299388
0002a0 50 46 e7 be 66 57 68 be 78 9f 83 3d 8c 06 fe 3e
       -0.45170832 -0.2268959 0.064269006 0.4961437
0002b0 50 3c 31 bd bf 13 08 bf 9e dc c6 3e 8a aa 95 3e
       -0.04327041 -0.5315513 0.38840193 0.29231673
0002c0 16 3e 35 be 58 fe 1e be ec 26 cb bd c6 9c 4c be
       -0.17699465 -0.15526712 -0.09919533 -0.1998168
0002d0 88 e2 db be 30 82 53 bd bc d3 77 3e 7c 3a a9 bd
       -0.42946267 -0.05163783 0.24201864 -0.08263108
0002e0 e4 74 27 3e 8e 25 c6 3e 14 66 b3 bd 68 f4 67 3e
       0.16353184 0.38700527 -0.08759704 0.22651827
0002f0 78 16 f5 3e 38 8e b2 3e 8b f7 f7 be f8 e0 6e 3e
       0.47868705 0.3487413 -0.48431048 0.23328006
000300 00 d1 24 bd 3e 30 ca 3e 20 d6 03 3f 80 19 64 3e
       -0.04023838 0.3948993 0.51498604 0.22275352
000310 e8 3a fc be 40 11 35 be 05 6a e8 be f4 8c 69 be
       -0.49263692 -0.17682362 -0.45393386 -0.22807676
000320 40 80 01 3d fc d1 06 3f 49 9b c6 be 0b 47 0c bf
       0.03161645 0.5266416 -0.38790348 -0.547959
000330 74 05 e4 3e 0c 06 71 3e d4 87 be 3e 8f 40 0a bf
       0.4453541 0.23537463 0.37213004 -0.5400476
000340 c0 c7 60 3e 4e 60 d3 3e db 35 be be ce c1 c6 3e
       0.21951199 0.41284412 -0.37150463 0.38819736
000350 d4 ff 0c 3e 04 b4 d4 3e 9f 5a b6 be 26 70 f0 be
       0.13769466 0.4154359 -0.35616013 -0.46960562
000360 f2 73 94 be d9 c5 92 be 11 56 eb be 90 7c 4a 3e
       -0.2899471 -0.2866657 -0.459641 0.1977408
000370 5c 2a da 3e ee 66 a5 be b0 7d 5f bd f8 be 82 3d
       0.42610443 -0.32305092 -0.054563224 0.06384081
000380 40 67 85 bd a1 4e e5 be 08 f7 d3 3d 31 e2 95 be
       -0.06513834 -0.44786552 0.10349852 -0.29274133
000390 4e 53 b6 be 94 26 ef 3e 94 d9 09 be 00 9c 9b 3b
       -0.3561043 0.4670912 -0.13461906 0.0047488213
0003a0 b0 ea 0e 3f b2 59 01 bf 46 fb 2c be 83 98 02 bf
       0.55826855 -0.5052749 -0.16892728 -0.51013964
0003b0 b2 ad 9e 3e d0 a1 9b be 48 32 09 bf 88 b6 58 3e
       0.30991894 -0.3039689 -0.5359235 0.2116338
0003c0 c0 26 ee 3e 68 62 89 bd 45 23 87 be d8 99 08 bf
       0.4651394 -0.06708223 -0.26394096 -0.53359747
0003d0 b1 f5 01 bf 30 51 fc bd f5 23 fc be a6 85 21 be
       -0.5076552 -0.12320173 -0.49246183 -0.15773639
0003e0 c6 b5 a7 3e e4 c8 f6 3e 24 43 96 3e ff 44 a8 be
       0.3275587 0.48200142 0.293481 -0.3286514
0003f0 2a e4 a8 3e 75 6e 08 bf 50 fe 37 3e 18 84 01 3e
       0.32986575 -0.53293544 0.17968106 0.12648046

fc2.bias f4 [48]
000000 c0 17 62 bc 18 28 89 3d a9 9e 75 bd a0 04 15 bd
       -0.013799608 0.066971004 -0.059965763 -0.036381364
000010 e6 ec 05 bd 4c 3e 8d bc 50 40 05 bc 18 46 98 bc
       -0.032696627 -0.01724162 -0.008133009 -0.01858811
000020 f8 f7 87 3c a0 e2 85 bd 19 d1 99 bd 60 4b d5 3c
       0.016597733 -0.06537366 -0.07510585 0.026036918
000030 d0 5f 02 3d c8 e9 0b 3c e4 23 2b 3d 4a 7c 12 bd
       0.031829655 0.0085396245 0.041782275 -0.035763063
000040 18 87 4e 3d 8c ac 12 3d 84 98 43 3d c7 93 31 bd
       0.050421804 0.035809085 0.047752872 -0.043353822
000050 e0 8e 67 bc 00 3c eb bc 48 fb bf bc 80 01 8b bc
       -0.014133185 -0.028715134 -0.02343525 -0.016968489
000060 22 4b a4 bd f0 8e 9b 3d 88 3e fe 3c 10 1f ab 3d
       -0.08022143 0.075956225 0.031035677 0.08355534
000070 40 5f fb 3c 08 90 36 3d 51 78 5c bd b4 82 86 3d
       0.030685067 0.044570953 -0.05382568 0.065678984
000080 bc d2 94 3d d6 b2 86 3d 20 01 51 3c 00 60 bb b7
       0.07266757 0.06577079 0.012756616 -2.233684e-05
000090 fe 1d b2 3d d2 55 8d bd 4c bd 2d 3d fb e1 4c bd
       0.08697127 -0.069011346 0.042416856 -0.0500202
0000a0 38 02 3e 3d c0 ac f2 bb 8c 07 4b 3d 6c ea c9 bd
       0.046388835 -0.0074058473 0.049567744 -0.098591655
0000b0 f0 25 94 3d e2 1d a3 3d 3e 83 b9 3d 24 b8 ff bc
       0.072337985 0.07964684 0.090582356 -0.031215735

fc2.weight_g f4 [48, 1]
000000 61 4a 1b 3f 89 4f 1f 3f dc af 10 3f d6 48 1f 3f
       0.6066037 0.62230736 0.5651834 0.62220514
000010 f0 07 0f 3f 59 91 14 3f 3e 15 17 3f 4a 2b 21 3f
       0.55871487 0.5803428 0.5901679 0.6295668
000020 c9 62 0c 3f 60 0c 0f 3f 9d 94 15 3f b7 f9 0d 3f
       0.54838234 0.5587826 0.5842989 0.5545916
000030 a9 c7 18 3f 99 30 1d 3f a6 ed 1d 3f 7a 1d 17 3f
       0.5967966 0.6140228 0.6169075 0.5902935
000040 f2 61 16 3f 81 a2 16 3f 15 f0 1b 3f 10 27 0d 3f
       0.587432 0.5884171 0.6091321 0.5513773
000050 1a 18 0a 3f b0 56 17 3f 82 0e 0c 3f 2f 4f 1a 3f
       0.53943026 0.5911665 0.5470964 0.60277075
000060 15 6e 14 3f 1f ec 06 3f 04 6a 11 3f 30 a8 0f 3f
       0.5798047 0.5270404 0.5680239 0.5611601
000070 dd 79 1f 3f ba 30 16 3f e5 70 13 3f fa 67 09 3f
       0.62295324 0.586681 0.5759414 0.5367428
000080 14 30 02 3f c4 91 11 3f ea 44 0c 3f b0 86 11 3f
       0.5085461 0.56863046 0.54792655 0.5684614
000090 50 30 17 3f ba f4 18 3f 84 4d 16 3f f5 6b 10 3f
       0.59058094 0.59748423 0.5871203 0.5641473
0000a0 61 ed 19 3f 0b 71 19 3f ea dd 18 3f 0a 92 0e 3f
       0.60127836 0.59938115 0.59713614 0.5569159
0000b0 60 7b 14 3f fe d4 12 3f c4 62 10 3f 08 59 13 3f
       0.58000755 0.5735625 0.56400704 0.57557726

fc2.weight_v f4 [48, 96]
000000 18 8c 25 3d 98 2b 0a 3c cc b8 36 bd 4e 91 a5 bd
       0.040416807 0.008433245 -0.04460983 -0.08084355
000010 34 09 58 3d 66 0a 7f bd b4 0b 42 bd b4 36 81 bc
       0.05274315 -0.062265776 -0.047374442 -0.015773155
000020 10 fe 98 bd 80 80 65 3d 48 b5 97 3c 6e 14 ae 3d
       -0.074703336 0.05603075 0.018519059 0.084999904
000030 f0 65 51 bd 1d 37 2e bd 74 1f 19 bd f4 01 f8 bc
       -0.051122606 -0.04253303 -0.03738351 -0.030274369
000040 c7 5b 60 bd f0 65 81 bd 42 c7 1c bd dc d9 76 3d
       -0.054775026 -0.06318271 -0.038275965 0.06026636
000050 94 a9 a5 3d e8 c6 74 3d b4 f1 ca bd ad b8 74 bd
       0.08088985 0.059760004 -0.099093825 -0.059746433
000060 b4 26 c4 3d c0 c7 5d 3d e8 cc a7 3c 10 a2 c2 3c
       0.095776945 0.054145575 0.02048345 0.023758918
000070 0c e5 0c bd 84 dc c4 3d 78 31 68 3d 18 5d 29 bc
       -0.034398124 0.096123725 0.056687802 -0.010337137
000080 00 8c 40 3d 24 de 3f bd f0 5a 9c bc ee 3d a4 3d
       0.047008514 -0.04684271 -0.019086331 0.08019625
000090 d8 5f a4 bd be f1 cd 3d 5f 5d ce bd 25 2f a3 bd
       -0.08026093 0.10055874 -0.10076403 -0.079679765
0000a0 90 1f fb bb f6 ec cf 3d 8a 2d 8f bd fc 15 6f 3d
       -0.0076636747 0.101526186 -0.06991108 0.058370575
0000b0 d8 d6 1f 3c 1c ed 59 3d d6 2c bb bd c5 cc 2f bd
       0.009755813 0.05320464 -0.09139411 -0.042919893
0000c0 f8 e2 b2 bd 60 fb 0f 3c 5e b8 1e bd 38 0a 3b 3d
       -0.08734697 0.00878796 -0.038750045 0.045664042
0000d0 84 94 ea bc 80 cb 3c bc 22 db 35 bd 00 c1 92 3c
       -0.02863527 -0.011523128 -0.044398434 0.017914295
0000e0 80 1f f6 ba 81 c2 a5 bd e8 30 74 3d c8 52 da 3c
       -0.0018777698 -0.08093739 0.059616953 0.026650801
0000f0 94 aa c9 bc b4 e7 c7 3d 80 5c 10 3d bb 1f 3f bd
       -0.02461747 0.09760991 0.035244465 -0.04666112
000100 94 cb a0 3d f4 3a b0 3c a8 1d 1b 3d 90 25 b5 3b
       0.078513294 0.021512486 0.03787008 0.0055281594
000110 32 c4 c8 bd 80 5d b4 bd b8 df 3a bc 25 ba c1 bd
       -0.09803046 -0.08806896 -0.011405878 -0.094593324
000120 bf 22 50 bd c2 b4 ab bd fa a2 bd 3d c4 1a 51 3d
       -0.050814386 -0.08384086 0.09259601 0.051050916
000130 26 5e c5 3d 4a cb be 3d fe 7b 84 bd d8 fa 9f 3d
       0.09637098 0.09316118 -0.06468962 0.078115165
000140 a2 b4 99 3d 8e 45 be 3d f0 cb ce bc e0 92 02 3d
       0.07505156 0.0929061 -0.02524373 0.031878352
000150 82 4d a0 3d f0 8c fb 3c 98 15 ef 3c d6 9c 22 bd
       0.078272834 0.030706853 0.029185101 -0.03970035
000160 b0 ad b3 3d 7c f3 c5 bc 10 c1 25 3d e8 ee 58 3d
       0.08773363 -0.024163954 0.040467322 0.052962214
000170 12 cd 91 3d f0 4c a6 3d b9 df ce bd 3c f0 8a 3d
       0.07119192 0.081201434 -0.101012655 0.06784102
000180 32 6f 04 bd 1c 61 5c 3d d6 21 b6 bd c4 31 fd bc
       -0.032332607 0.05380355 -0.088931724 -0.03090752
000190 a9 bf 40 bd e0 e9 7e bc c8 73 b9 bd a2 17 bb 3d
       -0.04705778 -0.01555869 -0.09055287 0.09135367
0001a0 cc 05 a1 3d 80 b0 66 ba 7c d1 81 bd 7a 3b 81 3d
       0.07862434 -0.0008800104 -0.06338784 0.063101724
0001b0 98 84 93 bd b8 09 88 3c 38 51 d5 3c 70 45 f4 3c
       -0.072030246 0.016606197 0.026039705 0.029818267
0001c0 98 91 b5 bc 0c c4 62 3d fa 87 bb bd 98 2c 4e 3c
       -0.022164151 0.055362746 -0.09156795 0.012583874
0001d0 3c 8d 9a bc 40 cb 6a bc 18 68 97 bc e8 17 b5 3c
       -0.018866174 -0.014330685 -0.018482253 0.022106126
0001e0 a9 f9 be bd 0e 35 c6 bd c8 66 96 3d da cd cd bd
       -0.09324963 -0.09678088 0.07343823 -0.10049029
0001f0 ea 5f b9 bd 76 9c 9e 3d 4e 9d ca bd e0 85 e5 bc
       -0.09051497 0.07744686 -0.09893285 -0.028017938
000200 38 85 7d 3d ec 57 5c 3d 5c 4b ac 3d 27 7e aa bd
       0.061894625 0.053794786 0.08412811 -0.08324843
000210 6b b7 a9 bd 72 49 8a bd 9c eb cb 3d 75 07 b6 bd
       -0.08286937 -0.0675229 0.09957048 -0.08888141
000220 08 02 b0 3c 6f ef cc bd 00 f0 90 3d 9b 09 d0 bd
       0.021485344 -0.10006606 0.07077026 -0.10158082
000230 26 60 99 bd 86 84 6e bd 80 94 89 ba 28 e5 99 bc
       -0.07489042 -0.058231853 -0.0010496527 -0.018786028
000240 18 c3 28 bd 58 09 47 bd 78 01 d1 bd 8a c1 96 bd
       -0.04120168 -0.048592895 -0.10205358 -0.073611334
000250 58 0e 5e 3d b9 ec b8 bd 9c b0 83 3c b0 92 7e 3d
       0.054212898 -0.09029526 0.016075425 0.06215161
000260 da 8c 8a 3d 76 d6 6c bd 9d 6b b1 bd 84 07 89 3d
       0.067651466 -0.057821713 -0.08663104 0.066908866
000270 00 4c 90 3a 4c bf 0a 3d c0 25 d2 bb f0 75 bd 3c
       0.0011008978 0.03387384 -0.0064131916 0.023127526
000280 ac 78 86 bc 40 7f dd 3b f6 86 cb 3d 10 73 ac 3d
       -0.016414963 0.006759554 0.09937851 0.08420384
000290 74 25 d0 3d d0 bc ee bb 18 32 1e bd f8 a1 bd bd
       0.101633936 -0.007285692 -0.038621992 -0.09259409
0002a0 31 bc b4 bd 48 7c 9b bd 8a f7 c2 3d 48 31 2e 3d
       -0.08824957 -0.07592064 0.095198706 0.042527467
0002b0 6c e4 a3 3c c4 46 79 3d 54 c9 64 3d 3a fb 9f 3d
       0.020006381 0.060858503 0.055856064 0.078115895
0002c0 c0 1d 6d 3d 2a 31 a7 3d 0a 85 8c bd 20 9a 45 bd
       0.0578897 0.08163674 -0.06861313 -0.04824269
0002d0 b8 bd 08 3c be f9 4e bd a3 11 3e bd 40 5e 88 bc
       0.008346014 -0.05053114 -0.04640354 -0.016646504
0002e0 9e 27 9d 3d 84 f3 4e 3d 5e 1d 80 3d 40 9e dc 3a
       0.07673572 0.050525203 0.06255601 0.001683183
0002f0 b4 56 4a 3d 40 52 17 3b db 6e b7 bd b8 01 55 3c
       0.049399093 0.0023089796 -0.08956691 0.013000898
000300 1e 16 b4 3d b8 2d 5f 3d 00 03 d4 ba 88 36 aa 3d
       0.08793281 0.05448696 -0.001617521 0.08311182
000310 d4 2e c4 bc 20 3f 88 3b cc f1 98 bc a8 03 d3 3c
       -0.02394811 0.0041579157 -0.018669985 0.02575858
000320 60 a6 20 bd 68 55 91 3d 24 ad c9 bd 4a 49 92 bd
       -0.039221168 0.07096368 -0.09847477 -0.07142885
000330 a0 7f 5d bb 48 f1 9d 3d 80 f3 dd 3c 86 63 94 bd
       -0.0033797994 0.07712036 0.027093649 -0.07245545
000340 70 71 ea 3c ed 93 c2 bd 74 c2 53 3d cc a7 56 3d
       0.028618544 -0.09500871 0.051699117 0.052406117
000350 48 ec b0 bd 58 72 53 3c 7e 45 12 bd b0 f2 a2 3d
       -0.08638817 0.01290568 -0.035710804 0.07956445
000360 37 17 9a bd 2f 55 57 bd 18 0b 66 bd 50 7f 13 3d
       -0.07523959 -0.05257147 -0.056162924 0.036010087
000370 f8 84 b2 3d 48 01 41 bc 30 81 21 3d 48 e5 7b 3c
       0.08716768 -0.011780091 0.039429843 0.015374489
000380 24 88 75 3d 00 d4 15 b9 d0 f9 f5 3c cf 15 3e bd
       0.059944287 -0.00014288723 0.030026346 -0.046407517
000390 85 42 82 bd 66 71 85 3d cf a2 42 bd b0 d2 5e bc
       -0.06360344 0.0651577 -0.047518548 -0.0136000365
0003a0 90 a3 8a 3b 2f fd b2 bd 5e 35 c8 bd ea 43 8a 3d
       0.004230924 -0.08739697 -0.09775804 0.06751235
0003b0 d9 3b 4d bd c6 12 a9 bd e4 ff b5 3d cc 6d 10 3d
       -0.050105903 -0.08255534 0.08886698 0.03526096
0003c0 ee df 5d bd cc 00 31 3d 77 22 c2 bd a8 0b 11 3c
       -0.054168634 0.04321365 -0.0947923 0.008852877
0003d0 88 f6 a3 3d b0 e0 29 3c 00 c2 9a 3a d2 8b 8e 3d
       0.080060065 0.010368511 0.0011807084 0.06960262
0003e0 64 69 05 3d 7c 5e a9 3d 46 66 a3 3d 9c b4 83 3d
       0.03257121 0.082699746 0.079784915 0.06430933
0003f0 7a 1e b6 3d 38 1c d0 3d 49 25 b9 bd 8c f5 3b 3d
       0.08892532 0.10161632 -0.09040315 0.04588847

fc3.bias f4 [24]
000000 6c ec 04 3e 2c 8d f7 3d 4b 5c 86 bd 24 f9 ef bc
       0.12980813 0.12087473 -0.06560572 -0.029293604
000010 ce 83 94 bd 98 1c 2d bd 5c 0f ed 3d 4d c0 a1 bd
       -0.07251702 -0.042263597 0.11575195 -0.078980066
000020 60 62 1f 3c 58 73 9b 3c 00 75 de 3c 3e 8d 94 3d
       0.009728044 0.018975899 0.0271554 0.07253502
000030 5e cd 0e 3e 80 e1 ef bd 60 b0 60 3d 94 30 1a 3d
       0.13945529 -0.117129326 0.054855704 0.037643984
000040 40 f0 54 3c 10 a7 67 3d d6 5a 78 bd 2e 83 c6 3d
       0.012996733 0.056555808 -0.060633503 0.09692989
000050 00 d8 bb b9 aa 2e 38 bd f4 55 0f 3e df 9e be bd
       -0.00035828352 -0.044966377 0.13997632 -0.09307646

fc3.weight_g f4 [24, 1]
000000 97 7e 15 3f c0 34 20 3f a7 1d 1a 3f 61 09 0b 3f
       0.58396286 0.6258049 0.60201496 0.54311186
000010 e2 50 15 3f 7c b8 1a 3f 4c 97 0c 3f 51 b7 0d 3f
       0.5832654 0.6043775 0.5491836 0.55357844
000020 42 50 13 3f e1 9d 08 3f 89 6d 0f 3f b7 65 11 3f
       0.5754434 0.53365904 0.5602651 0.5679583
000030 f0 91 11 3f 88 a5 18 3f 0d 7a 0f 3f 69 94 16 3f
       0.5686331 0.5962758 0.5604561 0.58820206
000040 27 12 10 3f b7 71 0f 3f 6e 1b 12 3f 65 c1 10 3f
       0.562777 0.5603289 0.57073104 0.56545097
000050 e8 81 0c 3f 19 c8 16 3f d9 19 19 3f 7b 67 14 3f
       0.5488572 0.58899075 0.59805065 0.579704

fc3.weight_v f4 [24, 48]
000000 80 22 39 3b 32 0d f7 bd 64 9f a0 bd 98 d1 3e 3d
       0.0028249323 -0.12063064 -0.07842901 0.046586603
000010 94 a8 03 3e 83 0d c8 bd b6 b9 e9 bd 88 69 d7 bc
       0.12857276 -0.09768202 -0.11412375 -0.026295438
000020 d4 fe e7 3d e8 57 81 bc ee 10 ad bd c8 b9 a9 3d
       0.113279015 -0.015788987 -0.08450495 0.08287388
000030 a4 f5 0f 3e 00 e0 26 ba 68 91 c4 bd 48 2a cd bd
       0.14058548 -0.0006365776 -0.095980465 -0.1001783
000040 dc 06 04 be 80 9c 35 3d 80 96 eb 3d 70 cd fa 3d
       -0.12893242 0.044338703 0.11503315 0.12246215
000050 ec 28 11 3d 12 96 cf 3d e6 ff 86 bd 2a 5a 72 bd
       0.035439417 0.101360455 -0.065917775 -0.05916802
000060 80 f7 d9 ba a0 86 5c bc 40 29 5d 3c b8 79 c0 3c
       -0.0016629547 -0.0134598315 0.013498604 0.02349554
000070 54 91 10 3e 80 5b 8c bd f0 20 40 bd f8 b8 a3 3c
       0.14117938 -0.0685339 -0.04690641 0.01998566
000080 40 4b d9 bb e4 6d e7 3d 0f 92 bc bd 7c 12 bf 3d
       -0.006631285 0.11300257 -0.09207546 0.093296975
000090 18 16 e9 3d f8 41 5c 3d 1c 88 10 be 34 b8 20 3d
       0.11381167 0.05377385 -0.14114422 0.03923817
0000a0 62 9f f0 bd b0 bb 5b bc cc 9f dd bd e6 46 23 bd
       -0.1174915 -0.013411447 -0.108214945 -0.039862536
0000b0 18 21 f9 3c 60 72 7a 3d e2 65 d2 bd aa 44 b8 3d
       0.030411288 0.061144233 -0.10273339 0.08997472
0000c0 86 6f 01 3e bd e2 99 bd b2 0f 0e be e7 00 09 be
       0.12640199 -0.0751395 -0.13873175 -0.1337925
0000d0 ac bd d2 bd 44 1f 77 bd fe 04 08 3e 80 b0 11 be
       -0.10290083 -0.06033255 0.13283154 -0.14227486
0000e0 34 f2 8f bd 10 a6 da bd e4 a1 3e 3d fc 2c 0a 3e
       -0.070286185 -0.10676205 0.04654111 0.13493723
0000f0 e0 43 15 bd 80 7a fc 3b 74 ad a5 bc 1c 6c ff 3d
       -0.036441684 0.007705033 -0.02022431 0.12471792
000100 f4 14 aa bd 54 e5 ad 3d 7e f0 08 bd 28 21 8c bc
       -0.08304778 0.084910065 -0.033432476 -0.017105654
000110 fe f4 5b bd 78 fb d5 bd 0e db a7 bd 82 c9 3f bd
       -0.05370044 -0.104483545 -0.08196078 -0.046823032
000120 46 6e a9 3d e6 29 03 3e 6c 0c b4 bd 68 65 8b 3d
       0.08272986 0.12808952 -0.08791432 0.06806451
000130 f0 ca 7f 3c 2a 16 cb bd 58 a5 3b bd 94 b0 e9 3d
       0.015612349 -0.09916337 -0.04581198 0.11410633
000140 22 b2 d1 bd 8b 00 98 bd 98 b0 4b 3d c0 90 a5 3b
       -0.10239054 -0.074219786 0.04972896 0.005052656
000150 b0 a1 d1 3c f9 5e 0a be 00 d6 4c ba d4 6d e1 3d
       0.025589794 -0.13512792 -0.0007813871 0.11007276
000160 bc bd cb bd d6 07 d6 bd 14 1c 02 be e1 94 9e bd
       -0.09948298 -0.10450713 -0.12706023 -0.0774324
000170 3c 09 05 3e 78 c9 08 3e 50 81 34 bc 50 02 93 bc
       0.12991804 0.13358104 -0.011017159 -0.017945439
000180 a9 9c 11 be 82 39 b0 3d 80 f5 d2 3a 3b 9d 82 bd
       -0.14219917 0.08604719 0.0016094893 -0.063776456
000190 9c 17 ef bc b0 34 25 3c 49 ff b9 bd d4 b4 97 bd
       -0.029186063 0.010083362 -0.09081895 -0.07407537
0001a0 ce 00 b8 3d 8e 6e 0d bd 00 09 5f bd 06 da be 3d
       0.089845285 -0.03452926 -0.054451942 0.093189284
0001b0 4c f4 8f 3d 3c 34 8d 3d 60 cf b1 bd 2e 53 08 3e
       0.07029018 0.068947285 -0.08682132 0.1331298
0001c0 00 0e 25 3b b8 f5 12 3e f8 b7 0e 3e 80 41 07 bb
       0.0025185347 0.14351547 0.13937366 -0.0020638406
0001d0 b4 d4 31 3d 6e 37 ce 3d b8 08 fd 3d 68 00 e3 bd
       0.04341574 0.10069166 0.123551786 -0.11084062
0001e0 d0 58 ba 3d 98 04 43 bd f6 2d 07 3e ee 70 53 bd
       0.09098971 -0.047611803 0.13201126 -0.05162137
0001f0 00 da 21 3c b7 3f 8b bd 4c 79 fa 3d 34 06 15 bd
       0.009878635 -0.06799262 0.12230167 -0.03638287
000200 e0 6e 0f be b0 6a 00 bc b0 27 59 3c 56 c1 bb bd
       -0.14007139 -0.007837936 0.013254091 -0.09167735
000210 a0 67 ad 3c fe d3 0f 3e 4e a2 02 3e 7c fd 2b 3d
       0.021167576 0.14045712 0.12757227 0.04198979
000220 80 e0 8c bb 49 95 83 bd d0 02 e8 3d 86 a8 cc 3d
       -0.0042992234 -0.06424958 0.113286614 0.09993081
000230 96 08 d3 3d 98 fb 47 3d 0d 5c 05 be 44 1f 98 3d
       0.10304372 0.048823923 -0.13023396 0.074278384
000240 7c a2 25 3d aa 03 8c 3d 2c 96 1e 3d a8 3e 46 bd
       0.04043816 0.06836636 0.038717434 -0.048399597
000250 bf e1 8f bd 48 e8 4d 3d e0 1c 34 3d 5a 9c 5d bd
       -0.070254795 0.05027035 0.04397285 -0.054104187
000260 14 e6 da 3d e2 d0 95 3d 53 8a 82 bd 68 06 b0 3c
       0.10688415 0.07315232 -0.063740395 0.02148743
000270 2a 0f c1 3d 3c f7 62 3d 1a 1f 5d bd ab 76 de bd
       0.094267204 0.055411562 -0.05398474 -0.10862478
000280 80 49 82 3b 44 79 0f 3d 5c 07 1a 3d 4c 7b 24 3d
       0.003976047 0.035027757 0.037604675 0.040156648
000290 0c 9d ef bd 1c f0 53 bd 70 d8 2c 3c c2 7f b4 bd
       -0.11699876 -0.051742658 0.01054965 -0.0881343
0002a0 c0 ad 0c 3e a0 bc 29 bc 16 35 a4 3d 94 de 2e 3d
       0.13738155 -0.010359913 0.08017938 0.042692736
0002b0 c0 04 a1 3c 34 49 a2 bd 83 13 95 bd e4 ef 97 3d
       0.019655585 -0.07924119 -0.07279112 0.074188024
0002c0 64 31 00 3e c4 e9 d8 bd 9d 9f cf bd f4 d9 9f 3d
       0.12518841 -0.10591462 -0.10137866 0.07805243
0002d0 56 a9 0a 3e 13 8b 10 be 44 c6 e3 3d b2 4b b1 bd
       0.13541159 -0.14115553 0.111218005 -0.08657016
0002e0 8c 50 d0 bd 55 38 92 bd 50 8b 73 bc c8 7e 2b bd
       -0.10171613 -0.07139651 -0.014864758 -0.041868955
0002f0 e4 19 97 3d d0 55 8e 3d 90 d6 f4 3d 1e 85 b6 3d
       0.07377985 0.06949961 0.11954987 0.08912109
000300 38 fb 1f 3d 05 70 c4 bd a0 8b 6f 3c 68 76 7b bd
       0.03905794 -0.095916785 0.014620692 -0.061392218
000310 20 09 e9 bb cc 4e c9 3d 90 f6 9f 3d 80 9a c4 bb
       -0.0071116835 0.098294824 0.078107 -0.005999863
000320 e6 8e 0f 3e e5 b6 b1 bd 9b 19 82 bd 6c 14 30 bd
       0.14019355 -0.086774625 -0.0635254 -0.042988226
000330 1e b3 cf 3d 45 80 0f be 10 58 0c 3c 00 d4 d4 3d
       0.10141586 -0.14013775 0.008565918 0.10391998
000340 df e8 bf bd 58 70 b6 3d 2a 2d b8 bd e1 a4 f2 bd
       -0.093705885 0.089081466 -0.08992989 -0.118478544
000350 40 dd fd bd 20 56 77 3d 70 f4 12 3e 41 e6 fb bd
       -0.12395716 0.06038487 0.14351058 -0.12299777
000360 06 51 df bd fc 58 6c 3d 48 57 5e 3d d8 38 02 3e
       -0.10904126 0.05770205 0.054282457 0.12716997
000370 78 30 06 3d ae 62 21 bd 50 26 1c bc c0 c0 67 3c
       0.032761067 -0.03940075 -0.009530619 0.014145076
000380 18 53 00 be a4 cb 33 3d cc 5a a4 bc f8 40 f8 3d
       -0.12531698 0.04389538 -0.020062827 0.12121767
000390 5a c1 b8 3d 24 95 35 3d 74 54 05 3d 7c f4 c4 bd
       0.09021254 0.044331685 0.032551244 -0.09616944
0003a0 99 98 13 be 80 c5 99 bb 7d d4 f9 bd ce 78 0e bd
       -0.1441368 -0.0046927333 -0.12198732 -0.034783177
0003b0 98 db db 3c f0 5e 77 bc 10 75 6c 3d 94 3a d3 bd
       0.026838109 -0.015098318 0.057728827 -0.10313907
0003c0 76 c0 0a be 86 37 00 3e 36 00 04 3e e6 7e 0d 3e
       -0.1354998 0.1252118 0.12890705 0.13817939
0003d0 90 2b bb bd ee 9a c1 bd d0 18 59 bc 0d f4 b6 bd
       -0.09139168 -0.094533786 -0.013250545 -0.08933268
0003e0 cd 48 99 bd d0 73 5e 3c 10 fb e1 3d c0 39 9a 3c
       -0.07484589 0.013577417 0.110342145 0.018826365
0003f0 96 ef 9c bd e0 33 b2 3d 20 00 fc bd a2 ef 7c bd
       -0.07662885 0.087013006 -0.12304711 -0.06175197

fc4.bias f4 [2]
000000 6e d3 13 3e d0 cf 37 bc
       0.14436123 -0.01121898

fc4.weight_g f4 [2, 1]
000000 d0 2d de 3e 00 4c 28 3f
       0.43394327 0.65740967

fc4.weight_v f4 [2, 24]
000000 5c 90 1d bd f8 76 ac 3c 30 56 88 3d 50 c0 56 3d
       -0.03846775 0.021052822 0.06657064 0.052429497
000010 74 40 0a bd 14 cc b6 3d d4 b0 86 bd 98 89 85 3c
       -0.033752874 0.089256436 -0.06576696 0.016300961
000020 60 27 a7 bd a0 b1 7d 3d 92 43 b9 bd cc 82 21 3e
       -0.08161807 0.061936975 -0.09046091 0.15772551
000030 10 f1 ec 3c cd 70 2f be ae 78 a7 bd 78 ac 93 bd
       0.028923541 -0.17132874 -0.08177315 -0.0721063
000040 23 10 03 be 14 8e 7a bd 1e c3 03 3e 80 d0 f2 3c
       -0.12799124 -0.061170653 0.128674 0.029640436
000050 b0 9f e6 3c 74 1b 82 3d c4 b8 14 3e 3e 19 03 be
       0.028152317 0.063528925 0.14523607 -0.12802598
000060 1c 3b 30 bd 14 80 33 be f7 8f c7 bd ae 04 18 3e
       -0.04302512 -0.17529327 -0.09744256 0.14845535
000070 30 2f e7 3c 12 3c 47 be 68 98 c8 bd 34 1f 2d 3e
       0.028220743 -0.19456509 -0.09794694 0.16906434
000080 7c 85 b4 3d 68 9a 46 3e 01 24 b1 bd b2 ea 44 3e
       0.088145226 0.19394839 -0.08649445 0.19230154
000090 62 72 4c 3e 0f ba 02 be 00 07 c9 bb 60 3e a3 3c
       0.19965509 -0.12766288 -0.0061348677 0.019927204
0000a0 2c 1f 09 be e8 c0 4e 3e 17 cb 25 be d4 9b fe 3d
       -0.13390797 0.20190775 -0.16190754 0.124320656
0000b0 57 f2 d4 bd 80 b8 35 bc 04 15 0b bd 36 2d 38 be
       -0.10397785 -0.0110913515 -0.03395559 -0.17985997
