Experimental_Models/Full_Model_No_Weight_Norm_v1.5.pt (torch_old, 889015 bytes, 24 tensors)

fc1.weight f4 [96, 3]
00000000: a4cf a6bd a0d9 88bd 8c96 f23e a04c 013f
00000010: 949c b73e 0cce 993c c48b 383e 5ba0 fa3e
00000020: c9f1 323e e64b 02bf 07f3 c73e e86c c43e
00000030: 6ce5 d9bd 803c a8bb ba5d d7be a0cf 8c3d
00000040: 3bf3 b23e 16c8 013f f65a 023f 068c c63d
00000050: dc5e 283d fe1c 013f 2bef 7a3e 3e09 4b3e
00000060: bad3 023e 0e6d 0abf 1308 08be 9287 c1be
00000070: a7cd a0be 94be 6b3e fae3 023f b4a3 c7be
00000080: 8929 22bf 2bb3 123f 9a8d a5be f787 dabe
00000090: 435a 2e3e c85b 8b3e 6e1b e7be 806d 2cbd
000000a0: bf34 d8be 6c3f 3e3e a6b3 023f c1d2 c93e
000000b0: 48af 2abf f306 8b3e 51fc dd3e b191 233f
000000c0: 27c4 6a3e 8c23 61be ac0f 46bc fa50 6dbe
000000d0: 2869 e7bd 5fe7 87be ee8d 3dbe 7cfe 06bf
000000e0: 4ce2 b7be 775a e53e ff23 133f 9016 ffbe
000000f0: a74d a0be 3609 e4be 6a71 a63e 279a 04be
00000100: 274d d03e 06b3 e53e 0308 0e3f f196 ccbe
00000110: fd00 89be 5623 94be 9dce 983e 602b 713d
00000120: 0762 f8be a5ab 093f 984e dd3e 82e3 0dbe
00000130: 34e1 04be 58d7 d93e 6829 f53e 2319 1cbe
00000140: 1cc2 5ebc 14b7 abbe 1684 02be 003b 1bbc
00000150: c707 5e3e 6255 693e e87e 413f 8abe ab3d
00000160: 4c32 d1be 1589 f3be 2275 9abe beb8 0cbe
00000170: 64fe 03bf f171 87bd b339 943e b80d a4be
00000180: c563 933d 9e9e e73e 527d 29bf a059 413d
00000190: d4e9 243e a38f 2d3f 31a2 123f 664b d0bd
000001a0: e03d a8bd 77f9 84be b9a8 e4be 70fe 92be
000001b0: 220f 7e3e e800 c0be 5d71 953e cf1a df3e
000001c0: 3a6b a2bd c5b0 b4be dd7c 703e b2f5 f53e
000001d0: d017 45be df1f 06bf a4c6 12be 152c dfbe
000001e0: ce43 12bf 2d00 85be 0017 c53e dd4a 753e
000001f0: 920c afbe cc24 6a3e 5761 0abe 6dea 9c3e
00000200: 97cb 9b3e d25f ae3e e78a e9be 0c1f c2be
00000210: c6ad b1be c6ac bebe 68b7 ba3e 50aa 94bd
00000220: 4208 c5be f67e ba3e 69e1 bfbe cf80 d1be
00000230: aa3d fabe f283 da3e 4669 9e3e 4ad6 c83e
00000240: 9e49 b7be a7c1 babe 120f 9d3e 46a8 0fbe
00000250: 58f3 8ebd f037 50bd 9b98 903e a02d 7abe
00000260: 7ff8 b8be 4dd5 04bf 2437 943e 8026 fabb
00000270: d9ef e23e eefa 153f e1f3 a6be fd19 0dbf
00000280: 2e57 7abe dad4 afbe e72f 93be 4174 b43e
00000290: 5460 61be 7e01 e23e 9591 f43e 4786 063f
000002a0: 2cb2 06bf 3c4b fcbd ecc3 ffbd 30f9 42bd
000002b0: 5682 a1be c0f5 f7bc a0f9 5cbe b3d8 9abe
000002c0: 22b5 bfbe ed95 5c3e e567 153f 49e3 7fbe
000002d0: 4831 52be 3e4b 0dbf 04a1 24be aa43 e43e
000002e0: b909 a9be 7cac 1bbf 29c8 05bf 5cee b73e
000002f0: 1cd2 0f3f ff03 56be 219c cd3e 595b 0d3f
00000300: 09d4 e63e a84f 9f3e 3ac7 453e 82fa ae3d
00000310: 4e23 2cbd a393 16bf 8ead 92be 77ab 1c3f
00000320: 165f bc3e c7ad d2be ee2a dd3e 9946 0e3f
00000330: 1f70 c13e fbb4 c93e 9efd f83e 6a33 dfbe
00000340: 7d8d 3e3e 2a24 ab3e aa40 aabe bee1 093f
00000350: 232a 0ebf 9d04 d7bc 44ec ac3b 52dd ef3e
00000360: 713d 7e3e db63 08be e0b1 fdbe 03b1 4e3e
00000370: efad fbbe 0fa0 13bf ba9b 2cbe 2f3e c93d
00000380: 7adf 833e 4937 1e3e 71a6 0c3f 5570 cfbe
00000390: a190 663e a453 fabe abbb 9abe 1c06 c23e
000003a0: 1919 c03c 4634 2abf 370a 113f 7e7b 313e
000003b0: a264 48be 96d6 cfbe 5ad3 c2be 1099 223e
000003c0: e825 dd3e 8aa0 c0be 9da5 03bd e4d3 9cbe
000003d0: 1ab9 653e 8282 8b3e c2e4 63be e7f6 c83e
000003e0: 4601 ed3d 546c 093f ee32 fcbe d08e 5c3d
000003f0: 135a 9e3e f9cd 1cbe d983 2ebe c128 bb3e
-0.08145073 -0.06682134 0.47380483 0.50507545 0.35861647 0.018775009 0.18022066 0.48950467
0.17475046 -0.5089706 0.39052603 0.3836434 -0.10639462 -0.0051341653 -0.42063695 0.06875539
0.34951195 0.5069593 0.50920045 0.09694676 0.04110609 0.50434864 0.24505298 0.19827744
0.1277608 -0.54072654 -0.1328433 -0.37798744 -0.314069 0.23021919 0.51129115 -0.38992083
-0.6334463 0.5730464 -0.32334596 -0.42681858 0.1702662 0.2721846 -0.45138115 -0.042096615
-0.42227742 0.18578881 0.5105537 0.39418605 -0.6667371 0.2715374 0.43356565 0.6389418
0.22926389 -0.21986216 -0.012088697 -0.23175421 -0.11299354 -0.2654371 -0.18511173 -0.5273206
-0.35914838 0.44795582 0.574768 -0.498219 -0.31309244 -0.44538277 0.32508403 -0.1294943
0.40683863 0.44863147 0.55480975 -0.3995891 -0.26758566 -0.2893321 0.29845133 0.058879256
-0.4851229 0.53777534 0.43224025 -0.13856319 -0.12976533 0.42547107 0.47883153 -0.15243964
-0.013596084 -0.33538115 -0.127457 -0.009474516 0.21682654 0.22786477 0.7558427 0.08385952
-0.40858686 -0.47565523 -0.3016749 -0.13742349 -0.51560044 -0.066135295 0.2895027 -0.32041717
0.07196764 0.45238203 -0.6620685 0.047204614 0.16104823 0.677973 0.57278734 -0.10170631
-0.08214927 -0.25971577 -0.44659975 -0.28709745 0.2481046 -0.3750069 0.29188052 0.4357514
-0.07930608 -0.35291114 0.23485132 0.48039013 -0.19247365 -0.5239238 -0.14333588 -0.4358832
-0.5713471 -0.25976697 0.3849411 0.2395434 -0.34189278 0.228656 -0.13513695 0.30647603
0.30428764 0.3405748 -0.45613787 -0.37914312 -0.3470289 -0.3724119 0.36468053 -0.07259047
-0.38482863 0.36424989 -0.37476662 -0.40918586 -0.4887517 0.4267879 0.30939692 0.3922599
-0.35798353 -0.3647587 0.3067556 -0.14029035 -0.06980008 -0.050834596 0.2824143 -0.24431467
-0.36127087 -0.5188797 0.2894832 -0.007633984 0.44323614 0.58586013 -0.3260794 -0.5511778
-0.24447319 -0.3434208 -0.28747484 0.35244945 -0.22009403 0.44141763 0.4776732 0.5254864
-0.5261562 -0.12319037 -0.12488541 -0.047600925 -0.3154475 -0.03026855 -0.215796 -0.30243453
-0.3744288 0.21541567 0.58361655 -0.24989046 -0.20526612 -0.55192935 -0.16077048 0.44582874
-0.3301523 -0.60810065 -0.52258545 0.3592404 0.56179976 -0.20899962 0.4015818 0.5521751
0.45083645 0.3111546 0.1931428 0.08543874 -0.042025857 -0.58819026 -0.28648037 0.61199135
0.36791295 -0.41148207 0.43196815 0.55576473 0.37780854 0.3939589 0.48630995 -0.43593913
0.18608661 0.33426028 -0.3325246 0.5386008 -0.55533046 -0.026247317 0.0052771885 0.46848541
0.24828126 -0.13319342 -0.4954977 0.20184712 -0.49156138 -0.57666105 -0.1685628 0.09826314
0.25756437 0.15450777 0.5494147 -0.4051539 0.22516109 -0.48891938 -0.30221304 0.37895286
0.023449467 -0.6648601 0.5665621 0.17332265 -0.19569638 -0.40593404 -0.38051873 0.15878701
0.43192983 -0.37622482 -0.032140363 -0.3063041 0.22433892 0.27248007 -0.22255233 0.39250872
0.115725085 0.5368092 -0.49257606 0.053847134 0.30928096 -0.15312947 -0.17042483 0.3655453

fc1.bias f4 [96]
00000000: 8c43 b0be b4d0 8abe 1c82 563e a115 a63e
00000010: ac01 d2be f891 bc3e 8997 c43d fd08 58be
00000020: 829b 65be dc96 babd 9f3c ecbe a5df 84be
00000030: a23e 93be 9493 413e 6bdf e53e abb0 913e
00000040: fec2 1f3f a46a 3fbe 9cb4 393e 11dd c33e
00000050: 0291 49be dbda 723e 3dc5 ad3e b839 b9bd
00000060: 62da 06bf 8d3b 91be 662f 06bf 48de 293e
00000070: 37bd a03e a75d b13e ca50 a93e a3d7 103f
00000080: ca07 4a3e 88af 233e 1208 9fbe 7494 003f
00000090: 3f4a e4bd f48b 10bf fcda d3be 90bd f3bd
000000a0: d46e e13e 937a 053e b77a efbe 7878 44be
000000b0: 7aff 083f 4043 a63c b001 513e 4fd3 dbbe
000000c0: de09 123f 6bed ffbe 751e 483e 941c 263e
000000d0: 9a93 58be 9970 f6be 54d5 96be a8ec a6bd
000000e0: 79c5 a6be 5882 573e fafe 0d3f e613 23bf
000000f0: 5038 823e 2c14 b5be 2051 ae3e 7f81 283e
00000100: d7f4 23bc 57c8 d7be 8460 dfbe 421a a83d
00000110: 82bf e23e 1050 273d c78d dabe b53c 0b3f
00000120: 3940 313e 3ea7 dcbd 7eaa a83e 1a5d 4abe
00000130: 34d8 8ebe e4c2 1d3f 8c86 043f a091 ea3e
00000140: 4f9f 893e fbaa 9abe 63ed 213f b1ea 4c3b
00000150: 3734 053e d181 c3be aa95 04bf dc89 233f
00000160: 74f8 b73e 10b3 4ebd fb8e 19bf 3b0e d9be
00000170: 621a 9f3e c004 09be 33d7 19be f4f8 943e
-0.34426534 -0.27112353 0.2094807 0.32438377 -0.410169 0.36830115 0.095992155 -0.21097179
-0.22422603 -0.091108054 -0.4614 -0.25951877 -0.28758723 0.18903953 0.44897017 0.284551
0.6240691 -0.18693024 0.18135303 0.38254598 -0.19684222 0.23716299 0.33939543 -0.09044212
-0.52676976 -0.28365746 -0.52416074 0.165887 0.3139436 0.34641764 0.3306945 0.56579036
0.19729534 0.15984929 -0.31060845 0.5022652 -0.11146974 -0.5646355 -0.4137801 -0.119013906
0.44029868 0.1303504 -0.46773311 -0.1918658 0.53514826 0.02029574 0.204108 -0.42934653
0.57046306 -0.49985823 0.19542868 0.16221839 -0.21150056 -0.4813278 -0.2945963 -0.08150607
-0.32572535 0.21045816 0.5546719 -0.6370224 0.25433588 -0.35366952 0.34046268 0.16455649
-0.010007105 -0.42145035 -0.43628323 0.08208133 0.44286734 0.040847838 -0.42686293 0.54389507
0.17309655 -0.107740864 0.32942575 -0.19762078 -0.27899325 0.61625504 0.517678 0.45814228
0.26879355 -0.30208573 0.6325285 0.0031267817 0.130082 -0.3818498 -0.5179087 0.6388223
0.35931742 -0.050463736 -0.59983796 -0.4239367 0.31074816 -0.13380718 -0.15023498 0.29096186

fc2.weight f4 [48, 96]
00000000: 0646 5cbd f52a ec3c 041d 9f3d 64dd a5bc
00000010: 0cb7 873d f237 c13d 6fb7 b2bd 6ce9 c53d
00000020: eef3 a43c 840d 19bd f7e5 6ebd 534b e9bb
00000030: 5600 45bc 88aa 2abd cd78 86bd 3c72 cbbd
00000040: c06f e83c 1cff 8f3d b2a0 d0bd bea5 a0bd
00000050: 0033 20ba b999 5abd 4817 3c3d df24 a4bd
00000060: a0d4 8b3d 80b6 ca3b b73d 1f3d c425 093d
00000070: 623b 0a3d 8068 23bd dc5e be3d 4039 8bbc
00000080: b3cc a03d 8321 61bd 6e6d 46bd b084 c93c
00000090: b71a c7bd 96c4 a83d 7da3 693d 5cce bebd
000000a0: ece5 223d d2fd e5bc 7c65 053d 3166 883d
000000b0: b6de 92bd 026e b63d f8d8 313c 5839 373d
000000c0: d041 f83c 703d 7b3c 2acc 833c 3f69 cdbd
000000d0: 80f7 9fbd 6891 353c 20f0 7cbd d170 5dbd
000000e0: 8cf4 9e3d 9ab3 01bd 1cef 7e3d 8d03 7ebd
000000f0: 247d 32bd c0a5 f0bc d078 813d 68da dbbc
00000100: c696 bcbb 4b9b 6c3d a01b 31bb c017 ac3a
00000110: e954 103d 5eee 36bd 20cb 9ebc d668 35bd
00000120: 6460 56bd 3516 fb3b 163c c63d 1b3c f6bc
00000130: fc4b 99bd 5e96 cbbd 6b1a 753b 6cf3 023d
00000140: a5ae b03d 5f50 40bd 68fa 16bc 230c cf3d
00000150: 8ea7 493d d462 c83b 204d ce3d b61c 12bd
00000160: 2c89 8cbd 1aba b5bd 245f be3d 9d6e 713d
00000170: 8b55 4b3c 05c7 10bd 3014 3dbd 70c7 7d3d
00000180: e0c7 9fbc 24ac 2dbd e8cc 43bd 938d 71bd
00000190: d9d8 b1bd ef32 39bd e27e 81bd e04a 563c
000001a0: 002e 663b b4f7 623d 5a8e afbd 907d 8b3b
000001b0: 0c66 a7bd 6095 343d c87b 783c bb0f 3bbd
000001c0: 19fe a8bd a40c b0bc a0b5 a43b c857 0abd
000001d0: 381e b33d b52d 9fbd 1ed1 b83d 00cc 953b
000001e0: fca6 393d b24c 5cbd 1ec4 90bd 100d fd3c
000001f0: 6842 993d 76d5 72bd c843 b23c 2bd0 b9bd
00000200: c324 a6bd 3eb8 cf3d ee5b 973d 51f9 a9bd
00000210: 308c b63c e0dd 4c3d 127d bc3d b761 c7bd
00000220: 0674 a23d a46c 9d3d facc b5bd a09d c43c
00000230: 4cc4 9cbd 0a52 ce3d 184c abbd ac4f afbd
00000240: bd30 b8bd b4f7 c73d eed5 a93d 32ca 9ebd
00000250: fc2d 0d3d e120 afbd 10d6 073d 60ab aa3b
00000260: 4004 bcbc 3046 083d 80f6 0ebc dc69 243d
00000270: 4c24 a73d 0caa 32bd 7a8b 9e3d a7b0 2fbd
00000280: 9841 10bd c670 2fbd 4e30 15bd ba2d d03d
00000290: e6b3 8fbd e448 9c3c e97b 8bbd 0595 78bd
000002a0: 4746 afbd 6a6f 09bd 1cf2 8bbd 4d72 70bd
000002b0: ad3b 6fbd d48d a23d fc56 6f3d 9c7b 1e3d
000002c0: 1441 72bd ce6b b93d 105a 903d 0070 04b8
000002d0: b8fd 0d3c 9493 19bd 7e80 cb3d ecba 1a3d
000002e0: bbe9 b1bd 20e8 2dbb 664f b43d 946a c2bd
000002f0: 18af bfbc 2049 383c 6aee b53d 92f2 88bd
00000300: 5085 74bc 9205 483d d890 cfbc 70e6 00bc
00000310: 98ea 61bc 8203 7c3d 5cbb a63c e00f 08bd
00000320: f957 44bd 8497 9c3c 0964 32bc 9b87 8a3d
00000330: 5a83 a03d b440 8cbc 6053 f13c 1524 a03d
00000340: 57a1 903d 8059 1eba 406a ce3c 607a ae3d
00000350: 50c8 e93c 5250 9abc c661 3a3d 9f29 193d
00000360: 95f6 ae3d 0cb7 ac3c 7b7f aabd 00a2 ba3d
00000370: 5ed4 19bd 05ba 0a3d 40b7 4fbc 4592 093e
00000380: cc45 973d 8ad7 023d b5c2 f5bc 1089 46bc
00000390: 0c95 65bd 78c2 97bd 0408 e5bc 207b 9a3d
000003a0: bc1f 103d 41da a93d f99a 94bd c64d d6bd
000003b0: 643c 8cbd f4ab 603d 28e9 9bbc a3f8 a03d
000003c0: 28da 17bc e635 cfbd 5f4c f93b 78c6 90bd
000003d0: 60bd 263d 88bb 9ebd 8947 a3bd c4e6 723c
000003e0: 68be a73d 7482 b03c 8251 a23d 8e47 c63c
000003f0: 485d c43c c81e c3bd ad9d a4bd 3f25 c73c
-0.053777717 0.028829077 0.07769206 -0.020247169 0.0662671 0.09434499 -0.087263934 0.09663662
0.020135846 -0.037366405 -0.05832478 -0.007119575 -0.012024006 -0.041666538 -0.0656601 -0.09933898
0.028373599 0.0703108 -0.101869 -0.07844113 -0.0006111115 -0.053369258 0.04592064 -0.08014845
0.068276644 0.0061863065 0.038877215 0.03348328 0.033748038 -0.03989458 0.09295437 -0.016995072
0.07851543 -0.0549636 -0.048444204 0.024599403 -0.09721892 0.08240621 0.05704068 -0.09316704
0.03977005 -0.028075133 0.032567486 0.066601165 -0.07171385 0.08907701 0.010854952 0.04473242
0.03030482 0.015334472 0.016088564 -0.1002984 -0.07810879 0.011082031 -0.06175244 -0.05406267
0.07761487 -0.031665422 0.06223975 -0.062015105 -0.043576375 -0.02937591 0.06321871 -0.026837543
-0.0057552783 0.057765286 -0.0027024522 0.0013129637 0.035237227 -0.04466092 -0.019383967 -0.044289432
-0.05233802 0.0076625594 0.09679429 -0.030057957 -0.07485196 -0.0994079 0.003739978 0.031970426
0.08627061 -0.046951648 -0.009214975 0.10109737 0.04923206 0.006115297 0.10073304 -0.035671912
-0.06862101 -0.08873387 0.092954904 0.05894338 0.012410532 -0.03534605 -0.04616183 0.061957777
-0.019504488 -0.042400494 -0.047802836 -0.058972906 -0.086839385 -0.04521459 -0.06323029 0.013079375
0.0035122633 0.05541201 -0.08572073 0.0042569116 -0.08173761 0.044087768 0.0151662305 -0.0456693
-0.0825159 -0.021490403 0.005026534 -0.03377512 0.08745998 -0.0777239 0.09024261 0.004571438
0.045325264 -0.05378408 -0.070686564 0.030890018 0.07483369 -0.059285603 0.021760836 -0.09072908
-0.081124805 0.10142563 0.07390581 -0.082995065 0.022283643 0.050016284 0.09203543 -0.097354345
0.07932286 0.07686737 -0.08876987 0.024000943 -0.07654628 0.100742415 -0.08364123 -0.08560118
-0.08993671 0.097640425 0.08292757 -0.077534094 0.034467682 -0.08551193 0.03316313 0.005208418
-0.022951245 0.03327006 -0.008725762 0.040140018 0.0816122 -0.0436192 0.07741447 -0.04289308
-0.035218805 -0.04283216 -0.03642302 0.10164972 -0.07016735 0.019077726 -0.06810743 -0.06068899
-0.08558326 -0.03355352 -0.06833288 -0.058702756 -0.05840652 0.07937208 0.058432564 0.0386921
-0.059144095 0.09053765 0.07048428 -3.157556e-05 0.008666448 -0.037494257 0.09936617 0.03777592
-0.08687159 -0.0026536062 0.088042066 -0.094929844 -0.02339892 0.011247903 0.088833645 -0.066868916
-0.014924362 0.048833437 -0.025337622 -0.007867441 -0.013788842 0.061526783 0.020353012 -0.033218265
-0.04793546 0.019115217 -0.010888108 0.06764146 0.07837553 -0.017120697 0.029458702 0.07819382
0.07062023 -0.0006040558 0.025197148 0.08519435 0.0285379 -0.018837128 0.0455034 0.03739321
0.085431255 0.021083377 -0.08325096 0.0911293 -0.037556045 0.03386881 -0.012677968 0.13434704
0.073863596 0.031943835 -0.03000007 -0.012117639 -0.056050345 -0.07410139 -0.027957924 0.075430155
0.035186514 0.08293582 -0.07256121 -0.10464053 -0.06847456 0.054851487 -0.019032076 0.07859924
-0.009268321 -0.10117702 0.007607981 -0.07069105 0.040707946 -0.077506125 -0.079726286 0.014825527
0.08190614 0.02154658 0.07925703 0.024204042 0.023970261 -0.095273554 -0.08037887 0.024309753

fc2.bias f4 [48]
00000000: 348e e6bc fb48 42bd 7bac 073e 3ca8 9e3d
00000010: f214 833d 7e3e cabd c02e 3cbb 43c6 0bbd
00000020: f36c 34bc 5f45 4d3d acc7 f13d b91f 1ebe
00000030: aef0 23bd af87 e83d 84fa 0b3d 81eb 61bd
00000040: 4323 d9bd 28de 07be 72e3 2dbc 4154 02be
00000050: 6c0f 81bd c148 af3d 34d2 873d bdce 69bd
00000060: 1113 4cbe cd57 e93d 47e8 9b3d b06a 703d
00000070: a080 ad3c 8943 36be 2f1a bdbd bf85 e4bc
00000080: 46a3 c63d 980a 393e 6f3f 7f3d 34c3 b7bd
00000090: fd4c 7dbd 6988 e6b9 b5a2 ba3d a6ae 993d
000000a0: 3019 d33c 5689 c03d 80e0 b4bd 4544 9abd
000000b0: c799 ddbc 7820 98bc b02a 99bc be79 d23d
-0.02814398 -0.04743288 0.1324939 0.07746932 0.064004794 -0.09875201 -0.0028714389 -0.034124624
-0.011012304 0.050114986 0.118056625 -0.15441789 -0.040024452 0.113540046 0.034174457 -0.055156235
-0.10602429 -0.1326834 -0.010613309 -0.12727453 -0.063017696 0.085587986 0.0663189 -0.057081927
-0.19929148 0.113937 0.07612663 0.058695495 0.021179497 -0.177992 -0.0923351 -0.027895806
0.09699111 0.18070447 0.062316354 -0.08972779 -0.061841 -0.00043970652 0.09113065 0.07504015
0.025768846 0.09401195 -0.088318825 -0.07532553 -0.027050866 -0.01857017 -0.018697113 0.10277127

fc3.weight f4 [24, 48]
00000000: 2b02 6e3d c045 58bb 1f92 b73d 3a4c 94bd
00000010: 0499 c0bd 3a63 d33d 6055 16bd e894 b83c
00000020: f70a 9a3d b463 4e3d 61f6 583d 4561 ffbd
00000030: 80dd 5a3b 14ed c33c 9230 7d3c 2020 09bc
00000040: 3139 fb3d e8a2 1c3e a709 2dbd 4e82 e53d
00000050: 049a 1f3d 9e44 a5bd e9c7 b4bd 8906 6bbd
00000060: a5d8 943d 539e 043d 6567 06be 7ecb f4bd
00000070: d08e 73bd bffa 353e 551a 423d 8743 1c3e
00000080: 402a af3c c367 d43c a2e8 973c ccd9 43bd
00000090: e43d efbd 60dc 213d 9b9a 8ebd 4036 22bc
000000a0: 72c8 a43d f0b8 f23c a0f7 9c3b 1a50 0dbe
000000b0: ad1f 64bd 123b 083e 7c46 b4bd 0b72 dfbd
000000c0: 10c9 f23c 14da 04be 0167 f2bd 28fb ab3c
000000d0: 00fe fd3a 88a0 9c3c 0e64 0a3e 08b8 a3bd
000000e0: 9c30 83bd e8ac dfbd 67bb a4bd d020 573d
000000f0: b2c4 0d3e a563 0abe 8460 7e3d 24e5 093d
00000100: 0341 94bd 14c0 b2bd ba24 0d3e 524e 7dbd
00000110: d0ab 64bd 707b eb3c 9058 23bd 1391 adbd
00000120: c24b 943d 0065 413c c62d ce3d 34cb 583d
00000130: a0a1 873d 4834 7a3d 2083 d9bb ae5d 853d
00000140: 80f0 7ebd 7810 81bc 1c04 0c3e ac9a ec3d
00000150: f305 c4bd b43b ffbd 7a9c b43d c496 b83d
00000160: 4a3e f8bd 38e1 aa3d 0f27 a1bd 38cf 3bbd
00000170: 33d4 9fbd c0e5 efbd 409d 6b3d 4014 043d
00000180: 0a3f e63d 40b7 d7bb e2c6 b7bb 3cad 9e3d
00000190: ac0c 883d 9046 363d e01b cd3d 8631 29bd
000001a0: 4d1c acbd 9c75 d3bd 374f f13d 1cd1 ae3d
000001b0: 0884 fe3d 03e0 0f3e ea93 85bd baf3 0ebd
000001c0: d605 9f3d 9fd7 b43b 6094 18be d33d f2bd
000001d0: 9ea0 05be 2d7e aa3d a8ce 543d 5500 03be
000001e0: 3def bf3d 5416 043e e001 b2bd 40fc 24bb
000001f0: 9793 bfbd e159 10be 4b11 0f3e adba 25bd
00000200: ee58 a6bd 240e 683d 4bde 1b3d d4aa e5bc
00000210: 1028 3b3c 6315 0c3d a0e6 c03d 60c4 d73d
00000220: c22d 4abd 26f8 06be 1897 d93d 60ec ea3d
00000230: a28f ae3d 3cdb 983d 9f77 c93d 7e56 11bd
00000240: 8ad7 123e e096 afbc 1e79 babd bc65 df3d
00000250: d446 a13d f841 043e dce1 f73d 481b e43d
00000260: a499 203d a264 f3bd 8e56 68bd b673 debd
00000270: d826 493d 7ca6 28bd 23a6 13be 1c86 e33d
00000280: 6c47 3cbd 5283 a7bd 8c6f 57bd a883 e53d
00000290: caf7 afbd ee62 02be f00d 763d 947c 08be
000002a0: 7cb6 39bd 34c0 0f3e 88ea b23c 0084 2fb9
000002b0: 7441 1b3d 18e8 f9bd 789d 15bd c06a 3bbb
000002c0: 11cd 87bd 281a be3d 7159 f9bd de06 013e
000002d0: 88bb 8f3c 3a9e 13be 7888 853c 90fe 39bd
000002e0: 4821 103d f884 88bd 8a8b 983d e0db b4bb
000002f0: ed49 fabd 1e77 36bd f43b 183d 862a 64bd
00000300: 9983 13be e036 c23d fa9c 053e 00f0 1a3d
00000310: b00e 56bc bc51 523d 987b 893d 6c43 27bd
00000320: 8b47 123d 7172 0b3d b04b d6bd a700 7a3d
00000330: 926d 65bd d0fb 7ebd 9a91 633d 1058 04be
00000340: a45d e2bd ecbe fcbd 9fac 403d ff88 02bd
00000350: 7abc bc3d 09c9 f93d 4855 343d bd36 fd3d
00000360: 2f8a d33d d606 8a3c 7266 8bbd 3acd 083e
00000370: b864 fd3d 79a3 5dbe 03b7 f73b 5522 cfbd
00000380: e00f 7fbd 71d9 fb3d e749 053e fc7f a5bc
00000390: 5412 abbc ecfb 813c 47c5 aa3c a061 0d3c
000003a0: e666 133e 2ca6 9abd 0e55 03bd e0b6 b3bc
000003b0: 3ba9 adbd 80f2 e8ba 76a3 a3bd 9b02 7ebd
000003c0: 602b 763c f0b5 103c 73be a0bd 7a02 1abd
000003d0: c365 09be 882e af3d 400e 4dbb 39ab 83bd
000003e0: 54ef bcbd 3e81 17be 6d7b 633d fb67 a33d
000003f0: a229 20bd 1f01 0fbe 2e62 ee3c e2bd 11be
0.058107536 -0.0033000559 0.08963417 -0.072411016 -0.094041854 0.1032166 -0.036702514 0.022531942
0.07521623 0.050388053 0.05296934 -0.124697246 0.0033396184 0.023916759 0.015453475 -0.008369476
0.12266768 0.15296519 -0.042245533 0.11206494 0.03896524 -0.08069728 -0.08827192 -0.05737928
0.07267884 0.032377552 -0.1312538 -0.119528756 -0.05946237 0.17771433 0.047388393 0.15260135
0.021382451 0.025928384 0.018543545 -0.04781513 -0.116817266 0.039516807 -0.069630824 -0.0099006295
0.080460444 0.0296292 0.0047902614 -0.13800088 -0.05569427 0.13303784 -0.08802506 -0.10910424
0.02963689 -0.12973815 -0.11836053 0.020993784 0.0019378066 0.019119516 0.1351473 -0.079940856
-0.06405756 -0.10921651 -0.08043557 0.052521527 0.13844565 -0.13514574 0.062103763 0.03366579
-0.072389625 -0.08728042 0.13783541 -0.06184227 -0.055827916 0.028745383 -0.03987938 -0.08474936
0.07241012 0.011803865 0.10067324 0.052928165 0.066226244 0.061085016 -0.006637946 0.065120086
-0.062241077 -0.015754923 0.13673443 0.11552939 -0.09571447 -0.12462559 0.08818908 0.09013131
-0.12121256 0.08343738 -0.07868778 -0.045851916 -0.07804146 -0.11713743 0.057523012 0.032245874
0.112424925 -0.0065831244 -0.0056084255 0.077478856 0.06643042 0.044500887 0.10015082 -0.041306995
-0.084038354 -0.103251666 0.11782687 0.08535978 0.12427527 0.14050297 -0.06522353 -0.034900405
0.07764785 0.005518868 -0.1490035 -0.11828198 -0.13049552 0.08324847 0.051954895 -0.12793095
0.09371803 0.12899143 -0.08691764 -0.0025174767 -0.093543224 -0.14096786 0.1397144 -0.04046123
-0.08122431 0.05665411 0.038053792 -0.028035559 0.011423126 0.034200083 0.09418988 0.105355024
-0.049360044 -0.13180599 0.10624522 0.11470866 0.085234895 0.07463691 0.09837269 -0.035482876
0.14340034 -0.021434247 -0.091051325 0.10908076 0.078748375 0.1291579 0.12103626 0.11138016
0.039209023 -0.118844286 -0.05672317 -0.10861914 0.04910931 -0.041174397 -0.14418845 0.11109564
-0.04596655 -0.08179344 -0.052596614 0.11206752 -0.08592184 -0.12733051 0.060071886 -0.13328773
-0.045340046 0.14038163 0.021840349 -0.00016738474 0.037904218 -0.122024715 -0.036527127 -0.0028597564
-0.0663091 0.09282333 -0.12175263 0.12600276 0.017545477 -0.14415827 0.016300425 -0.045408785
0.03518799 -0.06665987 0.0744849 -0.005519375 -0.122211315 -0.044547193 0.03716655 -0.055704616
-0.1440567 0.09483123 0.13048163 0.037826538 -0.013065025 0.05134748 0.06713027 -0.040835783
0.03571276 0.034044687 -0.10463655 0.06103578 -0.056012698 -0.062251866 0.05555878 -0.12924218
-0.11053017 -0.12341103 0.047039624 -0.03186893 0.092156366 0.121965475 0.044026643 0.12363956
0.10329091 0.016848963 -0.06806649 0.13359538 0.12372726 -0.21644391 0.0075596585 -0.1011397
-0.062271 0.12297333 0.13016473 -0.02020263 -0.020882763 0.015867196 0.020846022 0.008629233
0.14394721 -0.07551226 -0.032063536 -0.021937788 -0.08479544 -0.0017772466 -0.07990162 -0.062014204
0.01502499 0.00883244 -0.07848825 -0.037600018 -0.13417725 0.08553797 -0.0031289011 -0.064291425
-0.09225336 -0.14795396 0.05553763 0.07978817 -0.039102204 -0.13965271 0.02909955 -0.14232591

fc3.bias f4 [24]
00000000: e353 4abe 8881 113d a5e9 a33d 431d dfbd
00000010: 98a2 dabc df9f 833d 6ef8 3cbe e32e 8b3c
00000020: 910c 8cbd c219 903d 2045 cebd ba49 213e
00000030: e713 c93d a26b 703e fe9e 3dbe 883a cf3c
00000040: c0e4 0cbc 144a 5b3d cf7e 033e b2ff 573e
00000050: 6eee 9abd fe9d 41bc c322 e83d ccc1 7a3d
-0.19758563 0.03552392 0.080035485 -0.10894253 -0.026688859 0.06426977 -0.18454143 0.01699013
-0.06838334 0.07036163 -0.10071778 0.1575078 0.09818249 0.23478559 -0.18517682 0.025296465
-0.00859946 0.053537443 0.12841342 0.21093634 -0.07565008 -0.011817453 0.11334755 0.061219975

fc4.weight f4 [2, 24]
00000000: 90db 9e3d 5427 2bbe e4bb 1cbe 0039 a4bc
00000010: cba1 26be 8622 803d 309d 3e3e 498f 0a3e
00000020: 4031 993d 2390 3dbe f328 d93d 3d2d 8cbd
00000030: 763f 7b3d 263f 86be 3ab5 623e 3278 6e3e
00000040: d2ea bbbd e75e eebd c7cb 48be aaff 35be
00000050: 137a aabd cd13 56be cace 323e c817 afbc
00000060: 8dc5 fabd f80a 8f3d 65c1 633e 6c7c 11be
00000070: cf9b ca3d da77 61be 8fbe 67be a8b3 923e
00000080: a679 3f3e 1f20 afbd 3f85 85be 7ed9 efbd
00000090: 72b1 49be 108e 1b3e 7fe6 c0bd 9893 333e
000000a0: 3063 f4bc 60ba 4d3d da4b 023e 9a36 d6bd
000000b0: 70d6 cd3c 68fe 18be 63d9 c43d 4b9b c2bd
0.07756722 -0.16714221 -0.1530605 -0.020046711 -0.16272657 0.06256585 0.1861465 0.13531221
0.07480097 -0.18512015 0.106035136 -0.06844566 0.061339818 -0.26220053 0.22139445 0.23288038
-0.09175648 -0.11639195 -0.19608985 -0.1777331 -0.08324065 -0.20905991 0.17461696 -0.021373644
-0.12244711 0.06984514 0.22241743 -0.1420762 0.098929994 -0.22018376 -0.22631286 0.28652692
0.18698749 -0.085510485 -0.2607822 -0.11711405 -0.19696596 0.15190911 -0.09418964 0.17536771
-0.029832453 0.05022657 0.12724248 -0.10459633 0.025126666 -0.14940798 0.09611776 -0.09502276

fc4.bias f4 [2]
00000000: 0b01 7ebd 46ca 593e
-0.062012713 0.21268567

exp_avg f4 [96, 3]
00000000: 0000 0000 0000 0000 0000 0000 064b 683a
00000010: bec2 3c3a 2040 77b8 20b0 953b a61e 203b
00000020: 1d54 4638 9a3f 1ab7 f21b c736 0000 0000
00000030: 0000 0000 0000 0000 0000 0000 f08d f0bb
00000040: 659d 85bb d3e8 a038 b599 fb3a 4fca c23a
00000050: bd8a 78b8 752d 37bb b83d a2ba b8e4 fcb7
00000060: 1b0b 0c3b 9f3c 0a3a f8e7 d4b8 0000 0000
00000070: 0000 0000 0000 0000 4341 ca3a 7044 823a
00000080: c962 9c37 52d8 5ebb 34a5 edba ed73 a0b8
00000090: a12c 593b 67f7 b53a ba64 8938 0000 0000
000000a0: 0000 0000 0000 0000 a43e 9abb e0c5 30bb
000000b0: f545 1738 5bcb 613a 1095 513a 386e beb8
000000c0: 4c3e b2bb 0864 2fbb 9c8e 89b8 0000 0000
000000d0: 0000 0000 0000 0000 0000 0000 0000 0000
000000e0: 0000 0000 cd4f f5ba 1bc8 a4ba 5581 bc38
000000f0: 0000 0000 0000 0000 0000 0000 53c6 09bc
00000100: f6b8 70bb b7ff a839 bee6 88bb 3405 10bb
00000110: b504 aab8 3609 64b8 fc48 76b8 0000 0000
00000120: 1eaf f3b8 956d c7b8 0000 0000 0000 0000
00000130: 0000 0000 0000 0000 f0c5 653b 2efe 0a3b
00000140: 7076 f4b5 0000 0000 0000 0000 0000 0000
00000150: c07f a7b8 fa3f 98b8 bc4f f0b7 44ad 863b
00000160: 3e58 623a 6304 cfb9 0000 0000 0000 0000
00000170: 0000 0000 7a54 30bc 339e c1bb f06c 0d3a
00000180: 055e 5cbb e2cf 04bb 6189 e138 0d43 b7ba
00000190: 2f4a 6cba 6ec9 3b38 7474 493b 475a ce3a
000001a0: 9e70 94b8 0000 0000 0000 0000 0000 0000
000001b0: d510 b43b 299e 3d3b 0388 d3b8 7ec8 a93b
000001c0: cc2c 443b 257c bfb8 057a 2ebb 97a7 c2ba
000001d0: 189f 8838 0000 0000 0000 0000 0000 0000
000001e0: 0000 0000 0000 0000 0000 0000 7f33 32bb
000001f0: 96dc 9bba 9c16 07b9 0a32 6e3b 0c9e c13a
00000200: da51 bc39 4caa cdba a0f2 31ba 10e7 cdb8
00000210: 0000 0000 0000 0000 0000 0000 0000 0000
00000220: 0000 0000 0000 0000 0000 0000 0000 0000
00000230: 0000 0000 0538 be3b 6cde 753b 3659 3e37
00000240: 0000 0000 0000 0000 0000 0000 0000 0000
00000250: 0000 0000 0000 0000 5e8d 283a 3cd6 c138
00000260: f4b0 a638 7b97 38b8 27d8 cdb8 0000 0000
00000270: 307c 5439 9828 7db8 e614 14b7 0000 0000
00000280: 0000 0000 0000 0000 8626 5139 629a 5239
00000290: 0000 0000 8c31 c03b f15e 583b 8081 06b9
000002a0: 0000 0000 0000 0000 0000 0000 0000 0000
000002b0: 0000 0000 0000 0000 0000 0000 0000 0000
000002c0: 0000 0000 145c 173b 038d a63a 7ee8 b3b7
000002d0: 0000 0000 0000 0000 0000 0000 504b a639
000002e0: 0708 ea39 1277 34b9 725f 3438 49e3 a238
000002f0: 0000 0000 220a a03b ffbf f93a 6015 093a
00000300: e0a0 9f3a aa1e e339 69dc 8038 069d 183c
00000310: 851e ac3b 14c7 3eb7 f0e6 b7b8 8864 ebb9
00000320: fb6d c839 ef0a a438 9cfe d238 06e2 11b5
00000330: 00d5 f7ba 73b1 8aba 00a2 be38 49ac 4db7
00000340: ad8b 00b8 0000 0000 149f 86b9 0241 44b9
00000350: c6a9 9134 5d3a edbc f9e6 7bbc 4abe 3839
00000360: e51c cdba fd58 23ba 0885 4038 c0ea fcb8
00000370: d645 0bba 2a24 86b9 7ede 2438 ac9f 4a38
00000380: 0000 0000 3cb6 3c3b c16e dd3a 62ba 8a38
00000390: 4b88 14ba 0873 bf37 b846 e7b8 e550 3dbb
000003a0: 26f4 fdba 9dbb 2b38 a750 89ba 3258 5dba
000003b0: d04a 4d36 0000 0000 0000 0000 0000 0000
000003c0: 60ed 3bb9 ae87 acb9 4f5b 4bb7 85a9 f336
000003d0: 2830 5337 0000 0000 0f8a 75bb 4277 06bb
000003e0: c42f f337 fa9d a13b 1799 253b 0266 9037
000003f0: eb43 2c3b 1833 d43a a609 b7b7 f0f7 393b
0.0 0.0 0.0 0.0008861277 0.00072006497 -5.894911e-05 0.004568115 0.002443233
4.7285215e-05 -9.193924e-06 5.9339154e-06 0.0 0.0 0.0 0.0 -0.007341139
-0.004077601 7.6727614e-05 0.0019195589 0.0014861318 -5.9257018e-05 -0.0027950678 -0.0012378013 -3.0147246e-05
0.0021368924 0.00052733155 -0.00010152155 0.0 0.0 0.0 0.0015430826 0.0009938609
1.864265e-05 -0.0034003449 -0.0018130899 -7.6509874e-05 0.0033138173 0.0013882936 6.551431e-05 0.0
0.0 0.0 -0.0047071744 -0.0026973411 3.6066358e-05 0.0008613371 0.00079949293 -9.080436e-05
-0.0054395553 -0.0026762504 -6.559232e-05 0.0 0.0 0.0 0.0 0.0
0.0 -0.0018715799 -0.0012571843 8.9886285e-05 0.0 0.0 0.0 -0.008409101
-0.003673134 0.0003223398 -0.0041778972 -0.0021975758 -8.1071084e-05 -5.4368014e-05 -5.8718942e-05 0.0
-0.00011619761 -9.509471e-05 0.0 0.0 0.0 0.0 0.0035060607 0.0021208632
-1.8213887e-06 0.0 0.0 0.0 -7.986976e-05 -7.2598414e-05 -2.8647359e-05 0.0041100103
0.0008634365 -0.00039485385 0.0 0.0 0.0 -0.010762328 -0.0059087514 0.0005394956
-0.0033625376 -0.002026551 0.00010754425 -0.0013981775 -0.000901374 4.477187e-05 0.0030739577 0.0015743457
-7.0781665e-05 0.0 0.0 0.0 0.0054951706 0.0028933382 -0.00010086598 0.0051813712
0.0029933928 -9.1307134e-05 -0.0026623022 -0.0014850971 6.514619e-05 0.0 0.0 0.0
0.0 0.0 0.0 -0.0027191339 -0.0011891301 -0.00012883026 0.0036345744 0.0014771833
0.00035919138 -0.0015691011 -0.0006788168 -9.8182005e-05 0.0 0.0 0.0 0.0
0.0 0.0 0.0 0.0 0.0 0.005805018 0.0037516607 1.1345654e-05
0.0 0.0 0.0 0.0 0.0 0.0 0.0006429757 9.2428614e-05
7.948457e-05 -4.4010096e-05 -9.815423e-05 0.0 0.00020264159 -6.0357706e-05 -8.826353e-06 0.0
0.0 0.0 0.00019946144 0.00020084673 0.0 0.0058652814 0.0033015574 -0.00012827478
0.0 0.0 0.0 0.0 0.0 0.0 0.0 0.0
0.0 0.0023095654 0.001270682 -2.1446725e-05 0.0 0.0 0.0 0.000317181
0.0004463794 -0.00017210495 4.3004235e-05 7.767097e-05 0.0 0.0048840204 0.0019054412 0.00052293204
0.0012178682 0.0004331966 6.14457e-05 0.009314781 0.0052526616 -1.1371234e-05 -8.7691355e-05 -0.00044897594
0.00038228914 7.822166e-05 0.00010061005 -5.4345617e-07 -0.0018908083 -0.0010581448 9.090081e-05 -1.2259065e-05
-3.064766e-05 0.0 -0.00025676994 -0.00018716234 2.713188e-07 -0.028958494 -0.015374892 0.00017618496
-0.001564887 -0.0006231217 4.5900262e-05 -0.00012060022 -0.00053128356 -0.00025585416 3.930786e-05 4.830926e-05
0.0 0.0028795144 0.0016893969 6.615069e-05 -0.0005666061 2.282254e-05 -0.00011028111 -0.0028887328
-0.001937513 4.0944306e-05 -0.0010476307 -0.0008443623 3.0590927e-06 0.0 0.0 0.0
-0.00017922139 -0.00032907486 -1.2121002e-05 7.261699e-06 1.2587792e-05 0.0 -0.0037466323 -0.002051786
2.89901e-05 0.0049321624 0.002526825 1.7213639e-05 0.00262856 0.0016189544 -2.1819793e-05 0.0028376542

exp_avg_sq f4 [96, 3]
00000000: 0000 0000 0000 0000 0000 0000 89da b838
00000010: a0c1 6637 b2c3 4832 7ad5 483a a9ec c238
00000020: 34e2 a534 53d7 2d33 3287 b033 0000 0000
00000030: 0000 0000 0000 0000 0000 0000 fcae 253b
00000040: 6785 c039 ec74 7c35 000f c23a 3060 8339
00000050: 8a42 c234 5b80 9439 1527 3938 85c2 5a34
00000060: 6425 f938 50a7 0b36 b076 9833 0000 0000
00000070: 0000 0000 0000 0000 8d1e a338 03eb bd37
00000080: 973d ed32 3140 bf39 5a35 1738 6b2c 5734
00000090: 68d1 013a 5610 7238 3984 cd34 0000 0000
000000a0: 0000 0000 0000 0000 fe94 103b e175 9b39
000000b0: b2c2 1935 ab21 9539 af78 8638 290f 7c33
000000c0: f11e 883a 4cf6 1939 15f2 1d35 0000 0000
000000d0: 0000 0000 0000 0000 0000 0000 0000 0000
000000e0: 0000 0000 fb09 903a 0ad3 3a39 9159 cb34
000000f0: 0000 0000 0000 0000 0000 0000 d326 f23a
00000100: e913 dc39 1b15 3335 79e2 ac3a e400 3239
00000110: 19a8 1635 9497 4134 6df6 6634 0000 0000
00000120: 2042 0a35 f6c4 2f35 0000 0000 0000 0000
00000130: 0000 0000 0000 0000 1dcc b039 a02b 3c38
00000140: 6699 ad33 0000 0000 0000 0000 0000 0000
00000150: 2888 9239 fbc7 4b38 07d1 8d33 9558 493b
00000160: 7e63 9238 4379 9035 0000 0000 0000 0000
00000170: 0000 0000 2523 043c 6158 c23a 9823 0e36
00000180: dff4 303b 1e6a 003a 9243 8135 6ad2 3e39
00000190: 9c88 5738 b7af af33 3759 bc3a 1087 7339
000001a0: 6840 2f35 0000 0000 0000 0000 0000 0000
000001b0: ce79 1c3b 2ce8 d639 60ec 8735 916a 503b
000001c0: 8ffb 083a 654f a735 f189 803a 3cdf 3939
000001d0: 1641 c134 0000 0000 0000 0000 0000 0000
000001e0: 0000 0000 0000 0000 0000 0000 83d8 9a39
000001f0: b4a0 f837 752d 9834 244d b639 7dec d138
00000200: 20fe 8f34 0617 ce38 1dbd b437 45af 3733
00000210: 0000 0000 0000 0000 0000 0000 0000 0000
00000220: 0000 0000 0000 0000 0000 0000 0000 0000
00000230: 0000 0000 7aab 543b db16 da39 5bef 6935
00000240: 0000 0000 0000 0000 0000 0000 0000 0000
00000250: 0000 0000 0000 0000 9823 d637 9cf6 d036
00000260: 5172 d832 3846 4931 661b 5b32 0000 0000
00000270: 5a97 5239 4de6 1938 39a0 3633 0000 0000
00000280: 0000 0000 0000 0000 ca33 3835 d3e4 4535
00000290: 0000 0000 824f db3a dcdd 9e39 2568 1735
000002a0: 0000 0000 0000 0000 0000 0000 0000 0000
000002b0: 0000 0000 0000 0000 0000 0000 0000 0000
000002c0: 0000 0000 4909 1139 a8bf bc37 493e 8b33
000002d0: 0000 0000 0000 0000 0000 0000 5fbb 6039
000002e0: 15da 7f38 ca75 b233 5d7f be33 3f0a 7434
000002f0: 0000 0000 4c6c 8d3a 7fae 9a39 d712 2935
00000300: c1c8 a437 4af6 9e36 df61 de32 f268 e83a
00000310: 7691 b539 b885 5635 130b 093a baf0 2239
00000320: 8811 ac34 1e20 f235 91e7 0736 4cd1 5930
00000330: 7906 8538 6197 3f37 7d98 eb32 56fa 3d31
00000340: 856b 9432 0000 0000 3c2d a736 67b8 6936
00000350: eb54 dc2f 25fa 493d c278 ec3b 53d9 aa37
00000360: 30a7 1f38 0deb 1b37 2371 6832 d76b ba3a
00000370: d732 af38 06fd 0c35 c8d7 6b33 2d70 0e34
00000380: 0000 0000 8d2e fe38 8c12 6d37 31c6 4633
00000390: aa47 2538 b5bb 1b36 2328 8b33 092b e43a
000003a0: 3846 9139 9679 e834 7bd4 3b39 4e44 c037
000003b0: 8283 6133 0000 0000 0000 0000 0000 0000
000003c0: 8202 ed38 3886 d137 373c d633 b08d 9530
000003d0: 3a36 8a31 0000 0000 81d3 0f39 98dc 2f38
000003e0: 7de7 c433 a3fb 973a 09ba 3639 7230 3735
000003f0: 8c81 6e39 7d4f f937 43dd 6b33 feaf 3f3a
0.0 0.0 0.0 8.814509e-05 1.375415e-05 1.1686028e-08 0.0007661205 9.294722e-05
3.089823e-07 4.0475538e-08 8.2202305e-08 0.0 0.0 0.0 0.0 0.00252813
0.00036720486 9.404746e-07 0.0014805496 0.00025057932 3.618373e-07 0.00028324392 4.4143835e-05 2.0373598e-07
0.0001188021 2.0810003e-06 7.099641e-08 0.0 0.0 0.0 7.778136e-05 2.2639992e-05
2.7618439e-08 0.00036478185 3.6050893e-05 2.0039595e-07 0.00049521634 5.771251e-05 3.828043e-07 0.0
0.0 0.0 0.0022061463 0.0002965173 5.728026e-07 0.0002844458 6.412097e-05 5.868711e-08
0.0010385198 0.0001468297 5.8839333e-07 0.0 0.0 0.0 0.0 0.0
0.0 0.0010989303 0.0001781696 3.7876865e-07 0.0 0.0 0.0 0.0018474705
0.00041976504 6.671341e-07 0.0013190053 0.00016975735 5.612397e-07 1.802967e-07 2.1510068e-07 0.0
5.150523e-07 6.5479196e-07 0.0 0.0 0.0 0.0 0.00033721412 4.486332e-05
8.083843e-08 0.0 0.0 0.0 0.00027948734 4.8585218e-05 6.603846e-08 0.0030722965
6.9803544e-05 1.0764128e-06 0.0 0.0 0.0 0.00806502 0.0014827364 2.1180367e-06
0.0027001423 0.0004898625 9.630915e-07 0.00018198197 5.1387222e-05 8.181035e-08 0.001436985 0.000232246
6.5286304e-07 0.0 0.0 0.0 0.0023876312 0.00040990242 1.0127078e-06 0.00318018
0.00052254734 1.2465576e-06 0.0009806735 0.00017726136 3.5996408e-07 0.0 0.0 0.0
0.0 0.0 0.0 0.00029534483 2.9638737e-05 2.834528e-07 0.0003477122 0.00010009946
2.6820726e-07 9.827134e-05 2.1545735e-05 4.2767414e-08 0.0 0.0 0.0 0.0
0.0 0.0 0.0 0.0 0.0 0.003245084 0.0004159723 8.714757e-07
0.0 0.0 0.0 0.0 0.0 0.0 2.5527363e-05 6.227592e-06
2.5197695e-08 2.9289264e-09 1.2753707e-08 0.0 0.00020083543 3.6692527e-05 4.25209e-08 0.0
0.0 0.0 6.8620704e-07 7.37212e-07 0.0 0.0016732069 0.00030301407 5.6403434e-07
0.0 0.0 0.0 0.0 0.0 0.0 0.0 0.0
0.0 0.00013831737 2.2500593e-05 6.4840215e-08 0.0 0.0 0.0 0.00021432106
6.0999842e-05 8.3101966e-08 8.870732e-08 2.2727998e-07 0.0 0.0010789721 0.0002950318 6.298482e-07
1.9643807e-05 4.7374388e-06 2.5888708e-08 0.0017731471 0.00034631387 7.99158e-07 0.00052277854 0.00015539202
3.2050252e-07 1.8039752e-06 2.0251357e-06 7.924157e-10 6.34314e-05 1.1419733e-05 2.7426944e-08 2.764542e-09
1.7278362e-08 0.0 4.982254e-06 3.4827042e-06 4.0078105e-10 0.049310822 0.007216544 2.0366779e-05
3.806426e-05 9.293447e-06 1.3529902e-08 0.0014222813 8.35412e-05 5.252226e-07 5.4911453e-08 1.326559e-07
0.0 0.000121203346 1.4130619e-05 4.628072e-08 3.9405808e-05 2.320606e-06 6.479993e-08 0.0017407845
0.00027708872 4.3301833e-07 0.00017912865 2.291999e-05 5.25065e-08 0.0 0.0 0.0
0.00011301508 2.4977242e-05 9.9761046e-08 1.0881447e-09 4.0224934e-09 0.0 0.00013716334 4.1928695e-05
9.169069e-08 0.0011595379 0.00017426176 6.824331e-07 0.00022745709 2.9720128e-05 5.4916438e-08 0.00073122967

exp_avg f4 [96]
00000000: 0000 0000 5b92 2f39 f069 323a a85e 1f35
00000010: 0000 0000 e0d2 94ba 1997 223a 8123 d6b9
00000020: 4254 eb37 0000 0000 965b 1e39 5ee3 f5b9
00000030: 4ee4 0c3a 0000 0000 f6ae 63ba a51f 6439
00000040: 46f5 4eba 0000 0000 0000 0000 ea96 0dba
00000050: 0000 0000 2aa1 81ba d096 3fba 0487 b1b6
00000060: 933b 0eb7 0000 0000 196d 003a 0000 0000
00000070: c925 e438 51b9 82b9 0000 0000 87b2 d6ba
00000080: 2128 5fba ad05 55b8 47b3 413a 0000 0000
00000090: d354 7d3a 4ad5 913a 08fc 10ba 0000 0000
000000a0: 0000 0000 5c4c e2b9 5d41 3a39 56d3 11b9
000000b0: 0000 0000 0000 0000 0000 0000 7088 923a
000000c0: 0000 0000 0000 0000 1d26 fe37 7e24 2db7
000000d0: 6705 02b9 0000 0000 02c9 a837 e747 663a
000000e0: 0000 0000 0000 0000 0000 0000 1a27 a139
000000f0: 0000 0000 b69a 9837 3bc6 0037 72d2 d5b8
00000100: abf7 c238 8ba8 af3a 6e5f 96b7 25ef 2135
00000110: 654e f0b8 49ac 4db6 3b0c 51b7 3384 a5bb
00000120: d4f1 59b8 5233 dbb9 36f4 9636 2af4 ac39
00000130: 1486 dab8 7b19 2fba d36a 82b9 0000 0000
00000140: 1fce dd38 ae51 a935 3f00 b9b9 0e1b 4f3a
00000150: b2f2 b639 0b95 113a 545a f938 d2f1 cdba
00000160: b222 d7b9 0000 0000 74fd f239 0c6e 9d38
00000170: 129d b3b9 9f44 0e3a 9fc2 93b9 dc87 a6b9
0.0 0.00016743822 0.0006805947 5.936986e-07 0.0 -0.001135435 0.0006202325 -0.00040843713
2.8053419e-05 0.0 0.00015102173 -0.00046899443 0.0005374596 0.0 -0.0008685434 0.00021755563
-0.0007894825 0.0 0.0 -0.0005401211 0.0 -0.000988995 -0.00073085446 -5.290729e-06
-8.47773e-06 0.0 0.00048990693 0.0 0.00010878925 -0.00024933604 0.0 -0.001638011
-0.00085127546 -5.0788443e-05 0.000738908 0.0 0.0009663824 0.0011126187 -0.00055307196 0.0
0.0 -0.0004316297 0.00017762692 -0.00013907006 0.0 0.0 0.0 0.0011179578
0.0 0.0 3.0296907e-05 -1.03201e-05 -0.00012399779 0.0 2.0120762e-05 0.0008784518
0.0 0.0 0.0 0.00030737446 0.0 1.8191855e-05 7.675549e-06 -0.0001019583
9.2967726e-05 0.001340167 -1.7925831e-05 6.0325175e-07 -0.00011458694 -3.0647664e-06 -1.2460218e-05 -0.0050511598
-5.196205e-05 -0.00041809172 4.4987783e-06 0.00032988313 -0.00010420024 -0.0006679517 -0.00024875122 0.0
0.00010576494 1.2615253e-06 -0.00035286133 0.0007900455 0.00034894567 0.000555352 0.0001189007 -0.0015712327
-0.00041033846 0.0 0.00046346674 7.506841e-05 -0.00034258567 0.00054270955 -0.0002818303 -0.0003176321

exp_avg_sq f4 [96]
00000000: 0000 0000 eca1 b134 9071 3b36 8ad2 7030
00000010: 0000 0000 5c7e 1037 a172 a636 2199 7e35
00000020: b220 cd34 0000 0000 7a09 b534 ccfc ae35
00000030: b24c ee35 0000 0000 c86f fa36 d0bd 7635
00000040: 7690 6f36 0000 0000 0000 0000 fa60 7336
00000050: 0000 0000 9a50 c736 7e28 9636 b5d9 1e31
00000060: 6f91 f231 0000 0000 503e ad35 0000 0000
00000070: 2720 8a35 a273 3637 0000 0000 91b3 de37
00000080: e9ea 1337 e8c4 5335 1ed7 a536 0000 0000
00000090: 2aa0 0337 ce2d 3437 331b 5736 0000 0000
000000a0: 0000 0000 ac34 9735 7e8f 8e35 7f1c b134
000000b0: 0000 0000 0000 0000 0000 0000 6ceb 3937
000000c0: 0000 0000 0000 0000 1f28 d133 7c89 172f
000000d0: bc4d 3235 0000 0000 243c 0c32 e4e9 ba36
000000e0: 0000 0000 0000 0000 0000 0000 48d7 1035
000000f0: 0000 0000 d995 4b35 84b2 2731 0b8d 5f36
00000100: 06d1 9b33 f965 f536 9f9b e035 f447 c232
00000110: 5fca 8934 56fa 3d2f d53f 2933 40cf 3539
00000120: acc6 0c34 ef2b a936 7aaf dd30 a430 f134
00000130: ead2 1834 540a c536 d569 2d35 0000 0000
00000140: a75b c034 2b1d 3c2e 91c6 0335 e75c 8536
00000150: 9642 4f35 b5de 2836 ff53 3435 5ebf d037
00000160: 17e8 5f35 0000 0000 4a0a 4136 59f4 0d36
00000170: 2dbd d035 a6c8 8736 0295 b735 e660 b535
0.0 3.3086633e-07 2.7931274e-06 8.7610685e-10 0.0 8.612489e-06 4.96053e-06 9.4845205e-07
3.8208015e-07 0.0 3.3720772e-07 1.3037584e-06 1.7754703e-06 0.0 7.4635936e-06 9.1918355e-07
3.5697863e-06 0.0 0.0 3.626627e-06 0.0 5.9400454e-06 4.4750623e-06 2.3115778e-09
7.059661e-09 0.0 1.290764e-06 0.0 1.0291159e-06 1.0874968e-05 0.0 2.654808e-05
8.816577e-06 7.889016e-07 4.942426e-06 0.0 7.8455e-06 1.0739501e-05 3.2053329e-06 0.0
0.0 1.1265706e-06 1.0621586e-06 3.2989553e-07 0.0 0.0 0.0 1.1081673e-05
0.0 0.0 9.739619e-08 1.3782214e-10 6.6423286e-07 0.0 8.162747e-09 5.5704604e-06
0.0 0.0 0.0 5.3957456e-07 0.0 7.584145e-07 2.4403173e-09 3.3311687e-06
7.255771e-08 7.31344e-06 1.6734592e-06 2.2617293e-08 2.5665483e-07 1.7278387e-10 3.9406434e-08 0.00017338712
1.3110792e-07 5.041707e-06 1.612974e-09 4.492514e-07 1.4232833e-07 5.87226e-06 6.460153e-07 0.0
3.5829473e-07 4.2772157e-11 4.9090255e-07 3.974524e-06 7.7210404e-07 2.5163583e-06 6.7177456e-07 2.4884645e-05
8.341171e-07 0.0 2.876523e-06 2.1152866e-06 1.5552265e-06 4.046672e-06 1.367793e-06 1.3513752e-06

exp_avg f4 [48, 96]
00000000: 0000 0000 0400 0000 0400 0000 0000 0000
00000010: 0000 0000 0400 0000 0400 0000 0400 0000
00000020: 0400 0000 0000 0000 0400 0000 0400 0000
00000030: 0400 0000 0000 0000 0400 0000 0400 0000
00000040: 0400 0000 0000 0000 0000 0000 0400 0000
00000050: 0000 0000 0000 0000 0400 0000 0000 0000
00000060: 0000 0000 0000 0000 0400 0000 0000 0000
00000070: 0400 0000 0400 0000 0000 0000 0000 0000
00000080: 0400 0000 0400 0000 0400 0000 0000 0000
00000090: 0400 0000 0400 0000 0400 0000 0000 0000
000000a0: 0000 0000 0400 0000 0000 0000 0400 0000
000000b0: 0000 0000 0000 0000 0000 0000 0400 0000
000000c0: 0000 0000 0000 0000 0400 0000 0000 0000
000000d0: 0400 0000 0000 0000 0000 0000 0400 0000
000000e0: 0000 0000 0000 0000 0000 0000 0400 0000
000000f0: 0000 0000 0400 0000 0000 0000 0000 0000
00000100: 0400 0000 0400 0000 0000 0000 0000 0000
00000110: 0400 0000 0000 0000 0000 0000 0400 0000
00000120: 0400 0000 0400 0000 0000 0000 0400 0000
00000130: 0400 0000 0400 0000 0400 0000 0000 0000
00000140: 0400 0000 0000 0000 0000 0000 0400 0000
00000150: 0400 0000 0400 0000 0400 0000 0400 0000
00000160: 0400 0000 0000 0000 0400 0000 0400 0000
00000170: 0400 0000 0400 0000 0400 0000 0400 0000
00000180: 0000 0000 0000 0000 0000 0000 0000 0000
00000190: 0000 0000 0000 0000 0000 0000 0000 0000
000001a0: 0000 0000 0000 0000 0000 0000 0000 0000
000001b0: 0000 0000 0000 0000 0000 0000 0000 0000
000001c0: 0000 0000 0000 0000 0000 0000 0000 0000
000001d0: 0000 0000 0000 0000 0000 0000 0000 0000
000001e0: 0000 0000 0000 0000 0000 0000 0000 0000
000001f0: 0000 0000 0000 0000 0000 0000 0000 0000
00000200: 0000 0000 0000 0000 0000 0000 0000 0000
00000210: 0000 0000 0000 0000 0000 0000 0000 0000
00000220: 0000 0000 0000 0000 0000 0000 0000 0000
00000230: 0000 0000 0000 0000 0000 0000 0000 0000
00000240: 0000 0000 0000 0000 0000 0000 0000 0000
00000250: 0000 0000 0000 0000 0000 0000 0000 0000
00000260: 0000 0000 0000 0000 0000 0000 0000 0000
00000270: 0000 0000 0000 0000 0000 0000 0000 0000
00000280: 0000 0000 0000 0000 0000 0000 0000 0000
00000290: 0000 0000 0000 0000 0000 0000 0000 0000
000002a0: 0000 0000 0000 0000 0000 0000 0000 0000
000002b0: 0000 0000 0000 0000 0000 0000 0000 0000
000002c0: 0000 0000 0000 0000 0000 0000 0000 0000
000002d0: 0000 0000 0000 0000 0000 0000 0000 0000
000002e0: 0000 0000 0000 0000 0000 0000 0000 0000
000002f0: 0000 0000 0000 0000 0000 0000 0000 0000
00000300: 0000 0000 3840 d0ba 4c02 a3ba e19d 1637
00000310: 0000 0000 7836 62ba 6446 c0ba 90fd bfba
00000320: 0a56 ba37 0000 0000 ed01 f8b9 144c 5bba
00000330: 2ba2 25ba 0000 0000 0410 0abb c4b6 bbba
00000340: dc55 2bba 0000 0000 0000 0000 62ff 0cbb
00000350: 0000 0000 2d29 2bb9 fba8 89ba 3cc6 5636
00000360: 3efe ae36 0000 0000 b814 30ba 0000 0000
00000370: 3c04 87ba d02a 3138 0000 0000 2933 1eba
00000380: 7659 74ba 42be dcb9 be66 91ba 0000 0000
00000390: 200a ae37 0884 29ba ca4e 82ba 0000 0000
000003a0: 0000 0000 24ec 30b9 aae1 7e38 f05a 7cb8
000003b0: 0000 0000 0000 0000 0000 0000 e6f6 9fba
000003c0: 0000 0000 0000 0000 cc67 02ba 379a 0737
000003d0: 9c3f eaba 0000 0000 4e67 9137 e05d deba
000003e0: 0000 0000 0000 0000 0000 0000 6a4f 79ba
000003f0: 0000 0000 b768 efb9 2f0e 2637 64de d138
0.0 6e-45 6e-45 0.0 0.0 6e-45 6e-45 6e-45
6e-45 0.0 6e-45 6e-45 6e-45 0.0 6e-45 6e-45
6e-45 0.0 0.0 6e-45 0.0 0.0 6e-45 0.0
0.0 0.0 6e-45 0.0 6e-45 6e-45 0.0 0.0
6e-45 6e-45 6e-45 0.0 6e-45 6e-45 6e-45 0.0
0.0 6e-45 0.0 6e-45 0.0 0.0 0.0 6e-45
0.0 0.0 6e-45 0.0 6e-45 0.0 0.0 6e-45
0.0 0.0 0.0 6e-45 0.0 6e-45 0.0 0.0
6e-45 6e-45 0.0 0.0 6e-45 0.0 0.0 6e-45
6e-45 6e-45 0.0 6e-45 6e-45 6e-45 6e-45 0.0
6e-45 0.0 0.0 6e-45 6e-45 6e-45 6e-45 6e-45
6e-45 0.0 6e-45 6e-45 6e-45 6e-45 6e-45 6e-45
0.0 0.0 0.0 0.0 0.0 0.0 0.0 0.0
0.0 0.0 0.0 0.0 0.0 0.0 0.0 0.0
0.0 0.0 0.0 0.0 0.0 0.0 0.0 0.0
0.0 0.0 0.0 0.0 0.0 0.0 0.0 0.0
0.0 0.0 0.0 0.0 0.0 0.0 0.0 0.0
0.0 0.0 0.0 0.0 0.0 0.0 0.0 0.0
0.0 0.0 0.0 0.0 0.0 0.0 0.0 0.0
0.0 0.0 0.0 0.0 0.0 0.0 0.0 0.0
0.0 0.0 0.0 0.0 0.0 0.0 0.0 0.0
0.0 0.0 0.0 0.0 0.0 0.0 0.0 0.0
0.0 0.0 0.0 0.0 0.0 0.0 0.0 0.0
0.0 0.0 0.0 0.0 0.0 0.0 0.0 0.0
0.0 -0.0015888279 -0.0012436598 8.977456e-06 0.0 -0.00086293323 -0.0014669416 -0.0014647711
2.2212993e-05 0.0 -0.0004730368 -0.00083655235 -0.00063184154 0.0 -0.0021066675 -0.0014321436
-0.00065359264 0.0 0.0 -0.0021514525 0.0 -0.0001632317 -0.0010502631 3.2003873e-06
5.215202e-06 0.0 -0.00067169545 0.0 -0.0010300945 4.223996e-05 0.0 -0.0006034845
-0.0009321192 -0.00042103423 -0.0011093242 0.0 2.0747131e-05 -0.00064665126 -0.0009941694 0.0
0.0 -0.00016872637 6.0768485e-05 -6.0166174e-05 0.0 0.0 0.0 -0.0012204319
0.0 0.0 -0.00049745734 8.082533e-06 -0.001787174 0.0 1.7333452e-05 -0.0016965233
0.0 0.0 0.0 -0.000951043 0.0 -0.0004566365 9.897673e-06 0.0001000732
