Experimental_Models/Full_Model_Weight_Norm_Not_Last_v1.0.pt (torch_old, 892213 bytes, 33 tensors)

fc1.bias f4 [96]
000000 e6 f3 1d be bd 3a 97 3d 9b 8c c2 be d7 55 6d 3e
       -0.15425071 0.0738425 -0.37997898 0.23177277
000010 c4 32 20 3e 61 53 00 3f 38 d1 7e 3e a0 86 05 3f
       0.15644366 0.50127226 0.24884498 0.52158546
000020 fe ce 66 be c4 3d a3 bd 01 df 9a be 87 c5 2b bf
       -0.22539899 -0.07970765 -0.30248263 -0.6709828
000030 b2 3e 97 be eb 2b 0b be 58 fe 2b 3e 0d 75 76 3e
       -0.2954002 -0.13590972 0.16796243 0.24068089
000040 f3 97 b4 bd 6e 65 01 bf 4e 9f 91 be 62 0c 07 3f
       -0.088180445 -0.50545394 -0.28441852 0.5275327
000050 95 9c ac 3d 44 bb ad 3e 65 4b 1a bf d4 78 67 3e
       0.08428303 0.33931935 -0.6027129 0.22604686
000060 2d fa 7e 3e 60 84 4c 3e fc 21 29 be 45 94 3e be
       0.24900122 0.19972372 -0.1651687 -0.18611248
000070 c8 8a a6 3d 45 8a 1b bf ba 6f 40 3e ec 08 0e 3f
       0.08131939 -0.6075786 0.1879262 0.55482364
000080 af 02 13 3f c3 eb 07 bf 35 c6 62 3d 2c 8b 82 be
       0.5742597 -0.5309412 0.055364806 -0.25496805
000090 17 38 e0 3e 4a 9d 15 3c 60 77 e5 bd 75 c8 a7 be
       0.43792793 0.009131739 -0.112044096 -0.32770124
0000a0 29 c9 93 3e 90 0a c3 be fb a5 37 3e 69 c7 9a be
       0.2886441 -0.38093996 0.1793441 -0.30230263
0000b0 f4 30 2d 3e 84 ee 27 3e 94 d4 54 be ce 2c a1 be
       0.16913205 0.1639958 -0.20784217 -0.31479496
0000c0 28 9f 06 3e d6 81 af 3e a2 50 d7 be 54 0b a1 bd
       0.13146651 0.34278744 -0.42053705 -0.07863489
0000d0 50 0b 11 3d bf 8d a7 3e d8 43 b7 bd 4d 0b b8 3e
       0.03541118 0.3272533 -0.08948487 0.35946122
0000e0 cc 5a e5 be 58 a2 b3 3e 04 f8 e4 3a 7e 24 00 3f
       -0.44795835 0.35084796 0.0017468934 0.5005568
0000f0 39 3f 24 be 83 39 29 3e 38 01 8c be 7c 51 b1 3d
       -0.16039743 0.16525845 -0.2734468 0.0865812
000100 2d a1 1a bf 75 a2 b3 bd 8d 98 19 3f dc c2 cc bd
       -0.60402185 -0.087712206 0.599984 -0.09998104
000110 70 ff db be 17 d8 d6 bd 64 a3 0c 3f 99 41 b0 3e
       -0.4296832 -0.104904346 0.54936814 0.34425047
000120 63 4a 8e be d0 aa 21 3e f6 f2 ab be 6b 55 81 be
       -0.27791128 0.15787816 -0.33583802 -0.2526048
000130 6b e0 eb bd 74 b9 a4 3e 66 79 d5 3e 98 44 b1 3e
       -0.11517414 0.3217274 0.41694182 0.34622645
000140 84 10 cb be b0 85 13 be 8a f3 04 3f 26 94 f7 be
       -0.39661038 -0.14406466 0.5193411 -0.48355216
000150 94 7c 08 3f f6 26 4e bd 5d 82 d1 3e 3e 01 ed bc
       0.5331509 -0.050330125 0.40919772 -0.028931256
000160 af 5e 72 3e 0d a4 25 3f 76 9d 11 be 63 ca 22 3e
       0.23668931 0.64703447 -0.14220223 0.15897517
000170 48 50 c2 3e e0 e1 aa be b0 31 d6 3d 6e 10 91 be
       0.37951875 -0.33375454 0.10458696 -0.28332847

fc1.weight_g f4 [96, 1]
000000 55 b0 1c 3f 0a 36 37 3f 14 fa 05 3f 63 e6 f9 3e
       0.6120656 0.7156683 0.52334714 0.48808584
000010 af b7 1e 3f bc b3 1d 3f 31 43 f8 3e 02 0f 0a 3f
       0.6199903 0.6160238 0.48488763 0.5392915
000020 f5 12 28 3f 2e 53 30 3f fc 40 34 3f b7 b5 59 3f
       0.65653926 0.6887692 0.7041166 0.850429
000030 63 4f dd 3e ad aa 0c 3f ff 3d 18 3f 4c 80 fd 3e
       0.4322463 0.5494793 0.594696 0.49511945
000040 29 0a 2b 3f c1 53 19 3f 47 06 2f 3f dc 93 34 3f
       0.6681238 0.59893423 0.68368953 0.70538116
000050 cf c6 e1 3e 88 d0 3e 3f f2 b3 e7 3e d5 38 27 3f
       0.4409699 0.74536943 0.45254475 0.65321094
000060 a7 a8 50 3f a7 62 73 3e 70 29 3c 3f b2 1f 3b 3f
       0.81507343 0.23768102 0.7350073 0.7309524
000070 9c 92 0e 3f d7 65 39 3f bb 78 9d 3e 0a 7e 4e 3e
       0.5569246 0.7242102 0.30756173 0.20165268
000080 17 61 ec 3e fa 64 46 3f ef af 18 3f ff 92 ce 3e
       0.46167824 0.7749783 0.59643453 0.40346524
000090 81 c3 05 3f 83 df 04 3f d8 2a 0c 3f bb e0 0a 3f
       0.5225144 0.5190355 0.54752874 0.5424916
0000a0 c2 b7 cf 3e 29 73 0f 3f 6d 7b 17 3f 97 7a e6 3e
       0.40569884 0.56035095 0.5917271 0.45015404
0000b0 cd 19 41 3f 3b 69 15 3f 80 26 26 3f 62 cb 32 3f
       0.75429994 0.58363694 0.64902496 0.6984159
0000c0 64 7f 36 3f 8a f9 05 3f a1 8e 36 3f f2 e1 a1 3e
       0.7128813 0.5233389 0.71311384 0.31617695
0000d0 ec c3 2c 3f 2d b5 9d 3e 8b 2a 2f 3f 83 33 c1 3e
       0.67486453 0.3080229 0.6842429 0.37734613
0000e0 47 2d 10 3f 3f 9a 0b 3f 37 fc 07 3f 64 8d a1 3e
       0.5631909 0.54532236 0.53119224 0.31553185
0000f0 50 72 2d 3f ef ed 1f 3f 5e 9c 48 3f 43 ac 41 3f
       0.6775255 0.6247243 0.783636 0.75653476
000100 51 41 09 3f bf c2 27 3f a0 44 c8 3e 7d b3 df 3e
       0.5361529 0.65531534 0.39114857 0.43691626
000110 ba 70 f0 3e 86 9e 11 3f cc 1d 74 3f 9a eb 20 3f
       0.46961004 0.5688251 0.95357966 0.628595
000120 21 f4 3b 3f 3c 33 2f 3f d7 3f 18 3f 77 ad 20 3f
       0.73419386 0.6843755 0.5947241 0.62764686
000130 8f ca 11 3f 3c 9c 09 3f af 42 10 3f ef 7a f5 3e
       0.56949705 0.5375402 0.5635175 0.47945353
000140 ad 51 18 3f d2 5e 18 3f e8 c6 0d 3f 76 8f 25 3f
       0.5949963 0.59519684 0.5538163 0.6467203
000150 7a 0d 2c 3f bf 29 08 3f 19 ef 2b 3f bb d2 3f 3f
       0.67208064 0.531887 0.6716171 0.74930924
000160 35 24 b4 3e 60 fc 4f 3f 5e 71 23 3f f9 b2 38 3f
       0.35183874 0.8124447 0.6384486 0.7214809
000170 f9 1c 49 3f 4c 9e 10 3f 04 7f c5 3e 17 69 c8 3e
       0.78559834 0.5649154 0.38573468 0.39142677

fc1.weight_v f4 [96, 3]
000000 40 b6 c7 be 70 48 0a 3d 98 e0 f0 3e 9e 55 d2 3e
       -0.39006233 0.033760488 0.4704635 0.41080946
000010 26 47 e3 3e b2 8d b7 3e 5a df 2b 3e af f1 f2 3e
       0.4439022 0.35850292 0.1678442 0.47450015
000020 e2 9b 0c be 0f f3 9b 3d cd 14 02 be ef 0f d5 3e
       -0.1373134 0.07614719 -0.12703247 0.4161372
000030 50 38 da be c0 40 31 bc 2c 77 e6 be af 88 d2 be
       -0.42621088 -0.01081866 -0.45012796 -0.41119906
000040 73 0e bb 3e c7 eb 18 3e 11 45 cb be 58 77 8e be
       0.3653446 0.14933692 -0.3970113 -0.27825427
000050 80 94 0b 3c 77 d9 45 3e e4 b6 aa 3e b4 3b c5 be
       0.008519292 0.19321238 0.3334266 -0.38522112
000060 21 86 f5 3d e7 6e d2 3e 75 e1 f5 be e2 f4 07 bf
       0.11988474 0.41100237 -0.48023573 -0.53108037
000070 10 52 75 bd aa 73 de be c3 61 a3 3d fe a6 d8 3e
       -0.059892714 -0.4344762 0.07977631 0.42314905
000080 46 0b 0c bf fc f0 fe 3e a1 b9 e4 be 51 28 00 3f
       -0.547047 0.4979323 -0.44672874 0.5006152
000090 6b ca c0 be 28 92 40 be f8 8d c9 bd 6f d2 c8 3e
       -0.37654433 -0.18805754 -0.098415315 0.39223048
0000a0 ff 81 7f 3d 38 5d c2 be c1 6f 0a bf ee 3f 71 be
       0.062379833 -0.37961745 -0.5407677 -0.23559543
0000b0 48 01 9b bd c3 25 b3 be 34 ba 56 3e 99 3a 86 be
       -0.07568604 -0.34989747 0.20969468 -0.2621658
0000c0 8f 9c e2 be 39 9a f1 3e 47 11 8b be 32 03 98 3d
       -0.4426007 0.47187975 -0.2716162 0.074224845
0000d0 5f ae e2 3e c3 5f c0 be c7 3d 12 be 64 9d dc 3e
       0.4427366 -0.3757306 -0.14281379 0.4308883
0000e0 96 b1 0b 3f f9 68 03 3e e6 79 9c be 10 56 13 bf
       0.5456785 0.12833013 -0.3056175 -0.57553196
0000f0 8e cf 8c 3e 14 8a f1 3d 73 22 a9 be 0e 73 c0 be
       0.27502102 0.117939144 -0.33034095 -0.3758778
000100 08 da bd be 66 af 06 3f bf dc 76 3e 99 30 66 3e
       -0.37080407 0.52611387 0.24107645 0.22479476
000110 77 dc 94 3e 9e 5d e7 be c0 dc 76 bd 7c 85 ef be
       0.2907445 -0.45188612 -0.060269117 -0.46781528
000120 dd 7d 01 3f c6 cd f9 3e eb c4 ca 3e e8 cc c3 bd
       0.5058268 0.48789805 0.3960336 -0.09560567
000130 b8 97 4f be 40 f4 a1 bd 79 b8 e7 3e 2d 7d 51 be
       -0.2027272 -0.07907915 0.4525793 -0.20457907
000140 38 83 09 3f 39 65 df be 30 94 0a 3f 65 3f 40 bb
       0.5371585 -0.43631914 0.54132366 -0.002933466
000150 62 02 f5 be 28 60 a1 bd 52 2e 8c 3e 87 1a 04 3f
       -0.4785338 -0.078796685 0.2737909 0.5160298
000160 ba aa fc 3e 90 bd b1 3b df 5d 06 bd 1e 54 7a 3e
       0.49349004 0.005424209 -0.032804366 0.2444615
000170 ce 97 23 3e a4 ad d0 bd 46 11 1f be 98 9f a0 3d
       0.15975878 -0.10189369 -0.15533933 0.0784294
000180 8e 68 7f be 97 3a a2 3e 6e b7 a9 be b6 59 04 bf
       -0.24942228 0.31685326 -0.33147758 -0.5169939
000190 22 9d 64 be 56 4c 08 3f a1 d2 c1 3e 23 79 d7 be
       -0.22325566 0.5324148 0.3785601 -0.42084607
0001a0 4f 4b 00 be f4 94 93 be 9c 1e bf bd bc 6a 88 be
       -0.12528728 -0.2882458 -0.0933201 -0.26643932
0001b0 e8 07 8a bc 14 e5 aa be fe 24 af be c0 f7 3e bd
       -0.016849473 -0.33377898 -0.3420791 -0.04662299
0001c0 05 16 b6 3e 60 cc ad 3e a2 81 cd be aa 1b a8 be
       0.35563675 0.33944988 -0.40137964 -0.32833606
0001d0 fc ef 33 3e 58 f6 e2 be 36 6b 8e 3e 2e d4 86 be
       0.17572016 -0.4432857 0.2781617 -0.26333755
0001e0 94 6c a7 3e de 94 96 bd ff d8 77 3e e8 3d df 3e
       0.32700026 -0.07352613 0.24203871 0.43601918
0001f0 4a ba af 3e 0b c5 6c bc 8e c7 c2 3e 3e 1f de bc
       0.34321815 -0.014451276 0.38042873 -0.027114507
000200 bb b7 e1 be 59 ab 0e 3d 58 4c 7f 3d 35 03 d6 be
       -0.44085488 0.03483138 0.062328666 -0.41799322
000210 46 36 dd be e0 0a 75 be 2a f3 11 3f 35 f1 1c 3e
       -0.4320547 -0.2392993 0.57011664 0.15326388
000220 be 60 04 bf 8a 0f 31 be 82 16 57 be 0f ef 08 bf
       -0.51710117 -0.17291084 -0.2100468 -0.53489774
000230 0c 73 9a 3e 42 ce 1d be 0c 2b 09 3f 12 26 c5 be
       0.301659 -0.15410712 0.5358131 -0.38505608
000240 21 75 fb be 8e e8 a2 be 3e 73 d0 3e fa a1 b6 be
       -0.491128 -0.3181805 0.40712923 -0.35670453
000250 c0 5b 85 bc c4 e3 c3 3e 77 79 2f 3e db 19 00 3f
       -0.016279101 0.3825971 0.17136179 0.5003945
000260 ec 03 fb be 57 26 54 3e ce 9e 02 be 52 ee 2a 3e
       -0.4902643 0.2071775 -0.12755892 0.16692474
000270 fe f2 d7 be 4e b3 d8 be 58 9e a0 be ad b7 13 3e
       -0.42177576 -0.423243 -0.31370807 0.14425536
000280 3b ec 1e 3e 23 a7 6a be 2c 7d 84 be 5d 86 10 3f
       0.15519802 -0.2291532 -0.2587675 0.5645502
000290 6a be 05 be 24 3b 7a 3e 57 c8 0a bd de c2 90 be
       -0.13060918 0.24436623 -0.033882465 -0.28273672
0002a0 cd c4 df 3e 9a 33 42 be 55 bb 94 be 08 fd dc 3e
       0.43704835 -0.18964997 -0.29049173 0.43161798
0002b0 f8 bc a3 be 2e 8f 76 bb 05 17 de be df b6 7d 3e
       -0.3198011 -0.0037621963 -0.43376938 0.24776791
0002c0 7b a3 11 3e 3c 3b 9f bd fc dc 7f be 4c 88 34 3e
       0.14222519 -0.0777497 -0.24986643 0.17630118
0002d0 87 ed ab 3d 40 c8 01 3f de 33 df 3e 41 63 8e 3e
       0.08394914 0.5069618 0.4359426 0.278101
0002e0 68 01 a3 bd 31 8e 0a 3f 05 58 f3 be cd 25 03 bf
       -0.079592526 0.54123217 -0.4752809 -0.51229554
0002f0 28 8f b5 be 06 06 0d 3f 48 4c 0c 3e d3 7f fa 3e
       -0.35460782 0.55087316 0.13700974 0.48925647
000300 a3 b6 34 3e d7 d0 cb bd fa 1d f7 be 25 3d 07 bf
       0.17647795 -0.099519424 -0.48265058 -0.52827674
000310 8b 1b 9c 3e cc bf 02 be 2f 2f a4 3d 60 52 b2 be
       0.30489764 -0.12768477 0.08016812 -0.34828472
000320 b4 54 68 be 74 cd 70 be a0 0d c2 bc 2f 25 bc be
       -0.22688562 -0.23515874 -0.023688138 -0.3674712
000330 16 5f de be 98 dd 35 3e 00 e8 9a 3c 92 57 84 3e
       -0.4343192 0.17760313 0.018909454 0.2584806
000340 06 b4 d4 be f0 60 25 bd 3f 50 fe be 4d 50 0b 3f
       -0.41543597 -0.04037565 -0.49670598 0.54419404
000350 0c 90 04 bf ca 6a cc 3e 75 b8 6c bd 6b 41 f4 3e
       -0.517823 0.39925224 -0.0577931 0.4770616
000360 79 5e d7 3e 92 e6 de be c9 75 d1 3e c7 16 9a 3d
       0.42064264 -0.43535286 0.40910175 0.07523876
000370 4c f8 0c bf 92 f2 63 be 20 96 72 3d 2c 3f 27 bc
       -0.5506637 -0.22260502 0.0592252 -0.010207932
000380 9c a0 09 bf 27 3b a8 3d 32 b1 02 be 08 c2 0a bf
       -0.53760695 0.082144074 -0.12762907 -0.5420232
000390 31 0d f5 bd 6a 68 70 3e ab 70 d6 3e a8 3a bb 3d
       -0.11965407 0.23477331 0.41882834 0.09142047
0003a0 ce 01 ab be 69 ee d6 be 00 65 9c 3e 86 a1 e3 be
       -0.33399814 -0.41978768 0.30545807 -0.4445917
0003b0 08 0c e0 3d 2e c3 1b be bc 52 cc be 10 22 5f 3e
       0.10939795 -0.15211174 -0.3990687 0.21790338
0003c0 15 ad 8d be 76 1a 3d be 3b 92 fc be d2 0b 65 be
       -0.27671114 -0.18467125 -0.49330315 -0.2236779
0003d0 49 0c ed be d6 7d 99 be e8 ec 7e be 06 8c f8 3e
       -0.46298435 -0.29978818 -0.2489506 0.4854433
0003e0 7b 8f 5f bd be da 49 be d4 46 75 be 58 45 11 3f
       -0.054580193 -0.1971235 -0.239528 0.56746435
0003f0 47 38 04 3e 7c ac 52 be d5 73 17 3f 08 31 8a 3d
       0.12912093 -0.2057361 0.5916112 0.06747633

fc2.bias f4 [48]
000000 ae 9e b1 3d 4a ec 8a 3c 35 87 fd bd 01 36 ee 3d
       0.08672844 0.016958375 -0.12379304 0.11631394
000010 59 d8 a6 bd 61 37 3c be b4 16 89 3d 73 cf d6 3c
       -0.08146734 -0.183805 0.066937834 0.026221966
000020 74 72 cb 3c ee c9 37 bd c2 4f d9 bd 6e 9a 2f bd
       0.024834849 -0.04487031 -0.10610916 -0.042871885
000030 56 5f 99 3d a8 fb 25 3c bc 86 db 3d 87 d6 17 3e
       0.07488887 0.0101308 0.10719058 0.1482793
000040 50 27 d0 3c 6d 40 b4 3d 06 a9 a2 bd be 0c a4 3d
       0.02540937 0.08801351 -0.07942395 0.08010243
000050 37 2e 0d be 77 26 12 3e 3a 4e ef bd 01 50 b1 bd
       -0.13787161 0.14272486 -0.116848424 -0.08657838
000060 ed 92 84 bd 37 04 08 3c 88 83 52 bc 69 1b 1b be
       -0.06473336 0.008301786 -0.012848742 -0.15147175
000070 c4 3c c3 3d ae cc bb 3d 00 7a fc 39 05 81 3d 3e
       0.095330745 0.09169899 0.00048156083 0.18506248
000080 32 e1 0b be a8 0a 64 3d d2 0e 36 3e cf 09 37 3c
       -0.13660124 0.055674225 0.17779091 0.011171772
000090 63 3c 31 3e d7 39 eb bb 02 dd 86 3d 0c 86 18 3e
       0.17308192 -0.007178526 0.06585123 0.14894885
0000a0 c2 8e 0e be b9 94 fc bd 0f 1b 17 3e 27 1a 6f 3d
       -0.13921645 -0.12333054 0.14756416 0.05837455
0000b0 22 2f 00 3d 90 85 4b 3e 74 06 f6 3d d4 2d ac bd
       0.03129495 0.19875169 0.120129496 -0.084071785

fc2.weight_g f4 [48, 1]
000000 d5 0a 15 3f cc 6c 14 3f c6 81 11 3f b7 c0 14 3f
       0.58219653 0.5797851 0.56838644 0.5810656
000010 dc e8 1a 3f 96 c5 1b 3f 32 7a 11 3f 67 8f 2a 3f
       0.60511565 0.6084837 0.5682708 0.66625065
000020 d4 35 17 3f c8 94 06 3f 4c 36 11 3f 76 9c 12 3f
       0.5906651 0.5257077 0.56723475 0.5726999
000030 63 42 0f 3f b5 b1 11 3f 87 45 12 3f 94 1d 1a 3f
       0.55960673 0.56911784 0.5713734 0.6020138
000040 03 88 10 3f b2 65 22 3f 7d ca 2d 3f 1a 22 14 3f
       0.5645754 0.63436425 0.678871 0.57864535
000050 46 0a 17 3f ba df 1e 3f fa a4 23 3f f4 8d 16 3f
       0.5900005 0.6206013 0.6392361 0.58810353
000060 e9 2d 0d 3f 2a 22 16 3f 18 47 1f 3f 3a 2b 18 3f
       0.5514818 0.5864588 0.62217855 0.5944096
000070 c6 de 10 3f 8a ef 1d 3f c3 46 1c 3f 9b 35 1b 3f
       0.56589925 0.6169363 0.61045474 0.6062867
000080 0f a2 1f 3f 4f 7c 1e 3f c0 b1 22 3f e6 19 19 3f
       0.62356657 0.6190843 0.63552475 0.5980514
000090 d7 08 1f 3f 8d 53 2e 3f cb c5 17 3f 70 5a 21 3f
       0.62122864 0.6809624 0.59286183 0.6302862
0000a0 2a 40 10 3f c3 88 09 3f 45 4c 10 3f a7 29 1b 3f
       0.56347907 0.53724307 0.5636638 0.6061043
0000b0 ac 16 30 3f da 40 26 3f 30 db 15 3f b0 38 19 3f
       0.68784595 0.64942706 0.5853758 0.59852123

fc2.weight_v f4 [48, 96]
000000 70 92 c4 bb 10 55 99 bd 18 48 84 3d 0a 43 af bd
       -0.005998902 -0.074869275 0.06459063 -0.085577086
000010 dc 05 c7 bd b8 22 b4 bd 30 9d ca 3d 42 b7 a9 3d
       -0.097179145 -0.087956846 0.098932624 0.08286907
000020 58 6b 3f bd ec cd 29 bd 74 2d 1c bd 80 df e1 3a
       -0.04673323 -0.041456148 -0.038129285 0.0017232746
000030 98 f8 70 3d 38 52 ee 3c 75 0f c9 bd 80 18 b5 3b
       0.058830827 0.02909194 -0.09817401 0.0055266023
000040 da 1c a8 bd 2b 3d 92 bd 84 57 fe bc 40 ec ca bc
       -0.08208628 -0.07140573 -0.03104759 -0.024770856
000050 48 44 44 bd 64 28 29 bd 58 57 27 bc 78 de 47 3d
       -0.04791668 -0.041298285 -0.0102136955 0.048796147
000060 04 cf 91 bc 87 ea 71 bd 68 c5 e8 bc 78 3e 26 bd
       -0.017798908 -0.059061553 -0.028414443 -0.04058692
000070 30 80 e0 3b 3d 2b ca bd 5c 48 c7 bd 0c 90 3e 3d
       0.0068512186 -0.09871528 -0.09730598 0.046524093
000080 64 9a 69 3d d2 a5 21 bd 64 93 64 3d a0 76 c2 3c
       0.057032004 -0.03946478 0.055804625 0.023738205
000090 d0 d4 03 bd 0e 67 33 bd ac 72 89 3d 18 4f 77 3c
       -0.032185376 -0.043799452 0.06711325 0.015094541
0000a0 f0 61 87 bc a4 59 8a 3d 30 2c 51 3c 28 1a af bc
       -0.016526192 0.06755379 0.012766883 -0.021374777
0000b0 a6 be 82 bd 00 c4 04 bc 6c 71 81 3d b2 24 b3 bd
       -0.063840196 -0.008103371 0.06320462 -0.087472335
0000c0 8c ba b2 3d 3c c3 b5 3d dc 27 50 bd 80 73 92 3b
       0.08726987 0.088751286 -0.050819263 0.004469335
0000d0 bc 08 d8 bc 64 a8 cb bc f4 3a 85 bd a7 1d a1 bd
       -0.026371352 -0.024860568 -0.06505385 -0.07866984
0000e0 54 0b 25 bd 7b 55 c1 bd ca 66 ab bd 55 c0 91 bd
       -0.040294006 -0.09440132 -0.08369215 -0.071167625
0000f0 43 11 68 bd d8 7e 85 bc 34 cf 51 3d a0 b3 dc 3b
       -0.056657087 -0.016295835 0.051222995 0.00673528
000100 08 cd 5a bd 6c 83 e6 bc dc 5f 93 bd aa dd 89 3d
       -0.05341819 -0.028138839 -0.07196018 0.06731732
000110 44 d0 c3 bd 34 da ae 3d cc 76 d3 bc 58 7e eb 3c
       -0.09561208 0.08537713 -0.025813483 0.028746769
000120 1b 94 7f bd 80 62 61 bb 34 39 93 3c 70 82 bb bd
       -0.062397104 -0.0034390986 0.017971613 -0.09155738
000130 b6 ed 82 bd 2d 25 5b bd 78 4e 4e 3d 3a 9c b5 3d
       -0.06392996 -0.05350225 0.050367802 0.088676885
000140 98 7a 71 3d a9 0e 6c bd c1 19 2f bd 46 b7 2a bd
       0.058954805 -0.05763117 -0.04274917 -0.04167869
000150 c4 85 be 3d 40 11 0b bc d6 6c c3 3d c4 79 43 3d
       0.093028575 -0.008487999 0.09542243 0.047723547
000160 ec 9a 8b bc 0c aa 3e 3d b4 86 ac 3d 92 e4 75 bd
       -0.017041646 0.046548888 0.0842413 -0.060032435
000170 40 8a cb bd b3 4d b3 bd 10 8f 43 3d 78 0b 9e 3c
       -0.099384785 -0.08755054 0.047743857 0.019292578
000180 3e dd 74 3d 27 e8 18 3d 4e 8b 06 bd 40 99 fb 3b
       0.059781305 0.037330773 -0.032847695 0.007678181
000190 de 73 81 3d e0 f7 3e bc 19 3e dd bc 4f fc 5c bc
       0.06320928 -0.011655778 -0.02700715 -0.013487889
0001a0 29 e9 20 bd 0f 5d dc b3 cb 7a b7 bd d3 63 40 bd
       -0.03928486 -1.02614756e-07 -0.08958968 -0.0469702
0001b0 f0 af 82 bd 31 83 bc 3d 92 94 8e 3d 4c 9d 74 bb
       -0.06381214 0.0920471 0.06961931 -0.0037325202
0001c0 49 f0 a7 3b 87 c2 a2 3d a4 95 82 3d d4 75 22 3d
       0.00512508 0.079472594 0.06376198 0.03966315
0001d0 0a ae 1d ba 5e 3b 54 38 c1 f1 df bc a5 e3 31 00
       -0.00060150085 5.060003e-05 -0.027336957 4.581603e-39
0001e0 d2 63 b1 3d 0a 75 a3 3c a9 ba fd bc 59 9d b8 bc
       0.08661617 0.01995327 -0.030972796 -0.022535967
0001f0 b1 b1 89 3d 23 53 c9 3c 35 70 19 3c 4d be 1e 2a
       0.06723345 0.024575775 0.009365131 1.4099243e-13
000200 7b b7 8d bc fe a5 83 3d 14 ae 30 3c 67 15 42 00
       -0.017299404 0.06428145 0.010783691 6.06882e-39
000210 a5 99 0b bd 37 39 6b bd bb c9 66 2e 7a cf 6e bd
       -0.034082074 -0.05742761 5.2475118e-11 -0.058303334
000220 a2 ae 7f 3d db 96 82 bd e5 e9 9d bc 0e 74 7d 3d
       0.062422402 -0.0637643 -0.019276569 0.061878256
000230 63 07 88 3c 02 f6 85 3c 54 f0 30 3d c0 90 33 bd
       0.016605085 0.016352657 0.043197945 -0.043839216
000240 db 04 0a 3d 08 e5 43 b6 eb 77 68 bd 79 08 77 3d
       0.033696037 -2.9190578e-06 -0.056754988 0.060310815
000250 1d 30 15 80 f9 3d a0 bd 24 d6 d5 bd 0d 9c d2 3d
       -1.945805e-39 -0.0782432 -0.10441235 0.102836706
000260 97 11 6c 3d 23 a5 03 3d 27 f4 77 3d b7 9b 81 bd
       0.057633962 0.03213991 0.060535576 -0.063285284
000270 f5 9b 34 3d d2 8c 63 bd 14 6c 27 b8 61 28 80 3d
       0.044094045 -0.05555422 -3.991656e-05 0.06257702
000280 e7 5a ca 3d fa fa 2a bd ea 84 c6 3d 3c 2f 8a bd
       0.098806195 -0.041743256 0.0969332 -0.067472905
000290 b7 72 50 bd 38 19 02 3d 42 8b d4 3b d4 4d b5 bd
       -0.05089065 0.03176233 0.0064863274 -0.08852735
0002a0 d5 f5 bb 3d b9 aa 72 3a d4 51 9f 3d 8e ec 3a 3d
       0.09177748 0.0009257007 0.07779279 0.045635752
0002b0 c1 a0 bf bd 66 3e d3 3c 0c 7e df 3d 07 a2 02 00
       -0.09356833 0.02578659 0.109127134 2.41795e-40
0002c0 73 19 98 bd f2 4e 7e 3d eb 98 fc 3a 5b 68 4b bd
       -0.07426729 0.062087007 0.0019271647 -0.049660068
0002d0 07 55 a6 bd 87 83 86 bd e8 4f 97 3c ee cb 0d bd
       -0.081216864 -0.065680556 0.01847072 -0.03461831
0002e0 fc 68 db 3c 6c 4b 60 bc e7 c6 13 3c 86 56 99 3c
       0.026783459 -0.013689857 0.00901959 0.018718015
0002f0 96 72 0b 3d 91 5b 8a 3d 91 da 2f 80 a4 1e a3 bc
       0.034044825 0.06755746 -4.394675e-39 -0.019912072
000300 e0 a5 79 ba 3f 7b 0c 3d 0b 32 7b bd 63 8f f7 3c
       -0.00095233135 0.034297224 -0.06132702 0.03021974
000310 82 26 f0 95 9a 06 ae bc 61 d9 86 bd 20 9f b0 bd
       -9.699598e-26 -0.021243382 -0.065844305 -0.08624101
000320 56 97 a3 3d 94 81 92 bd 38 7d 92 3c b3 ca 4c 3c
       0.079878494 -0.07153621 0.017881975 0.012499499
000330 db 4f 77 bd f5 9f b2 3c 07 35 1c 3d e1 a9 b5 ba
       -0.06037889 0.02180479 0.03813651 -0.0013859832
000340 c8 24 35 bd 55 dc 6d 3d 8a 49 93 3d b6 a3 05 3d
       -0.04422453 0.058071453 0.07191761 0.03262683
000350 36 bc 43 bc 85 63 51 bd 93 12 e6 bc a6 60 6c bd
       -0.011946728 -0.0511203 -0.028085029 -0.05770936
000360 5e e4 ae 3d ee a1 9a bc 88 cc 9f 3c a5 bc 06 bd
       0.08539651 -0.018876042 0.019506708 -0.03289475
000370 22 22 f0 bb 5f de 9f 3d 1c 73 c6 bd 2a d6 1c 80
       -0.0073282877 0.07806086 -0.09689924 -2.648221e-39
000380 fc 4f 84 bd 56 d4 09 bd 97 98 91 bd e9 4b 1b 80
       -0.06460568 -0.033649765 -0.07109182 -2.50679e-39
000390 50 b4 c1 3a ff 95 76 bd ca 99 6b 3d fa f6 26 bd
       0.0014778469 -0.06020164 0.05751971 -0.04076288
0003a0 89 37 3a 3d bd f7 2b 3d 1e 16 2a 3d cd 98 6d 3d
       0.04546312 0.04198431 0.041525 0.05800705
0003b0 e1 0e 22 00 74 29 9e 3d 57 7a ed 3c bb 53 50 bc
       3.127744e-39 0.0772275 0.028989 -0.012715275
0003c0 90 f6 1f 00 ac b2 49 80 da 05 d5 3d 80 5d 49 3c
       2.93535e-39 -6.768087e-39 0.10401507 0.012290359
0003d0 18 6b d5 27 26 d1 27 3b 51 de 19 3d e2 17 7e bd
       5.9235487e-15 0.002560684 0.037565533 -0.062034495
0003e0 fd 90 12 bd dc f5 5e bd 7e c2 e6 b9 6a 42 1c 80
       -0.035782803 -0.05443369 -0.00044013927 -2.595219e-39
0003f0 ab 72 9e bd 2b a5 b8 bd 24 e5 bb 30 89 f3 9e 3c
       -0.07736715 -0.09015878 1.3671166e-09 0.019403236

fc3.bias f4 [24]
000000 b8 62 f5 3d 15 19 8d bd fb 29 a1 3c 21 c9 66 bd
       0.1198172 -0.0688955 0.019673338 -0.056344155
000010 85 d2 26 3e be 15 aa 3c 94 c3 3d 3e a5 81 51 bd
       0.16291244 0.02076232 0.18531638 -0.05114903
000020 8a 90 85 3c ad ac 45 be dc 92 0e be 22 17 8e bd
       0.016304273 -0.19304152 -0.1392321 -0.06938006
000030 c1 09 35 bd 8b e5 22 bb cf 0c e3 bd 2f 9d b1 bb
       -0.044198755 -0.0024856057 -0.110864274 -0.005420349
000040 14 1d 36 3d 99 84 9e 3d f6 2d 0d 3e 73 7b 0a bd
       0.044461325 0.07740135 0.13787064 -0.033809137
000050 13 98 09 3d ce f4 fd bd 08 b8 90 3c 0b a8 c5 bd
       0.033592295 -0.124002084 0.017665878 -0.09651192

fc3.weight_g f4 [24, 1]
000000 ec 23 25 3f 00 c8 17 3f 15 71 1c 3f 9a b2 1e 3f
       0.6450794 0.5928955 0.6111005 0.61991274
000010 cc f3 2a 3f 17 75 27 3f e3 97 03 3f 09 99 07 3f
       0.66778255 0.6541304 0.51403636 0.5296789
000020 14 18 0e 3f 9d a7 1b 3f 04 53 0a 3f 6e 6b 0f 3f
       0.5550549 0.6080263 0.5403292 0.560233
000030 57 4b 0a 3f 88 bc 12 3f 9b ad 17 3f a3 d6 0b 3f
       0.5402121 0.57318926 0.59249276 0.54624385
000040 92 e1 11 3f a1 6e 3c 3f 0f ef 1d 3f 26 f8 24 3f
       0.5698482 0.73606306 0.616929 0.64441144
000050 b8 39 19 3f 78 77 13 3f df 8b 0f 3f 9f 6f 1b 3f
       0.59853697 0.5760417 0.560728 0.60717195

fc3.weight_v f4 [24, 48]
000000 ca 54 94 3d 9c 0d 6d 3d 90 c8 79 bc f4 94 cf bd
       0.07242735 0.057874307 -0.015245572 -0.101358324
000010 60 5d 0b 3e 9e 9a 87 3d 35 7b ae bd 7c 31 12 3e
       0.13609838 0.06621288 -0.085195936 0.1427669
000020 26 0f bc 3d f6 af 85 3d 14 eb 69 3d ea 74 02 be
       0.09182577 0.065277025 0.057108954 -0.12739912
000030 97 60 8e bd 9c cf c5 3d 90 19 31 bd e0 9f de bd
       -0.06952017 0.09658739 -0.04323727 -0.108703375
000040 e4 d2 6f 3d 8e 5a 05 bd 58 e5 00 be 5f 23 c9 bd
       0.05855073 -0.032557063 -0.12587488 -0.098211996
000050 d6 3a c9 bd 40 3f 8d 3d c4 21 f2 bc 8c a2 05 3e
       -0.09825675 0.068968296 -0.029557116 0.13050288
000060 94 b3 bc bc 3e f9 f1 bd 98 1d df bd dc 9c 0e 3e
       -0.023034848 -0.11815117 -0.108943164 0.13927025
000070 52 72 d4 3d 80 12 cb ba f6 be b2 bd 27 f5 05 be
       0.10373367 -0.0015493184 -0.08727829 -0.130818
000080 d7 a6 10 be 08 0b c4 3d e4 a7 b0 bd be 05 90 bd
       -0.14126144 0.095724165 -0.086257726 -0.07032345
000090 f4 98 1d 3d cc e7 b6 3d 7e 2e 0a 3e 28 fd 16 3d
       0.038475946 0.089309305 0.13494298 0.036862522
0000a0 b0 d4 c6 3c 49 06 12 be ca ea 0a bd 84 a5 a3 3d
       0.02427134 -0.1426021 -0.03391532 0.07990554
0000b0 20 74 e7 3d 73 06 0c be 72 dd e0 bd bc 56 a1 bc
       0.11301446 -0.13674335 -0.10979737 -0.019694678
0000c0 11 be bd 3d 77 5f 46 3d 93 a4 54 3d 49 37 02 3e
       0.09264768 0.048430886 0.051914763 0.12716402
0000d0 fe 7b 8b 3c 4d 89 93 bd 96 2b 28 00 cf da ad 3d
       0.017026898 -0.072039224 3.689056e-39 0.08489
0000e0 fa 3d ed 3b fd 12 58 3d 5c 2e fc bd 29 0b 3b bd
       0.007240054 0.052752484 -0.1231353 -0.04566494
0000f0 8b ab 57 bd 79 e1 d9 bc a5 88 07 3e 1f 32 c7 3d
       -0.05265383 -0.026596772 0.1323572 0.09726357
000100 c1 26 99 3d 91 c1 27 3e d7 1a e4 bc df 54 5d bd
       0.07478095 0.16382433 -0.02784483 -0.054036018
000110 00 fd c6 3a c4 e8 1a 3d 9f ee 14 bd a9 97 88 ba
       0.0015181601 0.03781964 -0.03636038 -0.0010421175
000120 de a1 ab 3d 01 c8 a2 3d 80 02 69 3d 5b af 73 3c
       0.08380483 0.07948304 0.05688715 0.014873351
000130 93 32 26 80 f2 4e 60 bd a5 5f 3f 3c c1 f8 02 bd
       -3.507891e-39 -0.054762788 0.011680518 -0.03197551
000140 a1 98 6a bc ef 31 9c bd 53 17 ac bc 44 63 b9 3c
       -0.014318616 -0.076267116 -0.021007216 0.022630341
000150 1c d0 99 bd c7 a7 0b be 67 c0 52 ac 34 e2 c1 bd
       -0.07510397 -0.1363822 -2.99496e-12 -0.09466973
000160 b4 eb 56 3d cb 57 c2 bd f1 14 9b 3d 37 1d c0 3d
       0.052470878 -0.094894014 0.07572354 0.09380572
000170 e4 af 82 bc f9 4a aa 3d 2b 71 c8 bd 4a bf c5 3c
       -0.015953012 0.08315081 -0.0978721 0.024139065
000180 10 33 9a 3d 85 85 bd 3d de 90 bf 3c 3c 6d f5 3c
       0.07529271 0.092539825 0.023384508 0.029959314
000190 14 18 21 80 72 8c 0b 3e e6 b5 27 3a 8e 5c f6 bc
       -3.039209e-39 0.13627794 0.00063976494 -0.03007343
0001a0 0e bc a4 3d 7a 4c 4d 3c 85 66 f3 3b 40 50 09 00
       0.08043681 0.01253044 0.0074279928 8.55308e-40
0001b0 6f 36 1a 00 45 f3 0d 00 2e c4 4b bd 88 31 19 be
       2.40725e-39 1.28113e-39 -0.04974764 -0.14960301
0001c0 65 ad 17 00 4c 6c 78 bd d0 92 e0 bb 30 f9 12 00
       2.174419e-39 -0.060650155 -0.006853439 1.74243e-39
0001d0 49 97 06 3e 2d 7b f3 bd a2 63 9a 3d 0c 44 d6 bd
       0.13143648 -0.11888728 0.07538535 -0.10462198
0001e0 b4 5c 65 34 2f f3 0d 3d 38 68 d1 2c 39 c2 64 bd
       2.1361012e-07 0.034655746 5.951708e-12 -0.055849288
0001f0 c9 b6 0d 3d 56 b1 69 bc 83 4e 39 3b c7 c0 14 be
       0.034598146 -0.014263472 0.0028275556 -0.14526664
000200 56 cc 70 bd 63 63 0c be c8 a6 8f bc ba a9 21 3d
       -0.05878862 -0.13709788 -0.017535582 0.039468504
000210 8e 8a b6 bc 18 b5 57 3d a2 10 52 bd 75 bb a8 3d
       -0.022282865 0.05266294 -0.051285394 0.082388796
000220 c3 c1 16 3c 55 26 5a bd bc d4 48 3d e3 45 f0 3d
       0.00920147 -0.053259213 0.049031004 0.1173208
000230 c7 cc e6 bd a9 72 d0 bd 18 4f ce 3b cc 61 68 bd
       -0.11269527 -0.1017812 0.00629605 -0.05673389
000240 fa 9b 9b bd 4b f6 b3 3d 82 e6 23 3e c5 6a 8f 3d
       -0.075981095 0.08787211 0.160059 0.070027865
000250 15 0c 18 80 d2 55 9b 3c 34 a6 de bd 1e e9 cb 3d
       -2.208386e-39 0.01896182 -0.108715445 0.09956573
000260 9d 0e 43 bb d9 7c 25 3d 96 25 c6 bd ef 33 fa bc
       -0.002976335 0.040402267 -0.09675138 -0.030542342
000270 2f bd de bd 92 fd dc 3d 90 7a ee bc ae 1f e6 3d
       -0.10875928 0.10790552 -0.029111177 0.11236511
000280 40 a7 bb 3d 3e b4 fd bd ee 54 06 bc 76 50 19 80
       0.0916276 -0.12387894 -0.00819896 -2.324751e-39
000290 98 fa e9 3c 56 a0 01 be f9 9d db 3c 26 d7 04 3e
       0.028561875 -0.1265882 0.026808726 0.12972698
0002a0 dd 77 bc bd 80 4b 41 3d 44 06 09 3d a1 e7 14 3e
       -0.092025496 0.047191143 0.03345324 0.14541484
0002b0 ac 3d 3e bc 7a 36 3a 00 1b 26 45 bd 6e 06 da bc
       -0.011611383 5.346001e-39 -0.048132043 -0.026614394
0002c0 e2 92 5d 3d 81 5e a1 bd 55 95 da bd c6 31 12 3e
       0.054095156 -0.07879353 -0.10673014 0.142768
0002d0 24 24 f9 3c c2 71 d3 bd 17 ee 12 bd d3 2c 8a bd
       0.030412741 -0.10324432 -0.03587159 -0.06746831
0002e0 95 92 33 3d 71 23 05 be 3b e5 2c bd 07 21 8f 3d
       0.043840963 -0.13001801 -0.0422108 0.06988721
0002f0 7f 24 59 bd b3 2a 90 bc ab 3e a7 3d c1 30 bb bc
       -0.05301332 -0.017598486 0.0816625 -0.022850396
000300 a5 81 88 3c d6 16 f1 3d d2 3c 08 bd e0 f2 62 3d
       0.016663382 0.11771934 -0.033261128 0.055407405
000310 51 b6 b7 3d 58 75 8b 3d 88 32 c6 bd 10 a9 24 3e
       0.08970321 0.06809491 -0.09677607 0.16080117
000320 18 4e 94 bd a3 4f 02 80 73 95 bc bd 40 1c 9d bc
       -0.07241458 -2.12239e-40 -0.09208193 -0.01917851
000330 5f 37 b9 3d 4b d4 a3 bb bf 2a e6 3d 0e 63 d9 bd
       0.09043764 -0.0049996725 0.11238622 -0.10614596
000340 ca ab c9 3d 72 7d 83 bb e7 b2 a3 bd f8 1d 7f 3c
       0.09847219 -0.004012757 -0.07993107 0.01557111
000350 cc 74 8f 3d 5a 4b 8c bc 83 7e 3c 3d 5a bb 8e 3d
       0.07004699 -0.017125774 0.04601909 0.06969328
000360 a3 08 3b bd 2e 2a 63 3a fe 99 98 3c 21 51 b7 bd
       -0.045662533 0.0008665648 0.018628117 -0.08951021
000370 33 15 9d 3d 5b fe a7 3d 09 62 59 14 c1 b2 20 3e
       0.07670059 0.08202811 1.0975034e-26 0.15693189
000380 ab da a2 bd 83 76 dd bd 77 40 f5 3c 8b 82 21 3d
       -0.07951864 -0.1081362 0.029937966 0.039431136
000390 0c a3 29 3e bd 4b 96 bd 6b 52 0f 00 fb 56 b9 3c
       0.16566104 -0.07338665 1.407098e-39 0.022624483
0003a0 19 5d 7b bd 0f 1f fa bd 0d 30 13 3e 9e 2e 9a 3d
       -0.06136808 -0.12212955 0.14373799 0.07528423
0003b0 fc 59 69 3e c7 91 f4 bc 40 eb d2 3d 9e cf 8d b5
       0.22788233 -0.029854668 0.102987766 -1.0565743e-06
0003c0 47 db 3b bd 06 55 b6 3b bd 34 1b 3e cc 5f 2b bd
       -0.045863416 0.005564335 0.15156837 -0.041839406
0003d0 dd d6 8e bd 08 71 2f 3d e2 50 00 00 57 b3 ce 3d
       -0.06974576 0.042832404 2.9015e-41 0.100928
0003e0 f0 ab 86 3b e8 7f 20 3d 44 6c 5e 3d 1e ca 0b 80
       0.004109852 0.03918448 0.05430247 -1.082696e-39
0003f0 f6 75 d4 bc 8d 1a 90 3d c3 5f 25 bd 79 6d 1f be
       -0.025935154 0.07036314 -0.04037453 -0.15569104

fc4.weight f4 [2, 24]
000000 dc 0a 96 3d 08 11 56 bd 1d 69 ce 3d 65 e9 12 3d
       0.0732629 -0.052262336 0.100786425 0.035867114
000010 ec 52 6a be 2b f4 71 3e 4e 6a a4 bd d7 12 e2 3d
       -0.22883195 0.23628299 -0.080280885 0.1103875
000020 b5 54 21 3d e7 92 cc 3d 84 13 cf bc d8 8e 71 bd
       0.039387424 0.09988957 -0.02527786 -0.058974117
000030 d8 1c cf 3d 11 f6 6c be 48 0a 53 bd 10 59 97 3d
       0.101129234 -0.23140742 -0.051523477 0.07390034
000040 0f 55 63 be df 63 2a bd 27 00 62 bd 4d c2 70 3e
       -0.22200416 -0.04159915 -0.055175927 0.2351162
000050 59 25 89 bd 28 ad 0d be 28 19 e0 3d 71 c0 34 3e
       -0.066965766 -0.13835585 0.10942298 0.17651536
000060 2a 68 1d 3e cf d1 ce bd 24 56 33 3e 72 8e 47 be
       0.15371767 -0.100986116 0.17513329 -0.19487932
000070 30 cf f3 bd b4 18 6b be f1 72 3e be 1d 16 3a be
       -0.11904752 -0.22958642 -0.18598534 -0.18172498
000080 ac fb 74 bc cd ed 09 be ed 25 9b bd 8c 24 b8 3d
       -0.014952581 -0.1346962 -0.07575593 0.08991346
000090 46 aa ed 3d 75 af cb 3d 0c 85 40 3e 43 cc 67 3e
       0.11604743 0.09945575 0.18800753 0.22636513
0000a0 95 d1 45 be e0 b1 a7 3e 1e c2 e6 3d af 1d 16 3e
       -0.1931823 0.32752895 0.11267494 0.14659761
0000b0 4d b4 95 bd 3f cf f3 3d 93 34 30 be 36 70 75 3b
       -0.0730978 0.119047634 -0.17207555 0.0037450916

fc4.bias f4 [2]
000000 17 4b bf bd ea fd a3 3d
       -0.09340494 0.08007415

exp_avg f4 [96]
000000 00 00 00 00 86 4a dd b8 4d 02 31 3a cb 88 df b9
       0.0 -0.00010551982 0.0006752357 -0.00042635793
000010 00 00 00 00 6b b2 74 37 00 00 00 00 e4 ee f2 b9
       0.0 1.45850745e-05 0.0 -0.00046335824
000020 24 c6 69 b8 00 00 00 00 ed 89 9a 39 b9 ef 30 3a
       -5.573606e-05 0.0 0.00029475932 0.00067495886
000030 00 00 00 00 fd e5 97 b8 00 00 00 00 97 9f a0 36
       0.0 -7.24308e-05 0.0 4.7869503e-06
000040 1e 3a cf b6 1d ee 96 39 81 68 8c b9 91 fe 90 ba
       -6.1758465e-06 0.00028787638 -0.00026780742 -0.0011062195
000050 49 dc aa 39 00 00 00 00 b1 52 ff 39 00 00 00 00
       0.00032589052 0.0 0.00048699 0.0
000060 00 7d cc 37 00 00 00 00 15 00 8d 39 db 38 cc b8
       2.4376903e-05 0.0 0.00026893677 -9.738068e-05
000070 00 00 00 00 ee 7e 77 39 40 d7 b8 b8 00 00 00 00
       0.0 0.0002360304 -8.813897e-05 0.0
000080 ef a2 38 b9 00 00 00 00 78 6c b7 b9 00 00 00 00
       -0.00017608305 0.0 -0.00034985295 0.0
000090 04 00 00 00 e5 c3 94 38 00 00 00 00 69 b2 10 b6
       6e-45 7.093678e-05 0.0 -2.156152e-06
0000a0 b7 43 45 39 d1 23 5b 39 b6 0b 95 b9 b9 35 2d 3a
       0.0001881261 0.0002089881 -0.0002842822 0.00066074316
0000b0 00 00 00 00 66 b7 4a b9 00 00 00 00 8f 32 b7 38
       0.0 -0.00019332542 0.0 8.735537e-05
0000c0 00 00 00 00 00 00 00 00 07 13 95 38 bc 15 c3 b7
       0.0 0.0 7.108418e-05 -2.3255932e-05
0000d0 00 00 00 00 63 fc 1d ba 98 fe 99 39 e9 c3 25 b9
       0.0 -0.0006026683 0.0002937212 -0.00015808608
0000e0 de e3 78 39 dc 5d c8 b8 e6 32 d9 b6 00 00 00 00
       0.0002373601 -9.554226e-05 -6.4730293e-06 0.0
0000f0 44 8e 0d 39 a0 44 04 b8 00 00 00 00 c7 55 12 39
       0.00013499806 -3.1535164e-05 0.0 0.000139556
000100 04 86 20 3a a1 7b a6 b6 ee 52 a7 ba 00 00 00 00
       0.00061234855 -4.961578e-06 -0.0012765804 0.0
000110 00 00 00 00 f0 e0 a6 b8 d0 b2 5f b8 e8 41 5c 39
       0.0 -7.957395e-05 -5.3333875e-05 0.00021005387
000120 09 ff dc 39 b8 07 15 ba 5c 7b 67 3a 17 b6 1c 39
       0.00042151686 -0.0005685049 0.00088303327 0.00014945153
000130 96 a1 6c 38 1b 88 26 ba 2d 55 da b9 00 00 00 00
       5.6417273e-05 -0.0006352679 -0.0004164366 0.0
000140 00 00 00 00 00 00 00 00 82 40 f4 b8 00 00 00 00
       0.0 0.0 -0.00011646842 0.0
000150 64 16 e8 b9 b7 cb e3 38 99 df 02 3a 00 29 36 39
       -0.0004426717 0.00010862148 0.0004992425 0.00017372146
000160 dc 87 4f ba ff 08 56 ba 71 11 9a 39 6a 62 3b b9
       -0.0007916668 -0.00081647927 0.00029386164 -0.00017870372
000170 c4 57 9e b9 00 00 00 00 00 00 00 00 00 00 00 00
       -0.000302015 0.0 0.0 0.0

exp_avg_sq f4 [96]
000000 00 00 00 00 66 58 c4 35 ff 6d c0 36 88 63 4f 36
       0.0 1.4628865e-06 5.734851e-06 3.0903338e-06
000010 00 00 00 00 06 2c ba 31 00 00 00 00 88 16 6c 37
       0.0 5.4183174e-09 0.0 1.4071942e-05
000020 79 9a 61 36 00 00 00 00 00 11 2b 36 d2 c1 60 37
       3.3617528e-06 0.0 2.549088e-06 1.3396568e-05
000030 00 00 00 00 00 80 ee 35 00 00 00 00 e4 47 23 2f
       0.0 1.7769635e-06 0.0 1.4850304e-10
000040 6d 0a e9 2f 81 54 cc 35 82 9e 28 36 c5 c9 ce 37
       4.238986e-10 1.5223778e-06 2.5126214e-06 2.465107e-05
000050 70 61 c1 36 00 00 00 00 31 7d 75 37 00 00 00 00
       5.7631914e-06 0.0 1.4632286e-05 0.0
000060 78 46 ac 36 00 00 00 00 99 2a d8 35 00 1d 93 33
       5.134203e-06 0.0 1.6105652e-06 6.850496e-08
000070 00 00 00 00 96 30 33 36 28 8d 9e 36 00 00 00 00
       0.0 2.670136e-06 4.7251997e-06 0.0
000080 4b f5 b3 34 00 00 00 00 99 a7 a6 35 00 00 00 00
       3.3519822e-07 0.0 1.2416741e-06 0.0
000090 6b b4 ba 21 0f de 25 37 00 00 00 00 be 74 8d 2e
       1.2651606e-18 9.886468e-06 0.0 6.432675e-11
0000a0 eb f8 56 35 c4 b0 68 34 23 84 82 36 af 3e 5e 37
       8.0083436e-07 2.167099e-07 3.8896846e-06 1.3246826e-05
0000b0 00 00 00 00 41 e8 88 34 00 00 00 00 d4 4d 9a 33
       0.0 2.550096e-07 0.0 7.185341e-08
0000c0 00 00 00 00 00 00 00 00 a7 30 7a 33 2e d2 34 34
       0.0 0.0 5.825191e-08 1.6840269e-07
0000d0 00 00 00 00 c6 76 6d 37 b7 52 fe 35 d5 f7 40 36
       0.0 1.4153955e-05 1.8948548e-06 2.8754487e-06
0000e0 2c b7 6c 36 b6 ec eb 34 c2 83 81 2f 00 00 00 00
       3.527336e-06 4.394439e-07 2.3558583e-10 0.0
0000f0 1f 3d 1d 35 f7 ed 05 36 00 00 00 00 86 b9 82 34
       5.8576e-07 1.9957058e-06 0.0 2.4349373e-07
000100 82 e1 82 37 f7 2c f3 2e 65 0a 23 37 00 00 00 00
       1.5602218e-05 1.1058348e-10 9.717977e-06 0.0
000110 00 00 00 00 a1 0d 86 36 5c 79 78 32 86 9c 0d 36
       0.0 3.995098e-06 1.4463094e-08 2.1101746e-06
000120 05 5f 75 37 52 1b 97 36 2e 39 42 37 d2 bd f7 35
       1.4625261e-05 4.503331e-06 1.1576614e-05 1.8458179e-06
000130 a3 c7 6c 34 1d ac 85 36 c8 63 a7 36 00 00 00 00
       2.205184e-07 3.9837455e-06 4.988604e-06 0.0
000140 00 00 00 00 00 00 00 00 f0 fa 9f 36 00 00 00 00
       0.0 0.0 4.7677822e-06 0.0
000150 8b b8 6c 36 c9 b9 d0 36 bb 1e 0c 37 f2 77 73 35
       3.5274159e-06 6.2205113e-06 8.351805e-06 9.06991e-07
000160 ad 39 58 37 52 be b9 37 0d 5a ae 34 63 ae a2 34
       1.2888032e-05 2.2142343e-05 3.2475546e-07 3.0301734e-07
000170 de 02 83 35 00 00 00 00 00 00 00 00 00 00 00 00
       9.761095e-07 0.0 0.0 0.0

exp_avg f4 [96, 1]
000000 00 00 00 00 46 01 b6 bb 00 e6 37 b7 5a e5 8f 39
       0.0 -0.005554351 -1.0961201e-05 0.00027445966
000010 00 00 00 00 0f 89 3b b8 00 00 00 00 e3 9f f0 3b
       0.0 -4.471192e-05 0.0 0.0073432787
000020 35 12 42 3b 00 00 00 00 04 23 81 b9 cd 20 1c bb
       0.0029612903 0.0 -0.00024630886 -0.0023823262
000030 00 00 00 00 04 f7 87 3b 00 00 00 00 8e 7a f6 35
       0.0 0.0041493196 0.0 1.8364096e-06
000040 75 af 08 b7 9c 42 71 b9 e4 66 6d ba 8c a3 79 b9
       -8.1470835e-06 -0.00023008365 -0.00090561644 -0.00023807416
000050 f3 a6 8d bb 00 00 00 00 34 27 0a bc 00 00 00 00
       -0.0043228804 0.0 -0.008432198 0.0
000060 b8 f0 1c bc 00 00 00 00 eb 6c 51 ba 4d 97 83 b8
       -0.009578876 0.0 -0.00079889473 -6.274749e-05
000070 00 00 00 00 af 90 ba bb b5 d5 9d 3a 00 00 00 00
       0.0 -0.005693517 0.0012041839 0.0
000080 ec 31 4a b7 00 00 00 00 6f 06 0e b9 00 00 00 00
       -1.2051762e-05 0.0 -0.00013544572 0.0
000090 04 00 00 80 e4 87 30 3b 00 00 00 00 be 9f 11 b6
       -6e-45 0.0026936466 0.0 -2.1699666e-06
0000a0 cc 37 0b 3a 47 53 15 3b f1 67 27 3b eb f4 31 ba
       0.00053107436 0.0022785233 0.0025544132 -0.000678851
0000b0 00 00 00 00 15 69 d3 b9 00 00 00 00 fc af a3 39
       0.0 -0.00040323348 0.0 0.000312209
0000c0 00 00 00 00 00 00 00 00 3d f4 89 39 e0 53 5f ba
       0.0 0.0 0.00026312648 -0.0008519273
0000d0 00 00 00 00 5d 82 d5 3b 64 c6 ff 39 ce b3 4b 3b
       0.0 0.0065157847 0.00048785203 0.0031082514
0000e0 47 e3 50 bb cc 7c e3 ba de 44 99 b6 00 00 00 00
       -0.003187375 -0.0017355918 -4.5677725e-06 0.0
0000f0 4d 18 05 3a 77 8b 02 bb 00 00 00 00 78 20 1a 3b
       0.00050771685 -0.0019919553 0.0 0.0023517888
000100 7e 5b 23 bb c8 81 7b b6 6b 2b 37 3a 00 00 00 00
       -0.002492636 -3.7477457e-06 0.0006987366 0.0
000110 00 00 00 00 8e a8 4a ba 8d 7c f2 b6 13 48 d5 ba
       0.0 -0.0007730805 -7.2266616e-06 -0.001627209
000120 e8 4c 3e bb cd 17 82 b9 87 47 cb b9 5a c7 69 b8
       -0.002903754 -0.00024813265 -0.0003877247 -5.573719e-05
000130 67 5e 1c b8 a8 f0 4f 38 16 33 05 3a 00 00 00 00
       -3.7281217e-05 4.9576774e-05 0.000508116 0.0
000140 00 00 00 00 00 00 00 00 29 a9 13 ba 00 00 00 00
       0.0 0.0 -0.0005632812 0.0
000150 57 79 01 3a 1a 32 69 3b d8 31 5a 39 9b f8 fb 3a
       0.00049390405 0.0035582841 0.00020808668 0.001922387
000160 a0 08 d5 3a f9 62 06 3c 4a 5f 14 3b a2 0e 95 b9
       0.0016253181 0.008202308 0.0022639805 -0.00028430397
000170 16 c1 dd 38 00 00 00 00 00 00 00 00 00 00 00 00
       0.00010574066 0.0 0.0 0.0

exp_avg_sq f4 [96, 1]
000000 00 00 00 00 0b 88 8f 39 41 c4 2c 3a 3f 39 a8 36
       0.0 0.00027376445 0.00065905234 5.0134545e-06
000010 00 00 00 00 ec b0 81 31 00 00 00 00 55 1b b5 3a
       0.0 3.774508e-09 0.0 0.001381735
000020 99 c9 1e 39 00 00 00 00 92 9b ba 38 42 12 28 3a
       0.00015143155 0.0 8.8981484e-05 0.0006411412
000030 00 00 00 00 e0 c4 98 39 00 00 00 00 f1 ef 81 2e
       0.0 0.00029138383 0.0 5.908863e-11
000040 79 7d 0b 30 56 90 8d 38 42 7c 16 37 5a 55 63 38
       5.0746213e-10 6.7502886e-05 8.969628e-06 5.4200507e-05
000050 c8 eb 5e 3a 00 00 00 00 a2 2b 11 3b 00 00 00 00
       0.0008503762 0.0 0.0022151251 0.0
000060 31 b2 8f 3a 00 00 00 00 6c fe c6 38 5e 22 1f 33
       0.0010963139 0.0 9.4887655e-05 3.705133e-08
000070 00 00 00 00 6d f2 2b 3a c1 3e b7 38 00 00 00 00
       0.0 0.00065592566 8.737809e-05 0.0
000080 dc 04 55 34 00 00 00 00 f9 3a 89 38 00 00 00 00
       1.9838939e-07 0.0 6.5436536e-05 0.0
000090 88 27 7d 21 f8 72 16 39 00 00 00 00 8f 8f ab 2e
       8.5772053e-19 0.00014347944 0.0 7.801681e-11
0000a0 06 54 93 38 f4 6b 8c 38 85 1c e4 39 0e 4a 7b 38
       7.025157e-05 6.695828e-05 0.00043508798 5.9912032e-05
0000b0 00 00 00 00 3d e8 48 35 00 00 00 00 6d a5 75 35
       0.0 7.4843757e-07 0.0 9.151034e-07
0000c0 00 00 00 00 00 00 00 00 a2 73 8b 36 f1 bf 70 37
       0.0 0.0 4.1559842e-06 1.4349805e-05
0000d0 00 00 00 00 56 09 d2 3a 98 e1 99 36 4c 03 a3 39
       0.0 0.0016024511 4.586018e-06 0.0003109224
0000e0 d8 ec e1 39 09 a5 0c 38 47 8d 21 2f 00 00 00 00
       0.00043091807 3.3532302e-05 1.4693056e-10 0.0
0000f0 1d 43 da 37 3f 07 ca 38 00 00 00 00 21 91 1a 38
       2.6018877e-05 9.63346e-05 0.0 3.6851623e-05
000100 d4 ac a4 39 5d 25 b4 2e 3b 77 8a 37 00 00 00 00
       0.00031409285 8.1920894e-11 1.6506403e-05 0.0
000110 00 00 00 00 88 78 4b 38 bb 8f 7a 31 a5 b8 6b 39
       0.0 4.8511225e-05 3.646149e-09 0.00022480132
000120 ce 4f 1a 3a d4 99 5f 36 33 af de 37 62 40 e1 35
       0.00058865256 3.331913e-06 2.6546046e-05 1.6782544e-06
000130 5f e5 94 34 f5 cd d6 36 2e 36 20 39 00 00 00 00
       2.7734038e-07 6.4016735e-06 0.00015278973 0.0
000140 00 00 00 00 00 00 00 00 50 4f 82 36 00 00 00 00
       0.0 0.0 3.883535e-06 0.0
000150 94 98 67 36 44 af 01 39 44 71 29 37 03 07 e0 37
       3.4510495e-06 0.0001236769 1.0099557e-05 2.6706146e-05
000160 ff 6d 8f 39 1c 1e 5f 3b c4 2e 4b 38 22 79 a6 37
       0.0002735704 0.0034045046 4.8442525e-05 1.9845149e-05
000170 8a 2b 6b 38 00 00 00 00 00 00 00 00 00 00 00 00
       5.6068915e-05 0.0 0.0 0.0

exp_avg f4 [96, 3]
000000 00 00 00 00 00 00 00 00 00 00 00 00 5e 73 1c bb
       0.0 0.0 0.0 -0.0023872475
000010 00 e4 9b b8 66 4b 39 3b 6e 3b 19 ba 16 67 6e 39
       -7.433444e-05 0.00282737 -0.00058453425 0.00022735851
000020 b8 81 96 38 08 5e f2 b9 69 2d 87 ba 3e 97 71 b9
       7.1767194e-05 -0.00046227896 -0.0010313216 -0.00023039893
000030 00 00 00 00 00 00 00 00 00 00 00 00 72 57 2a 39
       0.0 0.0 0.0 0.0001624504
000040 a8 3b 3a 39 ec 7a 54 37 00 00 00 00 00 00 00 00
       0.00017760566 1.2664805e-05 0.0 0.0
000050 00 00 00 00 46 08 09 3c 4f 91 97 3a 03 48 aa 3b
       0.0 0.008363789 0.0011563691 0.0051965727
000060 a3 39 79 3b 50 55 bc 3a fd d2 0e 3b 00 00 00 00
       0.003802874 0.0014368687 0.002179324 0.0
000070 00 00 00 00 00 00 00 00 07 e0 d9 ba 10 5e 31 b8
       0.0 0.0 -0.0016622551 -4.228769e-05
000080 e0 29 90 b9 70 d4 c0 bb 23 9b a3 bb bd 20 b7 3a
       -0.0002749702 -0.0058846995 -0.004992859 0.0013971549
000090 00 00 00 00 00 00 00 00 00 00 00 00 6e fd 1b 3b
       0.0 0.0 0.0 0.002380218
0000a0 04 98 10 3b b4 f4 38 3b 00 00 00 00 00 00 00 00
       0.0022063265 0.0028222026 0.0 0.0
0000b0 00 00 00 00 dc 39 cf 37 0b 2b 32 38 54 12 88 35
       0.0 2.4703266e-05 4.2478594e-05 1.0138124e-06
0000c0 64 89 61 b8 04 cf 5a b8 91 87 49 b6 18 c7 82 ba
       -5.3772135e-05 -5.216805e-05 -3.0030244e-06 -0.0009977547
0000d0 f0 04 99 37 70 f2 37 b9 bd 67 1d bc 7d f2 7e bb
       1.824132e-05 -0.00017542555 -0.009607253 -0.0038901858
0000e0 9f e2 11 3a e6 db 8d 3b 66 54 45 3b 69 01 26 ba
       0.000556508 0.0043291925 0.003011012 -0.00063326076
0000f0 fe 33 4c bb fe f1 ec ba f1 45 54 bb 00 00 00 00
       -0.003115892 -0.001807749 -0.003239032 0.0
000100 00 00 00 00 00 00 00 00 2d b7 c1 bb f3 1a 85 ba
       0.0 0.0 -0.005911729 -0.0010155126
000110 eb 52 ba 3b 00 00 00 00 00 00 00 00 00 00 00 00
       0.005686154 0.0 0.0 0.0
000120 bc 0a 82 bb 1a e3 cd 39 37 3a 96 3b 00 00 00 00
       -0.003968565 0.0003926985 0.0045845765 0.0
000130 00 00 00 00 00 00 00 00 d2 08 82 ba 5c e2 16 ba
       0.0 0.0 -0.0009920842 -0.0005755776
000140 d7 9f 21 3a 83 be 8c ba fa ef 62 ba ac d0 95 b4
       0.00061654806 -0.0010737929 -0.0008656975 -2.7905241e-07
000150 00 00 00 00 00 00 00 00 00 00 00 00 7f 15 a1 ba
       0.0 0.0 0.0 -0.0012289732
000160 a5 62 a8 3a 99 01 0e 38 bc 8e 01 3c b6 13 b7 3a
       0.0012846781 3.3856926e-05 0.007907566 0.0013967666
000170 f2 3f 07 ba 00 00 00 00 00 00 00 00 00 00 00 00
       -0.000515937 0.0 0.0 0.0
000180 40 c3 9a ba 66 72 79 ba b0 6c af b7 00 00 00 00
       -0.0011807457 -0.0009515643 -2.0912237e-05 0.0
000190 00 00 00 00 00 00 00 00 04 57 99 b9 8e 26 8a b9
       0.0 0.0 -0.00029247266 -0.00026350137
0001a0 e0 8f 03 36 00 00 00 00 00 00 00 00 00 00 00 00
       1.9604267e-06 0.0 0.0 0.0
0001b0 04 00 00 00 04 00 00 00 04 00 00 80 5e 04 74 3c
       6e-45 6e-45 -6e-45 0.014893619
0001c0 cd 15 6e 3b 44 ef e6 ba 00 00 00 00 00 00 00 00
       0.0036328912 -0.0017618914 0.0 0.0
0001d0 00 00 00 00 6a 5d 31 b7 93 83 94 b7 b0 72 72 b5
       0.0 -1.0571772e-05 -1.7704244e-05 -9.031892e-07
0001e0 73 5f 04 3a 05 73 9e 3a e9 3e a5 b9 c2 09 bc 39
       0.00050496234 0.0012088722 -0.00031518124 0.00035865424
0001f0 ca c0 eb b9 e5 aa 17 39 a5 0b 22 3b 4e de 0d 3b
       -0.00044966332 0.00014464145 0.002472618 0.0021647396
000200 ee 22 03 3b 5b 18 08 bc 89 9f 0f bb ea 74 85 ba
       0.0020009833 -0.008306588 -0.0021915159 -0.0010181938
000210 00 00 00 00 00 00 00 00 00 00 00 00 30 2e 9d ba
       0.0 0.0 0.0 -0.0011991914
000220 7a a0 9e b9 c4 cd 24 b9 00 00 00 00 00 00 00 00
       -0.00030255673 -0.00015716912 0.0 0.0
000230 00 00 00 00 47 55 12 3b 5f 1e 4b 3a 6a b3 41 39
       0.0 0.0022328661 0.0007748361 0.00018472751
000240 00 00 00 00 00 00 00 00 00 00 00 00 00 00 00 00
       0.0 0.0 0.0 0.0
000250 00 00 00 00 00 00 00 00 a7 0d ed 39 72 ee 5a 38
       0.0 0.0 0.00045214334 5.219732e-05
000260 62 ad 5d 39 50 68 a0 ba 04 6d a9 ba c0 2c 0b 3a
       0.00021140793 -0.0012238119 -0.0012926166 0.00053090975
000270 00 00 00 00 00 00 00 00 00 00 00 00 9d 72 c7 3b
       0.0 0.0 0.0 0.006086661
000280 a6 34 af 3a 21 41 9b 3b fb ae e0 3b 0d 2a 51 3b
       0.0013367131 0.0047379886 0.006856797 0.0031915933
000290 cd 22 5e 39 ae 16 4e 3b 7f e9 6f 3b 8c 67 15 3b
       0.00021184534 0.0031446624 0.003660768 0.0022797314
0002a0 01 cd 34 bb 64 1a 66 bb cb 81 f3 ba 82 ec 02 bb
       -0.0027588012 -0.0035110945 -0.001857811 -0.0019977395
0002b0 4e aa 30 bb b2 4b f3 b7 9a aa 0d b8 ad 22 7b b8
       -0.0026956978 -2.9003106e-05 -3.3775905e-05 -5.9875358e-05
0002c0 02 b2 ab 35 00 00 00 00 00 00 00 00 00 00 00 00
       1.27923e-06 0.0 0.0 0.0
0002d0 9c 20 83 3a a2 e6 00 38 16 92 6f b9 db 3b a1 bb
       0.0010004225 3.073237e-05 -0.00022847237 -0.0049204654
0002e0 1c 47 84 bb 88 88 fd 3a 00 00 00 00 00 00 00 00
       -0.004036797 0.0019343058 0.0 0.0
0002f0 00 00 00 00 16 3f 88 3a 50 1e a5 3a 8a a8 c7 ba
       0.0 0.0010394778 0.0012597535 -0.0015232724
000300 9b 87 26 bc 94 a3 c5 bb 7e 01 22 bb 08 63 e2 b7
       -0.010164167 -0.006031463 -0.0024720128 -2.6987414e-05
000310 f2 91 45 b8 14 c7 58 b5 22 26 00 bc 39 df fa ba
       -4.7104382e-05 -8.075597e-07 -0.007821592 -0.0019140012
000320 55 39 38 39 00 00 00 00 00 00 00 00 00 00 00 00
       0.00017568965 0.0 0.0 0.0
000330 00 00 00 00 00 00 00 00 00 00 00 00 10 06 3d bc
       0.0 0.0 0.0 -0.01153709
000340 5d 6e ea bb de 98 79 b9 cb b6 15 ba b8 c7 09 ba
       -0.0071542696 -0.00023803438 -0.0005711137 -0.00052558957
000350 4b a3 93 b6 28 23 e2 ba c7 5e 02 bb e2 a3 9d 3a
       -4.399951e-06 -0.0017252909 -0.0019892917 0.001202699
000360 78 6b 1c bc 78 50 fc bb 26 87 d4 3a b6 d1 31 bb
       -0.009547107 -0.0077000223 0.0016214594 -0.0027133054
000370 00 ba 9e b9 d9 f5 2f b9 74 c2 9e bb 59 f5 0b bb
       -0.0003027469 -0.00016780886 -0.004844958 -0.0021355955
000380 7e 34 01 ba e0 31 75 39 22 13 1d 3a 6a 5d dd b8
       -0.00049287814 0.000233836 0.0005991926 -0.00010555501
000390 6e 62 f9 3a f7 5d 69 3a 5e d0 39 38 c2 f5 07 bb
       0.0019026527 0.00089022465 4.4301494e-05 -0.0020745848
0003a0 27 e5 1a ba fc 60 9e 37 45 f1 80 3b fc 00 30 3b
       -0.000590878 1.888023e-05 0.0039350116 0.0026856055
0003b0 7a fb 9b b8 00 00 00 00 00 00 00 00 00 00 00 00
       -7.437817e-05 0.0 0.0 0.0
0003c0 00 00 00 00 00 00 00 00 00 00 00 00 00 00 00 00
       0.0 0.0 0.0 0.0
0003d0 00 00 00 00 00 00 00 00 78 09 c5 3b e6 22 4b 3b
       0.0 0.0 0.0060130917 0.0030996143
0003e0 30 44 1a 39 00 00 00 00 00 00 00 00 00 00 00 00
       0.00014711986 0.0 0.0 0.0
0003f0 48 cd 7b ba 16 9e d9 ba ed de c0 b9 6e 35 3b 3c
       -0.00096054794 -0.0016602899 -0.00036787186 0.011426313
