Experimental_Models/Full_Model_Run_v1.0.pt (torch_old, 27022 bytes, 8 tensors)

fc1.weight f4 [96, 3]
000000 d5 ca 80 be ee 83 4d be 0c d7 00 bf 74 46 4b 3e
       -0.2515475 -0.20069858 -0.50328135 0.19851094
000010 5a b5 0e be 70 0c 25 3d 6c 16 e1 be 99 ec 8b be
       -0.13936368 0.040295064 -0.4396242 -0.27328947
000020 d4 3e 90 3e 38 f0 80 3e 88 65 58 3e bc c8 ab bd
       0.28172934 0.25183272 0.21132481 -0.083878964
000030 00 7f 8b bc c0 96 64 bd a6 8f 92 be fa 28 b1 3e
       -0.017028332 -0.05580783 -0.2862522 0.34601575
000040 78 0d 01 3e 40 c8 76 3d 16 25 bc 3e 83 79 ad be
       0.12602794 0.060249567 0.36747044 -0.3388177
000050 00 59 62 3c b8 4b 09 3f 38 3a 8e 3d 40 96 84 3e
       0.013815165 0.5363116 0.06944698 0.25895882
000060 38 ae 08 be e8 79 d1 be 90 8d b1 3d 40 c0 cf be
       -0.13347709 -0.4091332 0.08669579 -0.40576363
000070 5a 16 07 bf 6a 87 39 be d1 a5 a6 be 18 62 0b 3f
       -0.5276848 -0.18118063 -0.32548383 0.54446554
000080 1b 1d b7 be cc 25 34 be 68 59 a6 3e 88 c5 0a 3f
       -0.35764393 -0.17592543 0.32490087 0.5420766
000090 70 cb e7 3e 16 70 95 be ac 96 fc 3e 00 55 e1 bc
       0.45272398 -0.29187077 0.49333704 -0.027506351
0000a0 70 cd 7f bd f3 ee 89 be e0 8c fc bc 4c 59 a2 3e
       -0.06245178 -0.26940116 -0.030828893 0.31708753
0000b0 7c 13 77 be 79 a5 bc be b0 f9 2e be 54 f9 b5 3e
       -0.24128526 -0.36844996 -0.17087436 0.35541785
0000c0 cb 1a b1 be 00 15 6d 3c a0 a4 00 3f 54 db 6d be
       -0.34590754 0.014470339 0.502512 -0.23228198
0000d0 10 05 eb 3d e0 35 8d 3d 10 a9 5d 3d 00 5d 0a 3d
       0.11475575 0.068950415 0.05411631 0.033780098
0000e0 68 37 e6 bd f0 d1 12 be 00 d6 a5 ba 98 bd fd 3d
       -0.11241037 -0.14337897 -0.0012652278 0.12389678
0000f0 58 e0 e5 3e fc c0 9f be 0a 88 b4 3e a8 83 eb 3e
       0.44897723 -0.31201923 0.3526004 0.45998883
000100 08 f4 2b be 9e 6e ca be 10 c0 f4 3e 8a 8f 01 bf
       -0.1679231 -0.3953752 0.47802782 -0.5060965
000110 50 15 a3 3e 52 f5 8d 3e 08 af 55 3e 60 17 55 3d
       0.31852198 0.27726227 0.2086755 0.052024245
000120 cc 46 ae be 2f 65 9c be 7e f6 ae be a8 fc 5a 3e
       -0.3403839 -0.30545947 -0.34172434 0.21385443
000130 0e e3 0e be 92 00 04 3f bd 90 0e bf 28 eb e7 3d
       -0.13953802 0.5156337 -0.55689603 0.11324149
000140 80 16 41 3c 68 bc 04 3f 62 0d 9e be c6 4e 33 be
       0.01178515 0.51849985 -0.30869585 -0.17510518
000150 66 c0 10 3f 62 b1 a1 3e 18 f3 0c 3f 90 47 6a be
       0.56543577 0.31580645 0.5505843 -0.22878861
000160 04 46 11 3f f0 22 f5 3e 17 a0 bf be 06 44 69 be
       0.5674746 0.47878218 -0.37426826 -0.22779855
000170 82 95 a7 3e 52 c8 bd be 54 6f 74 be a8 2c 67 be
       0.32731253 -0.37066895 -0.23870593 -0.22575629
000180 b8 74 38 be 90 b9 2c be f8 9a 56 3e 52 39 46 be
       -0.18013275 -0.16867661 0.20957553 -0.19357803
000190 de 70 29 be be 3e 9a be f0 0e 45 be 4a 24 ca 3e
       -0.16546962 -0.30125993 -0.1924398 0.3948081
0001a0 ee a0 11 3f 8c a8 ee 3e 9a 9b 03 be ba 88 c0 be
       0.56886184 0.46612966 -0.12852326 -0.37604314
0001b0 3e 76 80 3e 90 56 2b be b8 d5 c9 3e 64 8d ed bd
       0.25090212 -0.1673224 0.39420867 -0.11599234
0001c0 a8 fd 42 3e 8a ab 81 be 32 7a ba 3e cc 6b 31 3e
       0.19042075 -0.25326186 0.36421353 0.17326277
0001d0 b4 e2 30 be 00 c5 c5 3c 70 d7 12 3e d0 59 ab 3d
       -0.1727398 0.024141788 0.14339995 0.0836674
0001e0 c0 c8 7c 3d 08 94 c4 3e 11 0d c2 be 5c 9c ef 3e
       0.061714888 0.3839419 -0.37900594 0.4679898
0001f0 d7 ff 0c bf 5c ec 03 bf 26 dd a8 3e 80 3f 4d bd
       -0.5507788 -0.5153253 0.32981223 -0.050109386
000200 80 98 ad 3b 38 ea f8 bd 00 25 e8 bd e8 ba 42 3e
       0.0052977204 -0.12154049 -0.11335182 0.19016612
000210 de 92 d7 3e 44 b1 dd 3e 40 3c 09 bc 90 a9 52 3e
       0.42104238 0.43299305 -0.008376181 0.20572495
000220 70 0d f8 3e 90 1e 78 be a2 6e 79 be 06 e0 82 3e
       0.48447752 -0.24230409 -0.2435861 0.2556154
000230 a0 da 0a be da e9 37 be 14 3f 64 be d0 42 4e bd
       -0.13559961 -0.17960301 -0.22289687 -0.050356686
000240 2c 0f c1 bd 80 5e 13 3c fc 7a 79 3e e6 ab b1 3e
       -0.09426722 0.0089946985 0.24363321 0.3470146
000250 92 e8 ba be 46 16 b6 3e 48 9d e9 3d ae 76 18 be
       -0.36505562 0.35563868 0.11406952 -0.14889023
000260 7c 7d 1b be 0e c0 ed be 42 4f 95 be 40 2e c4 bc
       -0.15184587 -0.4643559 -0.2916203 -0.023947835
000270 b2 9d 8a 3e 98 a8 95 3d 20 5c 02 3f 76 58 94 3e
       0.27073437 0.07307547 0.5092182 0.2897374
000280 80 b5 be bb 96 99 f6 be 96 a1 0c bf 02 e8 3a be
       -0.0058199763 -0.48164052 -0.5493406 -0.18252566
000290 28 65 ac be 66 98 13 be 7a 5f 45 be 50 38 49 be
       -0.33670926 -0.14413604 -0.19274703 -0.19650388
0002a0 be 1f 06 bf f8 65 db 3e b5 4d a5 be 84 7a 5f 3e
       -0.52392185 0.42851233 -0.32285848 0.2182408
0002b0 84 34 81 3e 78 31 8f 3e 04 f2 e4 3e 60 d1 e6 3c
       0.2523538 0.2796743 0.44715893 0.02817601
0002c0 40 f6 2a 3d e0 30 57 3e ba 97 c3 3e 48 97 a3 be
       0.04173875 0.21014738 0.38201696 -0.31951356
0002d0 f4 50 f9 bd bc 0f 05 3e 74 94 c4 be bd 7c 11 bf
       -0.12173644 0.12994283 -0.3839451 -0.5683096
0002e0 ec 71 e3 3e 46 aa 87 3e d8 d8 e2 3d 04 b6 6e 3e
       0.44422853 0.26497096 0.11076516 0.23311621
0002f0 2c 72 36 3e b8 41 3b 3e 0c 0e 05 3e 10 09 b4 3d
       0.1781699 0.18286788 0.1299364 0.08790791
000300 78 66 22 3e de 43 0b 3f 0c fb fc 3e de 04 b8 3e
       0.15859401 0.5440043 0.49410284 0.35941213
000310 42 27 93 be 8c 5b 11 3e 00 84 76 3a dc 55 31 3e
       -0.2874089 0.14195079 0.0009403825 0.17317909
000320 c0 55 98 3d c4 a8 13 3f 08 99 40 3e 52 05 d8 be
       0.074382305 0.5767939 0.18808377 -0.4219156
000330 0a a9 a5 3e 8a ca 4b be e8 0d fe 3d 08 e5 ce 3d
       0.3235553 -0.19901481 0.12404996 0.10102278
000340 20 2d e1 3c 68 c3 3c 3e a8 ae 84 bd 1c 55 07 3e
       0.027487338 0.18433917 -0.064786255 0.1321606
000350 36 12 cb 3e 4c 0f 4a be 90 96 00 bf b0 0b 61 3d
       0.3966233 -0.19732398 -0.5022974 0.054942787
000360 40 aa 0c bc d6 e6 b6 3e 08 6e e4 be bf ff 97 be
       -0.008585513 0.3572299 -0.44615197 -0.29687306
000370 48 99 04 3f d0 62 96 3e d4 f1 ff be ac d7 e3 bd
       0.5179639 0.29372263 -0.49989188 -0.111251205
000380 50 f9 ef 3e 60 26 bd 3c 86 cd ce 3e 50 42 c5 3d
       0.46869898 0.023089588 0.40391177 0.09631789
000390 20 10 4d 3e 0e 3a 0f 3f 6e c0 9c 3e ff fd c8 be
       0.20025682 0.5594796 0.30615562 -0.39256284
0003a0 d6 92 92 3e 60 a6 4b 3e 06 74 d0 be ba 69 b3 be
       0.28627652 0.19887686 -0.4071352 -0.350416
0003b0 8e 97 af be 42 1c b9 be e4 ed 4d 3e 8a d3 12 bf
       -0.34295315 -0.36154372 0.2011028 -0.57354033
0003c0 78 5f 6e be 28 8e 8e bd 66 48 ab be 74 b2 44 3e
       -0.23278606 -0.06960708 -0.33453673 0.192087
0003d0 30 c4 ae 3e 98 51 a1 be 00 a6 be 3a c3 3a 94 be
       0.34134054 -0.31507564 0.0014545321 -0.28951082
0003e0 28 09 10 3f 00 f1 ca 3b 82 d0 0e 3f 34 4d db be
       0.5626397 0.00619328 0.5578691 -0.4283234
0003f0 78 f8 e8 3e 38 fd 12 3f c4 91 d5 bd ad f8 80 be
       0.45502067 0.5741763 -0.10428193 -0.25189725

fc1.bias f4 [96]
000000 d2 e3 04 3f 43 ae 02 3f 0e 2e 27 3e be d9 60 3e
       0.51910126 0.5104715 0.16326162 0.21958062
000010 b8 e1 8a be 61 13 cc be f0 eb 7a be 75 9e d7 bd
       -0.27125335 -0.39858535 -0.24504066 -0.1052827
000020 09 f7 8d 3d f9 4d 91 be ca f9 f7 3d f0 9d 41 3d
       0.06931884 -0.283798 0.1210819 0.04726976
000030 08 31 db 3e 9b 5e 06 bf 0e cf 90 be 79 fb 09 3f
       0.42810845 -0.52488106 -0.2828297 0.5389934
000040 fe 3b 02 be 76 26 b3 be 05 0b 5a be 70 ed 6f be
       -0.12718198 -0.3499028 -0.21293266 -0.23430419
000050 59 d4 12 bf 33 1c 0d be 87 2b bb 3e 67 3e f7 be
       -0.57355267 -0.13780288 0.36556646 -0.48289797
000060 11 39 a2 be 7f 37 8e bd e7 bb b1 3e 2d cd 0a bf
       -0.31684163 -0.06944179 0.3471367 -0.54219323
000070 e1 a4 25 3e 21 f8 11 3f a4 6a c4 3e f0 89 08 bf
       0.16176178 0.5701924 0.3836261 -0.53335476
000080 dd bb 0b 3f 3b 2b d7 bd c0 51 5d be dd 5b 0e 3d
       0.5458353 -0.105062924 -0.21613216 0.034755576
000090 da 54 90 3e 58 00 e1 3d dc cd a2 be 11 e1 e3 3d
       0.28189737 0.10986394 -0.31797683 0.111269124
0000a0 69 37 c6 3e 32 e6 fc be fd a9 b7 be 00 50 b0 3e
       0.3871415 -0.49394375 -0.35871878 0.34436035
0000b0 e0 12 72 be b7 d9 ba 3e c8 1c 09 3f ac 8b c9 3e
       -0.23640013 0.36494228 0.5355954 0.39364374
0000c0 14 5e a8 be 31 34 06 bf c0 a5 58 3e cc 9a 2e be
       -0.32884276 -0.5242339 0.21156979 -0.17051238
0000d0 e9 ae 82 3e 70 14 d1 be bd 73 46 3e a0 bd c1 be
       0.2552407 -0.40835905 0.19380088 -0.37839985
0000e0 47 e2 12 bf dc 95 81 be 73 df ec 3e f0 cf 2e be
       -0.5737652 -0.25309646 0.46264228 -0.1707151
0000f0 55 90 9c be 48 d1 5c 3e 00 3c 75 bc 98 55 10 bf
       -0.30578867 0.2156421 -0.014967918 -0.56380606
000100 d8 05 bd 3e c6 2c 34 3e 67 db 0f 3b 27 39 50 3e
       0.3691852 0.17595205 0.0021950842 0.20334302
000110 cb 12 6c 3e e0 8c fd 3e b1 ab a5 be 96 d7 7f be
       0.23054044 0.49521542 -0.32357553 -0.24984583
000120 20 55 c4 3c 71 d5 80 be c7 7d fc 3d 99 11 78 be
       0.023966372 -0.25162843 0.123286776 -0.24225463
000130 70 84 a1 3e e0 4d 1c 3e 80 15 93 bd 89 e2 4d 3e
       0.31546354 0.15264082 -0.07181835 0.20105948
000140 68 a8 a6 3e 20 8a fa 3d 90 e6 a3 3b 88 fa 74 be
       0.3255036 0.122333765 0.0050018504 -0.23923695
000150 0f 34 da be 44 bf f4 bd a8 94 c3 3e 6c 46 7b be
       -0.42617843 -0.119505435 0.38199353 -0.24538583
000160 40 d6 52 bd 33 65 9d be ad ad 2b bd c6 53 a2 3d
       -0.051473856 -0.3074127 -0.041913677 0.07926135
000170 10 de d9 3e 02 a8 08 3f f8 4a 1f 3e 0d 17 f0 be
       0.42552233 0.5338136 0.15555942 -0.46892586

fc2.weight f4 [48, 96]
000000 9a cb ba 3d 7c d1 af bd 4e 3e 96 3d ef 57 5d bd
       0.09120865 -0.08584878 0.073361024 -0.054038938
000010 f4 8f 31 3d a8 3c 92 bc 70 95 25 bc 60 06 c2 3d
       0.043350175 -0.017851189 -0.010106429 0.09473872
000020 00 0b 43 3b 52 33 8e bd f8 21 01 3d 00 2c 01 3c
       0.0029761195 -0.06943382 0.031526536 0.007884026
000030 fa 61 99 3d d2 f4 01 bd fe 96 a5 bd d0 6f 32 3d
       0.07489391 -0.03172762 -0.0808544 0.043563664
000040 d4 3c 1c bd 9a c7 88 3d 5d d5 c1 bd d8 ce 22 bc
       -0.038143948 0.06678696 -0.09464524 -0.009937011
000050 36 80 b9 3d 90 04 f7 3b e4 c3 a9 bc 80 23 c8 3c
       0.090576574 0.0075383857 -0.02072329 0.02443099
000060 68 88 32 3d 1a b8 46 bd 80 5f ce bb bc 34 3b 3d
       0.04358712 -0.048515417 -0.0062980056 0.04570459
000070 9a e3 43 bd 58 13 ac bd 96 8a 7c bd f8 ad 26 3c
       -0.04782448 -0.08402127 -0.061655603 0.010173313
000080 f3 fe 53 bd d5 33 a7 bd 2f ee cf bd c8 69 c1 3c
       -0.05175681 -0.08164183 -0.10152852 0.02361001
000090 ac 3f de bc 7c 02 90 3c d8 36 cb bd e4 22 3c bd
       -0.02712997 0.01757931 -0.0992257 -0.04593171
0000a0 64 71 87 3c 80 bf b4 bb b6 21 8d 3d e8 f5 3b 3d
       0.016533561 -0.0055159926 0.068911955 0.04588881
0000b0 28 fb 15 3c 7c 92 9c 3c ec ad 31 3d 4a db 8a 3d
       0.009154119 0.019112818 0.043378755 0.06780107
0000c0 44 76 0f 3d fa 79 90 bd e5 c5 33 bd 26 6c 86 3d
       0.035024896 -0.07054515 -0.0438899 0.065635964
0000d0 50 5e c2 bd 24 e6 56 3d e1 ea 53 bd 0c 87 35 3d
       -0.09490645 0.052465573 -0.05173767 0.044318244
0000e0 a0 d3 18 3b 40 f1 bf 3b 74 db c2 3d fe 58 89 bd
       0.0023319498 0.0058576167 0.095145136 -0.06706427
0000f0 40 40 aa 3c fc 0a 08 3d 18 13 36 3d b2 be 8f 3d
       0.02078259 0.0332136 0.044451803 0.07018794
000100 9c 57 83 bd 56 f9 cd 3d 28 6b 51 3c a2 f2 19 bd
       -0.064131945 0.10057323 0.012781896 -0.03758491
000110 63 0e 9d bd cc 7f 7f bd 08 8f 34 3d 1b 12 23 bd
       -0.0766876 -0.062377736 0.044081718 -0.03981219
000120 80 a3 18 bc 54 ef be 3d 98 13 d7 3c b8 2e 45 bc
       -0.009316325 0.09322992 0.02625446 -0.012035064
000130 8a 00 c1 bd 50 b5 31 3c 0e 4c b7 3d 38 80 df 3c
       -0.09423931 0.010846451 0.08950053 0.02728282
000140 48 b5 b6 3c 90 07 28 3d 30 28 03 bd 3c 69 80 bd
       0.022303239 0.041022837 -0.032020748 -0.06270072
000150 84 42 51 3d 10 1c f9 3b 88 14 29 3d d8 10 90 bd
       0.051088825 0.0076022223 0.041279346 -0.07034463
000160 20 7e 33 bc ef bf c0 bd 46 66 9a bd 9c 0e c4 3d
       -0.0109553635 -0.094116084 -0.07539038 0.09573099
000170 30 e5 a9 3d 6c 07 b1 3c 28 24 cd 3d c9 be bd bd
       0.08295667 0.021609984 0.10016662 -0.09264905
000180 20 49 b7 3b 2c ab 52 3d dc d9 14 3d b0 cd 9f 3d
       0.005593434 0.051432773 0.03634058 0.07802904
000190 44 50 79 3d 4c 98 5b 3d 24 07 36 3d 44 44 5f 3d
       0.060867563 0.05361204 0.044440404 0.054508463
0001a0 ed ba 3b bd 14 40 c6 3d 2c 7f 90 3d d4 b2 85 3d
       -0.045832563 0.09680191 0.07055506 0.065282494
0001b0 c0 97 6b 3c e4 43 02 bd 70 f7 fe bb 1a ed ce bd
       0.014379442 -0.031803027 -0.0077809617 -0.10103817
0001c0 78 a0 01 bc 66 58 ab bd f0 1c 5a bc 50 66 6d 3d
       -0.007911794 -0.0836647 -0.013312563 0.0579589
0001d0 50 a0 b9 3d 28 9d c9 3c de d9 93 bd 51 0d b7 bd
       0.0906378 0.02461107 -0.07219289 -0.08938087
0001e0 c0 1b 94 ba 24 cc 8b bc 10 71 9c bb 20 c6 0e bb
       -0.0011299774 -0.017065115 -0.0047742203 -0.0021785572
0001f0 94 d8 d9 bc 2c 37 c6 bc 28 b4 14 bd 24 2d 64 3d
       -0.02659253 -0.02419623 -0.036304623 0.055707112
000200 72 bb 84 3d 4c a4 7f 3d c0 70 3d bc dd e6 a5 bd
       0.06481065 0.062412545 -0.011562526 -0.08100674
000210 3e 56 4d bd 34 1e 52 3d 00 e0 ca b9 f9 58 69 bd
       -0.050131075 0.051298335 -0.00038695335 -0.056969617
000220 3e 39 40 bd 90 fd 28 3c 9c 37 0e 3d 80 f8 87 3a
       -0.04692959 0.01031436 0.034721002 0.0010373741
000230 be e5 3b bd a0 e4 1f 3b 3b 4f 3e bd e1 2d bc bd
       -0.045873396 0.0024397746 -0.04646228 -0.09188438
000240 08 3e 57 bc c6 52 8f bd 2f 64 c8 bd 6e 28 0e bd
       -0.013137348 -0.0699821 -0.097847335 -0.034706526
000250 58 d2 62 3d c0 06 b4 bb 2c 5e 13 3d 7c 8c 51 3d
       0.05537638 -0.0054939687 0.03597848 0.051159367
000260 38 09 06 bd 6e 74 c8 bd 34 51 76 3d 2e 54 8b 3d
       -0.032723635 -0.09787832 0.060136035 0.068031654
000270 d0 df 23 bc 7c 8b 8d bc 29 90 7c bd 3e 90 86 bd
       -0.0100020915 -0.017278425 -0.06166092 -0.06570481
000280 d3 1f 42 bd 98 63 fa 3c bc eb a6 bd a8 c4 26 3c
       -0.04739363 0.030565068 -0.081504315 0.010178722
000290 40 6a 16 bc 93 e7 8d bd 39 14 9b bd 34 2e 05 bd
       -0.009180605 -0.06928935 -0.075722165 -0.032514766
0002a0 b6 25 91 3d f5 40 bd bd 10 d1 87 bd 01 57 b8 bd
       0.07087271 -0.09240905 -0.066316724 -0.0900097
0002b0 dc 9c 83 bd 4e 7f ae 3d a0 51 53 3d 38 a7 ca bd
       -0.06426403 0.08520375 0.051591516 -0.09895176
0002c0 60 6c 63 3d e8 a8 74 3d 00 c0 86 b6 aa b8 88 3d
       0.055523276 0.059731394 -4.015863e-06 0.06675847
0002d0 92 59 37 bd b5 2c b3 bd 38 9a 61 bc 9a 66 a7 3d
       -0.044763155 -0.087487616 -0.013769679 0.081738666
0002e0 50 4b 91 bd 94 44 8c 3c 6c 32 15 bd c0 39 a4 3a
       -0.07094443 0.017122544 -0.03642504 0.0012529418
0002f0 e4 0f 44 3d 9e 35 3d bd 4c 5a 38 3d a8 a9 b5 3c
       0.047866717 -0.04619371 0.04500799 0.022175625
000300 3a 23 be bd a0 82 a8 3c d4 eb a0 3d ea 3b aa 3d
       -0.09284063 0.0205701 0.07857481 0.08312209
000310 0c 44 18 bd ff 7c 94 bd 6d a4 5a bd 5d f2 7a bd
       -0.03717427 -0.072504036 -0.053379465 -0.061266292
000320 90 be 3f bd d0 ce 19 bd 58 bf de 3c 60 35 3a 3d
       -0.046812594 -0.037550747 0.02719085 0.04546106
000330 13 b1 83 bd ca 47 b7 3d c3 d2 be bd 60 27 04 bc
       -0.064302586 0.089492396 -0.09317543 -0.008066028
000340 74 13 74 3d 74 c0 bb 3c d8 c2 4d bc 66 a5 cd bd
       0.059588864 0.022918917 -0.012558661 -0.10041313
000350 3e 99 cd 3d 66 c6 96 3d 3e 36 96 bd 50 e6 df bc
       0.10038994 0.0736206 -0.073345646 -0.027331501
000360 37 be 78 bd 78 93 a3 3d 84 6c 9d 3d 6d b4 a2 bd
       -0.060728278 0.07987112 0.07686713 -0.0794457
000370 88 2d 55 3d d0 82 fa bc 34 ba ae bd 54 fd c6 3d
       0.052045375 -0.030579954 -0.08531609 0.09716287
000380 22 9a 89 bd d0 1a 1d 3d fa a1 19 bd b0 8b b9 3c
       -0.067188516 0.03835565 -0.03750799 0.022649616
000390 23 b7 b9 bd f4 51 ba 3d 68 ab d8 3c 82 ec 89 bd
       -0.09068134 0.090976626 0.02644892 -0.067345634
0003a0 cc ec 63 3d 18 f1 11 3d 4c f0 32 3d d4 ad 1c 3d
       0.05564575 0.035630316 0.043686196 0.038251713
0003b0 d3 20 c7 bd 48 20 33 3c fc ab 75 3d dc 02 bb 3d
       -0.097230576 0.010932989 0.05997847 0.09131405
0003c0 ce 44 ba bd 42 81 9c bd 6f 69 a1 bd b2 a1 8b 3d
       -0.09095155 -0.076418415 -0.07881438 0.0681795
0003d0 f0 c1 18 3c 18 bf 77 3c 58 fe 3e 3d 1c 04 83 3d
       0.009323582 0.015121244 0.04662928 0.06397268
0003e0 84 e1 aa 3c 88 19 42 3d a6 0f ce 3d 1c 8f 9c bd
       0.020859487 0.04738763 0.100615785 -0.076444834
0003f0 80 66 38 ba da 5b 26 bd f2 b6 84 3d f0 58 2c 3d
       -0.00070343167 -0.04061494 0.064802065 0.042077005

fc2.bias f4 [48]
000000 d1 89 96 3c 1c c9 dd bc f1 35 52 3d 95 0f 26 bd
       0.018376263 -0.027073435 0.051320974 -0.040542204
000010 6b 0e c4 3d 00 19 b6 bd ce 9d d7 bd 77 52 01 3d
       0.095730625 -0.08891487 -0.10528146 0.031572785
000020 6c 5d 5f 3d 20 ff cb bc 8c 46 57 3d 07 c8 8a bd
       0.054532453 -0.024901927 0.052557513 -0.067764334
000030 d5 03 85 bd 6b ca 81 bd e0 49 b5 3b 9f a0 c8 bd
       -0.064948715 -0.06337436 0.005532488 -0.09796261
000040 64 3f 55 3d 49 37 7a 3d 66 5a ee 39 a7 80 98 bd
       0.052062407 0.06108788 0.0004546225 -0.074464135
000050 d0 cb 9b bd 6d 41 b2 3c 1b b9 be 3d 98 dc 43 bc
       -0.076072335 0.021759713 0.0931265 -0.011954449
000060 38 be 22 3d f4 8b ba bc ec 69 29 3d 48 7f 35 bd
       0.039732188 -0.022771813 0.04136078 -0.044310838
000070 70 4d 05 3d 6d ac 8c bd 4c 33 97 3d 57 80 66 bd
       0.032544553 -0.06868825 0.07382831 -0.05627474
000080 54 1f b9 3d 81 6d b5 bd 54 2d bc 3d 65 1d 28 bd
       0.090391785 -0.08858777 0.09188333 -0.041043658
000090 00 3d 7f 3a 30 36 a8 bc 7a 18 42 bd ed b7 30 3c
       0.0009736568 -0.020533651 -0.047386624 0.010786039
0000a0 01 aa de bc 4a 8f a6 3d 5e 12 ce 3d ca 87 a9 3d
       -0.027180674 0.08132799 0.10062097 0.08277853
0000b0 e5 d4 e8 3a 6e 5e 06 bd a1 cc b2 3d e6 7d 41 bd
       0.0017763643 -0.0328049 0.08730436 -0.047239207

fc3.weight f4 [24, 48]
000000 fc fb 07 be 48 77 ac 3d 6c de 2b 3d e0 b7 ed 3d
       -0.13279718 0.084211886 0.041960165 0.11607337
000010 f0 11 02 3d 98 db 1d 3d 44 93 9f bd 54 20 0d 3e
       0.031755388 0.0385395 -0.077917606 0.13781863
000020 8d 63 9b bd 38 06 59 bd ae 37 e5 bd 54 b8 bb bd
       -0.07587347 -0.052984446 -0.11192261 -0.09166017
000030 b2 25 1e bd c2 1c a0 bd 4f 78 8f bd 48 15 d8 bd
       -0.038610168 -0.07817985 -0.07005369 -0.10550934
000040 16 33 cb bd 06 59 a9 3d d4 51 4c 3d 56 5d 89 3d
       -0.09921853 0.08268933 0.049882725 0.067072555
000050 00 d9 84 3a d0 5d 6b 3c 4c c0 e6 3d ba d7 03 3e
       0.0010135472 0.014365628 0.112671465 0.12875262
000060 54 6c ef 3d d8 c0 95 bd f9 c2 11 be 64 6c a8 bd
       0.11690584 -0.07312173 -0.14234532 -0.08223799
000070 07 f4 ad bd 08 92 cb bd 3e 8d b4 3d a0 6b 89 3c
       -0.0849381 -0.099399626 0.08816002 0.016774952
000080 08 2d e0 3d 9e 5b ba bd 6a c9 3c bd 70 5b 13 be
       0.10946089 -0.09099506 -0.04609052 -0.1439035
000090 44 1d ba 3d 74 bb dd 3d 6a a0 0d be 30 34 80 3d
       0.09087613 0.108267695 -0.13830724 0.06259954
0000a0 22 30 59 bd 5b c5 bf bd f4 3f 80 bd 7a b2 02 be
       -0.05302442 -0.093638144 -0.06262198 -0.12763396
0000b0 34 95 76 3d fa bc 1d bd 7a 7f 10 be c4 42 fa 3d
       0.060200885 -0.0385103 -0.14111128 0.12219766
0000c0 14 4e 2e 3d c0 9c df bd 00 f4 85 39 ec 05 06 3e
       0.04255493 -0.109185696 0.0002554953 0.13088197
0000d0 62 1e d6 3d e2 9e 9a bd fc d8 dc bc fc 44 cf bc
       0.10455014 -0.07549836 -0.026958935 -0.025301449
0000e0 28 d7 dc 3d 02 1f 01 be 44 55 10 3e 5b b8 0d be
       0.10783225 -0.12609485 0.14095026 -0.13839857
0000f0 96 f5 0a 3e 7e e4 af bd 08 97 c5 3d 92 ab a3 bd
       0.13570246 -0.08588503 0.096479475 -0.07991709
000100 22 3d a9 bd 3c d1 09 be f1 e8 a0 bd b6 fe 22 bd
       -0.08263613 -0.13458723 -0.0785693 -0.039793693
000110 ee 1c bd 3d 9e 82 a3 3d bd 1a b1 bd 3e 53 a2 3d
       0.092340335 0.079838976 -0.08647678 0.079260334
000120 28 a3 d1 3c 3a c9 b7 bd 74 55 d4 bc 57 0a 13 be
       0.025590494 -0.08973928 -0.025919653 -0.14359413
000130 9c 49 ec 3d 14 c6 51 3d 62 24 d3 3d 72 c4 00 3e
       0.115374774 0.051214293 0.10309674 0.12574938
000140 2a 4b 4b bd e2 87 3e bd 80 81 d6 ba b4 78 0f 3e
       -0.04963223 -0.046516307 -0.0016365498 0.14010888
000150 3c 3d f7 3d c0 a1 10 3e c8 ff 5a 3d 26 32 be bd
       0.120722264 0.14124203 0.05346659 -0.09286909
000160 42 21 c4 3d 90 86 11 3c 98 70 a4 3c ca b2 b4 3d
       0.09576656 0.00888218 0.02007322 0.08823164
000170 8d b8 d3 bd f4 31 c0 3d 2e 09 81 3d a4 cd 7d 3d
       -0.10337935 0.09384528 0.06300579 0.061963692
000180 85 74 9e bd 20 d1 0b 3d 9c ba ec 3d 34 0e f2 3d
       -0.07737068 0.034134984 0.115590304 0.11819115
000190 30 87 f4 3d e0 cb 5d bd f8 79 be 3c 10 c7 6f 3c
       0.119398475 -0.05414951 0.023251519 0.014634863
0001a0 3e 6a aa 3d a0 f1 47 3d b4 cd ac bd aa 97 4c bd
       0.08321045 0.048814416 -0.08437672 -0.049949326
0001b0 5a f5 87 3d c0 19 0e bb f2 b7 0b 3e 60 b6 5c bc
       0.06638594 -0.0021682829 0.13644388 -0.013471216
0001c0 70 d8 95 bc 8f 3a 07 be d8 7f 02 3d 76 6c 01 be
       -0.018291682 -0.13205932 0.031860203 -0.12639031
0001d0 4c 49 be bd f4 76 8f 3d 2c 1a 6e 3d b4 69 c6 3d
       -0.09291324 0.070051104 0.05813043 0.0968813
0001e0 00 f1 b1 3d 70 04 99 3d 8c 05 98 bd 78 32 a4 3c
       0.08688545 0.074715495 -0.07422933 0.020043597
0001f0 90 af 70 3d d4 34 e8 3d 58 8e 72 3d c0 65 c8 3d
       0.05876118 0.11338201 0.05921778 0.09785032
000200 f6 c4 13 bd 32 5c ae 3d 7f f6 92 bd c0 9e 4b 3b
       -0.03607651 0.085136786 -0.07175922 0.0031069964
000210 6a 91 0e be 68 78 df bc e0 7d 65 3d 80 6d d2 3c
       -0.13922659 -0.027279094 0.056028247 0.02568698
000220 f2 ea c7 bd 78 4d 8f 3d 2b 84 04 be f8 f0 05 3e
       -0.09761609 0.06997198 -0.12941043 0.13080204
000230 46 bf 6e bd de 86 c4 3d d0 68 c8 bd 98 f8 9b bc
       -0.05828788 0.095960364 -0.097856164 -0.019039437
000240 ce 59 0a 3e 90 2d ad 3c 0c 78 07 3d f0 52 c2 3c
       0.1351082 0.02113989 0.03307347 0.023721188
000250 70 52 64 bd dc f1 cf 3d 2c 45 ab bd 7e 30 ad bd
       -0.05574268 0.10153553 -0.08362803 -0.08456515
000260 04 20 26 bd 40 50 d7 bd 66 03 03 be 04 27 0e 3e
       -0.040557876 -0.10513353 -0.12794265 0.13882071
000270 a0 fe 3a bc f2 11 9d bd 96 29 05 3e 74 9d 0c be
       -0.011413246 -0.076694384 0.13004145 -0.13731939
000280 2a 23 09 3e d4 57 1a bd 3a df 80 bd 62 92 f8 bd
       0.1339232 -0.037681416 -0.06292577 -0.12137295
000290 9a 11 fd bd c8 09 33 3d 90 cb 13 be a8 fc eb 3d
       -0.12356873 0.0437105 -0.14433122 0.115228
0002a0 90 72 92 bc 24 a9 13 3e 1c 7c af bd 57 f0 00 be
       -0.017876893 0.14419991 -0.08568594 -0.12591682
0002b0 e0 0c dd bb cd 31 85 bd fc 0a 3e 3d 01 39 fe bd
       -0.0067459196 -0.06503639 0.046397194 -0.124132164
0002c0 b0 60 c2 3d 0c e8 98 3d 9c d8 8c 3d d8 02 8e bd
       0.09491098 0.074661344 0.068772525 -0.06934136
0002d0 a0 ab df 3c e8 6d 09 be 70 ec 78 3d 5c 26 09 be
       0.027303517 -0.13420832 0.06077236 -0.13393539
0002e0 00 0e 9c 39 40 bc 61 bd ee dc 00 3e 1c 55 19 bd
       0.0002976507 -0.05511117 0.12584278 -0.037434682
0002f0 4f bc db bd aa 10 cd 3d 44 f7 b2 3d f2 3d 96 3d
       -0.107292764 0.10012944 0.087385684 0.07336034
000300 40 17 99 3b 30 b0 4b 3d 06 7a 88 3d 1e 43 cc 3d
       0.004671961 0.049728572 0.06663899 0.09973739
000310 66 14 81 bd f0 a6 ff bd d8 dd 99 bc 51 b7 09 be
       -0.06302719 -0.12483013 -0.018782541 -0.13448836
000320 db 6b fc bd e0 40 98 bc 01 17 ef bd 5a 1e 10 3e
       -0.12325259 -0.018585622 -0.116743095 0.14074078
000330 80 a2 9c bc a0 af a3 3d d8 78 86 3d 96 0b 4f bd
       -0.019120455 0.07992482 0.06566018 -0.05054816
000340 a2 e6 89 3d cc f0 3b 3d 88 d9 c0 3d b6 1b 61 bd
       0.06733443 0.04588394 0.09416491 -0.054958068
000350 54 66 1d 3d da 70 0f bd 68 11 a3 3c e6 4e ce 3d
       0.038427666 -0.035019733 0.01990576 0.100736424
000360 9a 94 d3 3d 5c 37 38 bd 40 c4 f0 3c 5b 4c ff bd
       0.10331078 -0.04497467 0.029390454 -0.124657355
000370 88 68 12 3e b4 61 53 bd 06 92 f0 bd a8 40 09 3e
       0.14297688 -0.05160685 -0.11746602 0.1340357
000380 24 a2 ae 3d 46 20 b9 bd 7a 13 28 bd 38 a2 ff bc
       0.085270196 -0.09039359 -0.0410342 -0.031205282
000390 f1 10 fc bd 3e a7 cd 3d 02 31 ce 3d 32 db 01 be
       -0.12307919 0.100416645 0.10067941 -0.12681273
0003a0 58 70 93 bc aa 3e f3 bd 58 2c 0d 3e 76 d1 6d bd
       -0.017997906 -0.118771866 0.13786447 -0.058061086
0003b0 7a 6e 06 3e 70 ed a9 3d 8f d2 01 be 00 eb 37 3b
       0.13128081 0.08297241 -0.12677978 0.0028063655
0003c0 b8 1e b1 3d 36 19 1f bd 16 64 54 bd 9a bf 99 3d
       0.08648437 -0.038842402 -0.051853262 0.07507248
0003d0 b0 fe ed 3d ac ab 0d be e0 9d c2 bb 8a 3f c6 3d
       0.116208434 -0.13835019 -0.0059392303 0.09680088
0003e0 28 aa c6 3c 17 97 c4 bd 08 00 14 3d 4e df 0d 3e
       0.024251059 -0.095991306 0.036132842 0.13854715
0003f0 88 b8 fc 3c 52 1d 02 3e f4 0c 0e be 18 e8 97 3d
       0.03084971 0.12706497 -0.13872129 0.07417315

fc3.bias f4 [24]
000000 c6 cf 25 3b b1 54 fd bc 4c 5e 0d 3e dd 28 f6 bd
       0.0025300845 -0.030924173 0.13805503 -0.12019513
000010 5a bb 0c be c4 75 e5 3d b3 1e 00 be 2c b8 f9 3d
       -0.13743344 0.11204103 -0.12511711 0.12193331
000020 c8 29 b2 3c 3d bc f7 bd 75 ec 12 be a6 2d d8 bd
       0.021748438 -0.120964505 -0.14348014 -0.10555582
000030 8a f9 9e bd 9e a4 7a 3d d1 11 65 3d e8 e5 e5 bd
       -0.077624395 0.061192147 0.055925194 -0.11225492
000040 b7 e9 ec bd df a6 3e bc 40 c3 3e bc 64 bd 14 3e
       -0.11568015 -0.011636465 -0.011643231 0.14525372
000050 a0 84 eb bd 05 6f ac bd e6 70 0e be f5 bd d5 bd
       -0.114999056 -0.08419613 -0.13910255 -0.10436622

fc4.weight f4 [2, 24]
000000 c8 e8 e0 3c 8b 31 50 3d 64 70 fd 3d 28 73 ae bd
       0.027454749 0.050828498 0.123749524 -0.08518058
000010 84 6c c8 3d 22 41 18 be e6 99 e3 bd 78 c8 76 3d
       0.09786323 -0.14868596 -0.11113338 0.060249776
000020 b8 f4 fb 3c be 5b d6 3d 40 d8 fa 3b 3b 07 35 3e
       0.03075634 0.10466717 0.0076551735 0.1767854
000030 02 9e 23 be fb a6 11 3e da 15 a0 3d 60 15 e6 bd
       -0.15978244 0.14223854 0.07816668 -0.11234546
000040 5b 5b 4b be b9 1d 09 3d 28 61 90 bc 44 96 47 be
       -0.19859068 0.03347561 -0.017624453 -0.19490916
000050 c4 3d 39 3e c9 fe 82 3d 82 d7 3c 3d 9d 26 44 bd
       0.18089968 0.06396253 0.04610396 -0.047888387
000060 30 28 95 3d 7d af 8d bc 30 7b 99 3d 9c 83 26 bd
       0.07283056 -0.017295593 0.07494199 -0.040652856
000070 fa d8 a0 bd 64 44 1a be 2d b7 21 3e c4 c1 47 bd
       -0.07853885 -0.15065151 0.15792532 -0.048768774
000080 8e d6 43 3e 4f e9 3c bd 3e 41 26 be 45 c6 44 ba
       0.19124815 -0.046120938 -0.16235825 -0.0007506351
000090 0f e2 b0 bd 99 f2 b8 3d 76 d4 52 3c be 2a 32 be
       -0.08636867 0.09030647 0.012868037 -0.17399117
0000a0 f7 d5 4f 3b 44 e2 23 bb b2 fa 4b be 96 74 e7 bd
       0.0031713226 -0.002500669 -0.19919851 -0.11301534
0000b0 54 8c ac bd a4 7a 39 bd 5c 3d bd bd b9 49 0c be
       -0.08425203 -0.045282975 -0.09240219 -0.13699998

fc4.bias f4 [2]
000000 c3 fa 3f 3c 85 0e aa 3b
       0.011717501 0.005189719
