Experimental_Models/Full_Model_No_Weight_Norm_v1.2.pt (torch_old, 136049 bytes, 33 tensors)

fc1.bias f4 [96]
0.21890718 0.4357648 -0.42884237 0.54715246 0.2887193 0.27659285 0.37174046 0.18132466
-0.37832946 -0.14096858 -0.10564704 -0.5610648 0.19580314 0.11040822 -0.13414635 -0.34518862
-0.03297144 -0.29864457 0.010496367 -0.39058512 0.34046853 -0.5104908 0.04730391 0.26145047
0.27366826 -0.2228609 0.5197307 0.52821016 -0.06962071 0.26612994 -0.117473446 -0.48949963
-0.094367296 -0.45685363 0.07051102 -0.16037384 0.21758854 0.06462178 -0.027422074 -0.090875894
-0.06225956 -0.4767447 -0.19682188 -0.4389067 0.16305363 -0.055371966 -0.3297404 -0.21294178
-0.5665986 0.2779153 -0.09682891 -0.29558977 0.1611805 0.3527419 0.2597644 -0.26547968
-0.3835739 -0.02417165 -0.32963017 -0.055475485 0.08638254 0.016933978 -0.50176495 0.23660445
0.47235852 0.40057325 0.45594463 0.5419072 0.54870677 -0.5461389 0.19494998 0.4685682
-0.05466312 -0.19662228 0.26943082 0.2772014 0.23269188 0.43232727 0.4803798 -0.33766884
-0.1904453 -0.071130805 -0.35710657 0.4504587 0.47319484 0.10497829 0.47851455 -0.54087746
-0.27906835 -0.5047761 0.20014259 -0.2371011 -0.06328783 0.14226243 -0.026801826 0.015588403
00000000: 3429 603e 901c df3e 3a91 dbbe 2f12 0c3f
00000010: 04d3 933e 949d 8d3e c454 be3e 2cad 393e
00000020: 66b4 c1be 115a 10be 7a5d d8bd f1a1 0fbf
00000030: 9e80 483e b41d e23d a95d 09be 90bc b0be
00000040: 100d 07bd f1e7 98be f4f8 2b3c c6fa c7be
00000050: e451 ae3e 86af 02bf bfc1 413d d6dc 853e
00000060: 3f1e 8c3e a635 64be 120d 053f c838 073f
00000070: 4e95 8ebd 2f42 883e eb95 f0bd b29f fabe
00000080: a443 c1bd b8e8 e9be 1568 903d 0a39 24be
00000090: 88cf 5e3e 6c58 843d 42a4 e0bc 241d babd
000000a0: e103 7fbd e217 f4be ad8b 49be 61b8 e0be
000000b0: 88f7 263e b7cd 62bd bcd3 a8be 690d 5abe
000000c0: 9b0c 11bf ea4a 8e3e 3c4e c6bd 8b57 97be
000000d0: 800c 253e 969a b43e d7ff 843e f4ec 87be
000000e0: cc63 c4be a003 c6bc 49c5 a8be 433a 63bd
000000f0: 54e9 b03d 20b9 8a3c ab73 00bf 7048 723e
00000100: fad8 f13e f017 cd3e 9371 e93e 6eba 0a3f
00000110: 0c78 0c3f c2cf 0bbf f8a0 473e 2ce8 ef3e
00000120: 70e6 5fbd 5a57 49be d6f2 893e 58ed 8d3e
00000130: c846 6e3e 005a dd3e 57f4 f53e eee2 acbe
00000140: 1804 43be 07ad 91bd acd6 b6be 86a2 e63e
00000150: 9846 f23e dcfe d63d dcff f43e f276 0abf
00000160: 0ce2 8ebe 0239 01bf 2ef2 4c3e a1ca 72be
00000170: 0d9d 81bd 3ead 113e 818f dbbc 8066 7f3c

fc1.weight_g f4 [96, 1]
0.77617437 0.85651827 0.32702565 0.5053895 0.34223938 0.7674696 0.35792014 0.4445138
0.76110697 0.51026887 0.7454662 0.6196382 0.5158139 0.25034598 0.34912178 0.4316155
0.67107594 0.37420657 0.7000055 0.6077237 0.8573051 0.7046561 0.4810403 0.42364997
0.4411437 0.76496863 0.6684416 0.6407208 0.7380279 0.56384254 0.6232396 0.6955034
0.41992438 0.6251468 0.5564126 0.3823713 0.6268654 0.5954453 0.62063915 0.54379624
0.5794636 0.46062157 0.536778 0.4238284 0.5480588 0.49971727 0.583619 0.5541917
0.50791454 0.34303093 0.8299585 0.7875458 0.61769193 0.6912161 0.5567136 0.5421184
0.6133469 0.5349653 0.76084775 0.52114135 0.49444658 0.41102648 0.5193638 0.7387434
0.55018413 0.7527541 0.6439049 0.65431446 0.2713549 0.7008867 0.74549186 0.5670638
0.6596567 0.72036874 0.5142564 0.89359826 0.7520799 0.34425244 0.4675701 0.43602708
0.57927173 0.4609929 0.54947084 0.6761599 0.6266254 0.38361928 0.51008266 0.6153163
0.6062211 0.72667986 0.39519632 0.68363315 0.5788848 0.619344 0.58959806 0.7287533
00000000: 5db3 463f c844 5b3f e86f a73e 3561 013f
00000010: 003a af3e e378 443f 4f41 b73e 5097 e33e
00000020: e8d7 423f fba0 023f dfd6 3e3f 9ca0 1e3f
00000030: 610c 043f 592d 803e 17c0 b23e b5fc dc3e
00000040: a2cb 2b3f 0198 bf3e 8f33 333f c893 1b3f
00000050: 5978 5b3f 5864 343f ea4a f63e a6e8 d83e
00000060: 96dd e13e fcd4 433f fd1e 2b3f 4706 243f
00000070: 65ef 3c3f fc57 103f a18c 1f3f 830c 323f
00000080: 5400 d73e 9f09 203f 0e71 0e3f 2cc6 c33e
00000090: 407a 203f 1a6f 183f 35e2 1e3f 3b36 0b3f
000000a0: ba57 143f 97d6 eb3e 486a 093f 0900 d93e
000000b0: 954d 0c3f f1da ff3e 0e68 153f 82df 0d3f
000000c0: b006 023f c0a1 af3e 2978 543f 9a9c 493f
000000d0: 0f21 1e3f 8af3 303f c884 0e3f 45c8 0a3f
000000e0: 4d04 1d3f 7cf3 083f ebc6 423f 8569 053f
000000f0: 1a28 fd3e 1072 d23e 07f5 043f 4a1e 3d3f
00000100: ded8 0c3f 7eb4 403f f4d6 243f 2781 273f
00000110: 08ef 8a3e 506d 333f 8ed8 3e3f 182b 113f
00000120: 43df 283f 166a 383f 4fa6 033f dbc2 643f
00000130: 4f88 403f db41 b03e 5965 ef3e f13e df3e
00000140: 274b 143f 4307 ec3e 1faa 0c3f d118 2d3f
00000150: 866a 203f bf69 c43e c794 023f 5e85 1d3f
00000160: 4e31 1b3f b107 3a3f 2c57 ca3e 9502 2f3f
00000170: cb31 143f 548d 1e3f e6ef 163f 948f 3a3f

fc1.weight_v f4 [96, 3]
0.1634228 0.5051806 -0.5693456 -0.3701604 -0.5489083 0.54341924 -0.30370772 0.08428997
0.08719283 0.44940573 -0.07201667 0.21473244 -0.32444808 -0.08665386 -0.06597233 -0.4313491
-0.55888766 -0.30098525 -0.33590043 0.028989851 0.120155334 -0.3277018 -0.27619776 0.117978096
0.49549162 -0.23288159 0.52090025 -0.28116336 0.14441727 -0.40266082 0.55416083 0.15763968
-0.47674352 -0.33510673 0.08165711 0.51476896 0.29698998 0.1378002 0.39308023 -0.16692278
0.058393218 -0.17910461 0.062877744 0.3348507 -0.047810137 -0.32971606 0.21287519 -0.18417878
-0.48020718 0.18612295 0.43023515 -0.27358115 0.0040127635 0.25527984 -0.47786668 0.28625584
-0.4361523 -0.29088897 -0.48193097 0.229029 -0.5479299 -0.4364249 -0.49424502 0.5169047
0.47312617 -0.10389257 -0.42231768 0.22796321 -0.0004065369 -0.40449345 0.018014371 0.12465882
0.16675743 -0.3645036 -0.18464884 -0.3211679 0.4723537 -0.5015796 -0.3843873 -0.5395879
-0.08891231 0.44085863 -0.013371682 0.45941526 -0.27607247 0.57458925 -0.3657465 -0.23862098
0.4390178 0.24223557 0.18399447 -0.44784963 -0.39255556 -0.545117 0.42788967 0.09091293
0.170374 0.094341636 -0.36848173 0.52333146 0.2826788 -0.20233986 0.3572668 0.41207838
-0.12114032 -0.3490584 -0.10606411 -0.11452705 -0.41031054 -0.4053145 0.24561274 -0.37728912
0.43188414 0.14324048 -0.33529848 0.4287066 0.3038632 -0.19710553 -0.505938 0.029841483
0.4310961 -0.13105448 -0.3569646 0.4551852 0.074720755 0.07880228 0.18263212 0.48182163
0.12182874 -0.39443797 -0.15369529 0.020663023 0.13407719 0.5195092 0.13595735 0.4545406
-0.1497371 0.14530283 -0.013506651 -0.5764196 -0.09038344 0.41843313 -0.009238934 -0.35762855
-0.11177137 0.29610357 -0.38094738 0.18716973 -0.24586202 0.13557139 -0.57087487 0.18195307
-0.5743049 0.5260356 0.5709486 0.0818823 -0.5020554 0.23494907 0.2787188 -0.42942846
0.54173946 0.011821569 0.048369862 0.4265207 0.35760257 0.013595521 -0.47103515 0.26801747
-0.34586665 0.2365142 0.45905602 -0.17727733 0.009114504 0.50465584 0.5145806 0.44185847
-0.34962967 0.24806836 0.20961042 0.4081358 -0.15968119 0.21304229 -0.41600066 -0.36122698
-0.15900269 -0.114786655 0.43891755 -0.086972594 0.26725584 0.3047296 0.5049705 0.45580983
-0.052427627 0.5313863 0.12438415 -0.54174584 -0.44385767 0.27593583 -0.30797562 0.525919
-0.19614999 -0.39165694 0.016878247 0.52387726 -0.13312644 -0.23090479 0.050929487 -0.010108697
0.4605101 0.52897054 0.4665106 0.1355117 -0.5611276 -0.15597719 -0.47521472 -0.2672143
-0.35161227 -0.12771228 -0.54332805 0.3981761 0.23432076 0.54890066 -0.3291777 -0.11121303
0.37912184 -0.4829685 -0.5573436 0.5046061 0.53760654 -0.1420667 -0.50031227 -0.14400983
-0.23716384 -0.20377493 0.4016199 -0.22072849 0.10045036 -0.020083487 -0.30510503 -0.31084913
0.51646006 0.11335734 -0.24029149 0.08462655 -0.25833693 -0.34394804 0.14191924 -0.18938491
-0.50347424 -0.34911835 0.52756315 -0.2488383 -0.4400397 -0.19866201 0.39944702 0.3683084
00000000: 4e58 273e 8453 013f a2c0 11bf aa85 bdbe
00000010: 4185 0cbf 861d 0b3f 947f 9bbe 38a0 ac3d
00000020: 2892 b23d 8218 e63e 7a7d 93bd d2e2 5b3e
00000030: 0f1e a6be 9477 b1bd 801c 87bd cad9 dcbe
00000040: 4313 0fbf bd1a 9abe 24fb abbe 207c ed3c
00000050: 0014 f63d 88c8 a7be cb69 8dbe 809e f13d
00000060: 14b1 fd3e 8378 6ebe b859 053f a5f4 8fbe
00000070: 1fe2 133e 8f29 cebe 7cdd 0d3f 4c6c 213e
00000080: ba17 f4be 1c93 abbe d83b a73d e6c7 033f
00000090: 120f 983e 7f1b 0d3e d041 c93e ceed 2abe
000000a0: ba2d 6f3d 3367 37be 0cc6 803d 8d71 ab3e
000000b0: 90d4 43bd 8bd0 a8be f4fb 593e 5d99 3cbe
000000c0: b7dd f5be 0497 3e3e c847 dc3e d412 8cbe
000000d0: 807d 833b 0ab4 823e f1aa f4be 2090 923e
000000e0: 5b4f dfbe 66ef 94be a8bf f6be 9486 6a3e
000000f0: 2245 0cbf 1673 dfbe af0d fdbe de53 043f
00000100: 983d f23e a1c5 d4bd 063a d8be 306f 693e
00000110: 7624 d5b9 c419 cfbe e092 933c 204d ff3d
00000120: 76c2 2a3e 37a0 babe 9614 3dbe 1e70 a4be
00000130: 58d8 f13e 8567 00bf 6ace c4be 6f22 0abf
00000140: a817 b6bd 39b8 e13e e614 5bbc 7a38 eb3e
00000150: 5f59 8dbe 4818 133f 2043 bbbe 0f59 74be
00000160: f1c6 e03e 9a0c 783e 0c69 3c3e 8c4c e5be
00000170: 0bfd c8be ca8c 0bbf 5b14 db3e 8f30 ba3d
00000180: 8676 2e3e 3036 c13d a3a9 bcbe 0df9 053f
00000190: 47bb 903e 2e32 4fbe adeb b63e f0fb d23e
000001a0: 6b18 f8bd c8b7 b2be 2438 d9bd 288d eabd
000001b0: 3914 d2be 6285 cfbe e881 7b3e 0a2c c1be
000001c0: eb1f dd3e a2ad 123e 3eac abbe 6e7f db3e
000001d0: f593 9b3e 08d6 49be 2785 01bf 2076 f43c
000001e0: a1b8 dc3e 2533 06be 10c4 b6be 090e e93e
000001f0: 3207 993d 1763 a13d ea03 3b3e 53b1 f63e
00000200: 5981 f93d c6f3 c9be 4c62 1dbe 8045 a93c
00000210: 884b 093e 8efe 043f 6738 0b3e 8cb9 e83e
00000220: af54 19be 44ca 143e 004b 5dbc 3c90 13bf
00000230: f41a b9bd de3c d63e e65e 17bc 171b b7be
00000240: 63e8 e4bd e39a 973e 890b c3be 6ca9 3f3e
00000250: 41c3 7bbe 3ad3 0a3e db24 12bf e851 3a3e
00000260: a505 13bf 45aa 063f b029 123f e8b1 a73d
00000270: b486 00bf 7d96 703e 3bb4 8e3e 0cde dbbe
00000280: 70af 0a3f 41af 413c 7a1f 463d ec60 da3e
00000290: af17 b73e c0bf 5e3c 852b f1be 9639 893e
000002a0: 6f15 b1be c730 723e 6409 eb3e 3088 35be
000002b0: 0055 153c 2031 013f 8ebb 033f 463b e23e
000002c0: a902 b3be a205 7e3e 1da4 563e 2df7 d03e
000002d0: 7783 23be c227 5a3e 0afe d4be bef2 b8be
000002e0: 9ad1 22be 4415 ebbd cdb9 e03e b01e b2bd
000002f0: c2d5 883e 8505 9c3e bf45 013f e85f e93e
00000300: 5abe 56bd ef08 083f 1ebd fe3d dbaf 0abf
00000310: 5041 e3be 7647 8d3e fbae 9dbe a1a2 063f
00000320: 8bdb 48be 4287 c8be 4044 8a3c d21c 063f
00000330: 4c52 08be 4e72 6cbe 709b 503d f39e 25bc
00000340: fbc7 eb3e 9d6a 073f 7ada ee3e 94c3 0a3e
00000350: 0fa6 0fbf 7cb8 1fbe 584f f3be 50d0 88be
00000360: 8606 b4be 02c7 02be 8c17 0bbf bddd cb3e
00000370: c8f1 6f3e c184 0c3f fb89 a8be a8c3 e3bd
00000380: 421c c23e a647 f7be 12ae 0ebf de2d 013f
00000390: 95a0 093f ef79 11be 7714 00bf 5077 13be
000003a0: 14db 72be 60aa 50be 20a1 cd3e a606 62be
000003b0: ebb8 cd3d 2086 a4bc ba36 9cbe 9e27 9fbe
000003c0: ba36 043f e527 e83d f90e 76be af50 ad3d
000003d0: bd44 84be f519 b0be 4753 113e 1eee 41be
000003e0: b0e3 00bf a4bf b2be 610e 073f 78cf 7ebe
000003f0: e24c e1be 0e6e 4bbe 5284 cc3e eb92 bc3e

fc2.bias f4 [48]
0.08114514 0.086625755 -0.06857064 0.006494601 0.09996535 -0.023563197 -0.046346743 -0.013539143
0.07615058 -0.054015905 -0.04727619 0.03874006 0.02592617 -0.05927414 0.03233069 0.056914154
0.06494728 0.022130057 0.03408483 -0.025721781 0.013019592 0.09917359 -0.027134756 -0.049893986
0.05837744 0.074899584 0.10165271 0.051279724 0.06611527 -0.09720291 -0.013546161 0.010654882
0.023622528 0.024374217 -0.08124526 -0.060744043 -0.0523194 -0.0011941865 0.0222894 -0.01586573
-0.0059093633 0.0030726048 -0.052495446 0.028705632 -0.08799327 0.009988098 -0.05164733 -0.050839107
00000000: 6c2f a63d d868 b13d c46e 8cbd a9d0 d43b
00000010: a2ba cc3d 9b07 c1bc 15d6 3dbd 48d3 5dbc
00000020: d6f4 9b3d c83f 5dbd aea4 41bd e6ad 1e3d
00000030: 1f63 d43c 71c9 72bd 306d 043d d11e 693d
00000040: 1403 853d 184a b53c 899c 0b3d 7cb6 d2bc
00000050: 2050 553c 861b cb3d b549 debc a35d 4cbd
00000060: 2f1d 6f3d f464 993d 4c2f d03d b00a 523d
00000070: 7167 873d 5212 c7bd b8f0 5dbc d091 2e3c
00000080: 0884 c13c 70ac c73c ea63 a6bd bfce 78bd
00000090: de4c 56bd 4086 9cba 4398 b63c d9f8 81bc
000000a0: 55a3 c1bb c15d 493b 7705 57bd 1328 eb3c
000000b0: d135 b4bd 1fa5 233c 278c 53bd ab3c 50bd

fc2.weight_g f4 [48, 1]
0.6093253 0.60981876 0.5458991 0.59492606 0.57168 0.60181695 0.5807522 0.58978844
0.55168134 0.57774025 0.59517497 0.6095509 0.56809944 0.625467 0.5684909 0.6128605
0.5773166 0.59703463 0.5989549 0.5567916 0.5525396 0.58511424 0.57920265 0.5765542
0.5920818 0.6249539 0.5783735 0.6073016 0.5474889 0.5891102 0.56840545 0.57684714
0.6149293 0.5735474 0.58296233 0.5705822 0.56140536 0.5470684 0.5260659 0.56732756
0.6314642 0.5476238 0.56130975 0.5992433 0.5739952 0.57985127 0.6030879 0.57924235
00000000: befc 1b3f 151d 1c3f 0bc0 0b3f 134d 183f
00000010: 9f59 123f ad10 1a3f 2dac 143f 60fc 163f
00000020: fd3a 0d3f c9e6 133f 635d 183f 870b 1c3f
00000030: f76e 113f 9b1e 203f 9f88 113f 6de4 1c3f
00000040: 05cb 133f 43d7 183f 1c55 193f e589 0e3f
00000050: 3c73 0d3f 0cca 153f a046 143f 0e99 133f
00000060: ac92 173f fbfc 1f3f 4910 143f 1e78 1b3f
00000070: 3c28 0c3f edcf 163f 0583 113f 41ac 133f
00000080: 026c 1d3f 01d4 123f 053d 153f ad11 123f
00000090: 43b8 0f3f ad0c 0c3f 41ac 063f 613c 113f
000000a0: a3a7 213f 1331 0c3f ffb1 0f3f 0268 193f
000000b0: 59f1 123f 2271 143f f863 1a3f 3a49 143f

fc2.weight_v f4 [48, 96]
-0.09020072 0.0933768 0.04382983 0.04179558 0.050262064 -0.07781222 -0.0009931624 0.06116949
-0.0016383156 0.08633955 -0.0592374 0.08873527 0.03561774 -0.021571659 -0.039334342 0.027802974
-0.081517406 -0.08179448 -0.004870862 0.0542998 0.04985237 0.018108077 -0.06074558 0.013987452
-0.030805185 -0.08879385 0.041568324 0.056100786 0.07080653 0.08892441 -0.09903723 0.008113168
0.065535426 -0.07361007 -0.031087793 -0.08095208 0.06725329 0.07125966 0.017700747 -0.0002888888
-0.06186896 -0.057209764 0.018297933 0.06828278 -0.08606857 -0.05658096 -0.037436076 -0.08433905
0.10093297 -0.071409024 0.10195266 -0.10152254 -0.08759612 -0.046467777 0.08274783 0.027494848
-0.06596779 -0.06628914 -0.004244417 0.029304788 0.013942488 -0.05667865 0.02167552 0.0681137
-0.0984049 0.08433744 -0.004057832 -0.06982169 -0.05771315 0.0023723245 -0.01626569 0.01644618
0.03216061 -0.08166283 0.061790004 0.06342569 -0.07463096 -0.061342902 0.096372694 -0.043045234
0.0725369 0.050804973 0.028974399 -0.03972213 0.07824826 -0.010939866 -0.09811884 -0.018017575
0.09741686 0.045368627 0.100983664 0.033777103 0.015750557 -0.07840414 0.015986398 -0.09233184
0.09503788 -0.062446415 0.08695996 -0.05380024 -0.090399384 0.07515696 0.038652644 0.09597863
0.04149504 0.043666616 -0.07206722 -0.0066976026 0.034851834 0.043107986 0.023099884 0.08165257
-0.06313047 -0.015154108 -0.050637968 0.0498662 -0.044025984 0.05398737 -0.054514915 -0.08020168
0.0056507215 -0.040104557 -0.08533955 -0.06023854 -0.06069697 0.044827163 -0.09608353 0.029219717
-0.05802637 -0.09079705 -0.08002126 -0.0924607 -0.055978976 -0.09655271 -0.0082959235 -0.032226063
0.051945463 0.098331854 0.06467344 0.069833174 -0.06102754 0.0716704 -0.054278366 -0.06579625
0.018514872 0.0033774376 -0.07410536 -0.033219866 0.064103425 0.084590465 0.09125827 -0.09341377
-0.0018217787 0.052975267 0.056825057 -0.043121096 -0.056459792 0.038997233 -0.09032856 -0.013807848
-0.044142406 -0.068935424 -0.0147699565 0.06618412 0.0772156 0.046132058 0.009933263 -0.046206217
-0.028856397 -0.038396284 -0.017497137 0.077777386 -0.0156276 0.060689405 -0.06730184 -0.03840114
0.023755774 -0.101897046 -0.088916816 -0.10163893 0.06297283 -0.08055926 -0.081248835 0.0009830967
0.08528258 -0.05061664 -0.009734832 0.028572932 -0.05437412 0.09200129 0.049136147 0.08951768
-0.02534122 -0.0735023 -0.05075813 -0.046811815 -0.055049047 -0.08442177 -0.008000524 -0.011986853
-0.028306557 -0.07649456 0.008657993 0.063303545 -0.057811163 0.07604504 -0.08042494 -0.018088592
0.02322704 0.06757682 0.03670714 -0.032425642 0.0005856492 -0.032588806 0.060538925 0.035953566
0.09260191 0.09895245 0.041089512 0.082139954 -0.026328163 -0.027905308 -0.058805365 0.09209797
0.092911 0.014075867 -0.016534228 -0.00024917864 0.020072464 -0.04602049 0.07471954 -0.035946846
0.09738916 0.047361247 -0.013682492 0.01675191 0.0189157 -0.016834242 -0.08619925 -0.07089404
-0.057893388 -0.065873675 -0.0031715564 0.08229134 0.08639194 0.018948121 -0.05166668 0.05543435
0.08771882 -0.044806484 -0.056095757 0.03560225 0.0037092227 -0.014118505 0.007201332 -0.047094654
00000000: 28bb b8bd 563c bf3d e886 333d d831 2b3d
00000010: 98df 4d3d 035c 9fbd 002d 82ba dc8c 7a3d
00000020: c0bc d6ba cad2 b03d eaa2 72bd d6ba b53d
00000030: e8e3 113d 0cb7 b0bc 0c1d 21bd 10c3 e33c
00000040: 99f2 a6bd dd83 a7bd c09b 9fbb 7869 5e3d
00000050: 0032 4c3d 6457 943c 5bd0 78bd a02b 653c
00000060: 285b fcbc 8dd9 b5bd 8c43 2a3d f0c9 653d
00000070: 0403 913d 001e b63d 08d4 cabd 18ed 043c
00000080: 7037 863d e0c0 96bd d4ab febc 34ca a5bd
00000090: 18bc 893d 96f0 913d 2801 913c 0076 97b9
000000a0: 4e6a 7dbd c954 6abd 8ce5 953c d8d7 8b3d
000000b0: b844 b0bd 70c1 67bd 9256 19bd f4b9 acbd
000000c0: f2b5 ce3d e53e 92bd 8ecc d03d 0deb cfbd
000000d0: 9865 b3bd ff54 3ebd b277 a93d e03c e13c
000000e0: 1f1a 87bd 9ac2 87bd c014 8bbb 9810 f03c
000000f0: 086f 643c df27 68bd dc90 b13c 327f 8b3d
00000100: 8288 c9bd 1cb9 ac3d 90f7 84bb adfe 8ebd
00000110: a064 6cbd 0079 1b3b a03f 85bc 24ba 863c
00000120: d8ba 033d d83e a7bd 8417 7d3d 54e5 813d
00000130: 1ed8 98bd b242 7bbd 0c5f c53d 3350 30bd
00000140: 3a8e 943d e018 503d b85b ed3c acb3 22bd
00000150: a040 a03d 203d 33bc 88f2 c8bd 9899 93bc
00000160: 7e82 c73d 74d4 393d 86d0 ce3d dc59 0a3d
00000170: 5007 813c 5a92 a0bd e8f5 823c 7a18 bdbd
00000180: 38a3 c23d d0c7 7fbd 1018 b23d a45d 5cbd
00000190: 5023 b9bd e4eb 993d 3c52 1e3d 7290 c43d
000001a0: b4f6 293d c4db 323d fb97 93bd 9077 dbbb
000001b0: ccc0 0e3d 0092 303d f83b bd3c 7639 a73d
000001c0: 8c4a 81bd f048 78bc c269 4fbd 8040 4c3d
000001d0: 9754 34bd dc21 5d3d 084b 5fbd c740 a4bd
000001e0: b029 b93b ad44 24bd 81c6 aebd b0bc 76bd
000001f0: 639d 78bd b09c 373d 71c7 c4bd 305e ef3c
00000200: 0fad 6dbd cef3 b9bd 30e2 a3bd 095c bdbd
00000210: 364a 65bd 6dbd c5bd a0eb 07bc 7aff 03bd
00000220: c4c4 543d 3662 c93d 8273 843d b204 8f3d
00000230: 04f8 79bd eec7 923d fe52 5ebd 2fc0 86bd
00000240: 80ac 973c 0058 5d3b 8dc4 97bd 8e11 08bd
00000250: a848 833d c43d ad3d 9ee5 ba3d b84f bfbd
00000260: c0c8 eeba 98fc 583d 64c1 683d bf9f 30bd
00000270: 6242 67bd 90bb 1f3d 2efe b8bd 503a 62bc
00000280: abce 34bd 042e 8dbd b0fd 71bc 8a8b 873d
00000290: 3623 9e3d f8f4 3c3d 20bf 223c bb42 3dbd
000002a0: 4064 ecbc 6c45 1dbd 2856 8fbc c049 9f3d
000002b0: 7405 80bc 7495 783d 8cd5 89bd 844a 1dbd
000002c0: 789b c23c 66af d0bd 051a b6bd 1228 d0bd
000002d0: e6f7 803d 41fc a4bd ca65 a6bd 40db 803a
000002e0: a2a8 ae3d 6553 4fbd d87e 1fbc c811 ea3c
000002f0: 66b7 5ebd 2c6b bc3d fc42 493d 0c55 b73d
00000300: 6498 cfbc 6088 96bd c2e7 4fbd bfbd 3fbd
00000310: 1c7b 61bd 52e5 acbd a114 03bc 8164 44bc
00000320: 27e3 e7bc 2ea9 9cbd 41da 0d3c 4aa5 813d
00000330: 66cb 6cbd 80bd 9b3d d5b5 a4bd 872e 94bc
00000340: a246 be3c b765 8a3d 3a5a 163d c0d0 04bd
00000350: 4186 193a d77b 05bd aaf7 773d 0c44 133d
00000360: 12a6 bd3d 95a7 ca3d 7a4d 283d fe38 a83d
00000370: 29ae d7bc ac99 e4bc e5dd 70bd dc9d bc3d
00000380: 1f48 be3d 779e 663c ca72 87bc 31a4 82b9
00000390: 026f a43c fb7f 3cbd 8f06 993d 003d 13bd
000003a0: f873 c73d defd 413d 882c 60bc 4d3b 893c
000003b0: 19f5 9a3c f7e7 89bc 3b89 b0bd e530 91bd
000003c0: 9e21 6dbd c7e8 86bd e3d9 4fbb 5d88 a83d
000003d0: 42ee b03d 1739 9b3c 71a0 53bd 210f 633d
000003e0: eda5 b33d 0187 37bd aac4 65bd aad3 113d
000003f0: 6e16 733b 4d51 67bc 27f9 eb3b 53e6 40bd

fc3.bias f4 [24]
-0.06754167 -0.10915996 -0.037351754 0.12545338 0.0601481 0.097938515 -0.086218365 -0.08949153
-0.04350678 0.018155508 0.11047208 0.11573399 -0.050188452 -0.1408151 -0.028786287 -0.009096033
0.10105524 -0.112116836 -0.052529786 -0.024186123 -0.021793915 -0.09498265 -0.06290946 0.10463095
00000000: 4953 8abd 428f dfbd 27fe 18bd da76 003e
00000010: db5d 763d fd93 c83d 4193 b0bd 5647 b7bd
00000020: 2a34 32bd dcba 943c 303f e23d f105 ed3d
00000030: 6892 4dbd d531 10be 38d1 ebbc 8707 15bc
00000040: 0df6 ce3d 839d e5bd 7929 57bd fa21 c6bc
00000050: 2789 b2bc 4386 c2bd add6 80bd c048 d63d

fc3.weight_g f4 [24, 1]
0.58211935 0.59658825 0.56091523 0.61436725 0.59643686 0.535786 0.50081694 0.533218
0.5861137 0.61802596 0.65563875 0.568285 0.52729183 0.6111753 0.57723606 0.6330064
0.5668661 0.66442955 0.56728655 0.5825763 0.61011475 0.56281835 0.57820696 0.6116829
00000000: c605 153f 02ba 183f 2498 0f3f 2c47 1d3f
00000010: 16b0 183f 4529 093f 8a35 003f fa80 083f
00000020: 8c0b 163f f336 1e3f f1d7 273f 207b 113f
00000030: 99fc 063f fc75 1c3f bec5 133f b50c 223f
00000040: 231e 113f 0e18 2a3f b139 113f b823 153f
00000050: 7b30 1c3f dd14 103f 5f05 143f 4097 1c3f

fc3.weight_v f4 [24, 48]
-0.015577491 0.08678382 -0.041462813 0.13487887 0.05605632 -0.07707255 0.08800243 -0.011207714
-0.09011942 0.098092355 -0.029866287 0.07286421 -0.09092621 -0.04682706 -0.095381945 0.051222883
-0.1276297 -0.106330104 0.08202731 0.061038967 -0.025968801 0.12274593 -0.1327883 -0.09514128
0.121931635 -0.038568955 0.077034906 0.1298249 -0.033764213 -0.033092182 -0.0444761 -0.13413477
-0.01008725 -0.030724842 0.09833988 -0.022411257 1.6611868e-06 0.115557775 0.03327827 0.0625387
0.00047790812 -0.05373078 0.027093649 -0.118798204 0.13925149 0.10717 0.024442095 0.102826044
0.10516687 -0.07637681 0.12311074 -0.037519693 0.08827208 -0.09558429 -0.087730184 -0.13021056
0.059637725 -0.10145469 0.06765361 0.07117164 -0.08030597 -0.09379742 -0.10809324 -0.06314053
0.015086666 0.04150559 0.101269946 0.052955076 -0.046204686 0.08976129 0.02646394 -0.010501683
-0.026251562 0.11450839 -0.13492902 -0.07500214 -0.031717844 0.0924239 -0.06611193 -0.12115009
-0.1371854 -0.10694499 -0.13994281 0.102266476 -0.056288846 0.124640554 -0.010728881 -0.13945808
-0.051790617 0.103731334 -0.034815006 -0.041235395 0.118070334 -0.03682354 0.062364742 -0.011004463
0.11382194 -0.07141557 0.022173816 -0.104815885 0.03323705 -0.0637888 -0.045576215 0.0048155426
0.09164987 0.0756575 0.042375267 -0.09073125 -0.0533145 0.03897511 0.043851774 0.023674631
-0.058529515 -0.13088833 -0.014116501 -0.010872101 -0.06127601 0.1232836 0.00023684127 0.05072531
-0.08157445 0.037499756 -0.102398224 0.08868509 -0.023892028 0.05526782 0.12722994 0.012552073
-0.008189574 0.058080453 -0.13903376 -0.094821095 0.073752694 0.121902846 0.06418726 0.1180544
-0.12297913 0.11791655 0.031544425 0.05988778 0.08611547 -0.098442815 0.09796007 -0.050216503
-0.103756696 0.03570928 -0.14338136 -0.075620465 -0.09008856 -0.062946394 0.0092742825 0.023423722
-0.107118815 -0.011926221 -0.030309502 -0.024175493 0.08166282 0.022547385 -0.07510215 -0.07698056
-0.101392396 0.02900836 0.006688965 0.12827617 -0.026278056 -0.09933741 -0.1341581 0.088230506
-0.08138336 0.10805066 -0.13082515 -0.03623734 0.13502878 0.11310125 0.011098314 0.12767296
-0.06584847 -0.06519522 0.04666302 -0.13622536 0.099768154 0.11351913 -0.10572663 0.0734431
-0.09006365 -0.050582625 0.13202912 0.0768596 0.019691018 0.10281027 -0.09718916 0.14043288
0.009100835 -0.035173863 -0.116799325 -0.13935775 0.052277982 -0.08169757 -0.05226436 -0.046214167
0.035559863 0.10767746 -0.022813782 0.116983 0.013367219 -0.1388416 -0.13035606 -0.051249646
0.052660577 -0.014176233 -0.04190286 -0.07408058 -0.039328743 -0.03905538 0.12235566 -0.08587837
-0.088715106 -0.061132047 -0.044370804 0.04840657 -0.06610221 -0.08846118 -0.12993006 -0.101099305
-0.0087956255 0.038004898 -0.0089971535 0.059254847 0.084423594 0.08413987 0.13006683 -0.101272084
-0.03908875 -0.030440142 0.13447861 0.022072868 0.027646238 -0.14072083 0.05181397 0.078778766
-0.07190608 -0.051271334 -0.03159625 0.06072694 -0.06972026 -0.08110639 0.025176486 -0.0380241
0.108678274 -0.052918557 0.13843031 0.007087855 -0.00992557 0.051108576 -0.051884208 0.082472
00000000: bc38 7fbc b7bb b13d e9d4 29bd b01d 0a3e
00000010: 509b 653d 37d8 9dbd 9e3a b43d 8fa0 37bc
00000020: 8890 b8bd a5e4 c83d 25aa f4bc d539 953d
00000030: 8537 babd bbcd 3fbd 9c57 c3bd 16cf 513d
00000040: 5cb1 02be 99c3 d9bd effd a73d ff03 7a3d
00000050: 86bc d4bc 3862 fb3d a8f9 07be 6ed9 c2bd
00000060: 4bb7 f93d 7bfa 1dbd 7ac4 9d3d d2f0 043e
00000070: 584c 0abd ab8b 07bd 922c 36bd a05a 09be
00000080: fe44 25bc aab2 fbbc 6b66 c93d d097 b7bc
00000090: f2f5 de35 8ea9 ec3d cc4e 083d 4a14 803d
000000a0: be8f fa39 ce14 5cbd 80f3 dd3c 794c f3bd
000000b0: f197 0e3e f27b db3d ca3a c83c 7696 d23d
000000c0: ba61 d73d 726b 9cbd 7c21 fc3d 40ae 19bd
000000d0: fec7 b43d b2c1 c3bd e2ab b3bd eb55 05be
000000e0: b046 743d 7ac7 cfbd fa8d 8a3d 70c2 913d
000000f0: 7577 a4bd dd18 c0bd fd5f ddbd d24f 81bd
00000100: 102e 773c c401 2a3d 9e66 cf3d 6ce7 583d
00000110: 2041 3dbd c4d4 b73d e8ca d83c 400f 2cbc
00000120: 840d d7bc 6083 ea3d d52a 0abe b99a 99bd
00000130: 92ea 01bd be48 bd3d b165 87bd 8a1d f8bd
00000140: 547a 0cbe fa05 dbbd 2b4d 0fbe 1671 d13d
00000150: 228f 66bd 8c43 ff3d 30c8 2fbc 19ce 0ebe
00000160: 6622 54bd 1871 d43d 2e9a 0ebd 72e6 28bd
00000170: dcce f13d 48d4 16bd 2c72 7f3d 104c 34bc
00000180: 7a1b e93d 5442 92bd dda5 b53c b6a9 d6bd
00000190: 9323 083d b4a3 82bd 20ae 3abd b3cb 9d3b
000001a0: edb2 bb3d 52f2 9a3d b091 2d3d 4ed1 b9bd
000001b0: 4e60 5abd 5da4 1f3d eb9d 333d 4df1 c13c
000001c0: a5bc 6fbd 9707 06be e648 67bc e620 32bc
000001d0: 8efc 7abd 1d7c fc3d 9858 7839 58c5 4f3d
000001e0: 8110 a7bd 5899 193d 29b6 d1bd 87a0 b53d
000001f0: 37b9 c3bc 8260 623d 9148 023e 36a7 4d3c
00000200: 902d 06bc c5e5 6d3d de5e 0ebe 9031 c2bd
00000210: a70b 973d 33a8 f93d 9c74 833d 81c6 f13d
00000220: 7bdc fbbd 3b7e f13d ba34 013d e44c 753d
00000230: 4f5d b03d 639c c9bd 4a9f c83d d2af 4dbd
00000240: 647e d4bd e543 123d 90d2 12be e7de 9abd
00000250: 5a80 b8bd 0aea 80bd 29f3 173c 1be3 bf3c
00000260: 1c61 dbbd 3266 43bc a24b f8bc af0b c6bc
00000270: d63e a73d 4bb5 b83c 28cf 99bd fca7 9dbd
00000280: d1a6 cfbd f1a2 ed3c 1b2f db3b d45a 033e
00000290: 1445 d7bc 6971 cbbd be60 09be 32b2 b43d
000002a0: 52ac a6bd aa49 dd3d 07f7 05be 9b6d 14bd
000002b0: fc44 0a3e a1a1 e73d b4d5 353c b3bc 023e
000002c0: 90db 86bd 1285 85bd b921 3f3d a97e 0bbe
000002d0: 3f53 cc3d b87c e83d 3487 d8bd 5669 963d
000002e0: 4a73 b8bd ba2f 4fbd a432 073e 9168 9d3d
000002f0: 0f4f a13c 318e d23d 1c0b c7bd a3cd 0f3e
00000300: ab1b 153c 7812 10bd 7c34 efbd ccb3 0ebe
00000310: 7021 563d 0e51 a7bd 2713 56bd 114b 3dbd
00000320: 38a7 113d 0086 dc3d f8e3 babc c894 ef3d
00000330: 2e02 5b3c 7e2c 0ebe 0f7c 05be 26eb 51bd
00000340: 9eb2 573d 6e43 68bc 55a2 2bbd 8fb7 97bd
00000350: 2d17 21bd 89f8 1fbd 9b95 fa3d 00e1 afbd
00000360: 44b0 b5bd 9965 7abd 29be 35bd f845 463d
00000370: 9860 87bd 232b b5bd 630c 05be 270d cfbd
00000380: 871b 10bc 06ab 1b3d cc68 13bc 36b5 723d
00000390: 47e6 ac3d 8651 ac3d 3d30 053e bd67 cfbd
000003a0: 861b 20bd 9b5d f9bc c3b4 093e 29d2 b43c
000003b0: 5d7a e23c 1f19 10be e33a 543d c356 a13d
000003c0: 7f43 93bd e401 52bd 126b 01bd d0bc 783d
000003d0: 7fc9 8ebd 1b1b a6bd eb3e ce3c 29bf 1bbd
000003e0: b792 de3d 21c1 58bd adc0 0d3e 3d41 e83b
000003f0: dc9e 22bc 3a57 513d 8984 54bd 14e7 a83d

fc4.weight f4 [2, 24]
0.12142221 -0.12382929 0.11313657 -0.095998496 -0.21357445 -0.12011427 -0.09305214 -0.16170308
-0.1084696 0.19506733 0.1354821 0.14886847 -0.1645256 0.07359534 0.053505987 0.067677386
-0.09111799 0.11040957 -0.080155775 -0.17396796 -0.08174234 -0.19174722 -0.019741017 0.16407563
-0.05680459 0.09041694 -0.15041822 0.17903139 -0.06649295 0.124233395 0.029880531 0.0981223
-0.1710104 0.17727754 0.1427923 0.06923301 0.16433941 0.15038109 0.061258078 -0.11204784
-0.062237177 -0.0991902 0.08660936 0.06459154 -0.19508536 0.12972534 -0.02030081 0.124396235
00000000: 35ac f83d 369a fdbd 25b4 e73d dc9a c4bd
00000010: 43b3 5abe 78fe f5bd 1f92 bebd 7e95 25be
00000020: 4f25 debd bbbf 473e d2bb 0a3e fa70 183e
00000030: 6679 28be 27b9 963d 1829 5b3d 719a 8a3d
00000040: 129c babd 6a1e e23d b628 a4bd a824 32be
00000050: 8768 a7bd 6259 44be eab7 a1bc 7103 283e
00000060: eeab 68bd 842c b93d 3c07 1abe 0154 373e
00000070: 752d 88bd 146e fe3d 04c8 f43c 58f4 c83d
00000080: 5a1d 2fbe 3e88 353e 2538 123e 09ca 8d3d
00000090: 9748 283e 80fd 193e c0e9 7a3d 5779 e5bd
000000a0: 69ec 7ebd 3b24 cbbd 4060 b13d 9248 843d
000000b0: 75c4 47be b8d6 043e e24d a6bc 74c3 fe3d

fc4.bias f4 [2]
-0.044727486 -0.18135574
00000000: 2b34 37bd 52b5 39be

exp_avg f4 [96]
-0.00016053734 0.0 0.0 -0.00019060071 0.0 0.0 0.0 0.0
0.00023921454 -2.8610834e-06 -0.00017572928 0.0 0.00029928453 2.8409897e-06 2.7092954e-05 -8.936321e-06
0.0 0.0 2.8333925e-06 0.0 0.0 -0.00029345165 1.6605267e-05 0.0
0.000111278496 7.749536e-05 0.0 3.2970005e-05 -0.00012073108 -0.00027815026 0.0004358431 -2.853611e-05
0.00016692476 -0.00026651184 0.00034688215 0.0 0.0 1.2639317e-05 -5.1223873e-05 0.0
8.201482e-05 0.00011789419 0.00036180584 0.0 -0.00038903256 0.00019892369 0.0 0.00044585235
-8.732105e-05 0.00061396754 0.0 0.00024149628 2.5836612e-06 2.303821e-05 -0.000122369 0.0
-2.3199793e-06 0.0 -6.446312e-05 6.2845647e-06 0.00011069316 0.0 0.00015303788 -5.0054383e-05
-0.00018319034 0.0 -0.00023864917 0.0 0.0 0.00014113651 0.00012841931 0.0
0.0 0.00033748205 0.0 0.0 -0.000119896096 0.0 -0.00025456474 0.0
-0.00010750916 -0.00013019849 3.8538627e-05 -6.463386e-05 0.0 -0.00014742288 -0.00038140436 -1.3490935e-05
0.0005411368 0.0 -4.5194007e-05 -0.00035468256 -2.8381084e-05 -0.00024990656 -0.00022946639 0.0
00000000: ea55 28b9 0000 0000 0000 0000 fddb 47b9
00000010: 0000 0000 0000 0000 0000 0000 0000 0000
00000020: aad5 7a39 0a01 40b6 f843 38b9 0000 0000
00000030: 4ae9 9c39 d5a7 3e36 ad45 e337 35ed 15b7
00000040: 0000 0000 0000 0000 5025 3e36 0000 0000
00000050: 0000 0000 6ada 99b9 8a4b 8b37 0000 0000
00000060: 305e e938 0185 a238 0000 0000 4649 0a38
00000070: 0131 fdb8 b2d4 91b9 df81 e439 d460 efb7
00000080: 8608 2f39 9dba 8bb9 bcdd b539 0000 0000
00000090: 0000 0000 740d 5437 37d9 56b8 0000 0000
000000a0: 5fff ab38 f63d f738 c2b0 bd39 0000 0000
000000b0: 11f7 cbb9 2c96 5039 0000 0000 4ac1 e939
000000c0: 2220 b7b8 aaf2 203a 0000 0000 2a3a 7d39
000000d0: f662 2d36 2e42 c137 2e50 00b9 0000 0000
000000e0: f1b0 1bb6 0000 0000 6030 87b8 00e0 d236
000000f0: f023 e838 0000 0000 cb78 2039 7cf1 51b8
00000100: c816 40b9 0000 0000 e63d 7ab9 0000 0000
00000110: 0000 0000 0bfe 1339 4ca8 0639 0000 0000
00000120: 0000 0000 13f0 b039 0000 0000 0000 0000
00000130: ba70 fbb8 0000 0000 1a77 85b9 0000 0000
00000140: 8a76 e1b8 e485 08b9 89a4 2138 0a8c 87b8
00000150: 0000 0000 8795 1ab9 3af7 c7b9 2057 62b7
00000160: 13db 0d3a 0000 0000 b28e 3db8 b0f4 b9b9
00000170: ea13 eeb7 e405 83b9 ea9c 70b9 0000 0000

exp_avg_sq f4 [96]
1.3956766e-06 0.0 0.0 2.9236742e-07 0.0 0.0 0.0 0.0
1.0316174e-06 9.321596e-10 9.284771e-07 0.0 8.322981e-07 7.5476836e-10 3.237821e-07 2.2145596e-09
0.0 0.0 9.980804e-11 0.0 0.0 1.1688305e-06 7.390769e-09 0.0
1.642482e-07 2.6383262e-08 0.0 8.233286e-07 3.8779402e-07 9.846214e-07 8.0558476e-07 4.5585415e-09
6.7361674e-07 5.4073763e-07 4.119909e-07 0.0 0.0 6.199092e-09 5.470457e-09 0.0
1.0469458e-06 1.6952805e-06 2.4222109e-06 0.0 1.9543515e-06 5.928884e-07 0.0 1.2050904e-06
1.4821282e-07 1.6116741e-06 0.0 1.9234841e-07 3.2716818e-10 3.630367e-08 1.3291314e-07 0.0
6.064139e-10 0.0 4.011387e-07 6.0576036e-07 1.4934476e-07 0.0 3.597754e-07 3.8187417e-07
4.899877e-07 0.0 1.1309885e-07 0.0 0.0 2.1937154e-07 3.354564e-07 0.0
0.0 5.9442687e-07 0.0 0.0 2.7609556e-07 0.0 7.775948e-07 0.0
1.3840472e-07 4.40576e-08 4.598702e-07 3.503749e-08 0.0 5.49794e-07 2.8692733e-07 1.0826469e-07
1.3519139e-06 0.0 3.1923585e-07 1.0240129e-06 6.5629697e-09 2.4285384e-07 6.079811e-07 0.0
00000000: 1553 bb35 0000 0000 0000 0000 acf6 9c34
00000010: 0000 0000 0000 0000 0000 0000 0000 0000
00000020: 1b76 8a35 731d 8030 763c 7935 0000 0000
00000030: 176b 5f35 1a78 4f30 46d4 ad34 f22e 1831
00000040: 0000 0000 0000 0000 ee7a db2e 0000 0000
00000050: 0000 0000 b6e0 9c35 e4f1 fd31 0000 0000
00000060: 345c 3034 68a1 e232 0000 0000 b602 5d35
00000070: 0132 d034 5527 8435 5d3f 5835 5ba1 9c31
00000080: 97d2 3435 3527 1135 992f dd34 0000 0000
00000090: 0000 0000 caff d431 a6f6 bb31 0000 0000
000000a0: c984 8c35 6589 e335 448d 2236 0000 0000
000000b0: 8127 0336 fb26 1f35 0000 0000 97be a135
000000c0: 6e24 1f34 b350 d835 0000 0000 5488 4e34
000000d0: d4dc b32f 4fec 1b33 e3b6 0e34 0000 0000
000000e0: 96b0 2630 0000 0000 155c d734 899b 2235
000000f0: 935b 2034 0000 0000 2827 c134 6304 cd34
00000100: b387 0335 0000 0000 c0e0 f233 0000 0000
00000110: 0000 0000 648c 6b34 c718 b434 0000 0000
00000120: 0000 0000 b490 1f35 0000 0000 0000 0000
00000130: 493a 9434 0000 0000 e8bb 5035 0000 0000
00000140: 669c 1434 d839 3d33 14e4 f634 217c 1633
00000150: 0000 0000 8e95 1335 fe0a 9a34 257f e833
00000160: 6873 b535 0000 0000 7163 ab34 d170 8935
00000170: 7e80 e131 9461 8234 2534 2335 0000 0000

exp_avg f4 [96, 1]
-0.00013890208 0.0 0.0 0.00014996916 0.0 0.0 0.0 0.0
-0.0005293976 -1.9189745e-06 -0.0001361573 0.0 -0.0008872043 -9.430849e-07 0.00029886272 -7.2587477e-06
0.0 0.0 6.8645477e-07 0.0 0.0 -0.0018123002 4.7632133e-07 0.0
0.00033616633 0.00019238907 0.0 -0.00010277367 -9.375019e-05 0.00010853988 0.0007061721 -4.4133205e-05
0.0014189215 0.00023262575 0.00091330835 0.0 0.0 8.704463e-06 -7.273877e-05 0.0
0.0014713157 -0.0037493776 0.0031216496 0.0 0.00078601006 -0.000844379 0.0 0.0015690238
-0.00022161625 0.0005377044 0.0 0.0018666536 -9.578378e-07 0.00015366383 -0.0007889638 0.0
-1.8057953e-06 0.0 0.0009587754 -0.0014105849 0.00023044841 0.0 -0.00045275866 0.00063056673
0.0002249536 0.0 -2.6471316e-05 0.0 0.0 -7.777893e-05 0.0013837139 0.0
0.0 0.0007555303 0.0 0.0 0.00044704683 0.0 -0.0013591077 0.0
-0.0007263641 -0.00022937937 3.667772e-05 -0.00021995432 0.0 -0.00056143146 -0.00013291037 -0.0006541744
0.0020428367 0.0 -0.00025619977 -0.00012908483 -8.623347e-05 -0.00039093374 -0.0001663394 0.0
00000000: 3ea6 11b9 0000 0000 0000 0000 0a41 1d39
00000010: 0000 0000 0000 0000 0000 0000 0000 0000
00000020: 46c7 0aba bbc7 00b6 72c5 0eb9 0000 0000
00000030: 4693 68ba 4d28 7db5 adb0 9c39 2b90 f3b6
00000040: 0000 0000 0000 0000 d044 3835 0000 0000
00000050: 0000 0000 b48a edba 1bb9 ff34 0000 0000
00000060: 7b3f b039 0cbc 4939 0000 0000 3288 d7b8
00000070: c09b c4b8 e89f e338 681e 393a ab1b 39b8
00000080: 1bfb b93a 00ed 7339 166b 6f3a 0000 0000
00000090: 0000 0000 6209 1237 548b 98b8 0000 0000
000000a0: 2ad9 c03a 1eb8 75bb 9794 4c3b 0000 0000
000000b0: 3e0c 4e3a 5159 5dba 0000 0000 b4a7 cd3a
000000c0: a961 68b9 bbf4 0c3a 0000 0000 80aa f43a
000000d0: 0e8f 80b5 d220 2139 77d2 4eba 0000 0000
000000e0: a75e f2b5 0000 0000 5456 7b3a 60e3 b8ba
000000f0: 86a4 7139 0000 0000 3d60 edb9 9e4c 253a
00000100: 86e1 6b39 0000 0000 b80e deb7 0000 0000
00000110: 0000 0000 3f1d a3b8 bc5d b53a 0000 0000
00000120: 0000 0000 c80e 463a 0000 0000 0000 0000
00000130: 9c61 ea39 0000 0000 1624 b2ba 0000 0000
00000140: 7869 3eba 8e85 70b9 67d6 1938 8aa3 66b9
00000150: 0000 0000 072d 13ba db5d 0bb9 e77c 2bba
00000160: 1de1 053b 0000 0000 8d52 86b9 f25a 07b9
00000170: 3ed8 b4b8 3df6 ccb9 656b 2eb9 0000 0000

exp_avg_sq f4 [96, 1]
0.000103768725 0.0 0.0 5.9135975e-05 0.0 0.0 0.0 0.0
6.263688e-05 3.5035683e-10 0.0001883582 0.0 9.96734e-05 1.0593189e-10 3.5028537e-05 4.397975e-09
0.0 0.0 4.4867103e-11 0.0 0.0 0.00035899915 4.110225e-09 0.0
1.7578853e-06 1.0166039e-07 0.0 0.00011331342 1.5113761e-06 3.12285e-06 5.365147e-06 1.7440897e-08
4.4869535e-05 0.00014702263 7.223257e-05 0.0 0.0 9.740447e-09 2.934896e-08 0.0
0.000112871494 0.00047509235 0.000349811 0.0 0.00023663869 8.0917795e-05 0.0 0.00019310876
7.214265e-07 3.956749e-05 0.0 4.1670468e-05 3.0542967e-11 6.024614e-08 6.5444137e-06 0.0
9.038136e-10 0.0 9.89492e-05 7.345626e-05 1.6718853e-07 0.0 6.626177e-05 5.7270547e-05
1.969715e-05 0.0 1.6668821e-07 0.0 0.0 5.477101e-06 4.8344053e-05 0.0
0.0 8.5099426e-05 0.0 0.0 3.088709e-05 0.0 0.0001130238 0.0
3.0663086e-05 1.2052087e-07 2.6663502e-06 2.6512305e-07 0.0 0.00015853975 5.907469e-08 3.1995503e-05
0.00024821848 0.0 1.8348514e-06 5.5022625e-05 3.158258e-08 2.1362976e-06 1.1218174e-06 0.0
00000000: 699e d938 0000 0000 0000 0000 c508 7838
00000010: 0000 0000 0000 0000 0000 0000 0000 0000
00000020: eb5b 8338 579c c02f 0582 4539 0000 0000
00000030: c007 d138 5af2 e82e 9beb 1238 ff1c 9731
00000040: 0000 0000 0000 0000 de53 452e 0000 0000
00000050: 0000 0000 0d38 bc39 ec39 8d31 0000 0000
00000060: 7bf0 eb35 6450 da33 0000 0000 aea2 ed38
00000070: 7dda ca35 2892 5136 4306 b436 f0d0 9532
00000080: 4c32 3c38 162a 1a39 917b 9738 0000 0000
00000090: 0000 0000 f056 2732 0c1b fc32 0000 0000
000000a0: 6cb5 ec38 d115 f939 d666 b739 0000 0000
000000b0: 3722 7839 69b2 a938 0000 0000 3d7d 4a39
000000c0: 0da8 4135 45f5 2538 0000 0000 53c7 2e38
000000d0: 5354 062e aa60 8133 1698 db36 0000 0000
000000e0: 3a70 7830 0000 0000 f282 cf38 880c 9a38
000000f0: 6f84 3334 0000 0000 04f6 8a38 c835 7038
00000100: 4f3b a537 0000 0000 e8fa 3234 0000 0000
00000110: 0000 0000 f0c7 b736 08c5 4a38 0000 0000
00000120: 0000 0000 6877 b238 0000 0000 0000 0000
00000130: c38c 0138 0000 0000 3107 ed38 0000 0000
00000140: 3d9c 0038 8668 0134 8cef 3236 3c56 8e34
00000150: 0000 0000 b13d 2639 4fb9 7d33 e932 0638
00000160: 5223 8239 0000 0000 0445 f635 18c8 6638
00000170: 6aa5 0733 505d 0f36 5a91 9635 0000 0000

exp_avg f4 [96, 3]
-0.0010331033 5.6521316e-05 -0.00024633194 0.0 0.0 0.0 0.0 0.0
0.0 -8.351666e-05 -7.8146375e-05 0.00014837888 0.0 0.0 0.0 0.0
0.0 0.0 0.0 0.0 0.0 0.0 0.0 0.0
-9.2597584e-05 0.00014436897 0.00015239106 -1.2457678e-05 -2.8452998e-05 -1.5045578e-06 7.283369e-06 -0.00019423026
-5.5641067e-05 0.0 0.0 0.0 -0.000303993 -0.0006551349 0.00045905443 1.0680257e-05
2.847326e-05 -6.674841e-07 0.0011711763 -0.00017947488 0.0002835986 -5.321291e-05 -8.508796e-05 -3.0701028e-06
0.0 0.0 0.0 0.0 0.0 0.0 1.5933188e-05 2.7232756e-05
4.1874378e-07 0.0 0.0 0.0 0.0 0.0 0.0 -0.0010656712
0.0010264684 -0.00062709773 8.922701e-05 0.0001652805 2.1043167e-10 0.0 0.0 0.0
-0.00030370706 -0.00019209823 0.00010509737 0.0007392163 0.00063724513 0.00012689512 0.0 0.0
0.0 -0.00013512273 5.8767022e-05 0.00013131414 -0.001094414 -0.00056721235 -6.478798e-05 -0.004450475
-0.0024497875 5.4391403e-05 0.0025219081 0.000490791 0.00062238047 -0.0001782884 -0.00022836233 5.713108e-06
0.0038387086 0.00087754836 0.0019999444 -0.000106450476 0.000359656 0.00022736569 0.0011240025 -0.00086391554
0.00037759973 0.0 0.0 0.0 0.0 0.0 0.0 0.00014301618
0.00012538004 -1.5417135e-06 -0.0005274871 -0.00043363488 2.9626754e-05 0.0 0.0 0.0
0.0018310057 0.002095595 0.0014420804 9.5228286e-05 -0.00037817258 -0.00019204903 0.0044878987 -0.001747596
0.00018302121 0.0 0.0 0.0 0.00040911563 -0.00014610874 0.00015418777 -0.00015885412
-0.00061606127 -0.0001384301 0.0 0.0 0.0 0.0011827103 0.00037856755 0.0013744697
-0.0013238307 -0.00068438624 -0.00014337637 0.0013475961 0.00090598495 -0.00021931084 0.0 0.0
0.0 0.000711419 -0.00065477326 -5.4170223e-06 1.2093046e-05 2.533121e-05 4.2839028e-07 0.0002724455
0.00021633996 -1.9368166e-05 -0.0020253456 9.724307e-05 0.00015781149 0.0 0.0 0.0
-1.4778755e-05 -2.4174957e-05 1.3159276e-06 0.0 0.0 0.0 0.000707219 -0.00027722822
0.0006906349 -0.0013161533 0.00022808628 0.00068274845 0.0009909023 0.0011218634 0.00019432983 0.0
0.0 0.0 -5.823048e-05 -0.0003151474 -7.071034e-06 0.0005478817 -0.00014647008 -0.0002040573
0.00027201604 1.5877682e-05 4.6170608e-05 0.0 0.0 0.0 -0.0035189602 -0.002059606
4.5932297e-06 0.0 0.0 0.0 0.0 0.0 0.0 -0.00084553426
9.092858e-05 -9.544609e-05 0.0018962038 0.00018629184 0.0016215817 0.0 0.0 0.0
0.0 0.0 0.0 0.0008319654 -0.00019965543 -0.0005185032 0.0 0.0
0.0 0.0 0.0 0.0 0.0008625055 0.001006313 0.00064113253 0.0
0.0 0.0 -0.00022157488 -0.00038292463 4.411549e-05 0.0 0.0 0.0
-0.0002479392 0.00020990042 -0.00043373305 -0.0008956891 -0.00010380951 -0.00014215158 0.0017913041 0.0004862735
0.0003220911 -0.0006360436 -0.00045732156 -7.706821e-05 0.0 0.0 0.0 -3.3290387e-05
00000000: 3269 87ba 4d11 6d38 1d26 81b9 0000 0000
00000010: 0000 0000 0000 0000 0000 0000 0000 0000
00000020: 0000 0000 aa25 afb8 84e2 a3b8 2796 1b39
00000030: 0000 0000 0000 0000 0000 0000 0000 0000
00000040: 0000 0000 0000 0000 0000 0000 0000 0000
00000050: 0000 0000 0000 0000 0000 0000 0000 0000
00000060: f330 c2b8 c061 1739 2acb 1f39 5201 51b7
00000070: 59ae eeb7 36f0 c9b5 aa63 f436 4aaa 4bb9
00000080: 2460 69b8 0000 0000 0000 0000 0000 0000
00000090: 4061 9fb9 5cbd 2bba 3ead f039 5b2f 3337
000000a0: dcd9 ee37 282d 33b5 2882 993a 6c31 3cb9
000000b0: f6af 9439 ed30 5fb8 4071 b2b8 f707 4eb6
000000c0: 0000 0000 0000 0000 0000 0000 0000 0000
000000d0: 0000 0000 0000 0000 43a8 8537 e671 e437
000000e0: b5cf e034 0000 0000 0000 0000 0000 0000
000000f0: 0000 0000 0000 0000 0000 0000 fead 8bba
00000100: 908a 863a d163 24ba 631f bb38 254f 2d39
00000110: 405f 672f 0000 0000 0000 0000 0000 0000
00000120: df3a 9fb9 fa6d 49b9 b967 dc38 f7c7 413a
00000130: cc0c 273a 260f 0539 0000 0000 0000 0000
00000140: 0000 0000 bbaf 0db9 9c7c 7638 5fb1 0939
00000150: 7172 8fba fab0 14ba c8de 87b8 4ad5 91bb
00000160: 9d8c 20bb 5322 6438 9946 253b 6da8 003a
00000170: 3f27 233a eef2 3ab9 8c74 6fb9 39b3 bf36
00000180: d892 7b3b 460b 663a 8011 033b 2a3e dfb8
00000190: 3690 bc39 0369 6e39 4453 933a 6478 62ba
000001a0: 94f8 c539 0000 0000 0000 0000 0000 0000
000001b0: 0000 0000 0000 0000 0000 0000 9df6 1539
000001c0: 7378 0339 dfec ceb5 0f47 0aba 7d59 e3b9
000001d0: f886 f837 0000 0000 0000 0000 0000 0000
000001e0: 5bfe ef3a 4056 093b 3004 bd3a 4cb5 c738
000001f0: 7745 c6b9 c560 49b9 390f 933b 970f e5ba
00000200: 62e9 3f39 0000 0000 0000 0000 0000 0000
00000210: 927e d639 c434 19b9 77ad 2139 1492 26b9
00000220: 2c7f 21ba 8c27 11b9 0000 0000 0000 0000
00000230: 0000 0000 2c05 9b3a 7a7a c639 8d27 b43a
00000240: 6384 adba 6268 33ba 4d57 16b9 d2a1 b03a
00000250: 9f7f 6d3a cef6 65b9 0000 0000 0000 0000
00000260: 0000 0000 857e 3a3a 17a5 2bba dec3 b5b6
00000270: 3de3 4a37 5c7e d437 83fd e534 04d7 8e39
00000280: 51d9 6239 d278 a2b7 a9bb 04bb faee cb38
00000290: 337a 2539 0000 0000 0000 0000 0000 0000
000002a0: 45f2 77b7 53cb cab7 ee9e b035 0000 0000
000002b0: 0000 0000 0000 0000 aa64 393a f158 91b9
000002c0: b90b 353a c782 acba 722a 6f39 79fa 323a
000002d0: 2ae1 813a 7d0b 933a 04c5 4b39 0000 0000
000002e0: 0000 0000 0000 0000 803c 74b8 5e3a a5b9
000002f0: b843 edb6 b89f 0f3a c395 19b9 37f8 55b9
00000300: 609d 8e39 1031 8537 50a7 4138 0000 0000
00000310: 0000 0000 0000 0000 5b9e 66bb 74fa 06bb
00000320: 8b1f 9a36 0000 0000 0000 0000 0000 0000
00000330: 0000 0000 0000 0000 0000 0000 d8a6 5dba
00000340: e9b0 be38 3b2a c8b8 0b8a f83a 5657 4339
00000350: 418b d43a 0000 0000 0000 0000 0000 0000
00000360: 0000 0000 0000 0000 0000 0000 4118 5a3a
00000370: 995a 51b9 29ec 07ba 0000 0000 0000 0000
00000380: 0000 0000 0000 0000 0000 0000 0000 0000
00000390: c419 623a 43e6 833a ad11 283a 0000 0000
000003a0: 0000 0000 0000 0000 8e56 68b9 46c3 c8b9
000003b0: a608 3938 0000 0000 0000 0000 0000 0000
000003c0: d6fd 81b9 b718 5c39 aa66 e3b9 aecc 6aba
000003d0: 4eb4 d9b8 860e 15b9 31ca ea3a 86f2 fe39
000003e0: 56de a839 2abc 26ba a9c4 efb9 ae9f a1b8
000003f0: 0000 0000 0000 0000 0000 0000 48a1 0bb8

exp_avg_sq f4 [96, 3]
0.00033896306 6.150075e-06 5.528327e-05 0.0 0.0 0.0 0.0 0.0
0.0 5.6317763e-06 2.5134275e-05 1.055059e-05 0.0 0.0 0.0 0.0
0.0 0.0 0.0 0.0 0.0 0.0 0.0 0.0
0.00011736514 0.00012122036 2.9643663e-05 1.746587e-08 8.788674e-08 2.1621993e-10 3.7123635e-05 2.6063899e-05
7.642941e-05 0.0 0.0 0.0 7.5485026e-05 1.4196925e-05 5.73044e-05 1.0576515e-08
7.648281e-08 5.3092745e-11 8.938688e-05 2.5613576e-06 8.320433e-07 6.873659e-08 1.834817e-07 7.869263e-10
0.0 0.0 0.0 0.0 0.0 0.0 2.9760836e-09 8.893843e-09
1.6816161e-11 0.0 0.0 0.0 0.0 0.0 0.0 3.479972e-05
3.441461e-05 8.105508e-06 1.9420524e-07 6.686481e-07 4.8441975e-15 0.0 0.0 0.0
4.5800818e-05 7.960515e-06 3.636508e-07 2.8834186e-06 1.802196e-06 4.505511e-08 0.0 0.0
0.0 6.951849e-05 5.6434204e-05 5.9283237e-05 9.502063e-05 2.4854045e-05 4.2941755e-07 0.0002011008
6.719292e-05 6.038067e-07 0.00021338528 2.272712e-05 2.5779334e-06 2.002517e-07 3.266526e-07 2.8950967e-10
0.00010936952 2.8503113e-05 3.634947e-05 4.4156823e-06 3.223023e-06 1.6158787e-05 1.760811e-05 9.759695e-06
3.8203416e-06 0.0 0.0 0.0 0.0 0.0 0.0 5.598565e-07
4.3307523e-07 7.40216e-10 4.934615e-07 3.5038565e-07 7.082983e-09 0.0 0.0 0.0
7.3279836e-05 9.914651e-05 4.4077442e-05 3.2390878e-07 3.940211e-05 1.2469906e-05 0.00040725817 4.2619125e-05
2.030398e-05 0.0 0.0 0.0 0.0004187545 1.98753e-05 1.2727133e-05 1.2033325e-05
6.709676e-05 6.484801e-06 0.0 0.0 0.0 6.5416985e-05 5.1688716e-05 8.432174e-05
3.6654514e-05 1.077788e-05 4.442141e-07 0.0003294439 0.0001577331 5.812851e-06 0.0 0.0
0.0 5.9633862e-06 4.68287e-06 5.47629e-07 7.0491577e-09 3.142393e-08 6.1307626e-12 4.2335796e-06
2.6916769e-06 1.3815432e-09 3.5407684e-05 6.005856e-07 2.5779261e-06 0.0 0.0 0.0
1.6188855e-08 5.081781e-08 4.826096e-10 0.0 0.0 0.0 1.2432745e-05 1.8443028e-06
2.1348136e-05 8.082166e-05 6.3666675e-06 4.3702006e-05 1.581834e-05 1.2001532e-05 1.187333e-07 0.0
0.0 0.0 1.1831847e-05 2.5187692e-05 1.6764905e-05 5.436871e-05 5.8426707e-07 2.0978261e-05
0.00013397237 1.7218871e-06 8.3065805e-07 0.0 0.0 0.0 2.3224211e-05 8.488393e-06
2.354709e-08 0.0 0.0 0.0 0.0 0.0 0.0 6.037171e-05
4.5061606e-06 2.8948361e-06 3.2636457e-05 8.729476e-06 2.8500142e-05 0.0 0.0 0.0
0.0 0.0 0.0 6.779932e-05 9.167124e-06 4.865642e-05 0.0 0.0
0.0 0.0 0.0 0.0 1.9513322e-05 1.3424169e-05 1.4362732e-05 0.0
0.0 0.0 3.8372196e-05 0.00010872657 4.778233e-06 0.0 0.0 0.0
7.320226e-07 3.963405e-06 5.500103e-06 9.906941e-06 4.5266435e-07 7.786798e-08 0.00016342809 3.4381796e-05
2.6660648e-06 4.080296e-06 1.9489514e-06 3.530446e-08 0.0 0.0 0.0 2.2247332e-06
00000000: dab6 b139 be5c ce36 f6df 6738 0000 0000
00000010: 0000 0000 0000 0000 0000 0000 0000 0000
00000020: 0000 0000 97f8 bc36 72d7 d237 7002 3137
00000030: 0000 0000 0000 0000 0000 0000 0000 0000
00000040: 0000 0000 0000 0000 0000 0000 0000 0000
00000050: 0000 0000 0000 0000 0000 0000 0000 0000
00000060: ee21 f638 af37 fe38 48ab f837 db07 9632
00000070: 3fbc bc33 80bc 6d2f 33b5 1b38 cca3 da37
00000080: ba48 a038 0000 0000 0000 0000 0000 0000
00000090: b74d 9e38 542f 6e37 225a 7038 01b4 3532
000000a0: df3e a433 1e81 692e 3775 bb38 cae3 2b36
000000b0: 9559 5f35 579c 9333 1103 4534 044f 5830
000000c0: 0000 0000 0000 0000 0000 0000 0000 0000
000000d0: 0000 0000 0000 0000 d183 4c31 89cb 1832
000000e0: a1ea 932d 0000 0000 0000 0000 0000 0000
000000f0: 0000 0000 0000 0000 0000 0000 eaf5 1138
00000100: 6858 1038 e4fc 0737 bb86 5034 267d 3335
00000110: d687 ae27 0000 0000 0000 0000 0000 0000
00000120: 411a 4038 278e 0537 c93b c334 c180 4136
00000130: fce2 f135 9e82 4133 0000 0000 0000 0000
00000140: 0000 0000 75ca 9138 c4b3 6c38 e4a6 7838
00000150: d045 c738 a87d d037 b38a e634 96de 5239
00000160: ede9 8c38 4815 2235 2dc0 5f39 1ea6 be37
00000170: 8f00 2d36 c504 5734 cb5e af34 dd28 9f2f
00000180: 505d e538 f819 ef37 f275 1838 6c2a 9436
00000190: 1d4b 5836 bb8c 8737 21b5 9337 92bd 2337
000001a0: 7c30 8036 0000 0000 0000 0000 0000 0000
000001b0: 0000 0000 0000 0000 0000 0000 0c49 1635
000001c0: 6881 e834 1278 4b30 6b76 0435 a31c bc34
000001d0: 945e f331 0000 0000 0000 0000 0000 0000
000001e0: d0ad 9938 e1ec cf38 cbdf 3838 afe5 ad34
000001f0: b243 2538 d735 5137 4485 d539 f0c1 3238
00000200: 7752 aa37 0000 0000 0000 0000 0000 0000
00000210: 478c db39 e2b9 a637 9f86 5537 bde2 4937
00000220: 4cb6 8c38 0498 d936 0000 0000 0000 0000
00000230: 0000 0000 7a30 8938 56cc 5838 e4d5 b038
00000240: 7cbd 1938 a4d2 3437 527c ee34 36b9 ac39
00000250: 2865 2539 030c c336 0000 0000 0000 0000
00000260: 0000 0000 1919 c836 8c21 9d36 c700 1335
00000270: 0c35 f231 faf6 0633 00b5 d72c 2c0e 8e36
00000280: a8a2 3436 bbe0 bd30 b682 1438 ee37 2135
00000290: 6f00 2d36 0000 0000 0000 0000 0000 0000
000002a0: ab0f 8b32 c642 5a33 a2a8 0430 0000 0000
000002b0: 0000 0000 0000 0000 3c96 5037 c389 f735
000002c0: c614 b337 cc7e a938 42a1 d536 ac4c 3738
000002d0: a0b1 8437 305a 4937 52fa fe33 0000 0000
000002e0: 0000 0000 0000 0000 6581 4637 284a d337
000002f0: 5ca2 8c37 f509 6438 87d6 1c35 79fa af37
00000300: ef7a 0c39 971b e735 63fa 5e35 0000 0000
00000310: 0000 0000 0000 0000 9dd1 c237 5f69 0e37
00000320: 9944 ca32 0000 0000 0000 0000 0000 0000
00000330: 0000 0000 0000 0000 0000 0000 a137 7d38
00000340: a033 9736 e844 4236 21e3 0838 d074 1237
00000350: 9713 ef37 0000 0000 0000 0000 0000 0000
00000360: 0000 0000 0000 0000 0000 0000 7c2f 8e38
00000370: 7fcc 1937 6f14 4c38 0000 0000 0000 0000
00000380: 0000 0000 0000 0000 0000 0000 0000 0000
00000390: 8ab0 a337 5e38 6137 77f7 7037 0000 0000
000003a0: 0000 0000 0000 0000 d5f1 2038 2204 e438
000003b0: b554 a036 0000 0000 0000 0000 0000 0000
000003c0: 3680 4435 64fd 8436 868d b836 fd35 2637
000003d0: b705 f334 6038 a733 e55d 2b39 2c35 1038
000003e0: a5ea 3236 7ae9 8836 bbca 0236 aaa1 1733
000003f0: 0000 0000 0000 0000 0000 0000 a04c 1536

exp_avg f4 [48]
0.0 0.0 2.7e-43 0.00016851434 0.0 -0.00066839764 0.0 0.0
0.0 0.0 7.379157e-05 -0.0005658363 2.0668567e-05 -0.00018994008 0.0 -0.00034281283
-0.0010050494 -0.0008173998 0.000674324 0.0 0.0 0.0 -4.3636246e-05 -0.00014653231
-0.0002757204 0.0 0.0011367741 0.0013641272 -0.0014768352 6e-45 0.0 0.0
-0.00033922424 0.0 -0.00013215329 0.0 0.0 0.0012462075 0.0003368263 -0.000108777895
-0.0005884317 5.581297e-05 -0.0004990972 -0.0017273233 0.00018171432 1.5430182e-05 0.0016621493 -1.52023e-05
00000000: 0000 0000 0000 0000 c100 0000 39b3 3039
00000010: 0000 0000 6837 2fba 0000 0000 0000 0000
00000020: 0000 0000 0000 0000 8cc0 9a38 a254 14ba
00000030: 6961 ad37 a72a 47b9 0000 0000 8fbb b3b9
00000040: ddbb 83ba c646 56ba 1ec5 303a 0000 0000
00000050: 0000 0000 0000 0000 1006 37b8 78a6 19b9
00000060: 918e 90b9 0000 0000 cfff 943a 83cc b23a
00000070: 5e92 c1ba 0400 0000 0000 0000 0000 0000
00000080: e8d9 b1b9 0000 0000 a192 0ab9 0000 0000
00000090: 0000 0000 c957 a33a 1098 b039 b01f e4b8
000000a0: fc40 1aba b818 6a38 d9d5 02ba 5a67 e2ba
000000b0: 918a 3e39 1070 8137 7adc d93a 620d 7fb7
