Experimental_Models/Full_Model_Weight_Norm_v1.2.pt (torch_old, 892639 bytes, 36 tensors)

fc1.bias f4 [96]
0	0xbed24ef0	-0.4107585
1	0xbedb00b9	-0.4277399
2	0xbd12da30	-0.03585261
3	0x3e9dcd16	0.3082053
4	0xbec0c30d	-0.37648812
5	0x3ee80cd8	0.453223
6	0xbe9be6be	-0.3044948
7	0x3ebf7c5b	0.37399563
8	0xbe4e1a78	-0.20127285
9	0x3f03c164	0.51466966
10	0xbeb58eb3	-0.35460433
11	0x3d4e55b0	0.050374687
12	0x3ce31ba0	0.027723134
13	0xbedb8246	-0.42872828
14	0x3f15aca6	0.58466566
15	0x3c9a7f99	0.018859671
16	0xbe925fd0	-0.28588724
17	0xbe1079c3	-0.14108948
18	0xbe62eb0e	-0.22159979
19	0x3f12c417	0.5733046
20	0xbc6ac100	-0.014328241
21	0x3d1c8a50	0.038217843
22	0xbd152e97	-0.036421385
23	0xbd29a723	-0.04141916
24	0x3ceec30c	0.02914574
25	0x3e8a450e	0.2700581
26	0xbf06eaf0	-0.52702236
27	0xbf0d28f6	-0.55140626
28	0x3ee6151b	0.44937977
29	0xbed540ff	-0.4165115
30	0xbef7c486	-0.48392123
31	0x3ef5e76f	0.48028132
32	0x3e2381cc	0.15967482
33	0x3e10e890	0.14151216
34	0x3e647cb4	0.22313195
35	0xbe290896	-0.16507182
36	0xbedef9ea	-0.43550044
37	0x3eb53301	0.35390475
38	0xbd94f9d8	-0.072742164
39	0xbeb63245	-0.35585228
40	0x3dbf88b8	0.09352249
41	0x3e0cce34	0.13750535
42	0xbe862f65	-0.26208034
43	0x3e1c306c	0.15252846
44	0x3f12cb10	0.573411
45	0x3adf9a89	0.0017059605
46	0xbde63758	-0.11241025
47	0xbeb10ef8	-0.34581733
48	0x3ec630f8	0.38709235
49	0x3eb2021b	0.3476723
50	0x3e947c9b	0.29001316
51	0x3eaa15fa	0.33219892
52	0xbc97bca7	-0.018522574
53	0xbedb3262	-0.42811877
54	0xbee25c08	-0.4421084
55	0xbe02f0b8	-0.1278714
56	0xbf1b3ed3	-0.6064274
57	0x3ea64310	0.3247304
58	0x3eaaf4e6	0.33389968
59	0x3f0d2d0c	0.5514686
60	0x3e519ded	0.204704
61	0xbef9f0df	-0.48816583
62	0xbee2061d	-0.4414529
63	0x3ef2e004	0.47436535
64	0x3e3a003e	0.18164155
65	0x3ed5b3f8	0.41738868
66	0x3edc4154	0.4301859
67	0x3ea53fed	0.32275334
68	0x3e45b304	0.1930657
69	0x3e616249	0.22010149
70	0x3ec921ee	0.392837
71	0x3e9ea9d2	0.30988938
72	0xbeb00613	-0.34379634
73	0x3d54ea84	0.051981464
74	0x3ce9b7c5	0.028530011
75	0x3d627be0	0.055293918
76	0x3ed00988	0.40632272
77	0x3e8b5e2a	0.2722028
78	0x3d9ba108	0.07599074
79	0x3f12a855	0.57288104
80	0x3eb009af	0.34382388
81	0x3e8cf42b	0.27530035
82	0x3f052a71	0.52017885
83	0xbe55a5f2	-0.20864084
84	0x3ee17c31	0.44040063
85	0x3ee0ec42	0.4393025
86	0xbe8330ee	-0.25623268
87	0xbd51f6b2	-0.051260658
88	0x3d752350	0.05984813
89	0xbe151b59	-0.14561214
90	0x3ec394b7	0.38199398
91	0xbefda7d4	-0.49542105
92	0xbe1760f0	-0.14783072
93	0x3e7bc1c4	0.24585634
94	0xbf209af2	-0.6273643
95	0x3ee1fc77	0.44137928

fc1.weight_g f4 [96, 1]
0	0x3e5bd8e5	0.21469457
1	0x3f013545	0.5047191
2	0x3f24d071	0.64380556
3	0x3f2cd72c	0.67515826
4	0x3f0c794a	0.5487257
5	0x3ecb26ae	0.39677948
6	0x3ebd6693	0.3699232
7	0x3f372c05	0.71551543
8	0x3f25274d	0.64513093
9	0x3f4ac219	0.7920242
10	0x3f307c31	0.689395
11	0x3f243e3c	0.6415746
12	0x3ec1c626	0.37846488
13	0x3f4f30b3	0.80933684
14	0x3efd9293	0.4952589
15	0x3f2bd080	0.6711502
16	0x3f11405e	0.5673884
17	0x3f03e3a1	0.5151921
18	0x3f0fa0e9	0.56104904
19	0x3f0e6d09	0.55635124
20	0x3ef7fe68	0.48436284
21	0x3f175af0	0.59123135
22	0x3ef1fdeb	0.47264037
23	0x3f67f470	0.9060736
24	0x3f3241c7	0.6963162
25	0x3f05e920	0.52308846
26	0x3f5f3bc4	0.8720057
27	0x3e9f729b	0.31142125
28	0x3e8d4840	0.27594185
29	0x3f13f3f9	0.5779415
30	0x3edc1844	0.42987263
31	0x3f2b6d5c	0.66963744
32	0x3f23fcc9	0.64057595
33	0x3ef88ff9	0.48547342
34	0x3ed88002	0.42285162
35	0x3f10561d	0.563814
36	0x3eab596c	0.3346666
37	0x3f16865e	0.5879878
38	0x3f4f747b	0.8103711
39	0x3ea21d02	0.31662756
40	0x3f3ac4fe	0.72956836
41	0x3f4814df	0.78156847
42	0x3f33f57f	0.7029647
43	0x3eaed95c	0.34150207
44	0x3f12b06e	0.5730046
45	0x3f03f534	0.51546025
46	0x3ec416da	0.38298684
47	0x3f303301	0.68827826
48	0x3f1afe10	0.6054392
49	0x3f1f5625	0.6224082
50	0x3ef66461	0.48123458
51	0x3e9be358	0.30446887
52	0x3f0259ec	0.5091846
53	0x3ece25b0	0.40263128
54	0x3f3c79f7	0.73623604
55	0x3f376b7d	0.7164839
56	0x3efa90fc	0.4893874
57	0x3f2411e4	0.640898
58	0x3f207655	0.6268056
59	0x3f652ff5	0.895263
60	0x3f5014ea	0.8128191
61	0x3f0f4157	0.55959076
62	0x3f235dd3	0.6381504
63	0x3eff7032	0.49890286
64	0x3f5e167a	0.86753047
65	0x3f06d749	0.5267225
66	0x3e8ac39a	0.27102357
67	0x3f3fb6bd	0.7488821
68	0x3f342a5f	0.70377153
69	0x3ea448f1	0.320869
70	0x3f162b27	0.58659595
71	0x3eeb8a4d	0.46003953
72	0x3f2c3ec1	0.67283255
73	0x3f20599b	0.6263673
74	0x3f15b07a	0.58472407
75	0x3f0baa5c	0.5455682
76	0x3f31838c	0.6934135
77	0x3f005c4f	0.5014085
78	0x3ef70584	0.48246396
79	0x3ee32c80	0.44369888
80	0x3f038830	0.5137968
81	0x3f391cf5	0.7230981
82	0x3f4bcd65	0.7961028
83	0x3f30e1ed	0.69094735
84	0x3f305ff7	0.6889643
85	0x3f254e20	0.64572334
86	0x3f124f41	0.5715218
87	0x3f6985c2	0.91219723
88	0x3f17e527	0.59334034
89	0x3f031771	0.51207644
90	0x3eae1e05	0.34007278
91	0x3f0c8909	0.548966
92	0x3f1cd2f7	0.61259407
93	0x3ed60c19	0.41806105
94	0x3f230a35	0.6368745
95	0x3f3d5d92	0.739709

fc1.weight_v f4 [96, 3]
0	0x3cc70ab8	0.024297103
1	0x3e2eb951	0.1706288
2	0xbe0166ed	-0.1263692
3	0xbe2aaea1	-0.16668178
4	0x3ee3afd9	0.444701
5	0x3e4d3894	0.20041114
6	0xbed2b982	-0.41157156
7	0xbef26089	-0.47339275
8	0xbe145e9c	-0.14489216
9	0x3e5092b9	0.2036847
10	0xbeaa25a9	-0.33231857
11	0x3f0b23ac	0.54351306
12	0x3e7767c2	0.24160674
13	0x3dfa6899	0.12226982
14	0x3ef53ec6	0.47899455
15	0xbe8c5db6	-0.27415246
16	0xbe90c828	-0.28277707
17	0xbd44eda0	-0.04807818
18	0xbbd1ee80	-0.0064066052
19	0xbebce796	-0.36895436
20	0x3cd4cde0	0.025977075
21	0xbd2c4817	-0.042060938
22	0x3efd51f0	0.49476576
23	0xbeee87db	-0.46588024
24	0xbe3ea5b6	-0.18617901
25	0xbe93d3d4	-0.2887255
26	0x3f0bc9d4	0.5460484
27	0x3f08f52b	0.53499097
28	0xbe352877	-0.17691217
29	0xbf0bc5c6	-0.54598653
30	0xbda97c98	-0.082757175
31	0xbedf5d04	-0.43625653
32	0xbf070058	-0.527349
33	0xbeb8db02	-0.3610459
34	0xbeb39aee	-0.3507914
35	0x3ecba694	0.39775527
36	0x3e94c4b8	0.29056334
37	0x3c74f934	0.014951993
38	0x3e7d4365	0.2473274
39	0xbeb51a9d	-0.35371867
40	0x3ec789a5	0.38972202
41	0x3ed6fe54	0.41990912
42	0x3da7f87e	0.08201693
43	0xbe030909	-0.12796415
44	0xbedfc11b	-0.43702015
45	0x3f1058ff	0.563858
46	0xbe09d6fd	-0.13460918
47	0x3eb8c64f	0.36088797
48	0x3e9a18ef	0.30097148
49	0x3e698547	0.22804748
50	0xbed7c375	-0.4214131
51	0x3f002d55	0.5006917
52	0xbdc3d281	-0.09561635
53	0x3d4d88c8	0.050179273
54	0xbee56fb6	-0.4481179
55	0x3e3390a0	0.17535639
56	0xbe93b2b2	-0.2884727
57	0x3e350d0f	0.17680763
58	0xbf0382b5	-0.5137132
59	0xbdde3f58	-0.108519256
60	0xbef41354	-0.47670996
61	0xbda25d2c	-0.079279274
62	0xbd05f7e0	-0.032707095
63	0xbef63c28	-0.4809277
64	0xbeafe0f8	-0.34351325
65	0x3c8486c0	0.016177535
66	0x3dab412c	0.0836204
67	0x3ec6b68c	0.38811147
68	0xbe8fe48d	-0.28104058
69	0x3f03669b	0.5132844
70	0xbf075a7d	-0.5287245
71	0xbef960e7	-0.48706743
72	0x3ebcb3f7	0.36856052
73	0xbec5d5bc	-0.3863963
74	0x3ee9b703	0.4564744
75	0xbee9599c	-0.4557618
76	0x3e060320	0.1308713
77	0xbe6226f0	-0.22085166
78	0x3f0c1732	0.54722893
79	0x3f0e1fcb	0.5551726
80	0x3ebf74ae	0.37393707
81	0xbe6c7baf	-0.23094057
82	0x3e2a8407	0.16651927
83	0x3e0d0f01	0.13775255
84	0xbe558590	-0.20851731
85	0x3e25f83e	0.16207978
86	0x3ddfadc4	0.10921815
87	0xbe377c21	-0.17918445
88	0x3ec89bcf	0.39181373
89	0x3eac751c	0.33683097
90	0x3df7f3c2	0.1210704
91	0xbe83c8a2	-0.25739008
92	0x3e9de722	0.30840403
93	0xbe97d9bb	-0.29658303
94	0x3f15b171	0.5847388
95	0xbdc30e76	-0.095242426
96	0x3e9a543e	0.30142397
97	0xbde54e08	-0.11196524
98	0x3f06c843	0.52649325
99	0xbede8d53	-0.43467197
100	0x3e898371	0.26858094
101	0xbcdb3e4c	-0.026763104
102	0xbeb6f450	-0.3573327
103	0x3cf72720	0.030170023
104	0xbe657228	-0.22406828
105	0xbea14566	-0.3149826
106	0xbee49942	-0.44648176
107	0x3e0e5aec	0.13901871
108	0x3d94165c	0.07230827
109	0xbe133ddc	-0.14379066
110	0x3ea2e0b2	0.31812054
111	0x3f017515	0.5056928
112	0x3ddc2b99	0.10750503
113	0xbe8d9e87	-0.2766001
114	0xbee439d6	-0.44575375
115	0xbeff724c	-0.4989189
116	0x3eea1db8	0.457258
117	0xbe805f08	-0.25072503
118	0xbe4043de	-0.1877589
119	0x3d3d5450	0.046222985
120	0x3f037918	0.5135665
121	0x3ec4d459	0.38443258
122	0xbeaff1a9	-0.3436406
123	0xbf0ebcb5	-0.55756694
124	0xbbbd3880	-0.0057745576
125	0x3f0c33a8	0.5476632
126	0xbf03f53c	-0.5154607
127	0xbd02b2c0	-0.03190875
128	0x3ef42d50	0.4769082
129	0x3e73ec33	0.23820572
130	0x3e0d6ed4	0.13811809
131	0x3e5a3591	0.21309496
132	0x3d1f788f	0.038933333
133	0x3ee42a8d	0.44563714
134	0xbeb989cb	-0.3623794
135	0x3ed67044	0.41882527
136	0xbe1d1eda	-0.153438
137	0xbe80c8eb	-0.25153288
138	0xbdcd9234	-0.10037652
139	0xbd356240	-0.04428315
140	0xbebbdf1e	-0.36693662
141	0x3ec3486e	0.38141197
142	0xbf0a6b37	-0.54069847
143	0xbe4287d1	-0.18997122
144	0xbcc73f5e	-0.024322208
145	0x3e3a6458	0.1820234
146	0x3f0e6fdb	0.5563943
147	0xbd8b1f93	-0.06793132
148	0x3e54c124	0.20776802
149	0x3f226f6f	0.63451284
150	0xbe80ce36	-0.25157326
151	0x3dbad2bb	0.09122225
152	0xbebfc0b5	-0.3745171
153	0xbcaa1504	-0.020761974
154	0x3e33e334	0.1756714
155	0xbe81731b	-0.2528313
156	0x3dbc75aa	0.0920213
157	0xbda1e807	-0.07905584
158	0x3f03b143	0.51442355
159	0x3e88d5a4	0.26725495
160	0xbe79efd9	-0.24407901
161	0xbe337cd0	-0.17528081
162	0xbf082943	-0.5318796
163	0xbc531d80	-0.012885451
164	0xbf02476c	-0.5089023
165	0xbefca0f6	-0.49341553
166	0xbe2fc570	-0.1716516
167	0xbefb0cdd	-0.4903325
168	0x3eceeaef	0.40413615
169	0x3e8a93d7	0.27065918
170	0x3d753a4b	0.059870046
171	0xbe93343d	-0.28750792
172	0xbf055898	-0.5208831
173	0x3e73fbc0	0.23826504
174	0x3e3b52c5	0.18293293
175	0xbee3a956	-0.4446513
176	0x3ebb3d55	0.3657023
177	0xbf0d1325	-0.5510734
178	0xbeff9b44	-0.49923146
179	0xbeff45e1	-0.49858
180	0x3f0a1014	0.53930783
181	0xbe49aa65	-0.19693907
182	0x3f112e0b	0.5671088
183	0x3ef08746	0.46978205
184	0xbdd813db	-0.10550662
185	0xbe98ca63	-0.2984191
186	0x3df4d2ed	0.119542934
187	0xbe1de6f2	-0.1542013
188	0xbeefcde4	-0.4683677
189	0xbefd6e18	-0.49498057
190	0xbcd10da0	-0.025519192
191	0x3d6966e0	0.056982875
192	0x3f1175ae	0.5682019
193	0x3ede1e3f	0.4338245
194	0x3ef48187	0.47755072
195	0xbee2a3a0	-0.4426546
196	0xbe902f74	-0.28161204
197	0x3d3f99e0	0.046777606
198	0xbe26ab28	-0.16276228
199	0x3cb05fa0	0.021529973
200	0xbe5ccf8e	-0.21563551
201	0x3ee474ef	0.44620463
202	0x3eb42a7e	0.3518867
203	0x3efbb6c7	0.49162886
204	0xbe105084	-0.14093214
205	0x3eba1d72	0.3635059
206	0xbeea85f8	-0.45805335
207	0xbe3691d5	-0.17829068
208	0x3e1caf30	0.15301204
209	0xbe3ef73f	-0.18649004
210	0x3e3783b1	0.1792133
211	0x3f0e6ffc	0.55639625
212	0x3e006ab2	0.12540701
213	0x3e91aeb0	0.28453588
214	0xbd969cc4	-0.073541194
215	0xbeb7baab	-0.35884604
216	0x3eddf325	0.43349567
217	0x3f03329c	0.512491
218	0x3d0d0179	0.034425233
219	0x3ec4ae8a	0.38414413
220	0x3e909e58	0.28245807
221	0x3ed71d08	0.42014337
222	0x3c608c7b	0.013705368
223	0x3d9af200	0.07565689
224	0xbf0ba414	-0.5454724
225	0xbef7d232	-0.48402554
226	0x3e233470	0.15937972
227	0x3e4783c4	0.19483858
228	0xbf1008f7	-0.5626368
229	0x3ebe6c14	0.37191832
230	0xbde3be9d	-0.11120341
231	0x3e94a60b	0.2903293
232	0xbe1a4c0d	-0.15068074
233	0xbec2c288	-0.3803904
234	0xbedd9b0f	-0.43282363
235	0xbca63240	-0.020287633
236	0xbe5947b6	-0.21218762
237	0x3d19fc34	0.037594035
238	0x3eaeaeb5	0.34117666
239	0xbe5766e3	-0.21035342
240	0x3ed4e409	0.41580227
241	0x3e4ead22	0.20183232
242	0x3e6d8cf8	0.23198307
243	0x3edb3491	0.42813542
244	0x3ef3b086	0.47595614
245	0xbeab9680	-0.3351326
246	0xbf171b29	-0.5902582
247	0x3e734d77	0.23760019
248	0x3ee305bd	0.44340315
249	0xbf082639	-0.53183323
250	0x3e9be436	0.3044755
251	0xbeac7154	-0.33680212
252	0x3e201af8	0.15635288
253	0xbee3a8e5	-0.44464794
254	0xbee814cd	-0.4532837
255	0x3ee81bb8	0.45333648

fc2.bias f4 [48]
0	0x3d91bc1a	0.07115956
1	0x3c596bf8	0.013270371
2	0xbd7a2c97	-0.06107768
3	0x3d006368	0.0313448
4	0xbab3abd3	-0.0013707824
5	0xbdda9400	-0.1067276
6	0x3cd18d20	0.025579989
7	0x3d77a38c	0.060458705
8	0x3d8e1aa4	0.06938675
9	0x3dc382f6	0.09546463
10	0x3e0be354	0.13660938
11	0xbc8161f3	-0.015793776
12	0x3da24c27	0.07924681
13	0x3daf396a	0.08555873
14	0xbdd081a4	-0.10180977
15	0xbd5320bc	-0.05154489
16	0x3d7bf088	0.061508685
17	0xbd797706	-0.060904525
18	0xbdcbc8e2	-0.09950425
19	0xba4cf9c8	-0.0007819203
20	0x3dc63696	0.0967838
21	0x3c25b32b	0.010113518
22	0xbda65233	-0.08121147
23	0x3d2852a5	0.04109444
24	0xbe08ace3	-0.13347201
25	0xbd153352	-0.036425896
26	0x3a2b6c8e	0.0006539308
27	0x3e2a47fa	0.1662902
28	0x3de2f1f8	0.11081308
29	0x3d52451c	0.05133544
30	0xbd9265c9	-0.0714832
31	0xbd347c0a	-0.044063605
32	0xbe05a6ad	-0.13051863
33	0x3d52759c	0.051381692
34	0xbdc2e230	-0.09515798
35	0xbd70801e	-0.058715932
36	0x3ba0ff32	0.004913234
37	0x3e178a01	0.14798738
38	0xbd63d311	-0.05562121
39	0xbccb3b11	-0.024808438
40	0xbd37d095	-0.044876654
41	0x3c6a8868	0.014314748
42	0xbcb775ad	-0.02239498
43	0x3bae16a0	0.0053127557
44	0x3cb632ef	0.022241084
45	0xbe05a5a5	-0.1305147
46	0xbceb381a	-0.028713275
47	0xbdff2ec4	-0.12460092

fc2.weight_g f4 [48, 1]
0	0x3f0e095f	0.5548305
1	0x3f1496e4	0.5804274
2	0x3f1ae1a9	0.6050058
3	0x3f10f17e	0.5661849
4	0x3f159427	0.5842919
5	0x3f136b10	0.5758524
6	0x3f0c3968	0.54775095
7	0x3f0cfd51	0.5507403
8	0x3f121481	0.57062536
9	0x3f12b0c7	0.5730099
10	0x3f313abc	0.69230247
11	0x3f2387b7	0.6387896
12	0x3f1179a4	0.56826234
13	0x3f348eae	0.7053021
14	0x3f188403	0.59576434
15	0x3f15b612	0.5848094
16	0x3f1dd876	0.6165842
17	0x3f17abb0	0.5924635
18	0x3f1542d5	0.583051
19	0x3f136c14	0.5758679
20	0x3f29b74e	0.66295326
21	0x3f13521a	0.5754715
22	0x3f17ccb9	0.59296757
23	0x3f0ae785	0.5425952
24	0x3f175e2f	0.5912809
25	0x3f2733be	0.6531333
26	0x3f11de77	0.5698008
27	0x3f083179	0.5320049
28	0x3f19897b	0.59975404
29	0x3f17618b	0.59133214
30	0x3f1525bc	0.58260703
31	0x3f131707	0.5745701
32	0x3f109fb2	0.56493676
33	0x3f24e10e	0.64405906
34	0x3f126e0b	0.5719916
35	0x3f09d23f	0.53836435
36	0x3f0e67b3	0.5562698
37	0x3f20dbb7	0.6283526
38	0x3f149a93	0.5804836
39	0x3f1fa0e8	0.623549
40	0x3f176f75	0.59154445
41	0x3f27018f	0.65236753
42	0x3f17b178	0.5925517
43	0x3f0ae405	0.5425418
44	0x3f13ad31	0.57686144
45	0x3f10ed99	0.56612545
46	0x3f0b1632	0.5433074
47	0x3f208ed7	0.62717956

fc2.weight_v f4 [48, 96]
0	0x3d6060c0	0.054779768
1	0xbcfabf88	-0.030608907
2	0xbd67245a	-0.056431152
3	0xbc6861f0	-0.014183506
4	0x3be3f040	0.0069561303
5	0xbcb588a4	-0.022159882
6	0x3c7d4a70	0.015459642
7	0x3b435e40	0.0029810816
8	0x3da2ac88	0.07943064
9	0xbce57560	-0.02801007
10	0xbd51eaf0	-0.051249444
11	0x3d5ce1d0	0.05392629
12	0xbd8a6bde	-0.06758855
13	0x3d5fc794	0.054633692
14	0xbcbcc608	-0.023043647
15	0xbd978fb2	-0.074004546
16	0x3cac5828	0.02103813
17	0x3d179334	0.03700562
18	0xbd85ce66	-0.06533508
19	0xbda83925	-0.082140245
20	0xbb987210	-0.004652269
21	0x3dcb028a	0.09912594
22	0xbbca2fb0	-0.0061702356
23	0x3da766e8	0.08173925
24	0xbca7d2ac	-0.020486198
25	0x3dc60a04	0.09669879
26	0xbd7daeea	-0.06193439
27	0xbc959170	-0.018257827
28	0x3d9bbfd2	0.07604946
29	0xbd19e3c6	-0.037570737
30	0xbdb08a96	-0.08620183
31	0xbdb8c7d5	-0.0902249
32	0xbdad6448	-0.08466393
33	0xbd0c3684	-0.034231678
34	0x3d288434	0.041141704
35	0x3dafb3f8	0.08579248
36	0x3d9bf4d4	0.07615057
37	0x3cca4018	0.024688765
38	0xbdb308b3	-0.087418936
39	0xbcf61484	-0.03003908
40	0x3cda36d8	0.02663748
41	0x3d31987c	0.04335831
42	0x3d3d53cc	0.046222493
43	0x3c61e520	0.013787538
44	0xbcc652d4	-0.024209417
45	0x3c9ccf20	0.019141734
46	0x3d8ed77c	0.06974694
47	0x3d8a79e4	0.0676153
48	0x3d84603c	0.06463668
49	0x3d49a02c	0.049225017
50	0x3c79ffe8	0.015258767
51	0xbd3c4c71	-0.045971338
52	0xbdcad2a9	-0.099034615
53	0xbcb904f8	-0.022585377
54	0x3d8f9be4	0.07012156
55	0xbc443a20	-0.011976749
56	0xbcc398b8	-0.023876533
57	0xbd388bc8	-0.04505518
58	0xbbfa9e30	-0.007648252
59	0x3bc60c20	0.006043926
60	0xbd9ef401	-0.07761384
61	0xbbfdc270	-0.007744126
62	0xbd9ab6c0	-0.07554388
63	0x3d183524	0.037160054
64	0xba622680	-0.0008626953
65	0xbdadc8e2	-0.08485581
66	0xbc904828	-0.017612532
67	0x3cacde0c	0.021101974
68	0x3c534638	0.012895159
69	0x3d0cb3d8	0.0343512
70	0x3dcbc9e4	0.09950617
71	0x3da3351e	0.07969116
72	0x3cc27db8	0.023741588
73	0xbd167056	-0.036728226
74	0x3dae387e	0.08506869
75	0xbd4fc058	-0.050720543
76	0xbd96b5e8	-0.073589146
77	0xbd4e938e	-0.050433688
78	0x3bc24220	0.005928293
79	0x3bb9a430	0.0056653246
80	0x3d990fae	0.07473694
81	0xbd7c6269	-0.06161729
82	0x3d48d8e0	0.049034953
83	0x3dcf094e	0.101091966
84	0x3b731960	0.0037093982
85	0x3cc3f3a8	0.023919895
86	0x3d4c0ac4	0.049814954
87	0x3db748d4	0.08949438
88	0xbd604d39	-0.054761145
89	0xbdb9c26c	-0.09070286
90	0xbda721b8	-0.08160728
91	0x3d1d79a4	0.038446084
92	0xbdb98e18	-0.09060305
93	0xbd99e276	-0.07513897
94	0xbd947480	-0.07248783
95	0xbd562e84	-0.052290455
96	0x3d8420e2	0.064515844
97	0x3d8c4860	0.06849742
98	0x3cb391e0	0.021920145
99	0x3daae828	0.083450615
100	0x3d27d518	0.040974706
101	0xbd9f4405	-0.077766456
102	0xbc804f90	-0.015662938
103	0xbbc96530	-0.0061460957
104	0x3d641acc	0.055689618
105	0x3d657518	0.056019872
106	0x3b57af20	0.003291078
107	0x3d2850c4	0.04109265
108	0x3d3487e0	0.044074893
109	0x3c045870	0.008077726
110	0xbd9829ad	-0.07429824
111	0x3db7daac	0.08977255
112	0x3d180d4c	0.037122056
113	0x3daa547a	0.08316894
114	0x3d264774	0.040595487
115	0x3db97bb0	0.09056795
116	0xbd554cce	-0.0520752
117	0xbdc4e40d	-0.0961381
118	0x3dcc9850	0.09989989
119	0xbdca1b94	-0.09868541
120	0xbd525723	-0.05135263
121	0x3d8436f6	0.064557955
122	0xbd221485	-0.03957035
123	0xbbff5da0	-0.0077931434
124	0xbd49d21f	-0.049272653
125	0xbd29f537	-0.04149362
126	0xbdc12221	-0.09430338
127	0x3c9b4bb4	0.018956997
128	0xbd8083c2	-0.06275131
129	0x3ccb8d80	0.024847746
130	0x3d1c17b4	0.038108543
131	0x3ca5abf8	0.020223603
132	0x3d5fade4	0.054609194
133	0xbdaa48de	-0.083146796
134	0xbdb3c2b3	-0.0877737
135	0x3cc69d38	0.02424489
136	0xbd620403	-0.055179607
137	0xbdcbce02	-0.09951402
138	0xbbba3ad0	-0.0056832805
139	0x3d49512c	0.049149677
140	0x3d4389dc	0.047738895
141	0x3c243550	0.010022476
142	0xbdbace59	-0.09121389
143	0x3d8c490a	0.068498686
144	0xbdaf1567	-0.08549004
145	0x3b0cfc40	0.0021512657
146	0x3d4169c4	0.047220007
147	0xbd03aed0	-0.032149136
148	0xbd870a45	-0.06593756
149	0xbd495e96	-0.04916247
150	0xbcf3e8b4	-0.029774047
151	0x3d659c38	0.056057185
152	0xbdc94f79	-0.09829611
153	0x3cc667e8	0.024219468
154	0x3d301c20	0.042995572
155	0x3c9dfd08	0.019285694
156	0xbcb8dce8	-0.022566274
157	0x3d8bc74e	0.06825124
158	0x3d392b9c	0.045207605
159	0x3d869ad2	0.065724984
160	0xbd93b308	-0.07211882
161	0xbdb6e3a2	-0.08930136
162	0x3d580818	0.052742094
163	0x3dbe3ee0	0.09289336
164	0x3da4ea4c	0.08052501
165	0x3ca233e8	0.019800141
166	0x3d8f1dfe	0.069881424
167	0x3db6f67a	0.089337304
168	0xbcb38620	-0.021914542
169	0xbdae59d0	-0.08513224
170	0x3c8822bc	0.016618125
171	0xbdae0814	-0.084976345
172	0x3c986380	0.018602133
173	0xbc958020	-0.018249571
174	0xbda29dec	-0.079402775
175	0xbd1cf0d6	-0.038315617
176	0xbdccb4be	-0.09995411
177	0x3da2b07a	0.079438165
178	0x3d910626	0.07081251
179	0xbd6bb4a5	-0.057545323
180	0x3c9a6eb8	0.018851623
181	0xbbd8efc0	-0.0066203773
182	0xbd30f1e1	-0.043199424
183	0xbd4aa53f	-0.049473997
184	0xbce9ddc4	-0.028548129
185	0xbd4e20a5	-0.0503241
186	0xbcbc0b10	-0.022954494
187	0x3d8ad90c	0.0677968
188	0xbdc6e871	-0.097123034
189	0xbd136e6a	-0.03599397
190	0xba7c3200	-0.00096204877
191	0x3c2604a0	0.010132939
192	0xbd2429a8	-0.04007879
193	0x3d51f484	0.05125858
194	0xbd9a7bc7	-0.0754314
195	0xbd90970d	-0.07060061
196	0xbd7619f0	-0.06008333
197	0x3c658fa8	0.014011301
198	0xbd92b18e	-0.07162772
199	0x3d8c20ee	0.06842218
200	0xbd07cbd6	-0.033153377
201	0x3da692f8	0.08133501
202	0xbdce4a56	-0.10072772
203	0xbd3c5d6c	-0.04598753
204	0x3d0aef3c	0.033919558
205	0x3d444ddc	0.047925815
206	0x3ce0cc60	0.027441204
207	0xbc54d0f0	-0.012989268
208	0xb9904c00	-0.00027522445
209	0xbd80b2a6	-0.062840745
210	0x3d66ecac	0.05637805
211	0xbd442734	-0.04788895
212	0x3d522438	0.051304072
213	0x3cdc72e8	0.02691026
214	0x3dc87eb6	0.09789793
215	0x3da416b8	0.08012146
216	0x3d0b4fd0	0.034011662
217	0xbd712a9d	-0.05887853
218	0xbd39f5e9	-0.045400534
219	0xbdb46599	-0.08808441
220	0xbdc2d569	-0.09513361
221	0x3cdcb890	0.026943475
222	0x3c9fb350	0.019494683
223	0xbd258d64	-0.040418044
224	0xbcde0844	-0.02710355
225	0xbd44bbf3	-0.048030805
226	0x3d9a7058	0.07540959
227	0x3d5c8024	0.053833142
228	0xbd7a644e	-0.061130814
229	0xbc9a0688	-0.018801942
230	0x3d81cb54	0.0633761
231	0xbdd0bc75	-0.10192195
232	0xbd910adf	-0.070821516
233	0x3d355288	0.04426816
234	0xbc23b340	-0.009991467
235	0x3d8429d6	0.06453292
236	0xbd131b6a	-0.035914816
237	0x3ce05710	0.027385265
238	0x3d2176ec	0.039420053
239	0xbd722abd	-0.05912279
240	0x3d5fdb9c	0.054652795
241	0x3d060208	0.03271678
242	0xbd9ff598	-0.07810515
243	0xbdb9d27d	-0.090733506
244	0x3d606a00	0.05478859
245	0xbd563a89	-0.052301917
246	0x3d789f6c	0.06069891
247	0x3db9f212	0.090793744
248	0xbdad93ac	-0.08475432
249	0x3d8f109c	0.0698559
250	0xbdc8b1e0	-0.09799552
251	0x3d5cb768	0.053885847
252	0x3d4ada18	0.049524397
253	0x3dc134d6	0.09433906
254	0xbd56c8c5	-0.052437562
255	0x3d7f5440	0.062336206

fc3.bias f4 [24]
0	0xbe2c98b4	-0.16855127
1	0xbc949c16	-0.018140834
2	0x3c64f010	0.013973251
3	0xbd01dc6b	-0.031704348
4	0x3c5540bd	0.013015923
5	0xbd9775e6	-0.07395534
6	0x3d15060f	0.03638273
7	0x3d9dbef4	0.07702437
8	0xbcfb66d4	-0.03068868
9	0xbce612bc	-0.028085105
10	0x3c9df8c8	0.019283667
11	0xbe444ae9	-0.19169201
12	0x3e27019d	0.16309209
13	0x3dfeae46	0.12435584
14	0xbdc963ef	-0.09833514
15	0x3c6cb094	0.014446396
16	0xbdca5176	-0.09878819
17	0xbde17387	-0.11008363
18	0x3e1eaa65	0.15494688
19	0xbcbdf85e	-0.02318972
20	0xbc5b15bc	-0.013371881
21	0xbcd51b8d	-0.026014114
22	0x3dcb6932	0.09932174
23	0x3db88abe	0.09010838

fc3.weight_g f4 [24, 1]
0	0x3f0ae67e	0.54257953
1	0x3f1b7c03	0.607361
2	0x3f134bae	0.57537353
3	0x3f1d014f	0.6133012
4	0x3f178ec1	0.592022
5	0x3f12bfc3	0.57323855
6	0x3f1694d4	0.58820844
7	0x3f0d6025	0.5522483
8	0x3f1eb6fd	0.6199797
9	0x3f2bebc3	0.6715662
10	0x3f0e0df7	0.5549006
11	0x3f2c1047	0.6721234
12	0x3f23b578	0.63948774
13	0x3f11093a	0.56654704
14	0x3f140d91	0.578332
15	0x3f271a98	0.65274954
16	0x3f112342	0.56694424
17	0x3f2565b2	0.646083
18	0x3f0bd108	0.5461583
19	0x3f0dca85	0.55387145
20	0x3f26de3f	0.6518287
21	0x3f23b83d	0.63953
22	0x3f195c46	0.59906423
23	0x3f08db17	0.53459305

fc3.weight_v f4 [24, 48]
0	0xbdaa63ea	-0.08319838
1	0x3d969aec	0.07353768
2	0x3d2cae9b	0.042158704
3	0x3935a13a	0.00017321567
4	0x3d439e79	0.047758553
5	0x3da4f26f	0.08054053
6	0x3e069d69	0.13145985
7	0x3d89047c	0.066903085
8	0xbcd078b4	-0.02544818
9	0x3cdef3dc	0.02721589
10	0xbdac273f	-0.08405923
11	0xbcbe19f6	-0.023205739
12	0x3d9ccdbb	0.076564275
13	0xbb5e0da4	-0.0033882642
14	0xbd547deb	-0.051877897
15	0xab8b311e	-9.890177e-13
16	0x3d108269	0.03528062
17	0xbd9ea7ce	-0.0774685
18	0xbd4da3ab	-0.050204914
19	0x3d9573fa	0.072975114
20	0x3c7639b8	0.01502841
21	0xbd815748	-0.06315476
22	0xbdc21350	-0.0947634
23	0x3da0e1e7	0.078555875
24	0x3e0d0098	0.13769758
25	0xbd8272af	-0.063695304
26	0x3e286e16	0.16448244
27	0xbd0e5143	-0.034745466
28	0x3c2831b2	0.010265755
29	0xbd0f06d5	-0.034918625
30	0xbde9ed02	-0.11422159
31	0x3e006586	0.12538728
32	0x3bee755e	0.007277175
33	0xbda49ea5	-0.080380715
34	0x2912ab3b	3.256703e-14
35	0x001e20dd	2.766854e-39
36	0x3d6eafc6	0.0582731
37	0x3c676a81	0.014124514
38	0x3db5886f	0.08863913
39	0x3e1a9322	0.15095189
40	0xbbed9984	-0.0072509665
41	0x3dc847b9	0.09779305
42	0xbd6d87ad	-0.05799072
43	0x3d040a48	0.032236367
44	0xbe10e15d	-0.1414847
45	0xbcf9f17a	-0.030510653
46	0xbd1501ed	-0.03637879
47	0x3db9d1f0	0.090732455
48	0xbd0445e6	-0.032293223
49	0x3dc31e88	0.09527308
50	0x3b6d1785	0.0036177349
51	0xbd779164	-0.06044139
52	0x00028fbb	2.35232e-40
53	0x3db5e77f	0.08882045
54	0xbce22b63	-0.027608579
55	0xbc9fdee8	-0.01951547
56	0xbe13359a	-0.14375916
57	0xbde495cf	-0.11161386
58	0xbe22b0c8	-0.15887749
59	0xbd8ceec6	-0.0688148
60	0x3b206417	0.002447372
61	0xbda3e048	-0.08001763
62	0xbde66bf8	-0.11251062
63	0x3da9ebe2	0.08296944
64	0xbdce8b95	-0.10085217
65	0xbda0bcc6	-0.07848506
66	0xbb76fe55	-0.0037688215
67	0x3dcb523a	0.09927793
68	0xbdaf7dc1	-0.085689075
69	0x3e07b19e	0.1325135
70	0xbcf58302	-0.029969696
71	0xbde2cd5b	-0.11074325
72	0x3da87502	0.082254425
73	0xbda6e5e8	-0.0814932
74	0x3defbc4a	0.11705835
75	0xbd1405db	-0.036138397
76	0x3d911dd9	0.07085771
77	0xbcc6ccb6	-0.024267536
78	0x3daf0541	0.08545924
79	0x3d7b6fc8	0.0613859
80	0x3e0b9b94	0.13633567
81	0xbda5b1fc	-0.080905885
82	0xbcc21512	-0.023691688
83	0xbd3de5d6	-0.046361767
84	0xbdebdcb3	-0.115167044
85	0xbd5d3dc8	-0.054013997
86	0x8000fbca	-9.0325e-41
87	0x3c7b21d3	0.015327889
88	0x3e06ef97	0.13177334
89	0x3cc773b8	0.024347171
90	0x3dc16a4d	0.094441034
91	0xbda63708	-0.08115965
92	0xbca09d45	-0.019606242
93	0x3c15c98e	0.009142293
94	0x3dc79ab5	0.09746305
95	0x3cf00540	0.029299378
96	0x3dae11a4	0.084994584
97	0x3cbb0be8	0.022832826
98	0x3c1e89c0	0.009676397
99	0xbd53d450	-0.05171615
100	0xbd313932	-0.043267436
101	0x3dedae9c	0.1160557
102	0xbc8ba068	-0.017044261
103	0x3c1633e0	0.009167641
104	0xbe0bb900	-0.1364479
105	0x3d95250a	0.07282455
106	0x3d9ecf6a	0.07754405
107	0xbce5c2b8	-0.02804695
108	0xbd0eda08	-0.0348759
109	0x3de2b208	0.11069113
110	0x3dc07610	0.09397519
111	0x3de86524	0.11347416
112	0xbe017212	-0.1264117
113	0xbddb3ab4	-0.10704556
114	0xbdf26140	-0.11834955
115	0x3d5443c0	0.051822424
116	0x3d34db98	0.044154733
117	0xbe02cfb8	-0.12774551
118	0xbbdc6140	-0.0067254603
119	0xbd83b7fb	-0.06431576
120	0xbdd7e53a	-0.10541768
121	0x3cb10c60	0.021612346
122	0xbe12d619	-0.14339484
123	0xbd6fdab8	-0.058558196
124	0xbdf8b51d	-0.121439196
125	0x3d93dc3a	0.07219739
126	0xbcb024dc	-0.02150195
127	0xbdca0e92	-0.0986606
128	0x3ccb5e40	0.024825215
129	0xbe01d7eb	-0.12680022
130	0x3de4d230	0.111729026
131	0xbd3fd462	-0.046833403
132	0xbcc629ac	-0.024189793
133	0x3d5ab318	0.053393453
134	0x3dd7e3a2	0.105414644
135	0x3c21d6f0	0.009877905
136	0x3a98c500	0.001165539
137	0xbe0d77e3	-0.13815264
138	0x3e01eb14	0.12687331
139	0xbdb4b7ea	-0.08824141
140	0xbd08680a	-0.033302344
141	0xbd016f7c	-0.03160046
142	0x3ded01cc	0.11572608
143	0xbd3d170c	-0.046164557
144	0x3dece66a	0.115673855
145	0x3ddf49c4	0.109027416
146	0x3d027d34	0.031857684
147	0x3d7a8c21	0.061168794
148	0xbbe8963a	-0.0070979865
149	0xbddec130	-0.10876691
150	0x3db4ff21	0.088377245
151	0x94c631a5	-2.0012472e-26
152	0xbde73a58	-0.11290425
153	0x3affcb51	0.0019515549
154	0x3e782d1d	0.2423596
155	0xbdc72fdb	-0.097259246
156	0x3df282e4	0.11841372
157	0xbe0e7a31	-0.139138
158	0x3c8fdf63	0.017562574
159	0x3ca2fe41	0.019896628
160	0x3de5fc89	0.11229808
161	0x000b7c28	1.05473e-39
162	0xbdb731a8	-0.08945018
163	0x3c5be76d	0.013421875
164	0x3db02357	0.086004905
165	0x3def2868	0.11677629
166	0x3dfb63f1	0.12274922
167	0xbd78eaff	-0.060770985
168	0x3d8e5537	0.06949847
169	0x3e1c56d1	0.15267493
170	0x3bf50434	0.0074773077
171	0xbd0b2e3a	-0.033979632
172	0xbc7e2dd8	-0.01551386
173	0x3d643282	0.05571223
174	0x3cf8dc36	0.030378442
175	0x3cb35a9c	0.021893792
176	0x3d55df96	0.05221518
177	0x3dd84b1f	0.10561203
178	0x000d8b50	1.243837e-39
179	0x00083047	7.52003e-40
180	0x3dcb044a	0.099129274
181	0x3dd4b52f	0.103861205
182	0x3d850b15	0.06496254
183	0x3d012ebd	0.031538714
184	0x3db03c3d	0.086052395
185	0x3d531c8b	0.051540893
186	0x3d4ad5c4	0.04952027
187	0xbdd3665b	-0.10322257
188	0xbdf7e549	-0.121042795
189	0xbdcffb86	-0.10155396
190	0xbdd57463	-0.1042259
191	0x3d282ebb	0.04106019
192	0x3db3b46a	0.087746456
193	0x3cb75fac	0.022384487
194	0x3df29ae9	0.11845953
195	0x3d2b93e0	0.04188907
196	0x80000d79	-4.833e-42
197	0xbcf3ab69	-0.02974482
198	0x3d843c35	0.06456796
199	0x3ccc6564	0.02495069
200	0x3d9bb8e9	0.07603628
201	0xbcce8685	-0.025210628
202	0xbda9dfb0	-0.08294618
203	0xbc6f770c	-0.014615785
204	0xbd24f08c	-0.040268466
205	0xbcb87b42	-0.022519711
206	0x3db1ea42	0.08687259
207	0xb8431313	-4.6509387e-05
208	0xbe214553	-0.15749101
209	0x3e011e2e	0.12609169
210	0xbdb41a5c	-0.0879409
211	0x3d87180e	0.06596385
212	0x3c2ef1c3	0.010677758
213	0xbc5d0d24	-0.0134919025
214	0xbc802d99	-0.015646743
215	0x3c8cd84d	0.017192984
216	0x3e19edb1	0.15032078
217	0xbc122f50	-0.008922413
218	0xbc273056	-0.010204395
219	0x3d99bc8d	0.07506666
220	0x3df8fb7e	0.12157343
221	0x3dd13bd6	0.10216491
222	0xbded8492	-0.115975514
223	0x3e1c611c	0.1527142
224	0xbde6164f	-0.11234724
225	0xbdb619a2	-0.08891608
226	0x3e04ed86	0.12981233
227	0x3d8eddb0	0.06975877
228	0xbe00e1ea	-0.1258618
229	0x3d0749eb	0.033029478
230	0xbd851861	-0.064987905
231	0x3d848305	0.064703025
232	0x3d0aacce	0.033856206
233	0x3dfbd5ff	0.12296676
234	0xbd10b5c8	-0.03532961
235	0xbde853e7	-0.11344128
236	0xbe1a2b36	-0.15055546
237	0xbd92c485	-0.071663894
238	0xbd243d51	-0.04009754
239	0xbc0908af	-0.008363887
240	0x3d069d7d	0.032865036
241	0xbdf20836	-0.11817972
242	0x3df0b8e1	0.11754013
243	0x3de6557a	0.11246772
244	0xbdef2b14	-0.116781384
245	0x3d8e8920	0.06959748
246	0x3df1f4bf	0.1181426
247	0x3d06d366	0.03291645
248	0x3b18d656	0.0023321114
249	0xbb906d6b	-0.004407575
250	0xbd4f88b9	-0.0506675
251	0x3d29b48d	0.041431952
252	0xbd7917e4	-0.0608138
253	0xbdacf5a9	-0.084452935
254	0xbbb33cb5	-0.0054698833
255	0xbd612f98	-0.05497703

fc4.bias f4 [2]
0	0xbe4e1bc4	-0.20127779
1	0x3b0a8c08	0.0021140594

fc4.weight_g f4 [2, 1]
0	0x3f3c7bc9	0.7362638
1	0x3f0e96e9	0.5569902

fc4.weight_v f4 [2, 24]
0	0x3dab504a	0.08364923
1	0x3e3b2647	0.1827632
2	0x80005c0c	-3.302e-41
3	0xbdff1bcc	-0.12456474
4	0x3e06698c	0.131262
5	0x3dd22d46	0.102625415
6	0x3dc9e3a5	0.09857873
7	0xbe0b1b0c	-0.13584536
8	0xbe16da69	-0.14731754
9	0xbdfe66d2	-0.12421955
10	0xbdc484b5	-0.09595624
11	0x3e4a2bfc	0.19743341
12	0xbe4c37e1	-0.19943191
13	0xbe099681	-0.13436319
14	0x3d0d916b	0.03456251
15	0x3cb4bb43	0.02206195
16	0x00002351	1.2669e-41
17	0x3d0ad9bf	0.033899065
18	0xbdd898d3	-0.10576024
19	0xb8a1b2cc	-7.710382e-05
20	0xbd41cf0a	-0.04731659
21	0x3d73bdea	0.059507288
22	0x000523ee	4.72067e-40
23	0x00049c02	4.23307e-40
24	0xbdca5311	-0.09879125
25	0xbded9b58	-0.11601895
26	0x3d90294f	0.07039129
27	0xbe3fb4dc	-0.18721336
28	0xbcfc595f	-0.030804334
29	0xbb59029d	-0.003311313
30	0xbd22fa97	-0.039789762
31	0x3df0dfb6	0.117614195
32	0x3e306c03	0.17228703
33	0x3c81d979	0.01585077
34	0xbb50b579	-0.0031846447
35	0xbe948725	-0.29009357
36	0xbe3578c2	-0.17721847
37	0x3ddd075d	0.1079242
38	0x3ced80da	0.028992105
39	0x3e0755ea	0.13216367
40	0xa15e24c2	-7.5265174e-19
41	0xbdea8c93	-0.11452594
42	0xbc39ad1e	-0.011332778
43	0xbb1be3b0	-0.0023786835
44	0x3cd94646	0.026522767
45	0x3d86b190	0.06576836
46	0x0005a99b	5.2002e-40
47	0x3d16fd42	0.03686262

exp_avg f4 [96]
0	0xba3940d8	-0.00070668524
1	0xba6acf82	-0.00089573127
2	0x00000000	0.0
3	0x3934011f	0.00017166555
4	0xba07a142	-0.00051738706
5	0x00000000	0.0
6	0x00000000	0.0
7	0xb989b3de	-0.00026264688
8	0x00000000	0.0
9	0xb9e41f93	-0.00043511073
10	0x00000000	0.0
11	0x00000000	0.0
12	0xb9850bf5	-0.00025376645
13	0xb877a026	-5.903854e-05
14	0x399273b0	0.00027933484
15	0x390a235c	0.00013173878
16	0x3905ca29	0.00012759179
17	0x39c40b66	0.00037392526
18	0x00000000	0.0
19	0xb9d5b570	-0.00040761707
20	0x00000000	0.0
21	0x00000000	0.0
22	0x398b95c1	0.0002662372
23	0xb9bd8d19	-0.00036154015
24	0x3a19e2e5	0.0005870297
25	0x00000000	0.0
26	0x390d2613	0.00013460992
27	0xb40157f9	-1.2046065e-07
28	0xb7fa10a8	-2.9810079e-05
29	0x3aae73aa	0.0013309617
30	0x39835a0c	0.00025053357
31	0x39669f0c	0.00021993759
32	0x3a2c9ac0	0.0006584339
33	0x35cff763	1.5494701e-06
34	0x00000000	0.0
35	0x00000000	0.0
36	0xba2a42c0	-0.0006494932
37	0xb7c46bd8	-2.341524e-05
38	0x00000000	0.0
39	0x00000000	0.0
40	0xba0922b8	-0.0005231309
41	0x00000000	0.0
42	0x00000000	0.0
43	0x397e0bf0	0.00024227775
44	0x3a11ed99	0.0005566716
45	0xb9836832	-0.000250639
46	0x00000000	0.0
47	0xb6c41950	-5.844202e-06
48	0x3a8f754c	0.0010944991
49	0x395d7a08	0.00021121663
50	0xb4c27b5c	-3.6225072e-07
51	0xb9766218	-0.00023496931
52	0x398e6e3c	0.00027166482
53	0xb9b036fe	-0.00033610308
54	0x00000000	0.0
55	0x00000000	0.0
56	0x3954cbc3	0.00020293803
57	0x00000000	0.0
58	0xba40ac0c	-0.0007349856
59	0x00000000	0.0
60	0x379e7874	1.8891158e-05
61	0x38c681dd	9.465565e-05
62	0xb9e78494	-0.00044158532
63	0x00000000	0.0
64	0x39fabfea	0.00047826703
65	0x00000000	0.0
66	0x00000000	0.0
67	0xba1cfda7	-0.0005988725
68	0xb84bfdaa	-4.8635215e-05
69	0xb7cae627	-2.418745e-05
70	0x396e963c	0.00022753415
71	0x397dcb9e	0.00024203814
72	0xb9d1d48b	-0.00040021943
73	0xb99efe22	-0.00030325452
74	0xb9a29f94	-0.00031017943
75	0x00000000	0.0
76	0xb757e2ba	-1.28677875e-05
77	0xba064750	-0.0005122321
78	0x00000000	0.0
79	0xb98a37b4	-0.00026362913
80	0xb98a8f5a	-0.00026428216
81	0xb980375a	-0.00024455303
82	0xb4f05df8	-4.4771855e-07
83	0xb249fdff	-1.1757492e-08
84	0xb9996b95	-0.0002926259
85	0x3a35dbf4	0.00069373776
86	0xb9ae1f97	-0.00033211402
87	0xb85b2668	-5.2249437e-05
88	0x00000000	0.0
89	0x35893db0	1.0225249e-06
90	0xba588ca8	-0.00082607055
91	0x00000000	0.0
92	0xba0a2b26	-0.0005270712
93	0x00000000	0.0
94	0xb9d1582e	-0.00039929285
95	0xb6fdae8c	-7.5603075e-06

exp_avg_sq f4 [96]
0	0x3852bdc2	5.0244627e-05
1	0x371a2a9f	9.189039e-06
2	0x00000000	0.0
3	0x3643a699	2.9154237e-06
4	0x36f9ab1c	7.440698e-06
5	0x00000000	0.0
6	0x00000000	0.0
7	0x3653f194	3.1582067e-06
8	0x00000000	0.0
9	0x36c1d667	5.776808e-06
10	0x00000000	0.0
11	0x00000000	0.0
12	0x35665d51	8.581747e-07
13	0x3340c6bb	4.4884228e-08
14	0x388df322	6.768691e-05
15	0x34a4a401	3.066671e-07
16	0x34eeb184	4.4460114e-07
17	0x37417612	1.1531187e-05
18	0x00000000	0.0
19	0x367f1d1a	3.80149e-06
20	0x00000000	0.0
21	0x00000000	0.0
22	0x3733ba30	1.0712582e-05
23	0x357eb0c4	9.48796e-07
24	0x377bc468	1.5006495e-05
25	0x00000000	0.0
26	0x373d5e62	1.1287253e-05
27	0x2d72e156	1.3806142e-11
28	0x32729e7b	1.4122288e-08
29	0x36af3d32	5.2225305e-06
30	0x36b53dd6	5.401419e-06
31	0x36159d48	2.229428e-06
32	0x358751cc	1.008209e-06
33	0x2eaaa90a	7.760732e-11
34	0x00000000	0.0
35	0x00000000	0.0
36	0x36b13a4f	5.281799e-06
37	0x3720cd2a	9.584512e-06
38	0x00000000	0.0
39	0x00000000	0.0
40	0x35713127	8.985102e-07
41	0x00000000	0.0
42	0x00000000	0.0
43	0x34b1b9ad	3.3103916e-07
44	0x38143671	3.5336652e-05
45	0x37c0e57e	2.299505e-05
46	0x00000000	0.0
47	0x365f9da4	3.3321348e-06
48	0x37ab8707	2.0447666e-05
49	0x37d25c0b	2.5076812e-05
50	0x2e5ec728	5.0653842e-11
51	0x38419681	4.6154953e-05
52	0x37851bdd	1.586781e-05
53	0x368e30f6	4.2376296e-06
54	0x00000000	0.0
55	0x00000000	0.0
56	0x3682a11e	3.8930584e-06
57	0x00000000	0.0
58	0x3756c5fe	1.2801493e-05
59	0x00000000	0.0
60	0x3513ba3b	5.503277e-07
61	0x370e64ca	8.487326e-06
62	0x36c89ca1	5.9786985e-06
63	0x00000000	0.0
64	0x35b3efbd	1.3406312e-06
65	0x00000000	0.0
66	0x00000000	0.0
67	0x3599810d	1.1436947e-06
68	0x364b5df0	3.0304036e-06
69	0x30822037	9.467901e-10
70	0x3512e20a	5.471817e-07
71	0x369a93be	4.606757e-06
72	0x36017881	1.929264e-06
73	0x34c3ac6b	3.644703e-07
74	0x37d704c3	2.5632215e-05
75	0x00000000	0.0
76	0x2fe504ee	4.165836e-10
77	0x360cd286	2.0984166e-06
78	0x00000000	0.0
79	0x3733cc19	1.0716752e-05
80	0x36ae7e9b	5.200343e-06
81	0x36dd9df8	6.6047032e-06
82	0x2e44c77c	4.4742418e-11
83	0x2e9ade22	7.042568e-11
84	0x37881ee3	1.6226846e-05
85	0x358491d4	9.877208e-07
86	0x37f5a87c	2.9284733e-05
87	0x3701d080	7.737544e-06
88	0x00000000	0.0
89	0x35347ffc	6.7241467e-07
90	0x3830a776	4.211763e-05
91	0x00000000	0.0
92	0x362f42ee	2.611599e-06
93	0x00000000	0.0
94	0x379e0b2c	1.884027e-05
95	0x36153282	2.223213e-06

exp_avg f4 [96, 1]
0	0xbc5233e3	-0.012829754
1	0xbb9b96a0	-0.0047481805
2	0x00000000	0.0
3	0xba137e45	-0.00056264206
4	0xbc0bcf3e	-0.008533297
5	0x00000000	0.0
6	0x00000000	0.0
7	0xba255840	-0.0006307401
8	0x00000000	0.0
9	0xb9e9c2e8	-0.0004458644
10	0x00000000	0.0
11	0x00000000	0.0
12	0xbaf5fad8	-0.0018766774
13	0xb93981c1	-0.00017691312
14	0x3b2db2fd	0.002650439
15	0x3b098f0b	0.0020989801
16	0x3b044798	0.0020184275
17	0xbb12c3e9	-0.0022394604
18	0x00000000	0.0
19	0x3b16a463	0.0022986166
20	0x00000000	0.0
21	0x00000000	0.0
22	0x399ca8df	0.00029880457
23	0xbb02aa2d	-0.0019937858
24	0x3bbd3039	0.005773571
25	0x00000000	0.0
26	0xbb86cf03	-0.004114033
27	0xb497f387	-2.830313e-07
28	0xb828ed72	-4.027546e-05
29	0x3b085735	0.0020803933
30	0xbaeb87ca	-0.0017969545
31	0x3a3ca92f	0.0007196841
32	0x3b6e8f5c	0.0036401367
33	0x337bdc84	5.864105e-08
34	0x00000000	0.0
35	0x00000000	0.0
36	0xbb211685	-0.0024580073
37	0x3baf0e72	0.005342298
38	0x00000000	0.0
39	0x00000000	0.0
40	0xbc0325b8	-0.008004598
41	0x00000000	0.0
42	0x00000000	0.0
43	0x3ba80885	0.0051279687
44	0x3bffd873	0.007807785
45	0xbc376aea	-0.011194924
46	0x00000000	0.0
47	0xba5b0017	-0.00083542004
48	0x3b51a524	0.00319893
49	0x3b61cb10	0.003445331
50	0x339e97f2	7.385087e-08
51	0x3b03cf1e	0.0020112465
52	0x3b0130a7	0.0019712837
53	0xbba2829e	-0.0049594184
54	0x00000000	0.0
55	0x00000000	0.0
56	0xb9960318	-0.00028612535
57	0x00000000	0.0
58	0x3b81a37c	0.0039562564
59	0x00000000	0.0
60	0x3aa76b35	0.0012773039
61	0xbb9fb510	-0.0048738793
62	0xbab0bdda	-0.0013484315
63	0x00000000	0.0
64	0x3bbbf60b	0.0057361177
65	0x00000000	0.0
66	0x00000000	0.0
67	0xbbf39af5	-0.007434244
68	0x38d3c0db	0.00010097186
69	0xb77cc8ee	-1.5067153e-05
70	0x3b801d31	0.00390973
71	0x3bbe2e21	0.005803839
72	0xbc109ba4	-0.00882617
73	0xbb9c9f5e	-0.0047797402
74	0x39929bcc	0.00027963368
75	0x00000000	0.0
76	0xb603e42f	-1.9653341e-06
77	0xbba2c4f6	-0.004967327
78	0x00000000	0.0
79	0xb908c2d8	-0.00013042556
80	0xb9c206b8	-0.0003700757
81	0x3a80c05e	0.0009822955
82	0xb21d9884	-9.173281e-09
83	0xb318161c	-3.5410366e-08
84	0x3b86710c	0.0041028317
85	0x3c61bb63	0.013777587
86	0xbc5e17e9	-0.013555505
87	0xbb58b7a6	-0.0033068447
88	0x00000000	0.0
89	0xba5b99d6	-0.00083771104
90	0x3b842380	0.0040325522
91	0x00000000	0.0
92	0xba44624a	-0.0007491453
93	0x00000000	0.0
94	0xbbd7bbd8	-0.006583672
95	0x3b22f512	0.0024865312

exp_avg_sq f4 [96, 1]
0	0x3b3e33aa	0.0029022493
1	0x387ab9c0	5.9777638e-05
2	0x00000000	0.0
3	0x3798da3d	1.8221437e-05
4	0x3a2c448d	0.0006571494
5	0x00000000	0.0
6	0x00000000	0.0
7	0x3879354a	5.9415856e-05
8	0x00000000	0.0
9	0x3a2c8229	0.00065806747
10	0x00000000	0.0
11	0x00000000	0.0
12	0x3921f7fa	0.00015446535
13	0x33c32e54	9.088822e-08
14	0x392857ee	0.00016054485
15	0x384a6887	4.82579e-05
16	0x38948593	7.08207e-05
17	0x3b467555	0.0030282338
18	0x00000000	0.0
19	0x37e8e5fc	2.776365e-05
20	0x00000000	0.0
21	0x00000000	0.0
22	0x3a2c9add	0.0006584356
23	0x37d6ea79	2.5619973e-05
24	0x39f5e4f7	0.00046900634
25	0x00000000	0.0
26	0x3b303c8b	0.0026891555
27	0x2e9bae6a	7.079566e-11
28	0x32bfbd5b	2.2321435e-08
29	0x3739cbb7	1.107429e-05
30	0x38511f04	4.985837e-05
31	0x35763ca1	9.173037e-07
32	0x383454cb	4.2994314e-05
33	0x2ea1c2c9	7.356033e-11
34	0x00000000	0.0
35	0x00000000	0.0
36	0x380f356c	3.414361e-05
37	0x3b273f70	0.002551999
38	0x00000000	0.0
39	0x00000000	0.0
40	0x393ee276	0.00018204175
41	0x00000000	0.0
42	0x00000000	0.0
43	0x38ab8ab4	8.179751e-05
44	0x3abd4296	0.00144394
45	0x3b642b2e	0.0034815776
46	0x00000000	0.0
47	0x389101eb	6.914496e-05
48	0x388a7e6b	6.6039e-05
49	0x37ed084c	2.8256465e-05
50	0x2c77ff20	3.5242434e-12
51	0x39cc9b2e	0.0003902553
52	0x38a698d4	7.943963e-05
53	0x397ffc26	0.00024412628
54	0x00000000	0.0
55	0x00000000	0.0
56	0x3aa33b2f	0.0012453551
57	0x00000000	0.0
58	0x38b41147	8.586287e-05
59	0x00000000	0.0
60	0x38579489	5.139833e-05
61	0x3ac80c1f	0.0015262401
62	0x37bf0c48	2.2774693e-05
63	0x00000000	0.0
64	0x398ecc51	0.00027236578
65	0x00000000	0.0
66	0x00000000	0.0
67	0x396844f4	0.00022150931
68	0x3683e7b0	3.931076e-06
69	0x30583ede	7.866968e-10
70	0x38ac7506	8.2233964e-05
71	0x39e61d9f	0.00043891088
72	0x39c8d4ee	0.00038305618
73	0x3868c813	5.5499444e-05
74	0x38383ef9	4.3927666e-05
75	0x00000000	0.0
76	0x2f9dd246	2.8707542e-10
77	0x38e54eaa	0.00010934223
78	0x00000000	0.0
79	0x3a200fdd	0.00061058794
80	0x3ab85c8d	0.0014065668
81	0x3ab0bffa	0.0013484948
82	0x2c2a29e2	2.4181703e-12
83	0x2e451eab	4.4819853e-11
84	0x38935eac	7.02714e-05
85	0x397cb5cf	0.00024100322
86	0x3b926d97	0.0044686305
87	0x39bcd38b	0.00036015766
88	0x00000000	0.0
89	0x390f0089	0.00013637742
90	0x392f859c	0.00016739074
91	0x00000000	0.0
92	0x3613e2d2	2.2036734e-06
93	0x00000000	0.0
94	0x3a60cb5d	0.00085752254
95	0x3a022d94	0.0004965898

exp_avg f4 [96, 3]
0	0xbce94698	-0.028476045
1	0xbaf51dab	-0.0018700858
2	0xbc02f03a	-0.007991845
3	0xbcaeb4f1	-0.021326514
4	0xbc0eb4fa	-0.00871014
5	0x3acf69f1	0.001582442
6	0x00000000	0.0
7	0x00000000	0.0
8	0x00000000	0.0
9	0xb9ff3140	-0.00048674084
10	0x3a34912f	0.0006888089
11	0x3a1e2c14	0.000603379
12	0xbc43aaa2	-0.0119425375
13	0xbb90a1b2	-0.004413807
14	0x3bea4409	0.0071492237
15	0x00000000	0.0
16	0x00000000	0.0
17	0x00000000	0.0
18	0x00000000	0.0
19	0x00000000	0.0
20	0x00000000	0.0
21	0x3a7543ca	0.00093561097
22	0xb907b6b8	-0.00012942671
23	0xb9681652	-0.00022133559
24	0x00000000	0.0
25	0x00000000	0.0
26	0x00000000	0.0
27	0xbabfb019	-0.0014624625
28	0xbb3471c2	-0.0027533625
29	0xba0dba2a	-0.0005406464
30	0x00000000	0.0
31	0x00000000	0.0
32	0x00000000	0.0
33	0x00000000	0.0
34	0x00000000	0.0
35	0x00000000	0.0
36	0xba5eb98e	-0.0008496278
37	0xba8948ff	-0.0010474025
38	0x3a8b1ac0	0.001061283
39	0xb9fdf1ff	-0.00048436222
40	0xba18b7c7	-0.0005825725
41	0x390b114e	0.0001326252
42	0x3ce4828e	0.027894285
43	0x3c09cded	0.008410913
44	0x3b35d3e4	0.0027744705
45	0x3a77de8f	0.0009455466
46	0x3a9f3531	0.001214659
47	0xba8647a2	-0.0010244737
48	0x3a7e03c2	0.0009689891
49	0x3ac9ee25	0.0015406056
50	0x3ac80560	0.0015260391
51	0x388bb56e	6.6618304e-05
52	0x3a1304ce	0.0005608321
53	0x39d2b479	0.00040188784
54	0x00000000	0.0
55	0x00000000	0.0
56	0x00000000	0.0
57	0xbb4cf4d5	-0.003127386
58	0xba96d508	-0.001150758
59	0x39b9250d	0.00035313555
60	0x00000000	0.0
61	0x00000000	0.0
62	0x00000000	0.0
63	0x00000000	0.0
64	0x00000000	0.0
65	0x00000000	0.0
66	0xbb88e108	-0.0041772164
67	0x3a901fb6	0.0010995779
68	0x3990e08b	0.00027633118
69	0xbbfcf344	-0.007719429
70	0xbbc69cc5	-0.006061169
71	0xbacbb97c	-0.001554295
72	0x3c8147c4	0.01578129
73	0x3c30047c	0.010743257
74	0xbb6f3436	-0.0036499626
75	0x00000000	0.0
76	0x00000000	0.0
77	0x00000000	0.0
78	0xbb6e3c4f	-0.0036351865
79	0x3b12275c	0.0022301292
80	0x3b039d64	0.0020082826
81	0xb535f877	-6.778932e-07
82	0xb58baad6	-1.0406027e-06
83	0x3402526b	1.2137177e-07
84	0xb92cacaf	-0.00016467528
85	0xb968adc4	-0.00022189977
86	0x37795abc	1.4862682e-05
87	0x3cdf33dd	0.02724641
88	0x3c5bdb2e	0.013418956
89	0xba92de13	-0.0011205099
90	0x3a1c62ac	0.0005965631
91	0x3b06c63f	0.0020564941
92	0x3ac23750	0.001481751
93	0x3bcdc471	0.006279521
94	0x3b51f9a7	0.0032039674
95	0x3900958a	0.00012262739
96	0x3bff8152	0.0077973986
97	0x3be2f1fc	0.0069258194
98	0xbb442950	-0.002993185
99	0x3713223f	8.769856e-06
100	0x376e1b2c	1.4192232e-05
101	0x3147a54e	2.9052276e-09
102	0x00000000	0.0
103	0x00000000	0.0
104	0x00000000	0.0
105	0x00000000	0.0
106	0x00000000	0.0
107	0x00000000	0.0
108	0xbc700f3d	-0.014652071
109	0xbb356223	-0.0027676902
110	0x3b082660	0.0020774826
111	0x3a84728c	0.0010104938
112	0x3a887d3d	0.00104133
113	0x3b139f3f	0.0022525338
114	0x00000000	0.0
115	0x00000000	0.0
116	0x00000000	0.0
117	0x00000000	0.0
118	0x00000000	0.0
119	0x00000000	0.0
120	0xbb07ca35	-0.002071989
121	0xba7cea95	-0.00096479926
122	0xbb88cebc	-0.0041750353
123	0x00000000	0.0
124	0x00000000	0.0
125	0x00000000	0.0
126	0x00000000	0.0
127	0x00000000	0.0
128	0x00000000	0.0
129	0x3b11efe0	0.002226822
130	0x39f1a134	0.00046087208
131	0xbb36bf46	-0.0027885004
132	0x3cc1d2df	0.023660121
133	0x3b0ecfb4	0.0021791281
134	0x3bab2e81	0.0052240496
135	0xbbdb7f5c	-0.006698532
136	0xbc14969b	-0.00906911
137	0xbbb822b0	-0.0056193694
138	0x00000000	0.0
139	0x00000000	0.0
140	0x00000000	0.0
141	0xbb8623cd	-0.0040936233
142	0xbb368330	-0.002784919
143	0xb998d3b2	-0.00029149425
144	0x3cee32da	0.029076982
145	0x3c4643ef	0.012101158
146	0xbb305781	-0.0026907625
147	0x3c35a160	0.011085838
148	0x3c3def1a	0.011592651
149	0xbb2b1a46	-0.002610819
150	0xb5c5aac4	-1.4727343e-06
151	0xb67f4824	-3.8039952e-06
152	0x3386e894	6.282167e-08
153	0x3c46e4ea	0.012139538
154	0x3b68945e	0.0035488824
155	0x3ac0d132	0.0014710783
156	0x3c64ecd5	0.013972481
157	0x3bb01da2	0.0053746263
158	0xbadb7c2a	-0.0016745378
159	0xbc011680	-0.0078789
160	0xbbe1ce96	-0.006891082
161	0xbb1e3131	-0.0024138207
162	0x00000000	0.0
163	0x00000000	0.0
164	0x00000000	0.0
165	0x00000000	0.0
166	0x00000000	0.0
167	0x00000000	0.0
168	0xba7312b2	-0.00092725
169	0x3aaf1861	0.0013358706
170	0x3965522d	0.00021869755
171	0x00000000	0.0
172	0x00000000	0.0
173	0x00000000	0.0
174	0xbbd1c3c7	-0.0064015123
175	0xbb925bf2	-0.004466527
176	0xbb12214d	-0.002229768
177	0x00000000	0.0
178	0x00000000	0.0
179	0x00000000	0.0
180	0x3a9ceadd	0.001197185
181	0x3a6e5e72	0.0009093053
182	0xba57b90f	-0.0008229175
183	0xbaee816e	-0.0018196532
184	0xba408199	-0.00073435303
185	0xbb2aab48	-0.0026042033
186	0xbc709cea	-0.014685849
187	0xbbb5429e	-0.005531623
188	0xbafc783c	-0.0019261907
189	0x00000000	0.0
190	0x00000000	0.0
191	0x00000000	0.0
192	0x3ace74a0	0.001575131
193	0x3a9c2f18	0.001191589
194	0xbb41c966	-0.0029569506
195	0x00000000	0.0
196	0x00000000	0.0
197	0x00000000	0.0
198	0x00000000	0.0
199	0x00000000	0.0
200	0x00000000	0.0
201	0xbb58c2ba	-0.003307505
202	0xbb17bd77	-0.0023153701
203	0x3b98a5ac	0.0046584215
204	0x3b5f0168	0.0034027938
205	0x3ae9adb7	0.001782826
206	0x39c13378	0.00036850176
207	0xb94aff7f	-0.00019359401
208	0xb97980aa	-0.00023794422
209	0xb7281655	-1.001878e-05
210	0x3b813053	0.0039425283
211	0xba8ef0e6	-0.0010905534
212	0xba50f63c	-0.0007971262
213	0x3be88588	0.0070959963
214	0x3b8e09e1	0.0043346738
215	0x3b9b4d48	0.0047394373
216	0xbb866e4d	-0.0041025043
217	0x3b624571	0.0034526254
218	0x39839cfe	0.00025103235
219	0xbb08c232	-0.0020867703
220	0xbabfd954	-0.0014636912
221	0x3b3d79e0	0.0028911754
222	0x3be9e27a	0.007137594
223	0x3a5762c2	0.0008216315
224	0x399a25c7	0.00029401315
225	0x00000000	0.0
226	0x00000000	0.0
227	0x00000000	0.0
228	0xb8b27475	-8.509393e-05
229	0xb9071c55	-0.00012885158
230	0xb4ae24d6	-3.2436827e-07
231	0xbc158a34	-0.0091271885
232	0xbbeefe6b	-0.0072935126
233	0xbb8586a3	-0.004074888
234	0x00000000	0.0
235	0x00000000	0.0
236	0x00000000	0.0
237	0x3b593a01	0.0033146145
238	0xba18ecd4	-0.000583363
239	0xb9b91f50	-0.0003530928
240	0x3a46f2e9	0.0007589297
241	0xbacd0b3e	-0.0015643609
242	0x34ae4800	3.2462412e-07
243	0x3b115c6f	0.002218034
244	0xbaee44b2	-0.0018178432
245	0x39844e54	0.0002523536
246	0xb5f7b330	-1.8455085e-06
247	0xb69a2ebd	-4.5949987e-06
248	0x31b8fb1a	5.3836517e-09
249	0xb349ec5a	-4.701392e-08
250	0xb3d900d3	-1.0105e-07
251	0xb290bf30	-1.6850748e-08
252	0x3b12778c	0.0022349088
253	0xbb16aa99	-0.0022989868
254	0x3b465e6d	0.0030268684
255	0x3b7a4789	0.003818961
