Experimental_Models/Full_Model_No_Weight_Norm_v1.4.pt (torch_old, 28194 bytes, 12 tensors)

fc1.bias f4 [96]
00000000: 585a e53e c4ce 63be e04a 97bc 9926 d3be
00000010: 1863 f13d ca10 0cbe 2c5c 003f a838 02bf
00000020: bc41 d5bd 4abb c63e 5661 ba3e d240 0f3f
00000030: c493 cd3e c47f 73be daf2 0cbf 8af2 33be
00000040: 20ac ac3c 28e6 223e 3407 a23e 0e71 ac3e
00000050: 80d7 b7bd d5e4 91be c0d2 b23e 70c3 343e
00000060: 20bf 083d ff79 02bf 323c e3be 848d d9be
00000070: dec0 d23e 2c00 5d3e 0c22 243e 460e cabe
00000080: ff1c f4be b2a3 76be 6498 be3e 949a a4be
00000090: ca2d 75be 1f3a d4be b593 debe d7a5 f9be
000000a0: 7cdc c7bd 2835 da3d e652 0cbf a2ad 133f
000000b0: 3e57 fcbe 4e30 b9be 9e37 bfbe 84f3 eebe
000000c0: 3a07 0fbe 0492 e13e 24e6 acbe 0824 0cbf
000000d0: 43d9 fabe 2a7a 893e 466c 1cbe 2eea 0c3f
000000e0: 403a 7dbd e29d 0abf 4478 a23e 3ed8 bdbe
000000f0: ae2b 67be b744 e4be b09e d33e 6277 44be
00000100: 54ef adbe e892 d43d ba7c d5be 4812 f63d
00000110: 00e0 753d 28c5 e5be f419 a1be 42be c1be
00000120: 80b2 e6be 7ecb c3be 546f ef3e b1d4 0fbf
00000130: e40d 01bf b6fe a13e 40e7 3abc 683e 10bf
00000140: 80e9 fcbd df2f b7be 247f 9f3e 1e7b 29be
00000150: 3c8e b93e b851 d53e 3df5 bdbe 46c2 103f
00000160: 2730 87be e686 aebe ef9c 91be 403f 53bc
00000170: b869 56be 7673 02bf 600d e53e 324b 893e
0.4479549 -0.22246844 -0.01846832 -0.41240385 0.11786479 -0.1367828 0.50140643 -0.508677
-0.104129285 0.38814765 0.36402386 0.5595828 0.401518 -0.23779207 -0.5505806 -0.1757299
0.02107817 0.1590811 0.3164612 0.33680004 -0.0897665 -0.28494897 0.34926414 0.17652678
0.033385396 -0.509674 -0.44381863 -0.4249078 0.4116277 0.21582097 0.16028613 -0.39464015
-0.47678372 -0.24085882 0.3722564 -0.32149184 -0.23943248 -0.41450593 -0.43472067 -0.48759338
-0.09758851 0.1065467 -0.5481399 0.5768682 -0.4928531 -0.36169666 -0.3734712 -0.46670163
-0.139676 0.44056714 -0.33769333 -0.5474248 -0.48993883 0.26851016 -0.15275678 0.5504483
-0.06182313 -0.5414716 0.3173238 -0.37079042 -0.22575256 -0.44583675 0.41332006 -0.19186166
-0.33971655 0.10379583 -0.4169672 0.120152056 0.060028076 -0.4487698 -0.31465113 -0.37840468
-0.4505806 -0.3824119 0.46764624 -0.56183916 -0.5041182 0.31639642 -0.011407673 -0.56345224
-0.12349224 -0.3577871 0.31151688 -0.16550872 0.3624133 0.4166391 -0.37101164 0.5654644
-0.26403925 -0.34087294 -0.28440043 -0.012893498 -0.20938766 -0.5095743 0.44736767 0.26815182

fc1.weight_g f4 [96, 1]
00000000: ce9e bd3e e08f 203f c701 f93e 5e9a 1f3f
00000010: c830 593f 8cc7 0c3f 6a49 343f cff0 233f
00000020: 5552 bd3e fe21 683e 5fc6 923e cd95 293f
00000030: 42d7 c93e cb62 263f bea7 043f 8dec 093f
00000040: 2d8f 4a3f 39ee 3d3f 7470 303f a7e4 dc3e
00000050: fda2 933d b149 d13e b9fb f03e 15f5 3f3f
00000060: f66c 053f 951d 193f 09ff 293f 44a8 053f
00000070: 4b22 613e ded2 353f b1a1 373f 6d04 a23e
00000080: 50e7 0a3f 4e54 6f3e 5b80 193f 4f45 1a3f
00000090: b4e7 023f d2c7 2c3f ae01 083f c5d3 b13e
000000a0: fbcc 053f aabb 7c3e 987b 343f a53d 0b3f
000000b0: 903f 253f aa18 343f 9004 3c3f 7129 933e
000000c0: ec87 143f 6579 1d3f d432 383f 2437 e33e
000000d0: bc37 453f b1c3 0e3e 637f 3d3f b870 123f
000000e0: 2425 1d3f d022 0a3f 4648 353f 5328 133f
000000f0: 4ea1 0d3f 73a0 473f ac69 323f 575c 3e3f
00000100: dff3 133f 1472 2f3f b9b7 353e e839 413f
00000110: 9289 243f a84e 243f af92 e13e dedf 2b3f
00000120: 444c 0f3f 3bc8 db3e 0c39 353f 50b2 433f
00000130: ae15 9c3e a1e5 193f 8fec 0c3f 8ef4 fc3e
00000140: 353a b83e 3853 ea3e 70c0 213f bf23 243f
00000150: 0189 c23e 16cc 3e3f c59e 2b3f 137a 493f
00000160: 97ad 1c3f bd2d 403f 2bc1 b83e b66f 243f
00000170: 5567 363f d6aa d23e 90f1 cd3e b8a9 c73e
0.3703522 0.62719536 0.48634169 0.6234492 0.8484006 0.54991984 0.7042452 0.6403932
0.36976877 0.22669217 0.2866697 0.662442 0.3942204 0.64994496 0.51818454 0.5387657
0.7912472 0.74191624 0.6892159 0.43143198 0.07208822 0.40876535 0.4706705 0.7498334
0.52119386 0.59810764 0.6640478 0.5220988 0.21985738 0.7102488 0.71731097 0.31644002
0.54259205 0.23372003 0.5996148 0.60262007 0.511348 0.674924 0.53127563 0.3473188
0.522659 0.24680963 0.7050109 0.5439094 0.64550114 0.70350134 0.7344446 0.28742555
0.580199 0.6151336 0.7195256 0.44378006 0.7703817 0.13941838 0.740225 0.57203245
0.613848 0.5395937 0.70813406 0.57483405 0.55324256 0.779792 0.6969249 0.7435965
0.5779399 0.68533444 0.17745866 0.7547898 0.64272416 0.6418252 0.44057223 0.6713847
0.5597575 0.429262 0.7079017 0.7644396 0.3048529 0.6011601 0.5504846 0.4940533
0.35981908 0.45766616 0.6318426 0.64117044 0.3799515 0.7453016 0.6703914 0.78701895
0.6120238 0.7506979 0.36084875 0.6423296 0.7125142 0.41145962 0.4022336 0.38996673

fc1.weight_v f4 [96, 3]
00000000: 3e4c 47be 66df 993e 7cdf c1bd 12d1 0fbf
00000010: e0a4 3e3d 65c8 8cbe 00ce d33d d6a1 44be
00000020: 4c90 de3e fca0 0a3e 3817 de3e 908c da3e
00000030: 9637 c7be c8db 003f 56af 0f3f 78b0 ddbe
00000040: 229b ab3e f0b7 50bd f488 123f 4c7f 733e
00000050: 902c abbe e85a f13d 7b50 04bf caf2 b73e
00000060: 305a e03d 58f7 f0bd 217e aabe 0c97 12be
00000070: ac46 1ebe f069 ab3d b800 76be 6037 f9bd
00000080: d843 c93d 3abf e4be 9d76 f6be e468 b1bd
00000090: 40ec 953d 00cc ed3a 0254 c6be eed1 bd3e
000000a0: d3a7 03bf e898 12be 505c 7b3d ab56 ffbe
000000b0: d2af 01be fa38 953e 9f41 9cbe 5f7d abbe
000000c0: fca2 0a3f 401c 86be ea94 03bf 87b7 f4be
000000d0: f07c 4dbd 4fb2 10bf 8043 303e 54d4 bebe
000000e0: c2b8 0d3f 3234 b0be 3a25 50be b04f 263e
000000f0: 8065 2abc 00c2 7abb c0e1 913d f05c ab3d
00000100: b027 553d ba1d cbbe e033 cc3c e88c dd3e
00000110: 54e3 3b3e cc51 db3e d671 063f b847 a43e
00000120: f3ac eabe 2454 753e e015 843d 3886 3d3e
00000130: 9993 11bf 00d2 27bc f075 0f3f b863 8c3e
00000140: fce8 683e 1673 babe 0444 acbe 8c8c 273e
00000150: 68a7 0bbe d806 193e c03c b03d 12cd 983e
00000160: b029 093f 3267 b7be fa9e 0a3f 6ab3 cbbe
00000170: cd8c 80be 4070 3fbe ce8f 3dbe 6c0b 343e
00000180: 2ca1 e43e 6c1a 3abe d8ec 7e3e 3021 cd3d
00000190: b4fc bbbd c8bd 423e 388a cdbd e6c5 aa3e
000001a0: c8e4 f9be 1c4a 923e 56c4 073f 408c 823c
000001b0: 0854 e43d 8ac9 a23e 64f1 c43e 34fc f1be
000001c0: b6c8 0ebe 1222 ecbe dc25 b83e 42b6 903e
000001d0: 2558 8abe 7e14 13be 52f4 9cbe 70fb 9e3d
000001e0: b05d e8be ce74 823e c096 43bd e026 56be
000001f0: 8084 523d 1ced f6bd 4c04 f2be 54cb 553e
00000200: f68d f5be 57b3 89be acd7 e23e 2eea 28be
00000210: 90ce e63e 3056 0a3d f0ea eb3e 5031 0dbd
00000220: de28 063f 5ca6 ef3e 70e3 7f3d 97a5 fcbe
00000230: 7456 0abf dcf8 66be 401c abbc 542a 353e
00000240: 1026 c33e 64cb b6be ee6a 813e fa1e cbbe
00000250: e628 8c3e 62ad c3be 9b7e 0fbf 8caa ba3e
00000260: 9c0c 88be 446f 863e f420 b23e 2cd9 aabd
00000270: 483b 073f 019d 0ebf e022 83bd 88ff 873d
00000280: 8c2a fabd 4058 293c f42c 08bf a87f 3c3e
00000290: ea20 f6be 1f78 b8be f89e 11be 1285 d7be
000002a0: 6088 143e 78f6 cb3e f44a e3be c421 073f
000002b0: 4ce3 dbbd d06f 01bd 9206 0a3f 58a9 17be
000002c0: 887b debe 40d7 0a3e 0680 f8be f698 8d3e
000002d0: d82f e43d 7132 0abf 300b 42bd 7c2d e03e
000002e0: 14a0 ba3e ad4e 08bf 74a4 d3be f0a4 673d
000002f0: 12e9 0e3f 2656 af3e 0489 003f 415d dbbe
00000300: bc41 5e3e 667c 5bbe 8854 fb3e 6172 d8be
00000310: 2066 f23e 3c5b 84be 201c cb3c a80b 953d
00000320: 0cc7 233e af85 07bf 7516 08bf 9cbf a9bd
00000330: d0d3 913e 08d8 433e f222 0b3f 4a16 07bf
00000340: c81a babe 007a 17bd 4cc0 a73e 84ad 173e
00000350: a859 823e 2bf2 0fbf 2485 a33e a8da 38be
00000360: 22b7 d4be 52b1 4abe ac26 a3be 80ce 6f3d
00000370: 5748 a3be 8207 903e 7a6d 09bf ec28 d63e
00000380: c891 47be e0c4 3cbd a877 ffbe 60ca 13bf
00000390: fc94 f4bd d0a1 80be 606b ffbd a6b9 0bbf
000003a0: 62f1 77be 18de 8ebd 40a4 a33e e00c dcbe
000003b0: d431 023e 3490 c2be 404f 26bc a091 a1be
000003c0: 2dd2 b4be 10a2 5fbd f0f6 2b3d 2907 babe
000003d0: b497 febd f2f4 7ebe 5662 b6be 04df 413e
000003e0: 64fc f8be a22a b93e b224 8a3e 543b e93e
000003f0: 0e3b 4bbe 80d3 4d3d 03e1 a3be 19a5 e8be
-0.19462678 0.30053252 -0.094664544 -0.5617839 0.046543956 -0.2749664 0.10342026 -0.1920236
0.43469465 0.13537973 0.4337709 0.42685366 -0.38909596 0.5033536 0.56126916 -0.43298697
0.33516794 -0.050956666 0.57240224 0.23779029 -0.33432436 0.11784917 -0.51685303 0.3592742
0.10954702 -0.11765927 -0.33299354 -0.14315432 -0.15456647 0.08369815 -0.24023712 -0.12168765
0.09827393 -0.44677144 -0.4813737 -0.086625844 0.07320452 0.0018142462 -0.38735968 0.37074226
-0.51427954 -0.14316142 0.061367333 -0.4987081 -0.12664726 0.29145032 -0.30518815 -0.33494088
0.54154944 -0.26193428 -0.513991 -0.4779627 -0.050167978 -0.5652208 0.17213249 -0.37271369
0.55360043 -0.34414822 -0.20326701 0.16241336 -0.010400176 -0.0038262606 0.071231365 0.08367336
0.052039802 -0.39671117 0.02492708 0.43271565 0.18348438 0.42835844 0.5251745 0.32085967
-0.45835075 0.23957878 0.06449485 0.18508232 -0.5686584 -0.010242939 0.56039333 0.2741983
0.22745126 -0.3641593 -0.33645642 0.16362208 -0.13638079 0.14944017 0.08605337 0.29843956
0.53579235 -0.3582092 0.5414883 -0.3978532 -0.25107422 -0.18695164 -0.18511888 0.17582482
0.44654214 -0.18174142 0.24895036 0.10016096 -0.09179059 0.19017708 -0.10036129 0.3335411
-0.4880736 0.28572166 0.5303396 0.015936017 0.1114884 0.31794387 0.38465416 -0.47262728
-0.13943753 -0.46119744 0.35966384 0.28264052 -0.27020374 -0.14363286 -0.30655152 0.07762802
-0.45383978 0.2547974 -0.04775119 -0.20913267 0.051395893 -0.12056944 -0.47268903 0.20878345
-0.4795987 -0.26894638 0.4430517 -0.16495582 0.4507947 0.0337736 0.4607768 -0.034470856
0.5240611 0.4680661 0.06247276 -0.49345085 -0.54038167 -0.2255587 -0.020887494 0.17691928
0.38114977 -0.3570205 0.25276893 -0.3967207 0.27374953 -0.38218218 -0.5605256 0.36458242
-0.2657212 0.26256764 0.34790766 -0.083422035 0.5282483 -0.5570832 -0.06403136 0.066405356
-0.122151464 0.010335982 -0.53193593 0.18408072 -0.48071986 -0.36029145 -0.14220798 -0.42093712
0.14505148 0.39836478 -0.44393122 0.527859 -0.10736713 -0.031600773 0.53916276 -0.14810693
-0.43453622 0.13558674 -0.48535174 0.27655762 0.11141938 -0.5398322 -0.04737395 0.43784702
0.36450255 -0.5324505 -0.41336405 0.05655378 0.5582439 0.34245414 0.5020907 -0.42844585
0.21704763 -0.21434173 0.4908793 -0.42274764 0.4734354 -0.25850856 0.024793684 0.07277614
0.15993899 -0.5293836 -0.53159267 -0.082885 0.28481913 0.19125378 0.543502 -0.52768385
-0.36348557 -0.036981583 0.32763898 0.14812285 0.25459027 -0.56228894 0.31937516 -0.1805216
-0.4154597 -0.19794205 -0.31865442 0.058546543 -0.31891128 0.28130728 -0.5368267 0.41828096
-0.19489205 -0.046086192 -0.49895978 -0.57730675 -0.11942479 -0.25123453 -0.12471652 -0.5458015
-0.24213174 -0.06975955 0.3196125 -0.42978573 0.1271432 -0.38000643 -0.010150731 -0.31556416
-0.353166 -0.054597914 0.041983545 -0.36333588 -0.12431279 -0.24898127 -0.356219 0.1893273
-0.4863006 0.3616534 0.2698112 0.45553076 -0.19846746 0.05025053 -0.32007608 -0.4543846

fc2.bias f4 [48]
00000000: 041a 8bbc 884a 39bc 0119 4ebd ec84 623d
00000010: f5ee 8cbd f40c ab3d 817a b5bd a44b c53d
00000020: f400 633d 0c30 71bd ceac 96bd 0ccf a6bc
00000030: 78fa 033c c0b0 6a3d e868 6f3d a01d 013b
00000040: aa1c 8cbd 904c 7b3d 8472 6b3d 400e 6ebd
00000050: 80c0 5f3c 8e3a c3bd 5083 b5bc 4cec c2bc
00000060: 941c 9f3d 38cb 023d 04bf 543d c864 afbc
00000070: 98b5 36bd 547f 733d 58ec de3c 40c3 043d
00000080: 8025 b3ba bc2e 86bd 18eb 3b3d 0a7b bc3d
00000090: 1090 80bd 84fc bdbd e2b3 9d3d f043 cdbd
000000a0: b848 2fbc 6a34 aa3d 5c61 be3d 8bf1 92bd
000000b0: e0d4 4dbc 0e7d 823d 480c aa3d 8945 22bd
-0.016980179 -0.011309274 -0.050316814 0.055302545 -0.06881515 0.0835208 -0.088612564 0.09633568
0.05542083 -0.05888371 -0.07357179 -0.0203624 0.008055322 0.05729747 0.058449656 0.0019701496
-0.06841405 0.061352313 0.057482257 -0.05811906 0.013656735 -0.09532653 -0.022157341 -0.023794316
0.07769123 0.031932086 0.05193998 -0.021410361 -0.044606775 0.0594476 0.027212307 0.032412767
-0.0013667792 -0.065518826 0.0458785 0.09203155 -0.06277478 -0.09276679 0.077003255 -0.10022724
-0.01069849 0.083107784 0.092959136 -0.07174977 -0.01256296 0.063715085 0.08303124 -0.039617095

fc2.weight_g f4 [48, 1]
00000000: e7a7 0f3f 563a 163f 9483 193f 9c8b 213f
00000010: 0d03 243f 61cb 233f c3d6 0e3f 5a0f 123f
00000020: e7dd 193f e1a6 1a3f 2abf 173f c687 133f
00000030: e61e 173f 3d72 143f 3aaf 1e3f 524f 193f
00000040: 269b 193f b62a 193f 943e 133f 4897 213f
00000050: 77c7 113f 2ad8 173f 0fa1 023f ff0a 1c3f
00000060: 912c 143f bba7 0b3f b5c6 123f 8a95 0e3f
00000070: b3fe 193f 62e0 183f dad9 0c3f c725 123f
00000080: e81a 133f bd8b 0c3f 1216 1a3f cd51 173f
00000090: 7a85 183f aca1 0b3f aacf 113f 34c2 223f
000000a0: 705a 0c3f c430 193f 3fa9 0e3f 407f 183f
000000b0: a6cc 193f 3797 123f 81ec 143f bdaa 123f
0.56115574 0.58682764 0.599664 0.6310365 0.64067155 0.63982207 0.5579645 0.57054675
0.6010422 0.60410887 0.5927607 0.5762905 0.5903152 0.57986814 0.61986125 0.5988666
0.6000236 0.59830797 0.5751736 0.6312146 0.56944984 0.59314215 0.51027006 0.6095428
0.578805 0.5455281 0.5733445 0.5569693 0.60154265 0.5971738 0.55019915 0.57088894
0.5746293 0.54900724 0.60189927 0.59109193 0.5957867 0.54543567 0.56957495 0.6357758
0.54825497 0.59840035 0.55727 0.5956917 0.60077894 0.57261986 0.58173376 0.57291776

fc2.weight_v f4 [48, 96]
00000000: d037 c33d d4a4 dabc a051 e8bb 7cb5 963c
00000010: 8115 59bd 3894 a3bc d38e 3bbd 042a d3bc
00000020: ec4c 2f3d 8060 d33c fa82 02bd 9811 0b3d
00000030: ac1c 873d a8b2 d5bc 3090 fd3c 0f71 a9bd
00000040: a858 963d 225c a73d 54e0 993d 3710 b4bd
00000050: 60dd a73d 1d3a 5fbd a668 b0bd 8063 81bd
00000060: c01e e23b 3e66 c53d 5061 bd3c 4efa 863d
00000070: 2084 9b3c a4f5 1f3d 80b4 143c 52f3 42bd
00000080: 105b 80bb 76e4 38bd a418 34bd de06 863d
00000090: c837 53bc d203 933d 0a25 31bd 5819 0abd
000000a0: 015c 61bd 1f5e c2bd 9ca9 993c 4aa9 b83d
000000b0: 38a2 213d 7477 623d eca6 b13d 2069 533b
000000c0: e482 7b3d 31b2 c1bd f205 833d bc52 3f3d
000000d0: b4be 5fbd 1844 2f3d 504b b7bd de67 8f3d
000000e0: 96c3 b73d d3b4 2abd 7825 733d 300d a03d
000000f0: e0ae 713d e48e 8ebc 18d3 d83c 60ec 0abd
00000100: 88d0 a53d 38b9 86bd 62dc ba3d 78ac 483d
00000110: 5047 2fbd 0686 03bd 401c 0abc 0999 39bd
00000120: 9ce1 0cbd 80d2 993b dcf7 93bd e056 9e3b
00000130: e22f 48bd 2ea7 ad3d 8e65 84bd 0084 5b3b
00000140: 3818 b73d 4e1e b63d 9cd7 dcbc a04c c8bc
00000150: c8e7 8ebd 9034 40bd c46b ce3d 402c 7abc
00000160: d0ff c13c 882e 9b3d 28da 923d a620 b03d
00000170: 78d0 07bd 6fe4 35bd fc92 253d f8a0 54bc
00000180: 60dc babb 50db 663c 8020 b53d 7e64 a5bd
00000190: 0a70 ab3d db86 b4bd 1c19 80bd 9687 9cbd
000001a0: 00e1 923a aca3 a33d 605c 533c a0ab 8abb
000001b0: a8b3 0c3c b1b1 bdbd 005e 7639 cad3 0abd
000001c0: 04a6 7a3d 5894 c73d 98ca b9bd f495 1dbd
000001d0: 54aa 483d ba30 43bd c4bb 363d a0d6 983c
000001e0: b074 873d d805 503c 185a b5bc e88a e2bc
000001f0: 46d5 a33d a442 94bd 283f c43d 83f9 2bbd
00000200: 5858 c03d 87a9 24bd 389c 183d 14aa 1d3d
00000210: 3ac3 9c3d 002b 67bb 4012 3cbc 3077 f9bb
00000220: 80ed 5c3c b826 3d3d 3396 9dbd 70bf a43c
00000230: 7a29 b93d 77fe 4ebd 0893 9c3d 36e1 c3bd
00000240: 68d1 aa3d b8b5 583c 42a1 72bd ecd9 1b3d
00000250: a6d2 bd3d a429 1a3d d000 483d 807b 2cbd
00000260: f5ff 72bd 8079 723a 183d dabc e09e 81bd
00000270: 3016 5b3c f8ac bf3d 60a4 b7bd f802 633d
00000280: 444b 553d 7e9e 03bd 14f6 6d3d a4b0 c03d
00000290: 3867 1abc 1825 9fbd aacd c03d fafb d0bd
000002a0: e35d 2cbd 862d 9abd b4b2 96bc 66e5 993d
000002b0: 40ac 5bbb b0fc bbbd 60ad 8abd e0fa 803d
000002c0: 8864 453d 87d2 32bd a8db e03c 3428 c8bd
000002d0: 2cd4 83bd 5288 823d bc1e 1a3d 380d df3c
000002e0: bafd cbbd 989b cf3c 26c3 8bbd ec79 093d
000002f0: 48bd 143c 74be a9bc 3ed7 aebd 063c 1cbd
00000300: 020d c83d 72ad bebd c851 2e3d 3298 c8bd
00000310: 6021 763d 35a5 c0bd e8d8 cebd f88c dd3c
00000320: c4be 9b3d f235 803d d2be 0cbd 22db c5bd
00000330: 40d3 433c 7eaf 33bd 12bd c0bd d1c2 abbd
00000340: 086a 753d 189e 573d 008b 7ebc a224 06bd
00000350: a451 ae3d 9451 c63d b0e3 25bc c837 16bd
00000360: 0085 ee39 88e2 e03c 34c6 263d 0820 a73d
00000370: 9e84 8b3d 9c8e 3abd a1aa 62bd d8f6 2d3d
00000380: 5893 c63d f00c 873b 63f5 63bd 2861 8abc
00000390: 800a 85ba c009 283d c015 48bb 3cec c2bd
000003a0: 6efe a2bd 0adf 89bd 3cc3 313d f682 ce3d
000003b0: 6efa bc3d 3cea c1bc 18ab 423d 5607 c4bd
000003c0: c8ed a6bc 70d2 8dbc 9815 723d dc87 a93d
000003d0: 4a4b 873d 0004 873a 9a9d af3d 37c5 3dbd
000003e0: 103d 49bc 9e04 49bd d5b6 c1bd 576e 3cbd
000003f0: e8ab 803d 1c62 76bd 2010 d13c 4807 003c
0.0953213 -0.026689924 -0.0070898086 0.018397085 -0.052999023 -0.019968137 -0.045790505 -0.02577687
0.042797968 0.02580285 -0.03186319 0.033952326 0.065972656 -0.026086167 0.030952543 -0.08273517
0.073411286 0.0817187 0.0751349 -0.08792155 0.08196521 -0.05449878 -0.0861371 -0.06317806
0.0069006383 0.09638642 0.023117691 0.065907106 0.0189839 0.03905262 0.009076238 -0.04759533
-0.0039171055 -0.045139752 -0.04396881 0.065442786 -0.012891717 0.07178463 -0.043248214 -0.033715576
-0.055019382 -0.094906084 0.018757634 0.09016664 0.039461344 0.0552897 0.08674416 0.0032258704
0.061404124 -0.094578154 0.06397618 0.04670976 -0.054625228 0.04278955 -0.089499116 0.07002233
0.08972852 -0.041676354 0.059361905 0.07815015 0.059004664 -0.01740212 0.026467845 -0.03391683
0.08096415 -0.065782964 0.09124066 0.048992604 -0.04279262 -0.032110237 -0.008429587 -0.04531196
-0.034394845 0.004694283 -0.0722501 0.0048321337 -0.04887379 0.084791526 -0.064646825 0.0033495426
0.08940166 0.08892499 -0.02695828 -0.0244506 -0.069778025 -0.046925128 0.100791484 -0.015269339
0.023681551 0.075772345 0.07170516 0.08599977 -0.033157796 -0.044407304 0.04042338 -0.012977831
-0.0057025403 0.014090374 0.088440895 -0.08075808 0.08370979 -0.08814784 -0.06254789 -0.076430485
0.0011205971 0.07990202 0.012900442 -0.004231885 0.008587755 -0.092624076 0.00023495406 -0.033893384
0.06119348 0.09745091 -0.09071845 -0.038473085 0.048990563 -0.04765389 0.04461266 0.018657029
0.06614053 0.012696706 -0.022137687 -0.027654126 0.07999663 -0.07239273 0.095823586 -0.041986
0.0939185 -0.040200736 0.037258357 0.038492277 0.07654424 -0.0035273433 -0.0114789605 -0.007613085
0.013484359 0.046179503 -0.07694664 0.020110816 0.09041114 -0.050535645 0.076452315 -0.0956444
0.08340722 0.013226919 -0.05923582 0.038049623 0.092686936 0.037637368 0.0488289 -0.042109966
-0.05932613 0.00092496723 -0.02664046 -0.06329131 0.013371989 0.09359163 -0.08966899 0.055422753
0.052073732 -0.03213357 0.058096007 0.094086915 -0.009424023 -0.07770747 0.09414227 -0.10204311
-0.042081725 -0.07528214 -0.01839576 0.075144574 -0.0033519417 -0.09179056 -0.0677135 0.062978506
0.048191577 -0.043657806 0.02744849 -0.09773293 -0.06436953 0.06373657 0.037626967 0.027227983
-0.09960504 0.025342748 -0.06824331 0.03356354 0.009078331 -0.020720698 -0.08537148 -0.03814318
0.09768106 -0.09310426 0.04255846 -0.09794654 0.060090423 -0.09406511 -0.10099965 0.027044758
0.07604745 0.06260289 -0.034361668 -0.09660937 0.011952221 -0.043868534 -0.09411062 -0.08386768
0.059915572 0.052641004 -0.01553607 -0.03274978 0.085116655 0.096835285 -0.010125086 -0.03667429
0.0004549399 0.027451769 0.040716365 0.08160406 0.06812404 -0.04554616 -0.055338506 0.042471737
0.09696072 0.0041214153 -0.05565394 -0.01689203 -0.0010150224 0.041024923 -0.0030530542 -0.095177144
-0.07958685 -0.067319945 0.04339908 0.100835726 0.09227453 -0.023671262 0.04752645 -0.09571712
-0.020377055 -0.017312258 0.059102625 0.08277866 0.06606157 0.0010300875 0.08574982 -0.046330657
-0.012282625 -0.04907667 -0.094587006 -0.046003666 0.062827885 -0.06015216 0.025520384 0.007814236

fc3.bias f4 [24]
00000000: 60fa 983c 00e4 693d 924c 02bd 293f b6bd
00000010: 4b8b efbd 2295 d03d 224b 0a3e af68 b6bd
00000020: 8f06 01be ed15 9ebd b4db 05bd 70bf 0c3c
00000030: 74b0 cfbd 90ae 2e3c 9412 10be 08b3 9b3c
00000040: 96f1 a5bd 77c1 c7bd a82b 5ebd 2415 083e
00000050: e8b4 e23d 264f 9e3d d0aa 0bbe f44d 463d
0.018674076 0.057102203 -0.031811304 -0.088987656 -0.1169649 0.10184695 0.13505223 -0.089066856
-0.12600158 -0.07719026 -0.03268023 0.008590564 -0.10141078 0.010661736 -0.14069587 0.019006267
-0.081027195 -0.09753697 -0.054240853 0.13289315 0.110696614 0.0772994 -0.13639379 0.048414186

fc3.weight_g f4 [24, 1]
00000000: edd6 143f 5582 193f 44a2 0c3f 72e4 173f
00000010: a32b 143f f7cf 0e3f c318 153f 93d4 163f
00000020: 5602 1e3f 4737 0f3f ef70 183f 1bb7 133f
00000030: eac9 0a3f 5854 2e3f 7965 1d3f 3ac7 173f
00000040: 237e 203f 8848 083f b6a5 0f3f 6ce1 193f
00000050: f6e8 023f 718c 173f 61b3 0f3f 4131 0e3f
0.5814045 0.59964496 0.549351 0.59332955 0.57879084 0.5578608 0.5824091 0.5891811
0.61722314 0.5594372 0.59547323 0.5770127 0.54214346 0.6809745 0.6148296 0.5928837
0.6269247 0.53235674 0.5611223 0.6010959 0.5113672 0.5919867 0.56133085 0.55543905

fc3.weight_v f4 [24, 48]
00000000: 9095 e93d 4477 f3bc 10c5 963d 49b6 04be
00000010: 40e5 edbb 606a f53d 7134 f3bd 64ea f4bc
00000020: 92a3 a93d 007e b33b f86f ba3c 881d e9bd
00000030: e01b 32bc 34df 873d 48ee b63c 7040 6bbd
00000040: 303e 17bd f049 3fbc c11f 97bd 087e e0bd
00000050: c435 953d 72d7 c5bd 4048 77bb 80ba 74bc
00000060: 5c04 f93d 4c9b dfbd a82d ca3c 725c ddbd
00000070: 50fe 973d 22b2 e5bd 740d 90bd 8cba cb3d
00000080: 17aa ebbd e0b7 273c 684e 0fbd 74bc fd3d
00000090: ea34 76bd 602e b4bb cc10 dc3d 34b4 d3bd
000000a0: 82f0 0b3e 9276 b13d e483 0cbe 58b5 bebd
000000b0: 0096 05bb e035 43bc fe29 003e a47c e73d
000000c0: 78fa af3d 884d 063e 7859 e63d ca10 d03d
000000d0: 58ba bfbc 4666 0f3e 4cb4 953d 109e ef3d
000000e0: 2043 6dbd ccbd ff3d 7970 87bd 08d6 143d
000000f0: 388a 3f3d 787e 0f3e d0c3 30bd b6d8 983d
00000100: 248f 133d 3701 d3bd 8cc4 dbbc ac72 9b3d
00000110: 1acd bbbd e457 bf3d ccb9 8bbd 2859 7a3d
00000120: 0af4 ffbd a4f4 93bd da46 34bd b617 923d
00000130: 30e0 053c da5c 863d 5ef8 bd3d 3774 85bd
00000140: 405e e33c 3435 d13d dc7e e33d 3cf9 353d
00000150: 4cf7 813d ac7e 503d ea67 40bd 86b1 13be
00000160: 40b5 543c a6c3 fdbd a22c 64bd 6e9a c9bd
00000170: 5ce0 ff3d 5681 a6bd c873 f03d 5965 d1bd
00000180: 5ef5 26bd 08ed 8fbd c01d 343d dcf0 a8bd
00000190: 7e20 12bd c096 1fbb b0bc af3d 4844 96bc
000001a0: 1092 b53c f8f8 ecbc 6c87 663d 74a4 bbbd
000001b0: 8896 313d 687c a8bd 1c09 efbd f6ad 48bd
000001c0: 60f8 c1bc e007 f23d 90db 623c e8e3 db3c
000001d0: 69e9 c7bd f4f8 683d d8b8 cb3c 407c 983c
000001e0: f401 8f3d 4426 243d 5a78 923d 22fe 00be
000001f0: d980 95bd 0156 85bd a839 133e 74e1 d73d
00000200: c098 0dbe 70d6 7dbc 0056 64bb 38af 81bc
00000210: 68f5 653d b862 0b3e 75f3 11be 6807 5cbd
00000220: bc38 0bbd b063 eabd d652 0d3e 0829 37bd
00000230: 9e40 073e d0d3 c5bd e4f9 ea3d e23f 3fbd
00000240: 00f4 7abd 4023 23bc b168 8bbd 3584 05be
00000250: 88dc e23d acd4 f73d 041e dbbd 2eb5 0e3e
00000260: e47f 653d 0027 443d 9417 113e 34f0 803d
00000270: 40aa c0bd 08ab c2bc d04c 86bc fe9f b4bd
00000280: 6a2a c6bd c69f 0fbe 6072 6fbc 0c46 10be
00000290: 3836 f4bd b41b f0bc 52c8 b1bd 44c7 9e3d
000002a0: 9c07 da3d 50a5 43bd 1077 173d e0d8 b33c
000002b0: 204a b53c 9035 3e3d 64fc c4bd 2466 853d
000002c0: 606f 9cbb c2e5 06be e8ea fc3c 7c4f 753d
000002d0: d85c ec3d 0905 c1bd ce13 093e c9f3 e3bd
000002e0: 1cb5 853d 9fb7 87bd 448c c13d 229b eabd
000002f0: e099 3a3c d0fa 523c 7008 97bc 5a11 a83d
00000300: 0942 05be ef8e d0bd 12fc ab3d a07f 93bb
00000310: 120a 07bd b02f bfbd ee60 95bd f228 013e
00000320: 2049 8ebb ebed c5bd b1cf fdbd e8d0 883c
00000330: fe2b 863d 4cd8 6a3d 20b3 123c 744c 563d
00000340: 2090 f33d b035 393d 284a 063e 14f6 c83d
00000350: 8515 0abe 0068 50bc b0a6 3c3d 70a9 f13d
00000360: c0fc 18bc c03e 8cbd c250 2ebd ac8e e53d
00000370: bae6 993d 6efe c83d 90f4 85bc 12a1 56bd
00000380: 26b2 103e b8dd bfbc bcee ec3d f04b a03d
00000390: 1883 e83c a0a3 6fbc b847 7dbd 287b 1dbd
000003a0: 9aae c4bd 0edb 0c3e a486 6fbd a647 133e
000003b0: 7204 0d3e d086 ec3c d0b3 f8bc 8025 b0bb
000003c0: fea3 fdbd 516f e9bd b804 96bc e808 e93d
000003d0: 2760 0ebe 3ee6 833d 18fc 323d 480c c13c
000003e0: 5c00 023d 2473 053e 0836 903d 2ecb 0c3e
000003f0: f3d0 0abe f829 dbbd 949f 713d 7bdf f0bd
0.1140548 -0.029719956 0.073618054 -0.12960161 -0.0072599947 0.1198318 -0.11875237 -0.029896922
0.08283152 0.005477667 0.022758469 -0.11382586 -0.010870904 0.066343695 0.022330418 -0.0574345
-0.03692454 -0.011675343 -0.073791035 -0.109615386 0.072856456 -0.096602336 -0.0037732273 -0.014937043
0.121590346 -0.109182924 0.024679974 -0.10808648 0.07421553 -0.11215617 -0.07033816 0.0994769
-0.115070514 0.01023671 -0.034986883 0.1238946 -0.060109057 -0.0054986924 0.10745391 -0.103371054
0.13665965 0.086651936 -0.13722187 -0.09311932 -0.0020383596 -0.0119147 0.12516019 0.1130307
0.08592695 0.13115513 0.112475336 0.10159452 -0.023404285 0.14003858 0.073097795 0.1170007
-0.057925344 0.12487373 -0.06613249 0.03633693 0.046762675 0.14013088 -0.04315549 0.07463209
0.03602518 -0.10302966 -0.02682712 0.07590231 -0.091699794 0.09342936 -0.06822547 0.061120182
-0.12497719 -0.07224396 -0.04401288 0.07133429 0.008171126 0.06560679 0.09275888 -0.06516307
0.027754903 0.10215226 0.11108181 0.04442714 0.06345996 0.050902054 -0.0469741 -0.14423189
0.0129826665 -0.123908326 -0.055706628 -0.09843908 0.12493965 -0.081301376 0.117408335 -0.10224409
-0.040761344 -0.07027632 0.043973684 -0.08249065 -0.03567552 -0.0024351329 0.08580911 -0.018343106
0.022164375 -0.028927311 0.056281492 -0.09162226 0.04335645 -0.082268536 -0.11671659 -0.048994027
-0.023678005 0.11817908 0.013846293 0.026842073 -0.09761316 0.056878045 0.024868414 0.018613935
0.069827944 0.040075555 0.071518615 -0.12596944 -0.07299966 -0.065105446 0.14377463 0.10541049
-0.13827801 -0.01549302 -0.00348413 -0.015830621 0.05614224 0.13611877 -0.14253028 -0.053718
-0.033989653 -0.11444795 0.1380113 -0.044716865 0.13208243 -0.09659541 0.11473444 -0.046691783
-0.061267853 -0.009957135 -0.06807078 -0.13038714 0.11077219 0.12101111 -0.106990844 0.13936302
0.05603017 0.047888756 0.1416915 0.06295815 -0.094074726 -0.023763195 -0.016394049 -0.088195786
-0.096760586 -0.14025792 -0.0146146715 -0.14089221 -0.11924404 -0.029310085 -0.08680786 0.07752851
0.106459826 -0.047765076 0.03697878 0.021954 0.022130072 0.0464378 -0.09618452 0.065136224
-0.004774019 -0.13173583 0.03087373 0.059890255 0.11541146 -0.094247885 0.13386461 -0.11130483
0.065286845 -0.0662682 0.09450582 -0.114553705 0.011389226 0.012877181 -0.01843664 0.082064345
-0.13013472 -0.101835124 0.08397688 -0.004501298 -0.03296859 -0.093352675 -0.072938785 0.12613276
-0.0043422133 -0.0966452 -0.123931296 0.016701177 0.065513596 0.057335183 0.00895384 0.052319005
0.11892724 0.045217216 0.13114226 0.09812561 -0.13484772 -0.012720108 0.046057403 0.11799896
-0.009337604 -0.06847906 -0.042557485 0.11208853 0.07514711 0.098141536 -0.016351968 -0.052399702
0.14130458 -0.023421153 0.115689725 0.07826984 0.028382823 -0.014626414 -0.061835974 -0.03844753
-0.09603615 0.13755438 -0.058478013 0.143828 0.13771227 0.028872877 -0.030359179 -0.005375564
-0.12384795 -0.11398185 -0.018312797 0.11378652 -0.13903867 0.064403996 0.043697447 0.023565426
0.031738624 0.13032204 0.07041556 0.13749382 -0.1355627 -0.10701364 0.058990076 -0.117613755

fc4.bias f4 [2]
00000000: a6f5 3d3e 805a 693d
0.18550739 0.056971073

fc4.weight_g f4 [2, 1]
00000000: 8c78 103f ca02 233f
0.5643394 0.6367613

fc4.weight_v f4 [2, 24]
00000000: 105a e23d 9743 e4bd faf4 013e 3608 31be
00000010: 527a 35be b40f 283e f491 2d3e 98ab 9cbc
00000020: 8d57 c2bd 884a 533d f8a8 f73d bdbf bbbd
00000030: 3036 42bd 609b a3bc 905a b53d 92dc 083e
00000040: 009a d03c bcc0 28be a0b7 a13b 7611 483e
00000050: ac7c 103d 160f 93bd a080 1fbe 888a d73c
00000060: 781d e6bc 8ea2 a6bd d0b2 09be 208d 313e
00000070: 40cb f6bb f583 43be 5c16 1cbe a815 0fbe
00000080: 2a0b 373e f465 2f3d 6e82 203e 6092 09bd
00000090: 20c1 0abe b4dc 853d 5c3d 113e 10a6 dd3c
000000a0: b087 083d 048a aa3d a6df 263e 10ef 1c3e
000000b0: 385b 4e3e 1bed 1abe 60bf e83d 207c 3a3e
0.11052334 -0.11145704 0.12691107 -0.17288288 -0.17722443 0.1641224 0.16950208 -0.019124791
-0.09489355 0.05158475 0.12092775 -0.091674305 -0.04741496 -0.01997155 0.08855164 0.13365391
0.025464058 -0.16479772 0.00493522 0.19537911 0.035275146 -0.07180612 -0.1557641 0.026311174
-0.028090224 -0.081364736 -0.13447118 0.17338991 -0.0075315535 -0.19093306 -0.15242904 -0.13973105
0.17875353 0.04282184 0.15674755 -0.03358686 -0.13550234 0.065362364 0.14183563 0.027056724
0.033332527 0.08327106 0.16296253 0.1532557 0.20151985 -0.15129511 0.11364627 0.18211412
