Experimental_Models/Original_With_Exp_Eps_v1.6.pt (torch_old, 622153 bytes, 33 tensors)

fc1.bias f4 [96]
0	0x3bb00d00	0.0053726435
1	0x3ec6593b	0.38739952
2	0x3ebb35ae	0.36564392
3	0x3e1bd4f4	0.15217954
4	0x3ded615b	0.11590835
5	0x3e29e0b0	0.16589618
6	0x3eb9d8e2	0.3629828
7	0x3ef96ddf	0.48716637
8	0x3ddb7a1a	0.107166484
9	0x3eb195b5	0.3468453
10	0x3f178d81	0.5920029
11	0x3efa5e40	0.48900032
12	0xbc48c962	-0.012255045
13	0x3ce7cb80	0.028295279
14	0x3ef761f5	0.48316923
15	0x3e0968af	0.1341884
16	0x3f004485	0.5010455
17	0x3db0e366	0.08637123
18	0xbe8efadb	-0.27925763
19	0x3efb9943	0.49140367
20	0x3f0539ad	0.5204113
21	0xbe2fdc91	-0.17173983
22	0x3e33cb78	0.17558086
23	0x3eb8241e	0.35965055
24	0x3f0e475e	0.5557765
25	0x3e70734b	0.23481481
26	0xbeb7d2a1	-0.35902885
27	0xbe11a44b	-0.14222829
28	0xbec8eddd	-0.39243975
29	0x3f17973a	0.5921513
30	0x3e657427	0.2240759
31	0xbe505fce	-0.20349047
32	0x3dd524c8	0.10407406
33	0x3eac360e	0.3363499
34	0x3e9b6328	0.30349088
35	0x3f120dcd	0.5705231
36	0xbd9b0744	-0.07569745
37	0x3f2158e1	0.63026243
38	0xbe1d6bec	-0.153732
39	0x3ef12ba4	0.47103608
40	0x3efa28dc	0.48859298
41	0xbf157fbb	-0.58398026
42	0x3ca9d378	0.020730719
43	0x3ed49162	0.41517168
44	0xbe0a323c	-0.13495725
45	0xbe9b8892	-0.30377632
46	0xbeb1e100	-0.34741974
47	0x3ed6cee4	0.4195472
48	0xbec13481	-0.3773537
49	0xbe83c65a	-0.25737268
50	0xbe8f25dc	-0.27958572
51	0x3e684d4d	0.22685738
52	0xbe009cc0	-0.12559795
53	0x3e56bb4d	0.20969887
54	0xbedfa7c3	-0.4368268
55	0x3f0b9ccc	0.5453613
56	0x3f25aaca	0.6471373
57	0xbe9af30c	-0.30263555
58	0xbeac96d1	-0.33708814
59	0xbe0dc17c	-0.1384334
60	0x3ecb4fa8	0.3970921
61	0x3f22f19f	0.63649935
62	0x3e65420c	0.22388476
63	0xbf0e235b	-0.555227
64	0xbe304cbc	-0.17216772
65	0xbe6078c1	-0.21921064
66	0xbe820cdc	-0.25400436
67	0x3ea9d844	0.3317281
68	0xbeda4d4f	-0.42637107
69	0x3e9192d5	0.28432336
70	0xbe754f43	-0.23956017
71	0xbf09a580	-0.5376816
72	0x3e1bba84	0.15207869
73	0x3f23230d	0.6372536
74	0xbefbdf44	-0.49193776
75	0xbd900b95	-0.07033459
76	0x3ec8ceb8	0.39220214
77	0x3f112e66	0.56711423
78	0xbe08f595	-0.13374932
79	0xbe98b25b	-0.29823574
80	0xbeaa1731	-0.3322082
81	0xbf04d18b	-0.5188224
82	0x3bdddba3	0.0067705675
83	0x3f054713	0.52061576
84	0x3e1ddc38	0.15416038
85	0xbe74afda	-0.23895207
86	0x3d4feda0	0.050763726
87	0x3f10fc8c	0.56635356
88	0xbe81ef4c	-0.25377882
89	0xbe29c688	-0.1657964
90	0x3de93211	0.113865025
91	0x3f11dcf0	0.5697775
92	0x3ec97cfe	0.39353174
93	0xbeccb603	-0.39982614
94	0x3d58f910	0.0529719
95	0x3e125a84	0.14292341

fc1.weight_g f4 [96, 1]
0	0x3f3a6d8f	0.72823423
1	0x3eeb6304	0.4597398
2	0x3f03c5f4	0.5147393
3	0x3f278108	0.6543126
4	0x3f0c0747	0.54698604
5	0x3ef9b388	0.48769784
6	0x3f411cc0	0.75434494
7	0x3f4bde8b	0.7963645
8	0x3ecb7e12	0.39744622
9	0x3ec94c97	0.39316246
10	0x3f42a9ba	0.7604023
11	0x3f3d5959	0.7396446
12	0x3f13e9e2	0.5777875
13	0x3f116ef5	0.5680993
14	0x3f44ae13	0.76828116
15	0x3eb3b8e7	0.35102007
16	0x3e40f3bb	0.18842976
17	0x3f091e17	0.5356154
18	0x3ea57719	0.32317427
19	0x3f22d2d0	0.63602924
20	0x3eee7241	0.46571544
21	0x3ef04d83	0.46934137
22	0x3ebc41ce	0.36768955
23	0x3f1f49f4	0.6222222
24	0x3f1ee858	0.6207328
25	0x3f12e3c5	0.573788
26	0x3e8e2de1	0.27769378
27	0x3f008c3e	0.5021399
28	0x3f0c4f74	0.54808736
29	0x3f1c04bc	0.60944724
30	0x3f0ffdec	0.5624683
31	0x3ed1385d	0.40863314
32	0x3f34da2f	0.7064542
33	0x3ef67d73	0.48142585
34	0x3f231176	0.6369852
35	0x3ef7d64a	0.48405677
36	0x3f0d0d59	0.5509849
37	0x3f09e7a0	0.53869057
38	0x3f42ce6a	0.7609621
39	0x3ee8bc78	0.4545629
40	0x3f16eb5a	0.5895287
41	0x3f052f86	0.5202564
42	0x3f076950	0.5289507
43	0x3f175abb	0.5912282
44	0x3ea75eeb	0.32689604
45	0x3f2409d1	0.6407748
46	0x3f463dde	0.7743815
47	0x3f35e900	0.71058655
48	0x3eb41757	0.35174057
49	0x3ed79c38	0.42111373
50	0x3f1933ff	0.59844965
51	0x3ee0d33e	0.43911165
52	0x3f44eee3	0.7692701
53	0x3ef138ef	0.4711375
54	0x3f076bd9	0.5289894
55	0x3f321e26	0.6957725
56	0x3eefa5cb	0.46806177
57	0x3eccdc33	0.4001175
58	0x3f081821	0.5316182
59	0x3f3cb48d	0.73713
60	0x3f039129	0.5139337
61	0x3f247ebd	0.6425589
62	0x3f17154e	0.59016883
63	0x3f14af47	0.5807995
64	0x3ee7e2c1	0.45290187
65	0x3f273a37	0.65323204
66	0x3f0070b0	0.5017195
67	0x3f1b549f	0.60675997
68	0x3f15f3d2	0.58575165
69	0x3f1a7ae5	0.6034377
70	0x3efb3899	0.49066618
71	0x3ed378ee	0.413032
72	0x3f440137	0.76564354
73	0x3f0bc51e	0.5459765
74	0x3f134bd7	0.575376
75	0x3ecfeb6a	0.40609294
76	0x3f2f1a88	0.6839986
77	0x3e46709e	0.19378898
78	0x3f05316b	0.5202853
79	0x3f487a6c	0.783118
80	0x3f4af406	0.792786
81	0x3f0c6342	0.54838955
82	0x3f15a57d	0.5845564
83	0x3efce0b5	0.49390188
84	0x3f19de84	0.60105157
85	0x3ec0c1d9	0.37647894
86	0x3f540425	0.82818824
87	0x3f11566e	0.56772506
88	0x3eee6e2d	0.46568432
89	0x3f02b79e	0.5106143
90	0x3f0505d5	0.51962024
91	0x3f4c61c8	0.798367
92	0x3eeccd18	0.46250224
93	0x3edd994e	0.43281025
94	0x3f022ce8	0.5084977
95	0x3f38e234	0.7222016

fc1.weight_v f4 [96, 3]
0	0xbeb4df08	-0.3532641
1	0xbec230c8	-0.37927842
2	0x3f02f48e	0.5115441
3	0x3e669390	0.22517228
4	0xbe9cdb4c	-0.3063606
5	0xbe528001	-0.20556642
6	0xbede795e	-0.4345197
7	0x3c91f580	0.017817259
8	0xbe8cfe04	-0.2753755
9	0xbeabe220	-0.33570957
10	0xbf014358	-0.50493383
11	0x3e7bccb4	0.24589807
12	0x3ea9296f	0.33039424
13	0xbee1cbd1	-0.44100812
14	0xbd5f8dc0	-0.054578543
15	0xbeadd3d2	-0.3395067
16	0x3dc362a8	0.095403016
17	0x3eac7a78	0.33687186
18	0xbf07dc28	-0.53070307
19	0xbe474010	-0.19458032
20	0xbeffc23c	-0.49952877
21	0x3f076ee6	0.5290359
22	0xbf05297f	-0.52016443
23	0x3e7c88b8	0.24661529
24	0x3eadaa70	0.33919096
25	0x3d5a5fde	0.053314082
26	0x3e502e49	0.20330156
27	0xbea38873	-0.3194004
28	0x3e567f74	0.20947057
29	0x3cb7db5a	0.022443462
30	0xbebb6112	-0.36597496
31	0x3ea23a84	0.3168527
32	0x3ed0f9da	0.40815622
33	0x3cd71830	0.02625665
34	0xbefe9513	-0.4972311
35	0x3f025be2	0.5092145
36	0x3d66bc15	0.056331713
37	0xbe007faa	-0.125487
38	0xbf064715	-0.5245221
39	0xbf08dc09	-0.53460747
40	0xbe2ccfaa	-0.16876093
41	0xbdbc46ac	-0.09193167
42	0x3ef54870	0.47906828
43	0xbed61faf	-0.41821048
44	0xbecb14ca	-0.39664298
45	0xbcf03931	-0.029324146
46	0x3eac3586	0.33634585
47	0x3de73f21	0.11291338
48	0x3caa73af	0.020807115
49	0xbdad89c9	-0.08473546
50	0xbe62dbd8	-0.22154176
51	0x3edd9d23	0.43283948
52	0xbe5263ca	-0.20545879
53	0x3e766207	0.24060832
54	0x3e543ea3	0.20727019
55	0x3e7b35ed	0.2453229
56	0x3d59f734	0.053214267
57	0x3e487b06	0.1957818
58	0xbeac4789	-0.33648327
59	0xbee95d8d	-0.45579186
60	0xbe7a84b8	-0.2446469
61	0x3ea978da	0.33100015
62	0x3ebc98a4	0.36835206
63	0xbd9a1706	-0.075239226
64	0x3eb3332c	0.3499998
65	0xbe9d7be6	-0.3075859
66	0x3eb802cc	0.35939634
67	0xbd27bca3	-0.040951382
68	0x3c3ab550	0.011395767
69	0xbe9aff8c	-0.30273092
70	0x3ee6d5d7	0.45085022
71	0xbe70c725	-0.23513468
72	0xbec2b004	-0.38024914
73	0x3eab4900	0.33454132
74	0xbdee061a	-0.116222575
75	0xbe4c6b53	-0.19962816
76	0x3ef12689	0.47099712
77	0x3e55f969	0.20895924
78	0xbe6c972e	-0.23104545
79	0xbe079442	-0.1324015
80	0x3da14810	0.07875073
81	0x3e3a0c4a	0.1816875
82	0x3d33b260	0.043871284
83	0x3ef95bb6	0.48702782
84	0x3eaa9a91	0.3332105
85	0x3e41ce3f	0.18926333
86	0x3ec7c569	0.390178
87	0x3ebc1235	0.3673264
88	0x3eba5ab6	0.36397332
89	0xbe9ddbf8	-0.30831885
90	0x3e587f34	0.21142274
91	0x3c6245bc	0.013810571
92	0x3f01f26f	0.5076055
93	0xbb8e9000	-0.004350662
94	0xbec491c2	-0.38392454
95	0xbe0f3a82	-0.13987163
96	0xbf0f4ad5	-0.5597356
97	0xbe4f5892	-0.2024863
98	0x3ec2cfa2	0.38049036
99	0x3ee1c1fa	0.44093305
100	0x3ce6ec4f	0.028188853
101	0x3e46a619	0.19399299
102	0xbec1aff1	-0.37829545
103	0x3eb70715	0.3574759
104	0x81f9bda5	-9.174028e-38
105	0x3dd1a5bb	0.10236689
106	0xbe9b76b0	-0.3036399
107	0x3ec3aaee	0.38216347
108	0x3f0acbc7	0.5421719
109	0x3e2f97f8	0.17147815
110	0x3dc06fc0	0.093963146
111	0xbe31a06f	-0.17346357
112	0x3eeb5888	0.4596598
113	0x3e5b4289	0.214121
114	0x3ef13fb9	0.4711893
115	0x3ef18246	0.47169703
116	0x3ebdb48b	0.37051806
117	0xbe59d2a2	-0.21271756
118	0xbec59316	-0.3858878
119	0x3de4b118	0.111665905
120	0xbe8ddb9c	-0.2770661
121	0xbf002e7c	-0.5007093
122	0xbe11104a	-0.1416637
123	0x3dc567ab	0.09638914
124	0x3eb23de3	0.3481284
125	0x3eb9f917	0.36322853
126	0x3e0833f9	0.13301076
127	0xbeeacc70	-0.45859098
128	0x3e758ff9	0.23980702
129	0xbdfd92d0	-0.12381518
130	0xbec711e5	-0.3888084
131	0x3edb0e14	0.42784178
132	0xbd777f30	-0.06042403
133	0xbd8e9d10	-0.06963551
134	0xbea09380	-0.31362534
135	0xbea64678	-0.32475638
136	0x3ebad310	0.36489153
137	0xbe8b650c	-0.2722553
138	0x3f103949	0.5633741
139	0x3ebd7c84	0.3700906
140	0xbece3c57	-0.4028041
141	0x3e5b4d8b	0.21416299
142	0x3f0eeb47	0.55827755
143	0x3eb63f95	0.35595384
144	0xbe9a8eb1	-0.3018699
145	0x3e4c0cde	0.19926783
146	0x3dd1b239	0.102390714
147	0xbebc245f	-0.367465
148	0x3d830610	0.06397641
149	0xbe482c78	-0.19548213
150	0x3f0c2fc5	0.5476039
151	0x3ce0e283	0.02745176
152	0x3e70cdb5	0.23515971
153	0x3dae897e	0.08522318
154	0xbeafaf2a	-0.34313327
155	0x3e8832cd	0.26601258
156	0x3f106cb7	0.56415886
157	0x3e7a6794	0.24453574
158	0x3eebbe2a	0.4604352
159	0x3d9b95c3	0.07596924
160	0xbedcf610	-0.4315648
161	0x3dde386d	0.10850606
162	0x3e971f2a	0.29515964
163	0x3db91438	0.090370595
164	0x3edce00d	0.43139687
165	0xbe2cec06	-0.16886911
166	0xbebb7896	-0.36615437
167	0x3f112856	0.5670217
168	0x3ceaf1e0	0.028679788
169	0x3ce51a5f	0.027966676
170	0xbee98009	-0.45605496
171	0xbe8f719b	-0.28016362
172	0xbe8a6fb7	-0.27038357
173	0xbdbcc2f4	-0.09216872
174	0x3cc7b4bb	0.024378171
175	0x3eaab7c6	0.33343333
176	0x3ed3e03a	0.4138201
177	0x3db9aeea	0.09066565
178	0xbf0664d7	-0.5249762
179	0xbf06bf75	-0.5263589
180	0xbedad0b0	-0.4273734
181	0xbdbba070	-0.091614604
182	0xbe8a6ab6	-0.2703454
183	0x3de4a821	0.111648805
184	0xbeea0225	-0.4570476
185	0xbeee6fd3	-0.4656969
186	0xbd4b4740	-0.049628496
187	0xbe86e696	-0.26347798
188	0x3f0697b6	0.5257524
189	0xbea59981	-0.32343677
190	0xbed23ed2	-0.41063553
191	0xbe819f8a	-0.2531703
192	0xbeca6f50	-0.3953805
193	0x3e2c0384	0.16798216
194	0xbe12e326	-0.14344463
195	0x3e2cb142	0.16864493
196	0xbef35177	-0.4752309
197	0xbec14624	-0.37748826
198	0xbd21207a	-0.039337613
199	0x3ef5739a	0.4793976
200	0x3d471f04	0.048613563
201	0xbea04c88	-0.3130839
202	0xbe8495fd	-0.25895682
203	0xbee6ba71	-0.45064119
204	0xbe68f1ee	-0.22748539
205	0x3f02be7d	0.5107191
206	0x3d4b47d1	0.049629036
207	0x3ef6046c	0.4805025
208	0x3d82d0e9	0.06387503
209	0x3eb35a3a	0.35029775
210	0x3eb46132	0.35230404
211	0x3e93da00	0.28877258
212	0x3e36a7d3	0.17837457
213	0xbe5e9342	-0.21735862
214	0xbe5c7bba	-0.21531573
215	0xbe8e1098	-0.27747035
216	0xbe9f8edf	-0.3116369
217	0xbf069320	-0.52568245
218	0x3eec28cc	0.46124876
219	0x3e3e357b	0.18575089
220	0x3f045b70	0.5170202
221	0xbcb3017f	-0.0218513
222	0x3ed654a8	0.41861463
223	0x3e57f247	0.21088515
224	0x3ea737df	0.32659814
225	0xbe082a68	-0.13297427
226	0x3e115fd8	0.14196718
227	0x3e712152	0.23547867
228	0x3eb3d623	0.3512431
229	0xbf0f4e6c	-0.5597904
230	0xbd9d0915	-0.07667748
231	0x3d9381c3	0.072024845
232	0xbdcd9657	-0.10038441
233	0xbe225ba8	-0.15855277
234	0x3e778dd0	0.24175191
235	0xbda065f3	-0.07831945
236	0x3ee37abd	0.4442958
237	0xbe25eb06	-0.16202936
238	0xbf0ccf2c	-0.5500362
239	0xbf088ac0	-0.53336716
240	0xbe414034	-0.18872148
241	0x3f0f0efb	0.55882233
242	0x3ef7a3e2	0.4836722
243	0xbe37d4d0	-0.17952275
244	0xbe90356f	-0.28165767
245	0xbedeb047	-0.43493864
246	0x3c230f3a	0.009952361
247	0x3e8c0d66	0.27353972
248	0x3f064f97	0.52465194
249	0xbcb0e0e1	-0.021591606
250	0x3e97710c	0.29578435
251	0xbecb0646	-0.39653224
252	0xbea65c7e	-0.3249244
253	0x3e93852a	0.28812534
254	0x3ed8608d	0.42261162
255	0x3e108f33	0.14117126

fc2.bias f4 [48]
0	0x3de1b1ae	0.11020218
1	0xbc4db958	-0.012556396
2	0xbd8b4f95	-0.068022884
3	0xbd1d121c	-0.03834735
4	0x3e370417	0.17872654
5	0x3dad50f2	0.08462705
6	0xbd3d8487	-0.046268966
7	0x3d93f671	0.07224739
8	0xbe1c5174	-0.15265447
9	0xbe1a760e	-0.15084097
10	0x3cb73e28	0.022368506
11	0xbd0be308	-0.03415206
12	0xbdc88f11	-0.09792913
13	0x3afa45c0	0.0019094273
14	0x3da11f61	0.07867313
15	0x3e10ac66	0.14128265
16	0x3e0eaab2	0.13932303
17	0x3bedf6aa	0.0072620707
18	0xbd8c5696	-0.068524525
19	0xbe144428	-0.14479125
20	0xbd4bbd14	-0.049740866
21	0xbd8d9d00	-0.06914711
22	0xbd6433f3	-0.055713605
23	0xb9ff151c	-0.00048653118
24	0xbbca85e0	-0.00618051
25	0x3cf08d78	0.029364333
26	0x3cfde758	0.030994102
27	0xbd84a496	-0.06476705
28	0x3dca8dae	0.098903045
29	0x3e2bb9ec	0.16770142
30	0xbd8ac5fa	-0.06776042
31	0xbdd7a788	-0.10530001
32	0xbdf9b54e	-0.12192784
33	0xbda170f5	-0.07882873
34	0x3d66b681	0.056326393
35	0x3c0ced0e	0.00860144
36	0xbe2c9418	-0.16853368
37	0x3d475ad7	0.048670616
38	0x3dc17edc	0.09448025
39	0xbdddefb0	-0.108367324
40	0xbcb1a335	-0.021684268
41	0x3dc8d7b6	0.098067686
42	0xbd9b4450	-0.07581389
43	0x3d83dbbc	0.064383954
44	0xbc87c8a4	-0.016575165
45	0x3c0afdd1	0.008483366
46	0x3d8c91d0	0.06863749
47	0x3e1f6ba0	0.155684

fc2.weight_g f4 [48, 1]
0	0x3f1625ec	0.58651614
1	0x3f0e0333	0.5547363
2	0x3f1340ad	0.5752056
3	0x3f1464dc	0.579664
4	0x3f244e80	0.6418228
5	0x3f119c68	0.5687928
6	0x3f16fd21	0.58979994
7	0x3f198650	0.5997057
8	0x3f10ce93	0.5656521
9	0x3f1b123a	0.60574687
10	0x3f17ac97	0.59247726
11	0x3f1544a5	0.5830787
12	0x3f0898c6	0.53358114
13	0x3f137609	0.5760198
14	0x3f1e89d2	0.6192905
15	0x3f1be3a2	0.60894215
16	0x3f20fd36	0.6288637
17	0x3f1af026	0.6052269
18	0x3f18a70a	0.5962988
19	0x3f147355	0.5798848
20	0x3f0c5ae1	0.5482617
21	0x3f09dec4	0.5385554
22	0x3f1be408	0.60894823
23	0x3f216931	0.63051134
24	0x3f1609b4	0.58608556
25	0x3f200ce4	0.6251967
26	0x3f14c761	0.5811673
27	0x3f1d641d	0.61480886
28	0x3f1a6847	0.60315365
29	0x3f1ef3b1	0.62090594
30	0x3f1a3914	0.60243344
31	0x3f0318a8	0.512095
32	0x3f0f02e0	0.5586376
33	0x3f20c479	0.62799793
34	0x3f1adc59	0.60492474
35	0x3f1014e4	0.56281877
36	0x3f0f0baf	0.558772
37	0x3f152b90	0.58269596
38	0x3f1a9ce0	0.6039562
39	0x3f1d887c	0.61536384
40	0x3f0d1d0a	0.55122435
41	0x3f059e6d	0.52194864
42	0x3f166e42	0.5876199
43	0x3f0c4f1b	0.54808205
44	0x3f13c522	0.57722676
45	0x3f2271f7	0.63455147
46	0x3f109f06	0.5649265
47	0x3f1fd798	0.62438345

fc2.weight_v f4 [48, 96]
0	0xbd27217b	-0.040803414
1	0xbda7783d	-0.081772305
2	0xbd102afb	-0.03519724
3	0x199a1f3c	1.5935842e-23
4	0xbc9fa806	-0.0194893
5	0xbce218cf	-0.02759972
6	0x3daf4be7	0.08559399
7	0xbc18029f	-0.009277969
8	0x3d14ab98	0.036296457
9	0x3d68a1ea	0.05679504
10	0xbd43d43f	-0.047809836
11	0xb8d0583b	-9.934647e-05
12	0x3c556c54	0.013026316
13	0xbcf9a3a2	-0.030473534
14	0x3cf5cd91	0.030005248
15	0xbd7a7e12	-0.061155386
16	0x3e28588a	0.16440025
17	0xbae59a1d	-0.0017517243
18	0xbd9e0e35	-0.077175535
19	0xbd5278e0	-0.051384807
20	0x3c9470cc	0.018120192
21	0xbd2c37dd	-0.042045463
22	0xbdd0978b	-0.101851545
23	0xbcab5876	-0.020916205
24	0xbd2ff070	-0.04295391
25	0x3ddc6311	0.10761083
26	0xbcf906ba	-0.030398715
27	0x3abc1ed6	0.0014352452
28	0xbc8e396e	-0.017361369
29	0x3db94f81	0.09048367
30	0x3b6dfe6c	0.0036314977
31	0xbd7085ca	-0.05872134
32	0xa32c9443	-9.355534e-18
33	0xbd12a476	-0.035801373
34	0xbd00459a	-0.031316377
35	0xbd2e454c	-0.042546555
36	0xbd8de456	-0.06928317
37	0x3d9f5a09	0.07780845
38	0xbc1b1c75	-0.009467234
39	0x3c05b540	0.008160889
40	0x3d1de8cb	0.038552087
41	0xbd506ae0	-0.050883174
42	0xbd5198f2	-0.05117125
43	0x3d82e113	0.06390586
44	0x3d8e2bc9	0.06941945
45	0x3d509a95	0.05092867
46	0x3d05b9b9	0.032647822
47	0x3db35cde	0.087579474
48	0x3d9c28d7	0.07624977
49	0x3d9898c9	0.074510165
50	0xbc226f06	-0.009914165
51	0xbda094dd	-0.078408934
52	0x3d9167e3	0.07099893
53	0xbd816d9d	-0.06319735
54	0x3d4090bb	0.047013026
55	0xbd304385	-0.04303314
56	0x3c9d58f9	0.019207465
57	0xbc9e3489	-0.01931216
58	0x3d9b970a	0.07597168
59	0x3d56bbd9	0.05242524
60	0x3d746b28	0.059672505
61	0xbd19a187	-0.03750756
62	0x3d9d8788	0.07691866
63	0x3b4a9085	0.0030908894
64	0x801ae213	-2.468823e-39
65	0x3d1e2745	0.03861167
66	0xbcf38018	-0.029724166
67	0x3cd3249e	0.025774296
68	0x3d9ffbc6	0.07811694
69	0xbd8c4ba2	-0.06850363
70	0x3cdfe9f7	0.027333243
71	0x3c3b1e19	0.01142075
72	0x3d5065c8	0.050878316
73	0xbda397f8	-0.0798797
74	0xbd495b27	-0.049159195
75	0xbce321d8	-0.027726099
76	0xbdca8730	-0.09889066
77	0x3d165ad2	0.036707707
78	0x3d667a5b	0.05626903
79	0x3c9d0d97	0.01917152
80	0x3dda2011	0.106506474
81	0x3d7e05f0	0.06201738
82	0xbc173607	-0.00922919
83	0xbd43113d	-0.04762386
84	0xbd457b02	-0.048213013
85	0x3cee1c42	0.029066209
86	0xbd856c01	-0.06514741
87	0x3d5aa6f5	0.05338188
88	0xbceb5746	-0.028728139
89	0x3da59561	0.080851324
90	0x3da93735	0.08262483
91	0xbc54c9b2	-0.012987541
92	0x3c02d250	0.007984713
93	0xbb27222b	-0.0025502543
94	0x8047e502	-6.602473e-39
95	0x3d9234a6	0.07138948
96	0x3aa60040	0.001266487
97	0x3da075cc	0.07834968
98	0xbd9155a7	-0.07096415
99	0xbcee82f8	-0.029115185
100	0x3cadbcd0	0.021208197
101	0x3d205648	0.039144784
102	0x3d4e2200	0.050325394
103	0x3da26166	0.079287335
104	0x3d537c90	0.051632464
105	0x3db1c64a	0.08680399
106	0x3d12f9e4	0.035882846
107	0x3d1903c4	0.037357107
108	0x3d3bd578	0.045857877
109	0x3dbb1704	0.09135249
110	0x3d97ce14	0.07412353
111	0x3da62626	0.08112745
112	0x3d5cebfc	0.05393599
113	0xbcbe1e64	-0.02320785
114	0x3d22a6dc	0.03970991
115	0x3d90e3a2	0.070746675
116	0x3c21f230	0.009884402
117	0xbd10e7e0	-0.035377383
118	0xbd7eb289	-0.062181983
119	0xbd7bfb71	-0.06151909
120	0xbdce67df	-0.100784056
121	0xbdbf5ee0	-0.09344268
122	0xbd504ca4	-0.05085434
123	0xbc53ea10	-0.012934223
124	0x3d2a475c	0.04157196
125	0x3d65a30c	0.056063697
126	0x3da3c39e	0.079962954
127	0x3d15f034	0.03660603
128	0xbd614c26	-0.05500426
129	0xbd63ff77	-0.055663552
130	0x3c3fc7e0	0.011705369
131	0xbd969a05	-0.07353596
132	0x3d4ef1e8	0.05052367
133	0xbd98aae9	-0.074544735
134	0x3bdbce60	0.0067079514
135	0x3c5a5918	0.013326906
136	0xbd53254a	-0.051549233
137	0xbd9c6ca1	-0.07637907
138	0x3b3fb7a0	0.0029253736
139	0x3c6afcc8	0.014342494
140	0x3d9491d8	0.0725438
141	0xbbc87e20	-0.006118551
142	0xbdcb4a90	-0.09926331
143	0x3c6dce30	0.014514491
144	0xbb853ec0	-0.0040663183
145	0xbd899a5a	-0.06718893
146	0x3cde1ac0	0.027112365
147	0xbdbd9605	-0.092571296
148	0x3d22a25c	0.03970562
149	0xbc73cbb8	-0.014880113
150	0xbc8d5df8	-0.017256722
151	0x3d483064	0.048874274
152	0xbd1d46f0	-0.03839773
153	0xbda80d26	-0.08205633
154	0x3d1b3a54	0.037897423
155	0xbd0819ea	-0.03322784
156	0xbcda968c	-0.026683114
157	0xbce89ce4	-0.028395124
158	0x3cf028a0	0.029316247
159	0xbd8fa1eb	-0.07013305
160	0x3dab1096	0.08352773
161	0xbd3e47e2	-0.04645527
162	0x3dbed392	0.093176976
163	0xbd041336	-0.032244883
164	0xbd2c4bdd	-0.042064536
165	0xbdb64155	-0.0889918
166	0xbd371ea5	-0.04470696
167	0x3da788b6	0.081803724
168	0xbc86c940	-0.016453385
169	0xbd20d2ea	-0.039263643
170	0xbd8409c0	-0.06447172
171	0xbcd0c8a4	-0.025486298
172	0x3c1702e8	0.0092170015
173	0xbdae8efb	-0.08523365
174	0x3c0a8a90	0.008455887
175	0x3d3fe218	0.04684648
176	0x3dc18984	0.09450057
177	0xbcd42ca0	-0.025900185
178	0xbdbd8cfd	-0.09255407
179	0x3cc40960	0.023930252
180	0xbcfc5d0c	-0.030806087
181	0x3d67d614	0.056600645
182	0x3da96e9c	0.0827305
183	0x3cc34568	0.023836806
184	0xbdced68d	-0.10099516
185	0x3d0ea07c	0.03482102
186	0xbdbac5b4	-0.0911974
187	0xbb88df10	-0.0041769817
188	0x3d713614	0.058889464
189	0xbc6ec4a8	-0.014573254
190	0xbd243a8c	-0.040094897
191	0x3dab0f38	0.08352512
192	0x803e8226	-5.740489e-39
193	0x3daeff1e	0.085447535
194	0xbd2e6d5d	-0.042584766
195	0x3d19edbc	0.037580237
196	0xbdb01445	-0.08597616
197	0x3c4606f1	0.012086616
198	0xbd999152	-0.07498421
199	0x3d253503	0.04033376
200	0x3cc32e33	0.02382574
201	0xb9e6eec7	-0.00044046922
202	0xbcd5c3f3	-0.026094412
203	0x3d34cb88	0.044139415
204	0xbd9712a1	-0.073766
205	0x3b0881c4	0.00208293
206	0xbd2606f0	-0.04053396
207	0x3bd3d952	0.0064651156
208	0xbdba202f	-0.0908817
209	0xbd8bfbd3	-0.06835141
210	0xbd0adc2d	-0.033901382
211	0x3bf2966c	0.0074031856
212	0x3cc115d1	0.023569973
213	0x3d0369b7	0.03208324
214	0xbdcaf7d6	-0.09910552
215	0xbd3443ec	-0.044010088
216	0x37d7bf20	2.5718997e-05
217	0xbd5553eb	-0.052081984
218	0xbd1464d5	-0.036228973
219	0x3d969151	0.07351936
220	0x3d9230ad	0.071381904
221	0x3d5a0c00	0.0532341
222	0x3ce40748	0.027835503
223	0xbc8ac4ad	-0.016939485
224	0x11c0b8e9	3.0406218e-28
225	0xbc5cd8e7	-0.013479448
226	0xbc9145e1	-0.017733516
227	0xbda54585	-0.080699004
228	0x3dc919a6	0.09819345
229	0xbb394197	-0.0028267854
230	0xbccf6d4d	-0.025320673
231	0xb736596d	-1.0868866e-05
232	0xa9459568	-4.3872376e-14
233	0x3d6528b2	0.055947013
234	0xbd360211	-0.044435564
235	0x3d9198f0	0.07109249
236	0xbc130d55	-0.008975347
237	0x8ba773f5	-6.450053e-32
238	0xbdaa25f8	-0.08308023
239	0xbcd50fb0	-0.026008457
240	0xbd3fb78a	-0.046805896
241	0x3d8fe173	0.07025423
242	0x3cb14cae	0.021643009
243	0x3ca39245	0.019967208
244	0xbdc1a542	-0.094553486
245	0x3d653ebc	0.05596803
246	0x3d9e0262	0.07715298
247	0x3d793b99	0.060847852
248	0xbd6bc9da	-0.057565548
249	0x3da5698b	0.08076771
250	0xbd1537cf	-0.036430176
251	0x3d39de82	0.045378216
252	0xbd53e574	-0.051732495
253	0xbd29e443	-0.041477453
254	0xbc07377c	-0.008252975
255	0xbbb2b3bb	-0.0054535544

fc3.bias f4 [24]
0	0x3d525004	0.05134584
1	0x3c7d04b9	0.0154430205
2	0x3e5162cb	0.20447843
3	0xbd0ceeaf	-0.034407314
4	0xbdf12011	-0.11773694
5	0xbdc4a28e	-0.09601317
6	0x3da4d729	0.08048851
7	0x3e52647e	0.20546147
8	0xbddfca2d	-0.10927234
9	0x3dc06b24	0.093954355
10	0xbd9c8eb6	-0.076444075
11	0xbd40a541	-0.0470326
12	0xbd57d6c6	-0.05269506
13	0xbb5f79c0	-0.0034099668
14	0x3d253910	0.040337622
15	0xbba7a0e5	-0.0051156157
16	0xbd2a694a	-0.041604318
17	0x3dad1d69	0.08452875
18	0x3e11e321	0.14246799
19	0x3e5e4bbd	0.2170858
20	0xbe2373c9	-0.15962137
21	0xbe5b9dec	-0.21446961
22	0x3e0f7f51	0.14013411
23	0xbe0f8b2b	-0.14017932

fc3.weight_g f4 [24, 1]
0	0x3f082d8f	0.53194517
1	0x3f2e8887	0.68177074
2	0x3f3c6e64	0.7360594
3	0x3f1cf147	0.6130566
4	0x3f23d833	0.6400177
5	0x3f030e9e	0.5119418
6	0x3f2769f1	0.6539603
7	0x3f16f380	0.589653
8	0x3f1f7e9b	0.6230256
9	0x3f34c814	0.70617795
10	0x3f107e66	0.5644287
11	0x3f245490	0.6419153
12	0x3f2a1ad3	0.6644718
13	0x3f1891ac	0.5959728
14	0x3f2b4c2c	0.66913104
15	0x3f27cc14	0.65545774
16	0x3f180fe3	0.5939924
17	0x3f0534ae	0.5203351
18	0x3f1858dc	0.5951059
19	0x3f1df5b7	0.61703056
20	0x3f117dad	0.5683239
21	0x3f1e7d9a	0.619104
22	0x3f120dcc	0.570523
23	0x3f27a0c3	0.6547968

fc3.weight_v f4 [24, 48]
0	0xbdfc63e8	-0.12323743
1	0x3cbb86a0	0.022891343
2	0xbc55e5c0	-0.013055265
3	0x3d3176c0	0.04332614
4	0x3d8b1a5e	0.067921385
5	0xbe04ddaf	-0.1297519
6	0x3db22b3e	0.08699654
7	0xbdef8f8d	-0.11697302
8	0x3da31904	0.07963756
9	0x3b747b00	0.003730476
10	0xbd2b289c	-0.041786775
11	0x3d8cfea4	0.06884506
12	0x3e125ccc	0.14293212
13	0xbd18cbaa	-0.037303604
14	0x3d38d73c	0.04512714
15	0xbdb5dce2	-0.08880021
16	0x3ded2368	0.11579019
17	0xbc4f7040	-0.01266104
18	0xbd1bf06a	-0.038071074
19	0x3d6c9f24	0.057768956
20	0xbc1eeac0	-0.009699523
21	0xbdc23f0b	-0.09484681
22	0x3d4970b0	0.049179733
23	0x3da280b8	0.079347074
24	0x3d761488	0.060078174
25	0xbdeb95e2	-0.11503197
26	0xbd5dd062	-0.054153807
27	0x3dac5b22	0.0841582
28	0x3d39fa48	0.045404702
29	0x3da54544	0.08069852
30	0x3d585514	0.05281551
31	0xbd33081e	-0.043708913
32	0xbe00ea68	-0.12589419
33	0xbdcdede6	-0.10055141
34	0x3c73fdc0	0.014892042
35	0xbdccad91	-0.09994043
36	0xbd97d11c	-0.07412931
37	0xbe0245f3	-0.12721996
38	0xbd0bf96c	-0.034173414
39	0xbdf2a87d	-0.11848543
40	0x3d1b5a10	0.037927687
41	0x3e0484d2	0.12941292
42	0x3cb62d10	0.022238284
43	0x3bf111e0	0.007356867
44	0x3c1725a0	0.009225279
45	0xbd64d71a	-0.0558692
46	0xbda6c3a9	-0.08142788
47	0xbafb3080	-0.0019164234
48	0xbc86a52f	-0.016436188
49	0xbdf3f51f	-0.119119875
50	0xbdb20e8e	-0.08694182
51	0xbdd3d940	-0.103441715
52	0xbc72f608	-0.014829166
53	0xbd1a4f0b	-0.037673037
54	0xbe08c9cf	-0.13358234
55	0x3d1cb79b	0.038261037
56	0x3dc16a6a	0.09444125
57	0xbddd5a49	-0.10808236
58	0x3df9a70f	0.12190067
59	0xbd814719	-0.06312389
60	0xbdc00905	-0.0937672
61	0x3dffe63f	0.12495088
62	0x3e3fb34d	0.18720742
63	0x3e0e6f2a	0.13909593
64	0x3dc83d77	0.097773485
65	0x3c29287a	0.010324592
66	0xbd8b8a94	-0.06813541
67	0x3de5af0c	0.11215028
68	0xbd8173eb	-0.06320938
69	0x3db87777	0.09007161
70	0xbddb487f	-0.10707187
71	0xbe16763f	-0.14693545
72	0x3de75e82	0.11297323
73	0xbd98b199	-0.07455749
74	0xbdc37c8f	-0.09545242
75	0xbcb9d7c6	-0.022685897
76	0x3d58ec51	0.052959744
77	0xbd836f24	-0.06417683
78	0x3bea2d06	0.0071464805
79	0xbe0b0999	-0.1357788
80	0x3d7ececf	0.062208947
81	0x3e05d82c	0.13070744
82	0xbde26b34	-0.110556036
83	0x3d9cd22b	0.07657274
84	0x3d0b4c5d	0.034008373
85	0x3ceebcd5	0.029142777
86	0x3e007931	0.12546231
87	0x3c3c6d4b	0.011500667
88	0xbd63cf41	-0.055617575
89	0xbd25f118	-0.040513128
90	0xbdef2e44	-0.11678746
91	0xbe04ee8f	-0.12981628
92	0x3ccac563	0.024752324
93	0x3d85a7f2	0.06526174
94	0xbdcd1da3	-0.100154184
95	0x3e42fc1e	0.19041488
96	0xbd74dc68	-0.05978051
97	0xbb1c9d11	-0.002389733
98	0xbdf65514	-0.12027946
99	0x3733245c	1.0677697e-05
100	0x3c969f21	0.018386425
101	0x803421d7	-4.787585e-39
102	0xbd02a31e	-0.031893842
103	0xbc2e86bb	-0.010652239
104	0xbda97fa7	-0.08276301
105	0xbd2b17bd	-0.041770685
106	0x0002161b	1.91601e-40
107	0xbd009716	-0.031394087
108	0x3d4c06f3	0.049811315
109	0x000e1890	1.294508e-39
110	0xbd8ebc78	-0.06969541
111	0x3e222f9f	0.15838479
112	0x3d81bb64	0.0633457
113	0xbda24503	-0.07923319
114	0xb133c56b	-2.6160147e-09
115	0xbd9ed0a5	-0.077546395
116	0x3d42bed9	0.047545288
117	0x002b11ed	3.955357e-39
118	0x3d453430	0.048145473
119	0xbca1783c	-0.019710653
120	0xbd3f86c9	-0.0467594
121	0xbd34296a	-0.043984808
122	0xb233f08b	-1.0473864e-08
123	0x0002f9f4	2.73337e-40
124	0x001cb7cf	2.637332e-39
125	0x3e37a197	0.17932735
126	0xbcf50224	-0.029908247
127	0xbd5ea5db	-0.05435739
128	0xbdf1027b	-0.11768051
129	0x3dd9f81d	0.10643027
130	0xbda67984	-0.08128646
131	0x3db2b221	0.08725382
132	0xbdf2a471	-0.11847771
133	0x3e07b354	0.13252002
134	0x3e0f91e4	0.14020497
135	0x3dc35b1a	0.095388606
136	0xbd73b2e6	-0.059496783
137	0xbcbd1472	-0.023081038
138	0xbd28cda2	-0.04121173
139	0x3cfe60ab	0.031051954
140	0x3d8ecfdd	0.069732405
141	0x3e0ee9e1	0.13956405
142	0x3aed812d	0.0018120162
143	0x3dc7e5a0	0.09760594
144	0xbd8c3838	-0.068466604
145	0x8035bd67	-4.935226e-39
146	0xbd8e4e2e	-0.06948505
147	0x33b13c69	8.253193e-08
148	0x3ae9fe6d	0.0017852314
149	0xbd5c8461	-0.053837184
150	0x3d15238c	0.036410853
151	0x007e4fc4	1.1599887e-38
152	0xbda29d64	-0.07940176
153	0xbe0d56ea	-0.13802686
154	0xbdb09600	-0.0862236
155	0xbc8f0167	-0.017456723
156	0x9c09bcac	-4.557335e-22
157	0xbd85f68e	-0.06541167
158	0x3e10ea64	0.14151913
159	0x3cd027da	0.025409628
160	0xbde1ac39	-0.11019177
161	0xbc603216	-0.013683816
162	0xbdace74b	-0.08442553
163	0x3d423534	0.04741402
164	0x80456e3e	-6.376197e-39
165	0xbd16b186	-0.036790393
166	0x3e04becc	0.12963408
167	0xbdda6b87	-0.106650405
168	0xbdc4165f	-0.095745794
169	0x39c70096	0.00037956674
170	0x003c35aa	5.529381e-39
171	0xbd9469f1	-0.07246769
172	0xbd2184fe	-0.03943347
173	0xbd80f358	-0.06296414
174	0xbdf67f27	-0.12035971
175	0x3d1ad894	0.0378042
176	0xbdab071a	-0.08350964
177	0xbdacbaf5	-0.08434097
178	0x3d84f163	0.06491353
179	0x3e1291c6	0.1431342
180	0xbdc06158	-0.09393567
181	0x3c58b4b8	0.01322668
182	0x3d67243f	0.05643105
183	0xbdf68776	-0.12037556
184	0x3e04e799	0.12978972
185	0xbb091fbd	-0.0020923459
186	0xbd495793	-0.049155783
187	0x3d5fcccd	0.054638673
188	0x3ccada3d	0.024762267
189	0xbdbbff31	-0.09179533
190	0xbbd529e9	-0.00650524
191	0xbd8358e5	-0.0641344
192	0xbd9f996f	-0.07792937
193	0x34c9e173	3.7603203e-07
194	0xbd0685f1	-0.03284258
195	0x3d623b4e	0.05523234
196	0xbe3f857f	-0.18703268
197	0xbd34ecea	-0.04417125
198	0xbd93ef04	-0.07223323
199	0xbd0fd011	-0.035110537
200	0x3dd2533c	0.10269782
201	0x3d86cb36	0.06581728
202	0xbd332827	-0.043739464
203	0xbd04e189	-0.03244165
204	0xbcd162c6	-0.025559794
205	0x3d27a57c	0.040929303
206	0xbdcfa5d4	-0.10139051
207	0xbe1f77d1	-0.1557305
208	0xbd28a454	-0.04117234
209	0xbda53afd	-0.08067892
210	0x1a39b055	3.8399543e-23
211	0x3df12ca3	0.11776092
212	0x001124db	1.574425e-39
213	0x3cee7dc9	0.029112713
214	0x3d0c78e8	0.034294993
215	0x0016dc91	2.099505e-39
216	0xbd2aed09	-0.04172996
217	0xbd716daa	-0.058942474
218	0x80241d0c	-3.316498e-39
219	0x00197688	2.338408e-39
220	0x36ceece5	6.1668566e-06
221	0xbe1007f3	-0.14065532
222	0x3e0d9f10	0.13830209
223	0x3d613713	0.054984163
224	0xbd6eb14e	-0.05827456
225	0x3d79fc1e	0.061031453
226	0xbe001cdf	-0.12511013
227	0xbc8c110c	-0.017097972
228	0x3cad0ebf	0.021125196
229	0xbde64d6d	-0.112452365
230	0x3d3b65fb	0.045751553
231	0xbcbcd383	-0.023050075
232	0x3dccfa57	0.10008686
233	0x3b98aa4f	0.0046589742
234	0x80576075	-8.02429e-39
235	0x3a2e1f09	0.0006642198
236	0xbd71e626	-0.059057377
237	0x3d116a0c	0.035501525
238	0xbdf5ad5c	-0.11995956
239	0xbd99c9ad	-0.0750917
240	0xbd4a563a	-0.04939864
241	0xbd62d41e	-0.055378072
242	0x3dd25c42	0.10271503
243	0x3d0c1bdc	0.034206256
244	0x3d82de00	0.063899994
245	0x3cc42bb8	0.023946628
246	0xbdae241a	-0.085029796
247	0x3dd67562	0.10471608
248	0x3c7964d0	0.0152217895
249	0x3df90ed8	0.12161034
250	0xbc49ba10	-0.012312427
251	0x3ccfe7e8	0.025379136
252	0x3d542048	0.0517886
253	0xbc5acb90	-0.013354197
254	0x3df6a450	0.12043059
255	0xbd2c285c	-0.042030677

fc4.weight f4 [2, 24]
0	0xbc249750	-0.010045841
1	0xbdb81153	-0.08987679
2	0xbe4baefc	-0.1989097
3	0xbe0c8327	-0.13721906
4	0x3db52b8f	0.08846199
5	0x3e0e563e	0.13900086
6	0x3dca1a63	0.09868314
7	0xbda99d25	-0.08281926
8	0x3e8bd832	0.2731338
9	0xbe112001	-0.14172365
10	0x3d0661d4	0.03280814
11	0x3d2d075b	0.042243343
12	0x3d767eef	0.060179647
13	0x3e02d26e	0.12775585
14	0xbdb1591c	-0.086595744
15	0xbe04afb2	-0.12957647
16	0xbc6a99d0	-0.014318898
17	0xbe38c8fc	-0.1804542
18	0xbd689804	-0.0567856
19	0xbdc7addf	-0.0974996
20	0x3e251b69	0.16123737
21	0x3e756b60	0.23966742
22	0xbe36f3cb	-0.17866437
23	0x3e3ed435	0.18635638
24	0x3e499652	0.19686249
25	0xbd934ef0	-0.071927905
26	0x3c27342c	0.01020531
27	0xbe68bcba	-0.22728243
28	0xbb6a65f8	-0.0035766345
29	0xbde82177	-0.11334508
30	0x3e02cf65	0.12774427
31	0x3e4dbd62	0.20091775
32	0xbdaf946b	-0.0857323
33	0xbcbaf270	-0.022820681
34	0x3e251552	0.16121414
35	0xbd9f01de	-0.07764028
36	0xbcaf37fb	-0.021388998
37	0x3e37c020	0.17944384
38	0x3d8184b8	0.06324142
39	0xbdd4a863	-0.1038368
40	0x3d1569e0	0.036477923
41	0xbd9f2303	-0.0777035
42	0x3db2e8d8	0.08735818
43	0x3dd75b88	0.10515505
44	0xbdcc2452	-0.09967865
45	0xbe71450e	-0.23561499
46	0xbe0faa19	-0.14029731
47	0x3d343d41	0.04400373

fc4.bias f4 [2]
0	0xbd206c15	-0.039165575
1	0xbdf141e9	-0.117801495

exp_avg f4 [96]
0	0x00000000	0.0
1	0xb947401a	-0.00019001999
2	0x00000000	0.0
3	0x00000000	0.0
4	0xb9fbe6ed	-0.00048046504
5	0x00000000	0.0
6	0x00000000	0.0
7	0x39a095b7	0.00030629124
8	0xb9db6418	-0.0004184551
9	0xb5a8c2dc	-1.2573687e-06
10	0x3737b239	1.0949146e-05
11	0xb81a1a8d	-3.674119e-05
12	0xb8e9e726	-0.000111533605
13	0x00000000	0.0
14	0x3a85b15c	0.0010199952
15	0x394bae98	0.0001942463
16	0xbbad13fd	-0.005281924
17	0xb9bf3508	-0.0003646987
18	0x3ad03785	0.0015885687
19	0xba6d7439	-0.0009058151
20	0xb920b77a	-0.0001532714
21	0x3a2f0c38	0.0006677541
22	0x392c9200	0.00016457587
23	0xb8ed6f6e	-0.00011321796
24	0x3799855d	1.8301123e-05
25	0xba969637	-0.0011488859
26	0x00000000	0.0
27	0x39bcd9ac	0.00036020332
28	0xb89a059c	-7.344337e-05
29	0xb9b01b3e	-0.00033589633
30	0x3ade4362	0.0016957338
31	0x00000000	0.0
32	0x00000000	0.0
33	0x3a5a51a6	0.00083282066
34	0x37c7196c	2.3734487e-05
35	0xb9f21f95	-0.00046181367
36	0x397094ab	0.00022943567
37	0xbb16ede1	-0.002302997
38	0xb951ed34	-0.00020020158
39	0x00000000	0.0
40	0x00000000	0.0
41	0x3b151164	0.0022745961
42	0xb82ffb80	-4.195748e-05
43	0x00000000	0.0
44	0x00000000	0.0
45	0x382edc71	4.1690135e-05
46	0x38754b42	5.848264e-05
47	0xba7292ac	-0.0009253423
48	0x35a3408c	1.2163232e-06
49	0x00000000	0.0
50	0x3a32d580	0.0006821975
51	0xb8802061	-6.109547e-05
52	0x3a2a301f	0.0006492156
53	0xb94b00da	-0.00019359906
54	0x3a09dd99	0.0005259156
55	0x00000000	0.0
56	0xbb4bee73	-0.0031117469
57	0x00000000	0.0
58	0x38b2139b	8.491353e-05
59	0xb8bd502b	-9.027155e-05
60	0x00000000	0.0
61	0xb8ae6669	-8.316042e-05
62	0x00000000	0.0
63	0x00000000	0.0
64	0x00000000	0.0
65	0x38182128	3.6270503e-05
66	0xb99a82ea	-0.00029470708
67	0x00000000	0.0
68	0xba6e8611	-0.0009098957
69	0xb91b0810	-0.00014784955
70	0xba6bb2a3	-0.00089911575
71	0x00000000	0.0
72	0x00000000	0.0
73	0xbac99bae	-0.0015381479
74	0x3a82303a	0.0009932586
75	0x380c0019	3.3378692e-05
76	0xba2e68c5	-0.0006653185
77	0xbafde56a	-0.0019370739
78	0x3acc575a	0.0015589998
79	0x00000000	0.0
80	0xba3ef6fa	-0.0007284727
81	0x00000000	0.0
82	0x39cb0cfe	0.00038728857
83	0xb9b2a321	-0.00034072346
84	0x3759f570	1.2991353e-05
85	0x390f4108	0.00013661769
86	0x00000000	0.0
87	0x00000000	0.0
88	0x00000000	0.0
89	0x00000000	0.0
90	0xb9f3cd4c	-0.0004650153
91	0x36320ba8	2.6530852e-06
92	0x00000000	0.0
93	0x00000000	0.0
94	0x00000000	0.0
95	0x00000000	0.0

exp_avg_sq f4 [96]
0	0x00000000	0.0
1	0x34802b51	2.3873375e-07
2	0x00000000	0.0
3	0x00000000	0.0
4	0x356d34fe	8.8366494e-07
5	0x00000000	0.0
6	0x00000000	0.0
7	0x359896bd	1.1368753e-06
8	0x3551c264	7.814144e-07
9	0x2f6dd8d3	2.1632056e-10
10	0x316c6770	3.4401317e-09
11	0x35b2d109	1.3322871e-06
12	0x35cda14f	1.5320637e-06
13	0x00000000	0.0
14	0x370e5340	8.483243e-06
15	0x35b5cc05	1.3544928e-06
16	0x39368b8d	0.0001740886
17	0x34baa999	3.4768598e-07
18	0x373c638d	1.1228852e-05
19	0x36c006bc	5.72283e-06
20	0x3503aec8	4.9055643e-07
21	0x35b8782e	1.3744045e-06
22	0x346787a8	2.1562903e-07
23	0x341a8099	1.4389151e-07
24	0x3205120e	7.745724e-09
25	0x3683c315	3.9268148e-06
26	0x00000000	0.0
27	0x351105db	5.402523e-07
28	0x34a051d6	2.9861866e-07
29	0x3606d1d1	2.0089685e-06
30	0x37c204d9	2.312886e-05
31	0x00000000	0.0
32	0x00000000	0.0
33	0x369811c0	4.5320194e-06
34	0x3294f013	1.733864e-08
35	0x383566ae	4.324939e-05
36	0x358f0cac	1.0658018e-06
37	0x37b60519	2.1698464e-05
38	0x3518c5d4	5.691229e-07
39	0x00000000	0.0
40	0x00000000	0.0
41	0x380202ea	3.099713e-05
42	0x326e8baf	1.3885184e-08
43	0x00000000	0.0
44	0x00000000	0.0
45	0x32d55cf1	2.4838728e-08
46	0x357d2772	9.4307245e-07
47	0x369cd806	4.6743107e-06
48	0x2d4a3f16	1.14963785e-11
49	0x00000000	0.0
50	0x36a270f6	4.8411266e-06
51	0x32c992a8	2.3466171e-08
52	0x36bfa5b9	5.7115362e-06
53	0x364bc808	3.036579e-06
54	0x367a1096	3.7262557e-06
55	0x00000000	0.0
56	0x38938ccd	7.0357324e-05
57	0x00000000	0.0
58	0x3557cc8f	8.0391413e-07
59	0x3416b023	1.4033917e-07
60	0x00000000	0.0
61	0x3608c4ef	2.038021e-06
62	0x00000000	0.0
63	0x00000000	0.0
64	0x00000000	0.0
65	0x36f45b29	7.282379e-06
66	0x3567d5a2	8.636508e-07
67	0x00000000	0.0
68	0x36ee26e5	7.0974806e-06
69	0x35dae6dd	1.6309456e-06
70	0x366c88c8	3.5246358e-06
71	0x00000000	0.0
72	0x00000000	0.0
73	0x37d50427	2.5393512e-05
74	0x36b483aa	5.3797457e-06
75	0x32771866	1.438284e-08
76	0x369ec2a9	4.7314284e-06
77	0x37baa5f6	2.225021e-05
78	0x37bfad19	2.284958e-05
79	0x00000000	0.0
80	0x368211ff	3.876397e-06
81	0x00000000	0.0
82	0x352a468d	6.34326e-07
83	0x35ce4e52	1.537099e-06
84	0x30fbf220	1.833147e-09
85	0x35c6ed0e	1.4821142e-06
86	0x00000000	0.0
87	0x00000000	0.0
88	0x00000000	0.0
89	0x00000000	0.0
90	0x363c5f61	2.80697e-06
91	0x2eee0215	1.0823357e-10
92	0x00000000	0.0
93	0x00000000	0.0
94	0x00000000	0.0
95	0x00000000	0.0

exp_avg f4 [96, 1]
0	0x00000000	0.0
1	0xb9a4ea52	-0.000314551
2	0x00000000	0.0
3	0x00000000	0.0
4	0xb995f851	-0.00028604505
5	0x00000000	0.0
6	0x00000000	0.0
7	0x3a97a830	0.001157051
8	0xbb739444	-0.003716723
9	0xb50c13ac	-5.218269e-07
10	0x36d25089	6.2678632e-06
11	0xb9bda0ee	-0.0003616879
12	0xb9cace32	-0.0003868207
13	0x00000000	0.0
14	0x3ab13495	0.0013519699
15	0x3ae83803	0.0017716888
16	0x3c15f74e	0.0091532
17	0xbb01fbbf	-0.001983389
18	0x3c8cb042	0.01717389
19	0x3a996343	0.0011702556
20	0xb9848681	-0.00025277215
21	0x3b120806	0.0022282614
22	0x3b4ba428	0.0031073187
23	0xb8d62ce1	-0.000102126745
24	0x372350e6	9.734393e-06
25	0xba9dfebe	-0.0012054069
26	0x00000000	0.0
27	0x3ae04083	0.001710907
28	0xba1a2bc6	-0.00058811565
29	0xbb83a212	-0.004017123
30	0x3bd09fa3	0.0063666864
31	0x00000000	0.0
32	0x00000000	0.0
33	0x3bd5e89a	0.0065279724
34	0x37a11542	1.9202595e-05
35	0x3a1c3176	0.0005958298
36	0x3b5d0fd2	0.0033731353
37	0xbba3f431	-0.005003475
38	0xbaff0e2f	-0.0019459183
39	0x00000000	0.0
40	0x00000000	0.0
41	0x3c5eb231	0.013592289
42	0xb9078da0	-0.00012927363
43	0x00000000	0.0
44	0x00000000	0.0
45	0x3830b2e5	4.212828e-05
46	0xba7e3498	-0.0009697168
47	0xbc0a3175	-0.008434643
48	0x35a4e4c5	1.2285533e-06
49	0x00000000	0.0
50	0x3bd8ac14	0.00661231
51	0xb9229ca9	-0.00015507884
52	0x3b9813e0	0.004641041
53	0xb98c3fd7	-0.00026750445
54	0x3b4d8644	0.0031360546
55	0x00000000	0.0
56	0xbabf833f	-0.0014611258
57	0x00000000	0.0
58	0xb98761f1	-0.0002582218
59	0xb815ba6e	-3.5697994e-05
60	0x00000000	0.0
61	0x3908fd06	0.0001306423
62	0x00000000	0.0
63	0x00000000	0.0
64	0x00000000	0.0
65	0xba7f7c3c	-0.00097459904
66	0xbb0265b7	-0.0019897053
67	0x00000000	0.0
68	0xba9d5b9a	-0.0012005449
69	0xbabbe674	-0.0014335648
70	0xbc0c641d	-0.008568791
71	0x00000000	0.0
72	0x00000000	0.0
73	0xbc573eaa	-0.013137499
74	0x3c1091a4	0.008823786
75	0x378b4eef	1.6606848e-05
76	0x3a51cd4c	0.0008003309
77	0x39965e3d	0.00028680442
78	0x3bb97344	0.0056594927
79	0x00000000	0.0
80	0xbad74f52	-0.0016426838
81	0x00000000	0.0
82	0x3aabaf08	0.0013098428
83	0xba1475f0	-0.0005663326
84	0xb62737f8	-2.4917517e-06
85	0xba29271a	-0.0006452665
86	0x00000000	0.0
87	0x00000000	0.0
88	0x00000000	0.0
89	0x00000000	0.0
90	0xbbc502de	-0.0060123047
91	0x35a5c319	1.2350239e-06
92	0x00000000	0.0
93	0x00000000	0.0
94	0x00000000	0.0
95	0x00000000	0.0

exp_avg_sq f4 [96, 1]
0	0x00000000	0.0
1	0x36a9bdc5	5.0586846e-06
2	0x00000000	0.0
3	0x00000000	0.0
4	0x37ffa921	3.0477126e-05
5	0x00000000	0.0
6	0x00000000	0.0
7	0x385e667c	5.302437e-05
8	0x3944115a	0.0001869848
9	0x2f8074bb	2.3366006e-10
10	0x309b439a	1.1296948e-09
11	0x345a281d	2.0317425e-07
12	0x35c47c35	1.4639287e-06
13	0x00000000	0.0
14	0x39eb4964	0.00044877373
15	0x3856fac5	5.1255123e-05
16	0x398aaf3a	0.00026451965
17	0x380dbc9e	3.3792683e-05
18	0x3b32c60f	0.0027278697
19	0x386467bd	5.445605e-05
20	0x34b12093	3.299252e-07
21	0x376c570c	1.4086963e-05
22	0x38842ba4	6.302379e-05
23	0x343fabe3	1.7850793e-07
24	0x31b2df8d	5.2058966e-09
25	0x37120515	8.703461e-06
26	0x00000000	0.0
27	0x37be16d9	2.2660404e-05
28	0x385f8dc0	5.3299358e-05
29	0x39e295e2	0.0004321775
30	0x3a92960d	0.0011183635
31	0x00000000	0.0
32	0x00000000	0.0
33	0x3a97d4a8	0.0011583762
34	0x320ddc40	8.257359e-09
35	0x38e2cbb1	0.0001081446
36	0x39d91b9c	0.00041410036
37	0x38849d40	6.3235406e-05
38	0x3914cc20	0.00014190422
39	0x00000000	0.0
40	0x00000000	0.0
41	0x3ae904a3	0.0017777871
42	0x33f0e366	1.12172344e-07
43	0x00000000	0.0
44	0x00000000	0.0
45	0x3313c3a8	3.4404053e-08
46	0x398b4984	0.0002656692
47	0x3a155752	0.00056969107
48	0x2dff960b	2.9056776e-11
49	0x00000000	0.0
50	0x3aaf28af	0.0013363565
51	0x33cf8ee2	9.665179e-08
52	0x3a9d8550	0.001201788
53	0x36b84ab2	5.492323e-06
54	0x39e954e4	0.00044504472
55	0x00000000	0.0
56	0x3911646d	0.00013865689
57	0x00000000	0.0
58	0x37b96878	2.2102366e-05
59	0x34526351	1.9593905e-07
60	0x00000000	0.0
61	0x3663e38a	3.395808e-06
62	0x00000000	0.0
63	0x00000000	0.0
64	0x00000000	0.0
65	0x383618cb	4.341527e-05
66	0x37fd1ff1	3.0174824e-05
67	0x00000000	0.0
68	0x378385bb	1.567869e-05
69	0x39bb87e3	0.00035768663
70	0x3a609d98	0.0008568405
71	0x00000000	0.0
72	0x00000000	0.0
73	0x3b6f1c2d	0.00364853
74	0x3a9e38e8	0.0012071403
75	0x31dad48e	6.3687997e-09
76	0x39143595	0.00014134341
77	0x39861edb	0.0002558146
78	0x3aa9a42b	0.0012942603
79	0x00000000	0.0
80	0x37c0285d	2.290698e-05
81	0x00000000	0.0
82	0x3736ac53	1.0888168e-05
83	0x3747e5a0	1.1914788e-05
84	0x3046a03d	7.225969e-10
85	0x37a10996	1.919716e-05
86	0x00000000	0.0
87	0x00000000	0.0
88	0x00000000	0.0
89	0x00000000	0.0
90	0x3a869766	0.0010268509
91	0x2ece441e	9.3798955e-11
92	0x00000000	0.0
93	0x00000000	0.0
94	0x00000000	0.0
95	0x00000000	0.0

exp_avg f4 [96, 3]
0	0x00000000	0.0
1	0x00000000	0.0
2	0x00000000	0.0
3	0xbadd3672	-0.0016877188
4	0xba8c1d3d	-0.0010689866
5	0xb985e46c	-0.00025537924
6	0x00000000	0.0
7	0x00000000	0.0
8	0x00000000	0.0
9	0x00000000	0.0
10	0x00000000	0.0
11	0x00000000	0.0
12	0xbb56136c	-0.0032665385
13	0xbb1eb128	-0.002421448
14	0xb9578e0c	-0.00020556914
15	0x00000000	0.0
16	0x00000000	0.0
17	0x00000000	0.0
18	0x00000000	0.0
19	0x00000000	0.0
20	0x00000000	0.0
21	0x3b73c638	0.0037197005
22	0x3b72e436	0.0037062294
23	0xb92ab33a	-0.0001627923
24	0xba3a669c	-0.0007110627
25	0xbb186726	-0.002325484
26	0x3aeb5e96	0.0017957266
27	0xb6f4c063	-7.2941634e-06
28	0xb73aaa8e	-1.1126174e-05
29	0x33072607	3.1466723e-08
30	0x385ed966	5.3131393e-05
31	0x388dc4b8	6.760046e-05
32	0xb6a2d08f	-4.8522556e-06
33	0x3b696444	0.0035612741
34	0x39b1e856	0.00033933175
35	0x391acb3a	0.00014762292
36	0xbbd439fa	-0.006476638
37	0xbac2974a	-0.0014846113
38	0xb9b25ea0	-0.00034021307
39	0x00000000	0.0
40	0x00000000	0.0
41	0x00000000	0.0
42	0x3bfae0ca	0.0076561915
43	0x3bf71b90	0.0075411275
44	0x3aaa06bf	0.0012971981
45	0x3b7df95b	0.0038753364
46	0x39fdcc22	0.0004840801
47	0xb9e4d329	-0.00043644875
48	0xbd1741dd	-0.036928046
49	0xbcb6cba9	-0.02231391
50	0x3ba6400b	0.0050735525
51	0xbad587fc	-0.0016291137
52	0xbb289502	-0.0025723581
53	0x3a405743	0.0007337222
54	0x3b8dcdab	0.004327496
55	0xbb5052f0	-0.0031787716
56	0xbb109a4c	-0.0022064624
57	0xbbe194fd	-0.006884216
58	0xbb9c5c5e	-0.004771753
59	0x3a147e20	0.0005664546
60	0x39f878e4	0.00047392317
61	0x397317b8	0.00023183122
62	0x38de8414	0.000106103864
63	0x3c1734ad	0.0092288675
64	0x3b5bf2c4	0.0033561448
65	0x3accd42f	0.00156272
66	0x393700a6	0.00017452482
67	0x3ac96902	0.0015366378
68	0x377ae657	1.4954791e-05
69	0xb9830c66	-0.00024995505
70	0xb963bda8	-0.0002171906
71	0xb8c5e90f	-9.4371026e-05
72	0x38f11e64	0.00011497436
73	0x3909f447	0.00013156339
74	0x362e800d	2.6002556e-06
75	0xbc9a3c1a	-0.018827487
76	0xbc034312	-0.008011596
77	0x388facbc	6.850946e-05
78	0x00000000	0.0
79	0x00000000	0.0
80	0x00000000	0.0
81	0x3b5420d8	0.003236821
82	0x3b0ec4f5	0.0021784876
83	0xbab806b2	-0.0014040081
84	0xb9e9beb5	-0.0004458331
85	0xb90071b5	-0.0001224939
86	0x39e6bea7	0.00044011066
87	0xba804721	-0.0009786823
88	0xba58ccde	-0.00082702737
89	0xbb0c601e	-0.0021419595
90	0x3c41f94d	0.011839223
91	0x3c28535e	0.010273783
92	0xbbaaca71	-0.005212121
93	0x00000000	0.0
94	0x00000000	0.0
95	0x00000000	0.0
96	0x00000000	0.0
97	0x00000000	0.0
98	0x00000000	0.0
99	0x3a2c9fe2	0.00065851037
100	0x3b959b02	0.0045655975
101	0xbb0d9e30	-0.002160918
102	0x391c38bc	0.00014898455
103	0x39254b84	0.00015763758
104	0x00000b8a	4.14e-42
105	0x3c4fa2bb	0.012673075
106	0x3b10c987	0.0022092776
107	0xbad6fc22	-0.0016402046
108	0xb9782c8e	-0.00023667721
109	0x3a733812	0.00092780695
110	0xb9abe67c	-0.00032787386
111	0xbd014cbb	-0.031567317
112	0xbc4cef8d	-0.012508285
113	0x3aa7081b	0.0012743504
114	0xba008cdf	-0.0004903804
115	0xb8c746f0	-9.5022726e-05
116	0x3a432a65	0.0007444977
117	0x00000000	0.0
118	0x00000000	0.0
119	0x00000000	0.0
120	0x00000000	0.0
121	0x00000000	0.0
122	0x00000000	0.0
123	0x3c8c6b88	0.017141119
124	0x3b909da8	0.0044133253
125	0xbc0fdca5	-0.008780633
126	0xba2966aa	-0.00064621365
127	0xb925f93b	-0.00015828472
128	0x38697cec	5.566787e-05
129	0x00000000	0.0
130	0x00000000	0.0
131	0x00000000	0.0
132	0x00000000	0.0
133	0x00000000	0.0
134	0x00000000	0.0
135	0x3990607d	0.0002753771
136	0x3989abf2	0.00026258786
137	0x37c52232	2.3500153e-05
138	0xb973730d	-0.00023217146
139	0xb976362f	-0.00023480573
140	0xba0da792	-0.0005403693
141	0xbc00d7e9	-0.007863977
142	0x39fb7cc4	0.00047967408
143	0x3b825cfe	0.0039783707
144	0x36eb0b04	7.004828e-06
145	0x3734afaa	1.0769736e-05
146	0xb4a81222	-3.1305632e-07
147	0x00000000	0.0
148	0x00000000	0.0
149	0x00000000	0.0
150	0x3a2f22ae	0.0006680888
151	0x3b9b4af5	0.00473916
152	0xbb0a438b	-0.0021097388
153	0xba9fde8e	-0.0012197064
154	0xb97d01bc	-0.00024128606
155	0x38a6a299	7.945783e-05
156	0x3a4b70cd	0.0007760644
157	0x3b36b5bb	0.0027879316
158	0xbb1f6121	-0.0024319368
159	0x3b11baca	0.002223658
160	0x39aff48e	0.00033560809
161	0xb969488c	-0.00022247637
162	0x3b1f5d43	0.0024317063
163	0x3b3ac0ac	0.002849619
164	0xbb143151	-0.0022612403
165	0x00000000	0.0
166	0x00000000	0.0
167	0x00000000	0.0
168	0xbceb84bf	-0.028749822
169	0xbca4c348	-0.020112649
170	0xbb472132	-0.0030384776
171	0x00000000	0.0
172	0x00000000	0.0
173	0x00000000	0.0
174	0xbaa68444	-0.0012704213
175	0xb9537afa	-0.0002016834
176	0x3978c560	0.00023724651
177	0xb9810b52	-0.00024613232
178	0xb7524498	-1.2532946e-05
179	0xb7faa474	-2.9878902e-05
180	0x00000000	0.0
181	0x00000000	0.0
182	0x00000000	0.0
183	0x3b2fde9a	0.0026835562
184	0x3a432788	0.000744455
185	0xb8b69406	-8.706008e-05
186	0x00000000	0.0
187	0x00000000	0.0
188	0x00000000	0.0
189	0x00000000	0.0
190	0x00000000	0.0
191	0x00000000	0.0
192	0x00000000	0.0
193	0x00000000	0.0
194	0x00000000	0.0
195	0xbc0c808a	-0.008575568
196	0xbb395963	-0.0028282038
197	0xb98dada4	-0.00027022988
198	0xbb61d79b	-0.0034460786
199	0xb99a7551	-0.00029460576
200	0x38f00428	0.00011444866
201	0x00000000	0.0
202	0x00000000	0.0
203	0x00000000	0.0
204	0xbc861878	-0.01636909
205	0xbbed8df8	-0.00724959
206	0xb9e606d1	-0.00043874097
207	0xb972e49c	-0.00023164082
208	0xbaeee85a	-0.0018227205
209	0x3a2a5d80	0.0006498918
210	0xbaadebcb	-0.0013269124
211	0xb8d689a2	-0.00010229951
212	0x3b368f97	0.0027856582
213	0x00000000	0.0
214	0x00000000	0.0
215	0x00000000	0.0
216	0x00000000	0.0
217	0x00000000	0.0
218	0x00000000	0.0
219	0xbbea0c96	-0.0071426136
220	0x3b23ee8b	0.002501401
221	0xbac67a13	-0.0015142582
222	0x3b0024b7	0.0019553134
223	0x3b56f294	0.0032798396
224	0xbb978a84	-0.0046246666
225	0x39abb3c2	0.00032749592
226	0x39a023c9	0.0003054424
227	0x3540b9e8	7.1796103e-07
228	0xbb8236b4	-0.0039738063
229	0xbb211a96	-0.0024582497
230	0xb984a21a	-0.00025297777
231	0xbc8eb8fa	-0.017422188
232	0xbc3a24bd	-0.011361298
233	0xba3bc12f	-0.00071622705
234	0x3c340349	0.010987111
235	0x3c32d9db	0.010916199
236	0xbb84e585	-0.004055681
237	0x00000000	0.0
238	0x00000000	0.0
239	0x00000000	0.0
240	0xbc71853c	-0.014741238
241	0xbbb8445c	-0.0056233834
242	0x3a43350c	0.0007446564
243	0x00000000	0.0
244	0x00000000	0.0
245	0x00000000	0.0
246	0x3b8c10c1	0.004274458
247	0x3af5c6ee	0.0018751302
248	0xba8acdac	-0.001058986
249	0xbb03c636	-0.0020107157
250	0xba871d79	-0.0010308466
251	0xba2cc83a	-0.00065911154
252	0x38eb2440	0.00011212425
253	0x3901e702	0.00012388456
254	0x35e756cc	1.7236102e-06
255	0xba29b3d7	-0.00064736366
