Experimental_Models/Original_With_Small_Batch_v1.1.pt (torch_old, 892217 bytes, 33 tensors)

fc1.bias f4 [96]
0	0xbf01c518	-0.50691366
1	0xbe8ba359	-0.27273062
2	0x3e46e468	0.19423068
3	0x3eb11457	0.3458583
4	0xbe06d9c3	-0.13169007
5	0x3e890943	0.2676488
6	0x3ef1d7ec	0.47235048
7	0x3ebd341a	0.36953813
8	0x3e9154a2	0.28384882
9	0xbeb69709	-0.35662106
10	0xbf038fd2	-0.5139133
11	0x3ed360f8	0.4128492
12	0xbdc9f662	-0.09861447
13	0xbe82f2eb	-0.25575957
14	0xbe0921ce	-0.13391802
15	0xbed0ecae	-0.40805572
16	0xbf135fe0	-0.5756817
17	0x3ef3db04	0.47628033
18	0xbed7bbff	-0.42135617
19	0xbf1d09a6	-0.6134285
20	0x3e0e4e64	0.13897091
21	0xbecec9eb	-0.40388426
22	0x3ee5ff91	0.44921544
23	0xbe5a48e1	-0.21316864
24	0x3e9b7b80	0.3036766
25	0x3f113e05	0.5673526
26	0x3de82707	0.11335569
27	0x3e8b2605	0.27177444
28	0x3df4cdc0	0.11953306
29	0xbee2814e	-0.44239277
30	0x3e4528aa	0.19253793
31	0x3f13c54b	0.5772292
32	0x3ecd5465	0.4010345
33	0x3ed35309	0.41274288
34	0x3e90fe8e	0.2831921
35	0x3d739d00	0.0594759
36	0xbdf16e9e	-0.11788677
37	0x3e067e98	0.13134229
38	0x3eed5714	0.46355498
39	0xbdcb9be6	-0.09941845
40	0x3f25bafb	0.64738435
41	0xbf2225af	-0.6333875
42	0xbe1a5b96	-0.15074
43	0x3f03aaa6	0.51432264
44	0xbecdcc7a	-0.40195066
45	0x3c9d7970	0.019222945
46	0xbd6053db	-0.05476747
47	0xbe29cdb0	-0.1658237
48	0xbcf57000	-0.029960632
49	0x3f066265	0.5249389
50	0xbeead74a	-0.45867378
51	0xbebcd4ec	-0.36881196
52	0xbeb82356	-0.3596446
53	0xbe0b91af	-0.13629793
54	0xbd0db4e4	-0.03459634
55	0xbc943a7a	-0.01809429
56	0x3e9fee68	0.31236577
57	0xbe91d8b6	-0.2848565
58	0xbf07ec82	-0.5309526
59	0x3eec36a0	0.46135426
60	0x3ee36d64	0.44419396
61	0xbe0c9ba9	-0.13731255
62	0x3edd85f2	0.43266255
63	0xbe08e744	-0.13369471
64	0xbdd66374	-0.10468188
65	0xbef8f3db	-0.48623547
66	0x3e844b86	0.2583887
67	0xbec07652	-0.3759027
68	0xbad032eb	-0.0015884315
69	0xbeacce39	-0.33751085
70	0x3ecac76a	0.39605266
71	0xbea6ef8a	-0.3260463
72	0x3dd76895	0.10517994
73	0x3e02cca6	0.1277338
74	0xbf0e5e55	-0.5561269
75	0xbee6c54b	-0.45072398
76	0xbeace733	-0.3377014
77	0xbea4fa92	-0.3222242
78	0x3e8ab802	0.27093512
79	0xbe814132	-0.25245053
80	0x3de7e638	0.113232076
81	0xbe3037f1	-0.1720884
82	0x3e53a78a	0.2066938
83	0xbe9124cb	-0.28348383
84	0xbe4a9f3e	-0.19787309
85	0x3e9cd753	0.3063303
86	0xbe8fe404	-0.2810365
87	0x3f00b030	0.5026884
88	0x3eadf45e	0.339755
89	0xbf09cb56	-0.5382589
90	0xbeb35068	-0.35022283
91	0xbd1608b0	-0.03662938
92	0x3eeda3f5	0.46414152
93	0x3f0864f2	0.5327903
94	0xbe95c3cf	-0.29250953
95	0x3e634a04	0.22196203

fc1.weight_g f4 [96, 1]
0	0x3f43c867	0.76477665
1	0x3ecf202b	0.4045423
2	0x3f173a76	0.5907358
3	0x3f31e924	0.6949637
4	0x3e60f079	0.21966733
5	0x3f4cefb5	0.80053264
6	0x3f0ddc4c	0.5541427
7	0x3ede78ee	0.43451637
8	0x3f2bdc1f	0.67132753
9	0x3eea0dcb	0.45713648
10	0x3f053002	0.5202638
11	0x3e54b835	0.20773394
12	0x3f48fb19	0.78508145
13	0x3ee37c05	0.44430557
14	0x3f1231fd	0.57107526
15	0x3f3ae595	0.73006564
16	0x3f68a8cc	0.90882564
17	0x3eea06ef	0.45708415
18	0x3f1e1272	0.61746895
19	0x3f25f56e	0.6482762
20	0x3f072715	0.5279401
21	0x3f43e54e	0.76521766
22	0x3f08b4d6	0.53400934
23	0x3f275a51	0.65372187
24	0x3f409d42	0.75239956
25	0x3f18c214	0.5967114
26	0x3ea20528	0.3164456
27	0x3f35d7db	0.71032494
28	0x3f34f70a	0.7068945
29	0x3ef8ae20	0.48570347
30	0x3f1a263d	0.60214597
31	0x3f180baf	0.5939283
32	0x3e6822a6	0.22669467
33	0x3f390075	0.7226632
34	0x3f2ff352	0.6873065
35	0x3f0c772b	0.54869336
36	0x3f453482	0.77033246
37	0x3f0c766a	0.54868186
38	0x3ea7de49	0.32786778
39	0x3ee92ec6	0.45543498
40	0x3ebcfad3	0.36910114
41	0x3f3700f8	0.71485853
42	0x3f4a2b4e	0.7897233
43	0x3f3c1c25	0.73480445
44	0x3f11dbe4	0.5697615
45	0x3f386bf9	0.72039753
46	0x3f05ccfb	0.522659
47	0x3eabb466	0.3353607
48	0x3ec62f30	0.38707876
49	0x3f289487	0.65851635
50	0x3eab70b3	0.3348442
51	0x3ebcbe14	0.36863768
52	0x3f1c7f1e	0.61131465
53	0x3f3f5ff2	0.74755776
54	0x3f232915	0.6373456
55	0x3f322e14	0.6960156
56	0x3ee7bb04	0.4525987
57	0x3f1b08c8	0.60560274
58	0x3e4fa7c3	0.2027884
59	0x3f3b69c9	0.7320829
60	0x3f28ac7a	0.6588818
61	0x3ec2ec4d	0.38070908
62	0x3f248bd9	0.6427589
63	0x3edf49b2	0.43610913
64	0x3f1a950c	0.6038368
65	0x3f14b238	0.5808444
66	0x3e53ed37	0.20695959
67	0x3f07cf5c	0.5305078
68	0x3f21d55b	0.6321618
69	0x3ecaa367	0.3957779
70	0x3f2f7822	0.68542683
71	0x3f1ce58e	0.6128777
72	0x3ed9f7d9	0.42571905
73	0x3f22a4ad	0.63532525
74	0x3f45d2ae	0.77274597
75	0x3f4527ad	0.77013665
76	0x3f40b84a	0.752812
77	0x3f575f1c	0.841295
78	0x3f276cbb	0.65400285
79	0x3ea87d76	0.3290822
80	0x3f1b1c2e	0.60589874
81	0x3f1e89e7	0.6192917
82	0x3ecae5c5	0.39628425
83	0x3f41bf4e	0.7568253
84	0x3f188667	0.5958008
85	0x3ee1b8dc	0.4408635
86	0x3f4acf00	0.79222107
87	0x3e978b35	0.29598394
88	0x3f33dda1	0.70260054
89	0x3f628804	0.88488793
90	0x3f1c424f	0.6103868
91	0x3f3d2cfa	0.73896754
92	0x3f46190e	0.7738198
93	0x3f359dda	0.7094399
94	0x3f4103fc	0.75396705
95	0x3f3d906a	0.74048483

fc1.weight_v f4 [96, 3]
0	0xbf0d9f67	-0.55321354
1	0xbee1d3c4	-0.44106877
2	0x3e94a740	0.29033852
3	0x3dddc5b4	0.108287245
4	0xbea65708	-0.32488275
5	0xbdf6668a	-0.120312765
6	0xbe7b4db4	-0.2454136
7	0x3ec42c80	0.383152
8	0xbea197fb	-0.31561264
9	0x3f115a09	0.5677801
10	0xbe9cfeaf	-0.30663058
11	0xbe8abc19	-0.27096632
12	0x3e3d6e45	0.18499096
13	0x3d81d01d	0.063385226
14	0x3dcbc49b	0.09949609
15	0xbd94b359	-0.0726077
16	0x3f11d69c	0.5696809
17	0x3f0c6b09	0.5485082
18	0xbe163296	-0.14667735
19	0xbd2a18f0	-0.04152769
20	0xbf086317	-0.532762
21	0xbe8e577d	-0.27801123
22	0x3e76cd87	0.2410184
23	0x3dedc287	0.11609369
24	0xbeb830a1	-0.359746
25	0xbf107820	-0.56433296
26	0x3d586bb0	0.052837074
27	0x3e600c01	0.21879579
28	0x3dd221c7	0.10260349
29	0x3ec6105f	0.38684365
30	0xbea30305	-0.3183824
31	0xbe725c26	-0.23667964
32	0xbeac54ee	-0.33658546
33	0xbd8417f7	-0.064498834
34	0x3e28991d	0.16464658
35	0xbda8ccc4	-0.08242181
36	0x3e1e3979	0.15451612
37	0xbf01b83d	-0.5067175
38	0x3ef55a18	0.479203
39	0xbe6abab8	-0.2292279
40	0x3e9921e8	0.2990868
41	0x3e341cc1	0.17589094
42	0xbe28972a	-0.16463915
43	0x3e34c928	0.1765486
44	0xbedca734	-0.43096316
45	0xbe98566e	-0.2975344
46	0xbee6844a	-0.45022804
47	0x3efbbf70	0.49169493
48	0x3f008cfc	0.50215125
49	0x3f06222c	0.5239589
50	0xbf0ce4fc	-0.550369
51	0xbc415efc	-0.011802431
52	0xbebe2b3e	-0.37142366
53	0x3e3dfbca	0.18553081
54	0x3ece2aef	0.4026713
55	0xbebb3277	-0.3656194
56	0xbe804801	-0.25054935
57	0x3f04e2f5	0.5190881
58	0x3d8bfde2	0.06835534
59	0x3ec64790	0.38726473
60	0x3e8a5445	0.27017418
61	0xbdec6069	-0.11541826
62	0xbed6cb86	-0.4195215
63	0x3f060d68	0.52364206
64	0x3c08a242	0.0083394665
65	0x3f0b498e	0.5440911
66	0x3e78ec97	0.24309002
67	0xbec0901c	-0.37609947
68	0x3e821db8	0.254133
69	0x3d9c1039	0.07620282
70	0x3f155386	0.5833057
71	0x3ea1298d	0.31477013
72	0x3f010f5a	0.5041405
73	0xbf02f405	-0.51153594
74	0x3e1f61d6	0.15564665
75	0x3dbef07e	0.09323214
76	0xbe076f36	-0.13226017
77	0x3f08185e	0.5316218
78	0xbe605b3d	-0.21909805
79	0x3e4d0002	0.20019534
80	0x81817145	-4.754965e-38
81	0xbee43056	-0.44568127
82	0x3f0a2b03	0.5397188
83	0x3e0c96ee	0.1372945
84	0xbed70b30	-0.42000723
85	0xbc129a00	-0.008947849
86	0x3f118a74	0.5685189
87	0xbe994a05	-0.29939285
88	0x3e1c2050	0.15246701
89	0x3eb39582	0.35075003
90	0x3ec7e90b	0.39044985
91	0x3ef049f4	0.46931422
92	0xbd8e99c8	-0.06962925
93	0x3f020ab8	0.50797606
94	0xbe1576c4	-0.14596087
95	0x3e807334	0.25087893
96	0x3d941b34	0.07231751
97	0xbe0ac358	-0.1355108
98	0x3d4f2fe1	0.05058277
99	0x3ece543a	0.40298635
100	0xbe8d41f0	-0.2758937
101	0xbf07790c	-0.5291908
102	0xbf0dcae6	-0.55387723
103	0xbdd83250	-0.10556471
104	0x3ec93a32	0.39302212
105	0xbf05a0ba	-0.52198374
106	0xbd15bee0	-0.036558986
107	0xbe29123c	-0.16510862
108	0xbed9cd6c	-0.42539537
109	0x3f1a7d91	0.6034785
110	0xbe66fca1	-0.22557308
111	0x3ea57312	0.32314354
112	0xbeb35bd4	-0.35030997
113	0xbe4ed49b	-0.2019829
114	0xbe93db20	-0.28878117
115	0x3e0de598	0.13857114
116	0xbd3d5613	-0.046224665
117	0xbe7af742	-0.24508384
118	0x3e1fcd2c	0.1560561
119	0xbed13128	-0.40857816
120	0x3d430b2a	0.04761807
121	0xbde29ec9	-0.11065442
122	0x3e8fad0e	0.28061718
123	0x3f1284b7	0.57233757
124	0x3db3d5ed	0.087810375
125	0xbeda31b7	-0.42616054
126	0xbf0bf6e0	-0.54673576
127	0xbec4afd8	-0.38415408
128	0xbed78206	-0.42091388
129	0xbe2c8f6e	-0.16851589
130	0xbf0f5632	-0.559909
131	0xbee3d989	-0.44501904
132	0xbebf1aee	-0.37325233
133	0x3ec74aaf	0.38924167
134	0x3e2e2664	0.17006832
135	0xbdd193be	-0.10233258
136	0x3efb7d77	0.4911916
137	0xbeee0077	-0.4648473
138	0x3e6d0a6f	0.23148511
139	0x3e94e4f7	0.29080936
140	0x3ec6033c	0.38674343
141	0xbdef7824	-0.11692837
142	0x3e219bd2	0.15782097
143	0xbe93853c	-0.28812587
144	0xbe69553c	-0.2278642
145	0x3d4b6110	0.049653113
146	0x3e9e2d12	0.3089376
147	0x3ee86fc8	0.45397782
148	0x3ebe94ab	0.372228
149	0x3ea54ad1	0.32283643
150	0x3e9b3b7a	0.30318815
151	0xbd391189	-0.04518274
152	0xbda5ced0	-0.08096087
153	0xbde85060	-0.11343455
154	0xbe1a5de0	-0.15074873
155	0x3ea226f8	0.31670356
156	0xbdb9c9b5	-0.09071676
157	0x3e5a048b	0.21290796
158	0xbf03c6d5	-0.5147527
159	0x3d2215fa	0.03957174
160	0xbd636b40	-0.055522203
161	0x3f078c3e	0.5294837
162	0xbe176dcc	-0.14787978
163	0x3ed20c0b	0.41024813
164	0x3eb2cec8	0.34923387
165	0xbe859cc9	-0.2609618
166	0x3f099397	0.5374083
167	0x3df9e307	0.12201505
168	0xbe836b82	-0.2566796
169	0x3eb3d96f	0.35126826
170	0xbe0b7f37	-0.13622747
171	0xbe0f3e85	-0.13988693
172	0x3e10b2cd	0.14130707
173	0x3f04da68	0.5189576
174	0xbd70b6d0	-0.058768094
175	0x3d568b10	0.052378714
176	0x3e3f5eb8	0.18688476
177	0xbeea1f91	-0.45727208
178	0x3f10e84e	0.5660447
179	0xb9a41290	-0.00031294348
180	0xbee085ef	-0.43852183
181	0x3d77a410	0.060459197
182	0xbef9de6c	-0.48802507
183	0x3ea55a17	0.32295296
184	0x3d8261e3	0.06366327
185	0xbe23a323	-0.159802
186	0x3ea938e9	0.33051232
187	0x3d801de2	0.062557
188	0x3f09d2f7	0.5383753
189	0x3e87b632	0.26506191
190	0xbe438cfa	-0.19096747
191	0xbe95647e	-0.29178232
192	0xbeab4380	-0.33449936
193	0xbeae18a2	-0.34003168
194	0xbebd955f	-0.37028024
195	0xbe3b46ae	-0.18288681
196	0xbde8c998	-0.11366576
197	0xbf0a19c9	-0.53945595
198	0x3d7130ab	0.058884304
199	0x3e1bff62	0.1523414
200	0x3dbd1dbb	0.09234186
201	0xbf06a567	-0.52596134
202	0x3d5f5b40	0.054530382
203	0xbd2f34a0	-0.042774796
204	0x3ee4d544	0.4469396
205	0xbe80b771	-0.25139955
206	0xbebc91ea	-0.36830074
207	0x3d400606	0.046880744
208	0x3de0d85f	0.109787695
209	0xbeae650a	-0.34061462
210	0xbe562381	-0.20911981
211	0x3ec56cb2	0.3855949
212	0x3eb6b79f	0.35686967
213	0x3ecb84e3	0.39749822
214	0x3d992596	0.07477872
215	0xbeee9ac3	-0.4660245
216	0x3ebbba18	0.36665416
217	0xbe20f657	-0.15718971
218	0xbe308c4c	-0.17241019
219	0x3eca9f2e	0.3957457
220	0xbe680ca8	-0.22661078
221	0x3ed7798b	0.42084917
222	0x3ec9d722	0.39421946
223	0x3e9d38de	0.3070745
224	0xbf116c19	-0.5680557
225	0x3cb54cbc	0.022131316
226	0x3f1b54f8	0.6067653
227	0x3ee0bf13	0.43895778
228	0x3f127a3a	0.5721775
229	0xbebcad6d	-0.36851063
230	0xbe98b696	-0.29826802
231	0xbf0f8991	-0.56069285
232	0xbeef1578	-0.46696067
233	0xbed665ee	-0.4187464
234	0xbbfe2f00	-0.0077570677
235	0xbf0e681b	-0.556276
236	0x3eb00a00	0.3438263
237	0x3e5ddb41	0.2166567
238	0xbe59e9fc	-0.21280664
239	0xbdf699ce	-0.12041055
240	0xbeb2b527	-0.34903833
241	0xbed9100d	-0.42395058
242	0xbe831660	-0.25603008
243	0xbe186a9c	-0.14884418
244	0x3e92da38	0.28682113
245	0x3ee7853b	0.45218834
246	0x3cf66e26	0.03008182
247	0x3b976b50	0.004620947
248	0x3ecdcbe2	0.40194613
249	0x3f07bd95	0.53023654
250	0x3eae09cc	0.3399185
251	0xbed8cf91	-0.4234586
252	0x3ca12fa0	0.01967603
253	0xbe7352bc	-0.2376203
254	0xbf0bc761	-0.54601103
255	0xbd97cdef	-0.074123256

fc2.bias f4 [48]
0	0xbdbbcfbe	-0.09170483
1	0xbd3b4e1a	-0.04572878
2	0x3d56c04c	0.052429482
3	0x3dbe7323	0.09299304
4	0x3db38cde	0.08767103
5	0x3d881b1f	0.06645798
6	0xbd7ac10a	-0.061219253
7	0xbda0cb3a	-0.078512624
8	0xbb0a4e0d	-0.002110365
9	0xbdbd999c	-0.09257814
10	0x3c402e28	0.0117297545
11	0x3cf2fa98	0.029660508
12	0x3d4020f2	0.04690642
13	0xbc0b3360	-0.0084961355
14	0x3dcfc2e6	0.10144596
15	0x3d1780bf	0.036988016
16	0xbc8eba48	-0.01742281
17	0x3d3e8c52	0.04652054
18	0xbd8acf2a	-0.06777795
19	0xbc83346c	-0.016016208
20	0xbc32f620	-0.010922939
21	0x3d7a3896	0.06108912
22	0xbe2a37e5	-0.16622885
23	0xbdc8baa1	-0.09801222
24	0x3da841de	0.08215688
25	0x3d8e6c1c	0.06954214
26	0xbdcf12f4	-0.10111037
27	0x3dbacae3	0.09120729
28	0xbd45392c	-0.048150226
29	0xbdb2545e	-0.08707498
30	0xbdb9de18	-0.09075564
31	0xbc0ba2a1	-0.0085226605
32	0x3d9311bb	0.07181116
33	0xbce7f58d	-0.02831533
34	0xbdc8fa82	-0.098134056
35	0xbb40a5e0	-0.0029395744
36	0x39fba8ef	0.00048000316
37	0xbd83c59a	-0.06434174
38	0x3ce05075	0.027382115
39	0xbe1311b3	-0.1436222
40	0xbda82212	-0.082096234
41	0x3d2bd5e3	0.041952025
42	0x3da91538	0.08256
43	0xbe1de90a	-0.15420929
44	0x3cc2f31d	0.023797566
45	0x3ca67f44	0.020324357
46	0xbd9638ea	-0.07335074
47	0xbd5927d8	-0.053016514

fc2.weight_g f4 [48, 1]
0	0x3f1403b8	0.57818174
1	0x3f149764	0.58043504
2	0x3f19272e	0.5982541
3	0x3f1810cf	0.5940065
4	0x3f252bde	0.6452006
5	0x3f0d259c	0.5513551
6	0x3f186005	0.59521514
7	0x3f123fa6	0.5712837
8	0x3f137942	0.576069
9	0x3f1f88da	0.62318194
10	0x3f0a7de7	0.5409836
11	0x3f1685fc	0.58798194
12	0x3f18a10d	0.59620744
13	0x3f12f123	0.57399195
14	0x3f1865d8	0.595304
15	0x3f0af463	0.54279155
16	0x3f0bf7b5	0.54674846
17	0x3f1d245a	0.61383593
18	0x3f121884	0.5706866
19	0x3f125888	0.5716634
20	0x3f119490	0.56867313
21	0x3f18a609	0.5962835
22	0x3f17b352	0.59257996
23	0x3f1e3a57	0.6180777
24	0x3f132abe	0.57487094
25	0x3f185288	0.5950093
26	0x3f1d4553	0.61433905
27	0x3f31e93c	0.6949651
28	0x3f24dab8	0.6439624
29	0x3f177498	0.5916228
30	0x3f0b6e8b	0.5446555
31	0x3f207307	0.6267552
32	0x3f1f4ab7	0.6222338
33	0x3f1390b0	0.5764265
34	0x3f190dc3	0.59786624
35	0x3f16c815	0.5889905
36	0x3f0f48a2	0.55970204
37	0x3f13eb98	0.5778136
38	0x3f23d6db	0.6399972
39	0x3f28cef9	0.65940815
40	0x3f124a71	0.5714484
41	0x3f147de2	0.5800458
42	0x3f1674ee	0.5877217
43	0x3f215b56	0.6302999
44	0x3f14d5a9	0.5813852
45	0x3f1dfcfe	0.6171416
46	0x3f0f35b0	0.55941296
47	0x3f185049	0.59497505

fc2.weight_v f4 [48, 96]
0	0x3d053f16	0.032530867
1	0x3db20ed0	0.086942315
2	0x3d2f48eb	0.04279415
3	0x3bfd7d0d	0.0077358545
4	0xbd8a5dde	-0.06756185
5	0xbd9b1bb4	-0.07573643
6	0x8016305d	-2.03773e-39
7	0x3cb324f2	0.021868203
8	0xbcc93d1b	-0.02456527
9	0x3d940d10	0.07229054
10	0xbbfd69e2	-0.0077335695
11	0x3b2f530c	0.002675238
12	0xbd4de8c4	-0.05027081
13	0xbd32a574	-0.04361482
14	0xbd91c887	-0.07118326
15	0x3cb851e6	0.02249999
16	0x3d59ad04	0.053143516
17	0xbd582d6a	-0.052777685
18	0xbd2b09b9	-0.04175732
19	0x3da18013	0.07885756
20	0x3c91e349	0.017808573
21	0x3ba14b88	0.004922334
22	0xbcfe43c4	-0.031038173
23	0xbdc2fccf	-0.09520876
24	0x3d15872f	0.036505874
25	0xbd5d6cfe	-0.05405902
26	0xbda6a038	-0.08136028
27	0xbce12742	-0.02748454
28	0x2f2fc6a5	1.598673e-10
29	0xbd33ad14	-0.043866232
30	0x3da869a8	0.08223277
31	0xbcf6a14f	-0.030106215
32	0xbbf77ebc	-0.0075529497
33	0x3d96b278	0.07358259
34	0x3d6f80df	0.05847251
35	0xbd7bcf9f	-0.0614773
36	0x3ce602e8	0.028077558
37	0xbd149c29	-0.03628174
38	0x3d89ca93	0.06728091
39	0x3d8361b9	0.064151235
40	0xbd5d07a4	-0.053962365
41	0x3d9261cc	0.071475595
42	0xbd6c8ddc	-0.057752475
43	0x3d7a704e	0.06114226
44	0xbcc5af60	-0.024131477
45	0x3bb5166a	0.0055263536
46	0x3d72e3e6	0.059299372
47	0xbd8250e8	-0.06363088
48	0x3d6499f2	0.055810876
49	0x3a8b7b66	0.0010641634
50	0x3d700de3	0.058606993
51	0x3d9db725	0.07700948
52	0x3d33a2b1	0.043856326
53	0x3da1e78d	0.07905493
54	0x3acb6526	0.0015517815
55	0xbdd1130b	-0.1020871
56	0xbc9a1157	-0.018807096
57	0xbc02c0d0	-0.00798054
58	0x80283a56	-3.694347e-39
59	0xbd286de5	-0.04112043
60	0x3d81c9c4	0.06337312
61	0xbcac8398	-0.021058843
62	0xbce0d85d	-0.02744692
63	0xbda9dcd1	-0.082940705
64	0x3d8da981	0.06917096
65	0xbd61a650	-0.05509025
66	0xbda8565f	-0.08219599
67	0xbc086d1a	-0.008326793
68	0x3d43b411	0.047779147
69	0xbd942df4	-0.07235327
70	0xbde537f4	-0.11192313
71	0x3d1860e5	0.03720178
72	0x3dc04db3	0.0938982
73	0x3c5e6861	0.013574691
74	0x3d06e0ec	0.032929346
75	0xbcba89ae	-0.022770729
76	0xbd53b9fc	-0.05169104
77	0x2b14cb0e	5.286196e-13
78	0xbd9ee483	-0.07758429
79	0xba8f3080	-0.0010924488
80	0x3cac0f4e	0.021003392
81	0x3d272bb8	0.040813178
82	0xbdc852b4	-0.09781399
83	0xbcf869e4	-0.03032393
84	0xbcee935c	-0.029123
85	0xbd02121e	-0.03175556
86	0x3d3803a0	0.044925332
87	0xbb3ef891	-0.0029139856
88	0xbd9b224f	-0.07574903
89	0x3d356a72	0.044290967
90	0xbd76f67a	-0.060293652
91	0x3d714d49	0.058911595
92	0xbdb16551	-0.08661903
93	0x3cd977e1	0.02654642
94	0x3d496dab	0.049176853
95	0x3d38be07	0.0451031
96	0x3d26f588	0.0407615
97	0x3c00d970	0.007864341
98	0xbc9b8980	-0.018986464
99	0xbdcf6918	-0.10127467
100	0x3d69fa7c	0.057123646
101	0xbda70024	-0.08154324
102	0x3dac28b4	0.08406201
103	0xbd64d369	-0.05586568
104	0xbb25a240	-0.002527371
105	0x3cc159d8	0.023602411
106	0xbdb73f7e	-0.08947657
107	0x3da519c4	0.08061555
108	0xbd59531c	-0.053057775
109	0xbd294321	-0.041323785
110	0xbcb32930	-0.021870226
111	0xbd59e5e3	-0.053197753
112	0xbd027bec	-0.031856462
113	0xbdaaa981	-0.083331116
114	0x3c5d3ea0	0.0135037005
115	0xbd551eac	-0.052031204
116	0xbd37064d	-0.044683743
117	0xbdc2876e	-0.094984874
118	0xbdc70617	-0.097179584
119	0x3ce23598	0.027613446
120	0x3dbc5a1c	0.091968745
121	0xbdce91bb	-0.1008639
122	0x3c22ccc0	0.0099365115
123	0x3cf34870	0.029697627
124	0x3bfb4d20	0.007669106
125	0xbdd08539	-0.1018166
126	0x3d9a6f08	0.07540709
127	0xbce71354	-0.028207459
128	0xbd97fe4c	-0.0742155
129	0xbd59fdc8	-0.05322054
130	0x3db4fe92	0.08837618
131	0x3d854740	0.065077305
132	0x3d83ec7c	0.0644159
133	0x3d017734	0.03160782
134	0xbc990174	-0.01867745
135	0x3dc4da96	0.096120045
136	0xbd802a59	-0.06258077
137	0x3d8e5f80	0.06951809
138	0xbc6660e0	-0.014061183
139	0x3d6c3920	0.057671666
140	0x3d6930f8	0.056931466
141	0xbbbd9680	-0.0057857633
142	0xbd9573e2	-0.072974935
143	0x3dd06a5a	0.10176535
144	0xbcc75844	-0.02433408
145	0x3d11d0c0	0.03559947
146	0xbcf26928	-0.029591158
147	0xbda70754	-0.081556946
148	0xbd38760b	-0.04503445
149	0x3cab60b0	0.020920128
150	0xbcfd12c4	-0.030892737
151	0xbc82f97c	-0.015988104
152	0xbc869e08	-0.016432777
153	0x3dc1d5a4	0.09464577
154	0x3dca323a	0.09872861
155	0x3d5452cc	0.051836774
156	0x3d088d0c	0.033337638
157	0xbdcb2dea	-0.09920867
158	0xbc0b7fd0	-0.00851436
159	0xbd30e13b	-0.043183547
160	0x3d908c7e	0.07058047
161	0xbd8793f5	-0.066200174
162	0xbc49caa8	-0.012316383
163	0xbd51e2c9	-0.05124167
164	0x3da6556a	0.0812176
165	0xbc879220	-0.01654917
166	0x3cbf5ee0	0.02336067
167	0xbbe97720	-0.0071247965
168	0x3d1ee828	0.03879562
169	0x3d5110d0	0.051041424
170	0xbd66b0d1	-0.05632097
171	0xbd46a563	-0.04849757
172	0xbcf59588	-0.029978529
173	0xbd5f5e62	-0.05453337
174	0x3d63e530	0.055638492
175	0x3dc3326e	0.09531103
176	0x3d095d98	0.033536524
177	0xbdce9e09	-0.100887366
178	0xbdc929cb	-0.098224245
179	0xbd18ab38	-0.037272662
180	0x3d1cfa08	0.038324386
181	0xbcb643e4	-0.02224917
182	0xbd36b194	-0.044602945
183	0xbd46eed2	-0.0485676
184	0x3d9ea3d0	0.077460885
185	0x3db07ed6	0.08617942
186	0x3d4141e8	0.047181994
187	0x3cdcfec8	0.026976958
188	0xbd656f28	-0.05601421
189	0x3c660d48	0.014041252
190	0x3d117bf0	0.035518587
191	0x3d82d24a	0.06387766
192	0xbd279d2e	-0.040921383
193	0xbd0645ee	-0.032781534
194	0xbd72ac2a	-0.05924622
195	0x3a376480	0.00069958717
196	0xbd970754	-0.073744446
197	0x3d65f22c	0.056139156
198	0xbd8c45fb	-0.06849285
199	0x3ce78358	0.028260872
200	0x3d8f986c	0.07011494
201	0x3b9c9170	0.0047780797
202	0xbdb0d40f	-0.08634197
203	0x3dab7388	0.08371645
204	0x3cc88e08	0.024481788
205	0x3d3f9fec	0.046783373
206	0xbda35136	-0.07974474
207	0x3cfa9590	0.030588895
208	0x3d22a088	0.039703876
209	0xbdb21ffc	-0.08697507
210	0x3d0b244c	0.033970162
211	0x3d91cf10	0.07119572
212	0x3dcac35c	0.09900543
213	0xbdbf83fb	-0.09351345
214	0xbd87b34f	-0.06625997
215	0xbd9c483a	-0.076309636
216	0x3d4cdbc8	0.050014287
217	0xbc777b30	-0.015105054
218	0xbcfc9c70	-0.030836314
219	0xbd8f2531	-0.069895156
220	0xbd2f9c96	-0.04287394
221	0x3dd0f2be	0.102025494
222	0x3864e000	5.4568052e-05
223	0xbdc1b93b	-0.09459158
224	0xbd52a7ee	-0.05142968
225	0xbc9c2f0c	-0.019065402
226	0x3c738ae8	0.014864661
227	0xbd2c1ea9	-0.042021427
228	0xbd3fa30c	-0.046786353
229	0x3cff1440	0.031137586
230	0x3d06ae4c	0.032881066
231	0xbb1d1760	-0.0023970231
232	0x3d928958	0.071551025
233	0xbd917177	-0.0710172
234	0x3c8a9f28	0.016921595
235	0xbd8ee785	-0.069777526
236	0x3da4510c	0.08023271
237	0xbdac06ee	-0.08399759
238	0x3b072b80	0.0020625293
239	0xbd8ae8f2	-0.06782712
240	0xbd45e929	-0.048318062
241	0x3da5f092	0.08102526
242	0x3d409110	0.047013342
243	0x3d5efd54	0.05444081
244	0x3cf9a1f8	0.03047274
245	0x3d67a588	0.056554347
246	0xbbf35df0	-0.0074269697
247	0x3cdd55b0	0.027018398
248	0xbdca0963	-0.098650716
249	0xbda488cf	-0.08033907
250	0x3c3f9cf8	0.011695139
251	0xbd51564f	-0.0511077
252	0xbd031aaa	-0.03200785
253	0x3d6be1e0	0.057588458
254	0xbd85e2ca	-0.06537397
255	0x3d99ff0a	0.07519348

fc3.bias f4 [24]
0	0x3d86a74b	0.06574877
1	0xbe4348c9	-0.19070734
2	0x3d1801a2	0.037110932
3	0x3b0e2f00	0.0021695495
4	0x3c202f4c	0.009776901
5	0x3e37e9c4	0.17960268
6	0x3df2dcec	0.11858544
7	0x3e1b2ea6	0.15154514
8	0x3e0cdf5f	0.13757084
9	0x3d8f5e5f	0.07000422
10	0xbdb5e4bc	-0.08881518
11	0xbcc54d0c	-0.02408459
12	0xbe10f79d	-0.14156957
13	0x3d5d7d5f	0.05407464
14	0x3bd8a757	0.0066117453
15	0x3d55da9d	0.05221044
16	0x3d3c86dc	0.04602705
17	0x3df8dbc9	0.12151296
18	0xbe6c92fa	-0.23102942
19	0x3ba91418	0.005159866
20	0x3cc8ebcd	0.024526501
21	0xbd731a0c	-0.059351012
22	0xbde071ff	-0.10959243
23	0xbcf61dfa	-0.03004359

fc3.weight_g f4 [24, 1]
0	0x3f175d93	0.5912716
1	0x3f0cbf38	0.54979277
2	0x3f1f97df	0.6234111
3	0x3f0be4a5	0.5464576
4	0x3f289b32	0.6586181
5	0x3f29ee8f	0.66379637
6	0x3f06b147	0.52614254
7	0x3f2753d5	0.6536229
8	0x3f16f5db	0.58968896
9	0x3f22addb	0.6354653
10	0x3f0bf7b7	0.5467486
11	0x3f0fba84	0.56143975
12	0x3f1785d8	0.59188604
13	0x3f0b9e76	0.5453867
14	0x3f1ea020	0.6196308
15	0x3f25f8cb	0.6483275
16	0x3f0ebc9e	0.55756557
17	0x3f227f73	0.6347572
18	0x3f237b54	0.6386006
19	0x3f123b14	0.57121396
20	0x3f24f184	0.64431024
21	0x3f16cc13	0.5890514
22	0x3f1cd53a	0.6126286
23	0x3f0ef8c6	0.5584835

fc3.weight_v f4 [24, 48]
0	0xb58e85e7	-1.0618795e-06
1	0x3d816ba0	0.06319356
2	0x3d44e86e	0.048073225
3	0x3db09fbf	0.08624219
4	0xbda76d32	-0.08175124
5	0x3d0fc379	0.035098527
6	0xbdc7e5b8	-0.09760612
7	0xbd8f0a42	-0.069843784
8	0xbdab098a	-0.08351429
9	0xbe024e1a	-0.12725106
10	0x032a43ad	5.00362e-37
11	0xbd79821a	-0.06091509
12	0xbdd0856f	-0.101817004
13	0xbcf761d6	-0.030198019
14	0xbd7d10ab	-0.061783474
15	0x3da2098b	0.079119764
16	0xbd9b5460	-0.07584453
17	0xbdc9e922	-0.0985892
18	0xbbc4fad7	-0.0060113478
19	0x3ddfce68	0.10928041
20	0xbc0d0065	-0.008606051
21	0xbd2c7b73	-0.042109918
22	0xbda0f37c	-0.07858941
23	0x3d3a7462	0.045521148
24	0x3d6ce2ae	0.057833366
25	0x3d106d4e	0.03526049
26	0xbc7a0924	-0.015260968
27	0xba180c88	-0.0005800207
28	0x3c3776d8	0.011197768
29	0xbdfb693c	-0.12275931
30	0x3dd399c8	0.10332066
31	0x3db7303b	0.08944746
32	0xbd9b4510	-0.07581532
33	0x3d508d09	0.05091575
34	0xbdf014ff	-0.11722755
35	0x3d26d48a	0.040730037
36	0xbd7b64b1	-0.061375324
37	0xbd88f12c	-0.06686625
38	0x3dfcb163	0.12338521
39	0x9217ffd9	-4.7962555e-28
40	0xbd8bffe3	-0.06835916
41	0x3c8648fe	0.016392227
42	0x3dda26c6	0.10651927
43	0xbd52a723	-0.051428925
44	0xbdff3525	-0.124613084
45	0xbdef0c68	-0.11672288
46	0x3da3f520	0.08005738
47	0x3db55267	0.088536076
48	0x3dba4b42	0.090963855
49	0xbd9ba0e4	-0.07599047
50	0x3c6bfe88	0.014403947
51	0xbe17e1c4	-0.14832217
52	0xbe0ce1bd	-0.13757987
53	0xbd419731	-0.047263328
54	0x3d9f79ce	0.07786904
55	0x3d9ad57c	0.0756025
56	0x3c903bab	0.017606577
57	0x3e042996	0.12906489
58	0x80038926	-3.24706e-40
59	0xbdae231d	-0.08502791
60	0xbd0badcd	-0.034101296
61	0x3d8c01d4	0.06836286
62	0xbd17ad69	-0.03703061
63	0x3dc180bc	0.09448382
64	0xbde4e9a0	-0.11177373
65	0xbae9b5a0	-0.0017830618
66	0x3d6b7b0f	0.057490405
67	0x32ba6880	2.1700771e-08
68	0xbd37d0df	-0.04487693
69	0xbcc35d62	-0.02384824
70	0x3c3f5c61	0.01167974
71	0xbd99e442	-0.0751424
72	0x3d9cf349	0.076635905
73	0x00044243	3.91112e-40
74	0xbc5eb4a9	-0.013592877
75	0x3d5b710d	0.05357461
76	0xbd45dc42	-0.048305757
77	0x3d74ed25	0.05979647
78	0x3ced1be0	0.028943956
79	0x3e0b119d	0.13580938
80	0x3d8a8590	0.06763756
81	0x3dfd0b2c	0.123556465
82	0x3cb4353d	0.021998042
83	0xbd9983bb	-0.07495829
84	0x3c820a89	0.015874164
85	0x3db0fa8a	0.086415365
86	0xbd6f0829	-0.05835739
87	0x3df86004	0.121276885
88	0x3d883d90	0.06652367
89	0x3d5ee0fe	0.054413788
90	0xbd9a8f92	-0.07546915
91	0xbcc1daf3	-0.023663973
92	0xbd068466	-0.03284111
93	0xbc3fd030	-0.011707351
94	0x3d6a2a99	0.05716953
95	0x3d880e9d	0.06643412
96	0xbd9eab55	-0.07747523
97	0xbdc868a0	-0.09785581
98	0xbdeb558f	-0.114909284
99	0xbe104466	-0.14088592
100	0xbe198b93	-0.1499465
101	0x3dbfab37	0.093588285
102	0x3db8213d	0.08990715
103	0xbbe925ed	-0.007115117
104	0xbc8c6fa3	-0.017143076
105	0x3e004840	0.12527561
106	0x3dfaed92	0.12252344
107	0xbdb0a91e	-0.086260065
108	0x3d959ada	0.07304926
109	0x3dc58a09	0.09645469
110	0x3c338cbf	0.010958849
111	0x3d2df334	0.042468265
112	0x3dbb0461	0.091316946
113	0xbdccfb20	-0.10008836
114	0x3c34e98f	0.011042013
115	0xbdb9f65d	-0.09080193
116	0x39567f7f	0.00020456126
117	0x3dc63bc2	0.09679367
118	0xbd2a2876	-0.041542493
119	0xbd124d7b	-0.035718422
120	0xbdbf3151	-0.09335578
121	0x3c0bcf54	0.008533318
122	0x3df7bf5c	0.12097046
123	0xbde6a0a8	-0.112611115
124	0xbe0d7e69	-0.13817753
125	0x3ca364ca	0.01994552
126	0x3dc3e207	0.09564596
127	0x3d5e9827	0.054344323
128	0x3d4566fd	0.04819392
129	0x3de019ce	0.10942422
130	0x39ddd8e1	0.00042313992
131	0xb760c6cd	-1.3397727e-05
132	0x3d43b6de	0.047781818
133	0xbda19c64	-0.07891157
134	0xbd9a4505	-0.07532696
135	0xbd98af4b	-0.074553095
136	0xbd5398f3	-0.051659536
137	0xbe018c5b	-0.12651198
138	0x3d93ff70	0.07226455
139	0x3dbb66f4	0.09150496
140	0xbe1504a5	-0.14552553
141	0xbda96607	-0.08271413
142	0xba0ddd01	-0.00054116553
143	0xbd715665	-0.058920283
144	0x3da093bc	0.07840678
145	0x3cf57d40	0.02996695
146	0xbdf6bb34	-0.12047425
147	0xbd212ac4	-0.039347425
148	0x3dae1b0e	0.08501254
149	0xbdbc023e	-0.09180115
150	0x3d14676c	0.036231443
151	0xbb9d37a0	-0.004797891
152	0xbbe7b260	-0.0070708245
153	0xbe0ba747	-0.1363803
154	0xbd620896	-0.05518397
155	0x3d1053ac	0.035236046
156	0x3d04b324	0.032397404
157	0x3dbd3094	0.09237781
158	0xbdd77ef2	-0.1052226
159	0x3db179d4	0.08665815
160	0x3df19100	0.11795235
161	0xbd8899c8	-0.066699564
162	0xbbfc1ac0	-0.0076936185
163	0xbdd09fdc	-0.10186741
164	0xbb614300	-0.003437221
165	0xbdcb0d2e	-0.09914623
166	0x3d8b948a	0.06815441
167	0x3de8d81c	0.113693446
168	0x3b847e20	0.0040433556
169	0x3de7442c	0.112923
170	0xbdbb1478	-0.091347635
171	0x3e13cc20	0.14433336
172	0xbd88b055	-0.06674258
173	0xbc95a7a0	-0.018268406
174	0xbd8e75e4	-0.069560796
175	0x3d17b6c0	0.03703952
176	0x3d1fc8c0	0.03900981
177	0x3d17a790	0.037025034
178	0xbe0f2716	-0.13979754
179	0xbd8c868d	-0.06861601
180	0xbe113b8a	-0.14182869
181	0xbda00fdb	-0.07815524
182	0x3df704b0	0.12061441
183	0xbc45cb60	-0.012072414
184	0xbd7a2a86	-0.06107571
185	0xbda18057	-0.07885807
186	0xbc99b9d8	-0.018765375
187	0xbd9be839	-0.07612652
188	0xbda3f814	-0.080063015
189	0x3c471170	0.0121501535
190	0xbc1556f0	-0.009114966
191	0xbdb0ef9e	-0.08639453
192	0x3cb47e2a	0.022032816
193	0xbd78c55a	-0.060735084
194	0xbd9e305d	-0.07724068
195	0x3d9f6324	0.077825814
196	0xbe033525	-0.12813242
197	0x3b945290	0.004526444
198	0x3df7aafc	0.120931596
199	0xbdee32b3	-0.11630764
200	0xbe18683a	-0.1488351
201	0xbd4d98fc	-0.050194725
202	0xbd820457	-0.06348484
203	0xbd49240c	-0.049106643
204	0xbe0d927a	-0.13825408
205	0xbd2e72e5	-0.04259004
206	0xbd862046	-0.065491244
207	0xbd3e2bbc	-0.046428427
208	0xbd05f4bc	-0.0327041
209	0xbd49eb7b	-0.049296837
210	0x8cddca88	-3.4172335e-31
211	0x3dc6067e	0.09669207
212	0xbe044a2b	-0.12918918
213	0xbe070ce3	-0.1318851
214	0xbdc68b51	-0.09694541
215	0x3de6f353	0.11276879
216	0xbe01e7b2	-0.12686041
217	0xbcf7369b	-0.030177405
218	0xbdfeeb17	-0.124471836
219	0x3dc24ecd	0.09487686
220	0x3d8302b8	0.06397003
221	0xbde60b8e	-0.11232673
222	0xbcf1a9dd	-0.029499942
223	0x3e09abe2	0.13444474
224	0x3d19eb38	0.037577838
225	0x3b0bde95	0.0021342386
226	0x9b277847	-1.385278e-22
227	0xbcc33410	-0.023828536
228	0x3d67b1cd	0.05656605
229	0x3d721611	0.059103075
230	0x3dd86505	0.10566143
231	0xbe03bb8f	-0.12864517
232	0x3e050c97	0.12993084
233	0xbd5574a9	-0.05211321
234	0xbdf5dfcb	-0.12005576
235	0xbd9d4d2e	-0.076807365
236	0x3e053428	0.13008177
237	0x3e022366	0.12708816
238	0x3d1250e4	0.035721675
239	0xb97a3b5f	-0.00023863975
240	0x3d2e1a59	0.042505596
241	0xbce76a3f	-0.028248904
242	0xb883f37d	-6.29192e-05
243	0x3df6e8fe	0.120561585
244	0x3e23843f	0.15968417
245	0x3d98dffc	0.07464597
246	0xbc0c5766	-0.008565759
247	0x3df28ea2	0.11843611
248	0xbda946ed	-0.08265481
249	0x3db09fb8	0.08624214
250	0x15a4d7bc	6.657944e-26
251	0xbce225c6	-0.027605902
252	0xbd0189a3	-0.0316254
253	0x3cd98ae4	0.026555486
254	0xbc14193d	-0.00903922
255	0x3dd43b69	0.10362894

fc4.weight f4 [2, 24]
0	0xbd8aff7f	-0.06787013
1	0x3e442a23	0.19156699
2	0x3dc1643f	0.094429485
3	0xbde8a1b5	-0.11358968
4	0x3e33ac1c	0.17546123
5	0xbe039bbc	-0.12852377
6	0xbdad3713	-0.0845777
7	0xbe2f6128	-0.17126906
8	0x3e3b9f21	0.18322422
9	0x3e2ac052	0.16674927
10	0xbe22a876	-0.15884575
11	0x3d50f558	0.051015228
12	0x3d1af132	0.037827678
13	0x3e4ebfe5	0.2019039
14	0xbcd630bd	-0.026146287
15	0x3cd5064f	0.026003985
16	0xbdf2807f	-0.11840915
17	0xbe4e5f48	-0.20153534
18	0x3e290d15	0.16508897
19	0x3d847920	0.06468415
20	0xbd8eced9	-0.06973047
21	0xbe037da8	-0.12840903
22	0x3e13e1da	0.14441624
23	0x3e0cfe99	0.13768996
24	0xbe485d6a	-0.19566885
25	0x3bb64917	0.005562912
26	0xbe259b97	-0.16172634
27	0xbe1d1bc3	-0.15342622
28	0x3d00178d	0.03127246
29	0x3d3f8ab4	0.046763137
30	0xbe2471e0	-0.16059065
31	0xbdcebf21	-0.10095049
32	0xbe57f994	-0.210913
33	0xbcd1cde0	-0.025610864
34	0xbdf40c6f	-0.11916434
35	0xbd943fb2	-0.072387114
36	0xbe384ea2	-0.17998746
37	0x3e22299b	0.15836184
38	0xbe28dfcc	-0.16491622
39	0xbdb20f06	-0.08694272
40	0x3e449ffa	0.19201651
41	0x3e299000	0.16558838
42	0x3cdb4ff8	0.02677153
43	0xbe215de3	-0.15758471
44	0xbe25f2e3	-0.16205935
45	0xbd4fb714	-0.050711706
46	0x3d063d0c	0.032773063
47	0xbe84166e	-0.25798362

fc4.bias f4 [2]
0	0xbe7c229b	-0.24622576
1	0x3d4edb08	0.050501853

exp_avg f4 [96]
0	0x00000000	0.0
1	0xb90d1ed6	-0.00013458295
2	0xb8d97127	-0.000103684426
3	0xba87e178	-0.0010366878
4	0x3a4395ee	0.0007461001
5	0xba4f8055	-0.00079155463
6	0x00000000	0.0
7	0x363d17c4	2.8177028e-06
8	0x00000000	0.0
9	0x3b041fc5	0.0020160538
10	0x00000000	0.0
11	0xbb4b199a	-0.0030990602
12	0xba1f220c	-0.0006070442
13	0x37f41ad6	2.9099563e-05
14	0xb634bfbe	-2.6933699e-06
15	0x00000000	0.0
16	0x3a75908b	0.0009367547
17	0x375617c2	1.27609255e-05
18	0x3ae3fb50	0.0017393623
19	0x3a5f1e40	0.00085112825
20	0xba1430bb	-0.00056530134
21	0x390745d6	0.00012900619
22	0xb9dfe243	-0.00042702453
23	0xba676e8b	-0.0008828423
24	0x39f1df57	0.00046133503
25	0xba599743	-0.0008300433
26	0xb6f1f5f0	-7.2109906e-06
27	0xb5b4307e	-1.3425158e-06
28	0x00000000	0.0
29	0x00000000	0.0
30	0xb9829334	-0.00024905207
31	0x3959ad16	0.00020759212
32	0xba1ac23c	-0.0005903577
33	0xbad53113	-0.0016265236
34	0x00000000	0.0
35	0x00000000	0.0
36	0x35d034e4	1.5512601e-06
37	0x398f4ce1	0.00027332365
38	0xb5be68fc	-1.4186658e-06
39	0xb637a619	-2.7365807e-06
40	0xbaf16a71	-0.0018418563
41	0x3b1a571d	0.0023550459
42	0x00000000	0.0
43	0x00000000	0.0
44	0xb52c0684	-6.4084475e-07
45	0xba29f5c4	-0.00064834603
46	0xb8afa5fe	-8.375569e-05
47	0x37c1ddd3	2.3110688e-05
48	0x00000000	0.0
49	0xba618cbc	-0.000860404
50	0xba0733c5	-0.00051575556
51	0x00000000	0.0
52	0xb7b2a1a2	-2.129452e-05
53	0x3b9efe94	0.0048521254
54	0xbaa1cc2a	-0.0012344171
55	0xb9e472ba	-0.00043573027
56	0x36849be4	3.9520546e-06
57	0xb52a8d64	-6.3535686e-07
58	0x00000000	0.0
59	0x37822603	1.5514908e-05
60	0x00000000	0.0
61	0x3a19af0b	0.000586257
62	0x385fe45b	5.3380016e-05
63	0xba2e5a22	-0.0006651004
64	0x00000000	0.0
65	0x00000000	0.0
66	0x393ba5d5	0.00017895487
67	0x00000000	0.0
68	0x3aa4c499	0.0012570798
69	0x3a12b075	0.0005595752
70	0xba437ae7	-0.00074569735
71	0x3a13a717	0.00056325033
72	0xba3dd614	-0.0007241678
73	0x3a868e92	0.0010265878
74	0xba07b5ed	-0.00051769504
75	0x3a4f0359	0.0007896922
76	0x37d98c51	2.5933756e-05
77	0x00000000	0.0
78	0x00000000	0.0
79	0x3a8eee4a	0.0010904756
80	0x00000000	0.0
81	0xb81659fe	-3.58466e-05
82	0xba384df3	-0.00070306583
83	0xb98db102	-0.00027025497
84	0x00000000	0.0
85	0xbaa7498e	-0.001276301
86	0xb9bb9376	-0.00035777286
87	0x00000000	0.0
88	0xb58b6e04	-1.0388326e-06
89	0x3af012dc	0.0018316167
90	0x3a05671a	0.00050889107
91	0x00000000	0.0
92	0xbab53bd7	-0.0013827038
93	0xb6584e94	-3.2232247e-06
94	0xb91b87a6	-0.00014832485
95	0x00000000	0.0

exp_avg_sq f4 [96]
0	0x00000000	0.0
1	0x33a98069	7.8930334e-08
2	0x3432e564	1.6660994e-07
3	0x35b88839	1.3748714e-06
4	0x3585b6f7	9.962522e-07
5	0x35d69a8b	1.598922e-06
6	0x00000000	0.0
7	0x30e163ca	1.6399266e-09
8	0x00000000	0.0
9	0x36b48f39	5.3810913e-06
10	0x00000000	0.0
11	0x3752800c	1.2546789e-05
12	0x359abb65	1.1528433e-06
13	0x322bb986	9.995693e-09
14	0x30c77031	1.4511042e-09
15	0x00000000	0.0
16	0x3591aec8	1.085421e-06
17	0x30a54a6e	1.2026484e-09
18	0x36b43803	5.3709387e-06
19	0x36031027	1.9529923e-06
20	0x34f91028	4.639162e-07
21	0x3595a1ec	1.114849e-06
22	0x357fce84	9.529542e-07
23	0x360d93cb	2.1096664e-06
24	0x35899d47	1.0253069e-06
25	0x36398b21	2.7648132e-06
26	0x3096b2b4	1.0964727e-09
27	0x3206dd1e	7.850103e-09
28	0x00000000	0.0
29	0x00000000	0.0
30	0x3434b670	1.6830177e-07
31	0x34bb7259	3.4914663e-07
32	0x35de15eb	1.6546668e-06
33	0x36414f62	2.8805448e-06
34	0x00000000	0.0
35	0x00000000	0.0
36	0x30ce18b0	1.4995489e-09
37	0x356637b0	8.5762713e-07
38	0x2eb2ffba	8.139929e-11
39	0x2f274f10	1.521665e-10
40	0x36d431ca	6.3238886e-06
41	0x37023e76	7.763147e-06
42	0x00000000	0.0
43	0x00000000	0.0
44	0x300db62d	5.155439e-10
45	0x359b7c49	1.1584572e-06
46	0x33355d76	4.222735e-08
47	0x31843dd9	3.848737e-09
48	0x00000000	0.0
49	0x35a25d52	1.20971e-06
50	0x34f15617	4.4952387e-07
51	0x00000000	0.0
52	0x345e4573	2.0700627e-07
53	0x37ef77e8	2.8546856e-05
54	0x3695eb05	4.467906e-06
55	0x365f4905	3.3272092e-06
56	0x32f046f6	2.7971947e-08
57	0x2e03f3df	3.0002553e-11
58	0x00000000	0.0
59	0x32e6a283	2.6849426e-08
60	0x00000000	0.0
61	0x35493c64	7.4966215e-07
62	0x34bf5f04	3.5645655e-07
63	0x3521c92e	6.026993e-07
64	0x00000000	0.0
65	0x00000000	0.0
66	0x348997ac	2.5628594e-07
67	0x00000000	0.0
68	0x36271cc0	2.4901674e-06
69	0x3604cbe9	1.9788224e-06
70	0x367fd4e9	3.812189e-06
71	0x351de82b	5.8824907e-07
72	0x35307ec5	6.5749583e-07
73	0x3641395e	2.8792633e-06
74	0x35345a15	6.718631e-07
75	0x35926775	1.0907958e-06
76	0x339d6de8	7.330874e-08
77	0x00000000	0.0
78	0x00000000	0.0
79	0x360cd101	2.0983282e-06
80	0x00000000	0.0
81	0x34b6e369	3.4065604e-07
82	0x36228574	2.421756e-06
83	0x34d5b85b	3.9808478e-07
84	0x00000000	0.0
85	0x361fb0e8	2.379582e-06
86	0x35630b36	8.4580404e-07
87	0x00000000	0.0
88	0x2e42764f	4.4215572e-11
89	0x368746a3	4.0315367e-06
90	0x350531cf	4.961884e-07
91	0x00000000	0.0
92	0x363ce3e5	2.8146835e-06
93	0x30d7ceb4	1.5702057e-09
94	0x35a402fe	1.2219823e-06
95	0x00000000	0.0

exp_avg f4 [96, 1]
0	0x00000000	0.0
1	0xb93a8bed	-0.00017790469
2	0xb8306384	-4.205435e-05
3	0xbbeda92b	-0.0072528324
4	0x3bf84454	0.0075765047
5	0xbadb6ef6	-0.0016741443
6	0x00000000	0.0
7	0xb5082ebf	-5.073197e-07
8	0x00000000	0.0
9	0x3c45f7df	0.012083023
10	0x00000000	0.0
11	0xba19ee79	-0.0005872022
12	0xb9d1a455	-0.00039986023
13	0x36e0998c	6.6935954e-06
14	0x35634570	8.4665135e-07
15	0x00000000	0.0
16	0x3c05fd2e	0.0081780385
17	0xb768d5ea	-1.3878083e-05
18	0x3c0ddaf8	0.008658163
19	0x3bf33b37	0.0074228304
20	0xbb267355	-0.0025398333
21	0x3a56c9ac	0.00081935036
22	0xba9908f6	-0.0011675644
23	0xbb72bab6	-0.0037037558
24	0x3b12d4c6	0.0022404655
25	0xba286aeb	-0.00064246234
26	0xb6e78465	-6.899749e-06
27	0x377459f3	1.4564476e-05
28	0x00000000	0.0
29	0x00000000	0.0
30	0xbb15d593	-0.0022862896
31	0x3b3cb839	0.0028796329
32	0xbab021bf	-0.0013437791
33	0xbbf96909	-0.007611398
34	0x00000000	0.0
35	0x00000000	0.0
36	0x36db9fb7	6.545302e-06
37	0x3a982142	0.0011606591
38	0x35adf4e8	1.2960782e-06
39	0xb5f17ac2	-1.7991626e-06
40	0xba0c03b7	-0.000534113
41	0x3ca77392	0.02044085
42	0x00000000	0.0
43	0x00000000	0.0
44	0x36d4c236	6.3407015e-06
45	0xbb16ca00	-0.0023008585
46	0xba2a0804	-0.000648618
47	0x3732a9a2	1.06491225e-05
48	0x00000000	0.0
49	0xbc291fec	-0.010322552
50	0xbb94acb2	-0.0045371884
51	0x00000000	0.0
52	0xb90ade06	-0.00013243416
53	0x3a9bf375	0.0011898117
54	0xbaf91687	-0.0019003906
55	0xb9e08bca	-0.0004282876
56	0x37764723	1.4679305e-05
57	0xb5212896	-6.0036234e-07
58	0x00000000	0.0
59	0xb832749e	-4.2547115e-05
60	0x00000000	0.0
61	0x3bb7a5ba	0.005604473
62	0x3a0ae247	0.0005298
63	0xbb4f6448	-0.0031645466
64	0x00000000	0.0
65	0x00000000	0.0
66	0x3b16f490	0.0023033954
67	0x00000000	0.0
68	0x3c04a40a	0.008095751
69	0x39e34cce	0.00043354038
70	0x3906f6ac	0.00012871128
71	0x3b5370b3	0.003226322
72	0xbbc139d8	-0.005896788
73	0x3bce3f76	0.006294186
74	0xbbc215e2	-0.005923019
75	0x3ad15ce5	0.0015973119
76	0x398d98e5	0.0002700753
77	0x00000000	0.0
78	0x00000000	0.0
79	0x3b9d1261	0.0047934507
80	0x00000000	0.0
81	0xb98068c3	-0.00024492116
82	0xb9b7ffa4	-0.00035094947
83	0xbb898be4	-0.0041975845
84	0x00000000	0.0
85	0xbb4b2482	-0.0030997102
86	0xba809422	-0.0009809772
87	0x00000000	0.0
88	0x344fc830	1.9351205e-07
89	0x3c69a655	0.014260848
90	0x3b32989a	0.0027251602
91	0x00000000	0.0
92	0xbc6a3b1c	-0.014296319
93	0xb3489f60	-4.671108e-08
94	0xb83afd62	-4.4581837e-05
95	0x00000000	0.0

exp_avg_sq f4 [96, 1]
0	0x00000000	0.0
1	0x3555273e	7.940579e-07
2	0x3412d055	1.36731e-07
3	0x391fb6d0	0.00015231525
4	0x397a6dab	0.00023882712
5	0x380da31d	3.376893e-05
6	0x00000000	0.0
7	0x30aee194	1.2724279e-09
8	0x00000000	0.0
9	0x39fa0787	0.00047689324
10	0x00000000	0.0
11	0x37f6a9db	2.940458e-05
12	0x36b13afa	5.281877e-06
13	0x3236d2b4	1.0641703e-08
14	0x309410a2	1.0773145e-09
15	0x00000000	0.0
16	0x3944b902	0.00018760937
17	0x309ad3b6	1.1265147e-09
18	0x39745b4a	0.00023303661
19	0x39ab8178	0.00032712123
20	0x37a21701	1.9322617e-05
21	0x38efe562	0.00011439134
22	0x37a60758	1.9792162e-05
23	0x392b9541	0.00016363432
24	0x382309a4	3.8871207e-05
25	0x364b2d33	3.0275667e-06
26	0x313ab7ba	2.7170999e-09
27	0x32f92a2a	2.900659e-08
28	0x00000000	0.0
29	0x00000000	0.0
30	0x383e4433	4.5363046e-05
31	0x387ff5a1	6.1025497e-05
32	0x379d9b59	1.8788198e-05
33	0x3902f065	0.0001248732
34	0x00000000	0.0
35	0x00000000	0.0
36	0x314f61df	3.0178098e-09
37	0x37bb9c2e	2.2364864e-05
38	0x2e68c7a3	5.2928006e-11
39	0x2e941087	6.7331966e-11
40	0x371f5ced	9.4987745e-06
41	0x3aae166e	0.0013281831
42	0x00000000	0.0
43	0x00000000	0.0
44	0x3133e4ec	2.6178055e-09
45	0x37a16d98	1.924373e-05
46	0x36b64e32	5.433126e-06
47	0x315a763b	3.1790381e-09
48	0x00000000	0.0
49	0x399eb278	0.00030269078
50	0x38cf73be	9.892088e-05
51	0x00000000	0.0
52	0x34d813b6	4.0247477e-07
53	0x37892584	1.6349142e-05
54	0x3796fd80	1.7999439e-05
55	0x36504aa0	3.1037853e-06
56	0x3358b9bd	5.0460347e-08
57	0x2d5d25e3	1.2570808e-11
58	0x00000000	0.0
59	0x32a204a0	1.8861385e-08
60	0x00000000	0.0
61	0x3917d904	0.00014481327
62	0x37d13192	2.4937824e-05
63	0x37e4b67b	2.7264692e-05
64	0x00000000	0.0
65	0x00000000	0.0
66	0x38025563	3.1073938e-05
67	0x00000000	0.0
68	0x394eeb0d	0.00019733254
69	0x37fcaf9e	3.012252e-05
70	0x356e2885	8.872087e-07
71	0x3889f7a6	6.578797e-05
72	0x38b386a2	8.5604624e-05
73	0x394aeda8	0.00019352755
74	0x38ced6e8	9.862875e-05
75	0x37c080b3	2.2948114e-05
76	0x369cbfb4	4.6714795e-06
77	0x00000000	0.0
78	0x00000000	0.0
79	0x38a5844f	7.8924575e-05
80	0x00000000	0.0
81	0x34f7e0ec	4.6170987e-07
82	0x366f860a	3.5691796e-06
83	0x38d2d83f	0.00010053859
84	0x00000000	0.0
85	0x3834f534	4.3143707e-05
86	0x3771e199	1.4417245e-05
87	0x00000000	0.0
88	0x2e09c21a	3.132259e-11
89	0x3a1fe6b4	0.0006099746
90	0x3851030a	4.9832313e-05
91	0x00000000	0.0
92	0x3a293da4	0.00064560235
93	0x30450c63	7.1685785e-10
94	0x36014f9d	1.926884e-06
95	0x00000000	0.0

exp_avg f4 [96, 3]
0	0x00000000	0.0
1	0x00000000	0.0
2	0x00000000	0.0
3	0xba41d609	-0.00073942594
4	0xb9755ce3	-0.00023399624
5	0xb80bdf91	-3.3348395e-05
6	0xbb0a5234	-0.0021106126
7	0xbab53b7e	-0.0013826934
8	0xb81a3404	-3.6764905e-05
9	0xbbb35200	-0.0054724216
10	0xbbfed847	-0.007777247
11	0xbb2e94fa	-0.002663909
12	0x3acb398c	0.0015504821
13	0x3a84e554	0.0010139146
14	0xbb6773a4	-0.003531673
15	0xbc15c164	-0.009140346
16	0xbb1b757c	-0.002372115
17	0x3aa43ab1	0.0012529698
18	0x00000000	0.0
19	0x00000000	0.0
20	0x00000000	0.0
21	0x34bb0880	3.483765e-07
22	0x34a4e680	3.071509e-07
23	0x343905b2	1.723154e-07
24	0x00000000	0.0
25	0x00000000	0.0
26	0x00000000	0.0
27	0x3c81f84d	0.01586547
28	0x3bbd459f	0.0057761217
29	0xbc2c2c91	-0.010508672
30	0x00000000	0.0
31	0x00000000	0.0
32	0x00000000	0.0
33	0xbd2bda9c	-0.04195653
34	0xbc86b164	-0.016442008
35	0x3759b740	1.2976874e-05
36	0xbb89e85d	-0.004208608
37	0xba6440d2	-0.0008707169
38	0x39e48153	0.00043583903
39	0x39e74bf6	0.0004411635
40	0x39b236d4	0.00033991656
41	0xb6529f5f	-3.1385205e-06
42	0xb82a055d	-4.0536153e-05
43	0xb815e103	-3.5733927e-05
44	0x35654cba	8.54208e-07
45	0x00000000	0.0
46	0x00000000	0.0
47	0x00000000	0.0
48	0x3bbacd51	0.005700745
49	0xb9d103d8	-0.0003986645
50	0x3b9e057e	0.004822432
51	0x398be2f3	0.00026681236
52	0x34cf6068	3.86269e-07
53	0x379469bd	1.7692213e-05
54	0x3c87b1f6	0.01656435
55	0x3c8136f1	0.015773268
56	0x3b6c8682	0.0036090915
57	0x3b479100	0.0030451417
58	0x3b1b20e0	0.0023670718
59	0xbb937b79	-0.004500803
60	0xbb8c8a20	-0.0042889267
61	0xbb260219	-0.002533084
62	0xbb0745ef	-0.002064105
63	0x3a24dc63	0.00062889437
64	0x3a570bd1	0.000820336
65	0xba21fc1b	-0.0006179229
66	0xbae4cd38	-0.001745618
67	0xba246d38	-0.00062723784
68	0x3a423208	0.0007407968
69	0xbc0ae79c	-0.008478072
70	0x38fd3136	0.00012073146
71	0x3aef8b22	0.0018275718
72	0x3b913ba3	0.004432158
73	0x3b89dc04	0.004207136
74	0xba0af6dd	-0.0005301068
75	0xbbda9596	-0.006670664
76	0xbaa0fd72	-0.0012282564
77	0x3a623bf1	0.0008630148
78	0xb890a9c6	-6.898078e-05
79	0xb89e583d	-7.550463e-05
80	0x8000034a	-1.18e-42
81	0x377d7454	1.510706e-05
82	0x37523110	1.2528399e-05
83	0xb46dafb2	-2.2136263e-07
84	0x00000000	0.0
85	0x00000000	0.0
86	0x00000000	0.0
87	0x00000000	0.0
88	0x00000000	0.0
89	0x00000000	0.0
90	0xba77145d	-0.00094253366
91	0x3a45232d	0.0007520195
92	0xb9629d6b	-0.00021611682
93	0x3ac2ba32	0.0014856516
94	0x3b47b657	0.0030473673
95	0xbaa1fd59	-0.0012358829
96	0xbb9b8d8b	-0.004747098
97	0xbb12bc4c	-0.0022390066
98	0x3a4bba65	0.00077716104
99	0xbc741ba0	-0.014899164
100	0xbc386eaf	-0.011256858
101	0xbbb36338	-0.0054744743
102	0x00000000	0.0
103	0x00000000	0.0
104	0x00000000	0.0
105	0x00000000	0.0
106	0x00000000	0.0
107	0x00000000	0.0
108	0xb7d6dc20	-2.5613292e-05
109	0xb794ff1a	-1.7761766e-05
110	0x3553d63c	7.891538e-07
111	0x3b51bd6a	0.0032003769
112	0x3b2fe76b	0.0026840817
113	0x39f3f560	0.0004653139
114	0xb6da10ae	-6.498848e-06
115	0xb7623cf2	-1.348484e-05
116	0x3449385a	1.8740084e-07
117	0xb75f01ca	-1.3292252e-05
118	0xb7cc6279	-2.436455e-05
119	0xb5b2c3b0	-1.3318986e-06
120	0xbc9c3d64	-0.019072242
121	0xbbb81fee	-0.0056190407
122	0x3a850c15	0.0010150695
123	0x3bfe8cf2	0.007768267
124	0x3bcdb0b8	0.00627717
125	0x3c402a0c	0.011728775
126	0x00000000	0.0
127	0x00000000	0.0
128	0x00000000	0.0
129	0x00000000	0.0
130	0x00000000	0.0
131	0x00000000	0.0
132	0xb7844669	-1.5768414e-05
133	0xb76fa1ba	-1.4283165e-05
134	0xb600f246	-1.9214508e-06
135	0xbc2f0149	-0.010681459
136	0xbb7905dc	-0.0037997877
137	0xbad9f350	-0.0016628299
138	0xba29341a	-0.0006454602
139	0xb8ef5fe2	-0.00011414268
140	0x39f7891f	0.00047213674
141	0x399d88db	0.0003004734
142	0x39798ddc	0.00023799337
143	0x370dfb58	8.462775e-06
144	0x00000000	0.0
145	0x00000000	0.0
146	0x00000000	0.0
147	0xbb84ac7a	-0.004048881
148	0x3a2bf287	0.0006559272
149	0x3ba1bd4d	0.0049358965
150	0xba3ecc1d	-0.000727834
151	0xbb396f05	-0.0028294933
152	0xba95f61b	-0.0011441143
153	0x00000000	0.0
154	0x00000000	0.0
155	0x00000000	0.0
156	0xba6785c9	-0.0008831886
157	0xba417801	-0.00073802477
158	0xb91cccb0	-0.00014953571
159	0x3da1fed1	0.079099305
160	0x3d0f63bf	0.035007235
161	0xbb136ee5	-0.0022496518
162	0xbc99c8e2	-0.018772546
163	0xbc04069b	-0.0080582155
164	0x3ac6ad00	0.0015157759
165	0xbbb1fb6f	-0.0054315845
166	0xbb2f9902	-0.002679408
167	0x3940d766	0.00018390789
168	0x34b42400	3.3553806e-07
169	0x35a2dc20	1.2134005e-06
170	0x3628e2d4	2.5165982e-06
171	0xb66c9a18	-3.5256435e-06
172	0xb6c06879	-5.734208e-06
173	0x3523fcdd	6.1090196e-07
174	0x00000000	0.0
175	0x00000000	0.0
176	0x00000000	0.0
177	0x39b29275	0.00034059925
178	0x39903e57	0.00027512267
179	0x36dad09e	6.5211925e-06
180	0x00000000	0.0
181	0x00000000	0.0
182	0x00000000	0.0
183	0x3a825b3e	0.0009945405
184	0x3a8c9379	0.0010725103
185	0x3b1fd888	0.0024390537
186	0x3a1dc0bc	0.00060177944
187	0x3a2c611a	0.00065757486
188	0xb9e9cc07	-0.00044593235
189	0xbba52551	-0.005039849
190	0xbb7ff1e1	-0.0039054083
191	0xbb046bac	-0.002020578
192	0x00000000	0.0
193	0x00000000	0.0
194	0x00000000	0.0
195	0x00000000	0.0
196	0x00000000	0.0
197	0x00000000	0.0
198	0x3b141273	0.0022594004
199	0xb907a022	-0.00012934257
200	0xbaa0faf1	-0.0012281818
201	0x00000000	0.0
202	0x00000000	0.0
203	0x00000000	0.0
204	0x3c186655	0.009301742
205	0x3c20476b	0.009782652
206	0x3b972234	0.0046122316
207	0x3b5c6cbe	0.0033634151
208	0xba15bc42	-0.00057119515
209	0x3992e220	0.00028015766
210	0xbc361180	-0.011112571
211	0xbbc2aec4	-0.005941244
212	0xb8c27337	-9.272101e-05
213	0x3b255799	0.0025229214
214	0x3a7265bb	0.00092467264
215	0x3b16c7d9	0.0023007302
216	0xbb69e66f	-0.0035690328
217	0xbbc11bfa	-0.0058932276
218	0xbb11278e	-0.002214882
219	0x3c234ddd	0.0099672945
220	0x3c169408	0.009190567
221	0xbb9100db	-0.004425151
222	0xbba25537	-0.004954006
223	0xbb070f41	-0.0020608457
224	0xbb9524e4	-0.004551517
225	0x3be4464e	0.006966389
226	0x3a0d8675	0.0005398759
227	0xba900a00	-0.0010989308
228	0x39def70e	0.0004252721
229	0x3a13b3af	0.000563438
230	0x38fb31be	0.00011977878
231	0x00000000	0.0
232	0x00000000	0.0
233	0x00000000	0.0
234	0x00000000	0.0
235	0x00000000	0.0
236	0x00000000	0.0
237	0x3c00b422	0.007855447
238	0x3be828de	0.00708495
239	0x3ad3f537	0.0016171102
240	0x00000000	0.0
241	0x00000000	0.0
242	0x00000000	0.0
243	0xba87bab0	-0.001035532
244	0xba66f62a	-0.0008810485
245	0x3964784a	0.00021788586
246	0xbbc73fd7	-0.0060806083
247	0xbab2339c	-0.0013595703
248	0x39f6560c	0.00046984886
249	0xbac38e8c	-0.0014919802
250	0xba1c63fb	-0.0005965826
251	0xbb19cdf9	-0.0023468717
252	0x00000000	0.0
253	0x00000000	0.0
254	0x00000000	0.0
255	0xbc85bb04	-0.016324528
