Experimental_Models/Original_With_Exp_Eps_v1.4.pt (torch_old, 1882 bytes, 5 tensors)

fc1.bias f4 [12]
00000000: b831 e5bd 277e 9cbe 276f 0bbf f27b 2abe
00000010: 11e4 e8be d4c4 063e 4067 f33c 08e3 a5bd
00000020: 2679 ce3e d685 7cbe 40e4 c13c 3038 b33e
-0.11191124 -0.30564997 -0.5446648 -0.16648844 -0.454865 0.13161021 0.02971232 -0.080999434
0.40326804 -0.2466043 0.023668408 0.35003805

fc1.weight_g f4 [12, 1]
00000000: e2a3 013f f5bc e93e 4ba2 e63e 8a29 8b3e
00000010: 88a5 533f 2b14 123f 0190 183f 3368 2e3f
00000020: 028a 253f 8804 3e3f 9ff7 d33e 5ba6 393f
0.5064069 0.45651975 0.45045695 0.2718013 0.82674456 0.57062024 0.5959473 0.68127745
0.6466371 0.74225664 0.41399857 0.72519463

fc1.weight_v f4 [12, 3]
00000000: aceb 653e becf b7be d235 8e3e 500e 403e
00000010: 08c3 763e 2ac0 ad3e 1881 b13e 00d9 313e
00000020: d0bf 6a3e a6f0 843e d038 a23d 807a 5ebc
00000030: 4486 e83e a4c8 dbbe 7791 0abf a057 98bc
00000040: 644c 4cbe b6c6 083f a267 efbe 405f a8bc
00000050: 70e1 bcbe 5c7f c13e b9d2 02bf b82a 7b3e
00000060: c2e7 093f 70d5 d13d 1278 afbe dc14 f2be
00000070: 020f d43e 0d20 cabe 581c 383e 3c5b 573e
00000080: c0ac 9dbe 13b9 85be 5258 c53e a855 0ebf
0.22453183 -0.35900682 0.27775437 0.1875546 0.24097836 0.33935672 0.34668803 0.17367935
0.22924733 0.2596485 0.079209924 -0.013579011 0.45414937 -0.42926514 -0.5412821 -0.01859647
-0.19951016 0.5342821 -0.46758753 -0.020553231 -0.36890745 0.3779248 -0.5110279 0.24528015
0.5386926 0.10245788 -0.34271294 -0.4728154 0.414177 -0.39477578 0.17979562 0.21030897
-0.3079586 -0.26117763 0.38543946 -0.5559945

fc2.weight f4 [2, 12]
00000000: e8b8 443e 6d4b 00be b8a4 363d d4ad 28bd
00000010: ddb9 72be 607f 34bc 0046 abbd 1a95 4ebe
00000020: 84f7 543e 4037 9ebb e8c3 9fbd 00cc 52be
00000030: 186c 083e ef61 27be 0c45 73bd 6223 183e
00000040: 7cb5 2bbe 0c5a 3e3e f0e8 debc fa65 30be
00000050: 84f0 913d 6af8 1abe 8c49 65bd 5029 c5bc
0.19211161 -0.12528773 0.04459068 -0.0411814 -0.23703714 -0.011016697 -0.08362961 -0.20174065
0.20797545 -0.0048283637 -0.07801038 -0.20585632 0.13322484 -0.16345952 -0.05939202 0.14857247
-0.1676845 0.18589038 -0.027210683 -0.17226401 0.07125953 -0.15133825 -0.055978343 -0.02406755

fc2.bias f4 [2]
00000000: 540f 1fbd b259 933e
-0.038832977 0.2877937
