Experimental_Models/Original_With_Exp_Eps_v1.1.pt (torch_old, 1882 bytes, 5 tensors)

fc1.bias f4 [12]
000000 38 6f 71 3e 5e 86 12 3f 0a fd 0a bf c0 3b ea 3c
       0.23577583 0.5723628 -0.54292357 0.028592944
000010 78 8b bb bd 28 e9 11 3f b8 1f cf 3d 5e 8e 13 bf
       -0.09157461 0.56996393 0.10113472 -0.5763911
000020 32 ed d9 be d4 66 25 3e 00 c6 bd ba f0 52 56 bd
       -0.42563778 0.16152507 -0.0014478564 -0.05232519

fc1.weight_g f4 [12, 1]
000000 58 56 e9 3e ee d7 fd 3e c7 e1 1a 3f 5e 1e 3b 3f
       0.45573688 0.49578804 0.6050076 0.7309321
000010 ed be 55 3f 3c a9 2e 3f a0 63 ac 3e f4 9b e3 3e
       0.83494455 0.6822698 0.33669758 0.4445492
000020 72 85 0b 3f 40 1e 38 3f d3 ca fa 3e f1 af 41 3f
       0.54500496 0.7192116 0.48982868 0.7565909

fc1.weight_v f4 [12, 3]
000000 22 66 d2 be 7c 6a 35 be e0 a9 b0 3d fe 0e d4 be
       -0.41093546 -0.17716402 0.08626151 -0.41417688
000010 00 6e 6e 3e 58 fd 10 be 44 90 c1 be f2 43 d2 be
       0.23284149 -0.14159143 -0.37805378 -0.41067463
000020 58 f5 6e be dc bb 71 3e 98 7b 0d 3f b7 03 d5 be
       -0.23335779 0.23606819 0.55266714 -0.41604397
000030 5a 24 ab 3e ee 7b 0c 3f 08 7d 08 3f 58 6b 09 bf
       0.33426172 0.548766 0.5331578 -0.5367942
000040 5c 1b d6 3e 80 a3 4b 3d 82 ae 1b be 5c 08 89 be
       0.4181775 0.049716473 -0.15203288 -0.2676419
000050 02 ba 0b be f8 5f b0 3e f4 c2 2a 3e ea 95 67 be
       -0.13645175 0.34448218 0.16675931 -0.22615781
000060 76 88 21 be 94 fc 56 3e 60 83 f4 be 40 04 04 3f
       -0.15774712 0.20994788 -0.4775648 0.51568985
000070 88 ca e7 3e 42 85 5c be 8b 2e a9 be e4 ad eb bd
       0.45271707 -0.21535209 -0.33043322 -0.115077764
000080 d0 81 af 3e 2a 6e ef be 3c ae f4 be 78 48 b5 3e
       0.34278727 -0.46763736 -0.4778918 0.35406852

fc2.weight f4 [2, 12]
000000 a0 b7 e4 bc 90 63 56 be 4a b7 51 3e d8 61 4f 3e
       -0.02791959 -0.20936418 0.20480075 0.20252168
000010 04 eb c0 3d 84 6e d2 3d d0 17 d3 3c 76 ca 47 3e
       0.09419826 0.102749854 0.02576819 0.19510826
000020 9c ae 07 3e 60 6c a2 3c 66 08 90 be 00 f4 70 3b
       0.13250202 0.019827068 -0.28131407 0.003676653
000030 e2 eb b0 bd 2c a2 8f 3e d0 e0 1d 3e c2 c0 35 be
       -0.08638741 0.28053415 0.1541779 -0.17749313
000040 32 a2 8d 3e 54 d1 fd bd 04 c3 29 3e 00 cf 9a 3b
       0.27662808 -0.12393442 0.16578299 0.0047243834
000050 5d 11 2d be e8 99 83 3e c4 6b 67 3e 88 99 1f 3d
       -0.16901155 0.2570336 0.22599703 0.03896478

fc2.bias f4 [2]
000000 80 08 40 3d d8 d4 24 3d
       0.046883106 0.040242046
