Experimental_Models/Original_With_Exp_Eps_v1.2.pt (torch_old, 1882 bytes, 5 tensors)

fc1.bias f4 [12]
00000000: 2819 d0be c09a 00bc a012 ea3e 3c7b 2b3e
00000010: 2667 67be de07 04be c40c e73e 22e0 013f
00000020: 00b0 dabd 445f 713e 4a21 51be b8ed c33e
-0.40644193 -0.007849395 0.45717335 0.16746229 -0.22597942 -0.12893626 0.45126927 0.50732625
-0.106781006 0.23571497 -0.20422855 0.38267303

fc1.weight_g f4 [12, 1]
00000000: 2018 0e3f 6554 083f 6807 fb3e e9ce 423f
00000010: 1e9f 333f 14ae 963e 9f58 443f a7bd 003f
00000020: f00b 123f 05f4 303f a571 143f 6199 553f
0.5550556 0.53253776 0.49029088 0.7609697 0.7016467 0.29429686 0.76697725 0.50289387
0.57049465 0.69122344 0.5798591 0.8343716

fc1.weight_v f4 [12, 3]
00000000: 5bdd f7be e855 36be bae6 51be 001d d33b
00000010: 0a29 c4be 8e59 bd3e 80e4 e33c 0000 4bbe
00000020: c826 e53e c0a7 84be 3478 d83e 42c5 13bf
00000030: fbdc a4be 1566 8cbe 3e52 0f3f 80e8 81bb
00000040: e8b0 8a3d 589f 923e 0834 f33e 245f ba3e
00000050: 939c f5be 2e29 d63e 40da 373e 80eb 5a3e
00000060: be6b 9dbe 409d 03bd 087e f53e 447c eb3e
00000070: 6afa 033f 40bb b13c f832 f63e 7cbc 4e3e
00000080: 41c8 81be 5060 e73e 9239 0dbf 36c7 ddbe
-0.48411068 -0.17806208 -0.20498171 0.006442666 -0.3831256 0.36982387 0.027818918 -0.19824219
0.4475615 -0.25909233 0.42279208 -0.57722867 -0.32199845 -0.27421632 0.55984867 -0.0039644837
0.067720234 0.28637195 0.47500634 0.36400712 -0.4797102 0.41828293 0.1795435 0.21378899
-0.30746263 -0.032132387 0.47947717 0.45993245 0.51553977 0.021695733 0.4808576 0.20189089
-0.25348094 0.45190668 -0.5516597 -0.43316048

fc2.weight f4 [2, 12]
00000000: a39a 92be 146b c9bd 820f 463e 9814 78be
00000010: 80f7 223d 780f 833e 2088 36bd 5a96 1c3e
00000020: 80db 113c 0e2e 76be c8ca 513d 4ded 19be
00000030: bcf9 ae3d cc69 613e 8b05 82be a283 77be
00000040: 9809 bb3d 9602 1c3e ca5c fabd 88f6 52be
00000050: 703b 7f3e 0ec8 5dbe 2cae 01be b02d cb3d
-0.28633603 -0.09834877 0.19341853 -0.24226606 0.039786816 0.2559774 -0.044563413 0.1529173
0.008902431 -0.24041006 0.051218778 -0.1503193 0.08543727 0.22013015 -0.25394854 -0.24171308
0.09132689 0.15235361 -0.12224729 -0.20601857 0.24925017 -0.21658346 -0.12664098 0.099208236

fc2.bias f4 [2]
00000000: 80dd 3d3b 98d9 4b3d
0.0028971136 0.04976806
