Experimental_Models/Original_With_Exp_Eps_v1.5.pt (torch_old, 57647 bytes, 15 tensors)

fc1.bias f4 [12]
000000 7f cd 06 3f dd 22 80 3e 83 ea af be bb 85 e8 be
       0.5265731 0.250266 -0.34358606 -0.45414528
000010 81 f4 e2 be 5e be 87 3e 6f a0 10 bf 74 f8 a7 3e
       -0.44327167 0.26512426 -0.564948 0.32806742
000020 4c 3f 18 3e 1a b8 86 3e 97 65 04 bf e0 46 76 3e
       0.14867896 0.26312333 -0.51717514 0.24050474

fc1.weight_g f4 [12, 1]
000000 b3 15 c3 3e 27 10 23 3f 1b e7 25 3f fd 8e 71 3e
       0.38102493 0.6369652 0.64805764 0.23589702
000010 fa 1e 09 3f f0 e3 12 3f 09 d0 09 3e de 72 3c 3f
       0.5356289 0.57379055 0.13458265 0.73612773
000020 19 32 09 3f 0e e7 0c 3f 8f 4f 1d 3f 42 cc 22 3f
       0.5359207 0.5504006 0.6144952 0.6359292

fc1.weight_v f4 [12, 3]
000000 5a 91 be 3e f8 a2 ad bc 3a a4 27 3d d2 5c f6 3e
       0.3722027 -0.021195874 0.040928103 0.4811769
000010 b1 2e cf 3e 7e b9 41 be 23 a4 f1 3e cc cb ee be
       0.4046531 -0.18918416 0.4719554 -0.4663986
000020 ae f4 96 3d af 27 b8 3d 6b f3 35 be ab 0b 59 3b
       0.07370888 0.08991944 -0.17768638 0.0033118527
000030 ac 9b 15 3e 94 d8 e9 3e b9 8e fe 3d 84 9a d8 3c
       0.14610165 0.45673048 0.12429566 0.026440866
000040 59 c7 85 3e 5e 27 f5 be 60 60 75 bd 80 cc a8 bb
       0.26128653 -0.47881597 -0.059906363 -0.0051513314
000050 80 96 f6 bd 6e 50 ed be 24 6d 22 be 4e a8 0c 3f
       -0.12040424 -0.46350425 -0.15861946 0.5494431
000060 14 1a fc be c0 02 68 3d 2c c0 50 3e 61 8b 52 3e
       -0.49238646 0.056643248 0.20385808 0.20560981
000070 c3 56 14 3e f0 1d ed 3e 36 e7 03 bf 48 ad a7 be
       0.14486222 0.46311903 -0.51524675 -0.3274939
000080 90 f6 8e bd 68 f0 04 bf 04 5e 8a be 7c 5e 7e be
       -0.06980622 -0.5192933 -0.27024853 -0.2484073

fc2.weight f4 [2, 12]
000000 58 ae 89 3e 13 02 3c 3e 85 00 87 3e 67 89 0c be
       0.26890826 0.18360166 0.26367584 -0.1372429
000010 9c 90 5a be 77 bd 2f bd 8a aa 8b be 48 dc 15 3d
       -0.21344227 -0.042905297 -0.27278548 0.03658703
000020 e0 33 94 3c b1 45 ec bd a0 8c eb bc 1e 6d 32 be
       0.018091142 -0.1153673 -0.028753579 -0.17424437
000030 ac f5 69 3e b4 54 52 be 78 03 3b 3e 52 53 4b 3e
       0.22847623 -0.20540124 0.18263042 0.19856003
000040 bd 71 3e be ae 95 c0 3d 84 a8 95 bd 90 1c 13 3d
       -0.18598075 0.09403549 -0.073075324 0.03591591
000050 90 a7 0d 3e bc db 81 3e 98 67 68 be be 63 8d be
       0.13833451 0.25362957 -0.22695768 -0.2761516

fc2.bias f4 [2]
000000 e5 6d 2f be 9c 0c 0e be
       -0.17131765 -0.13871998

exp_avg f4 [12]
000000 35 6a 28 3f 61 29 f1 3e d6 c3 21 3f 04 22 1d be
       0.6578706 0.47101882 0.63189447 -0.15345007
000010 db 80 05 bf 6d 82 e6 bd 00 00 00 00 00 00 00 00
       -0.5214974 -0.112553455 0.0 0.0
000020 00 00 00 00 f1 30 9b be 00 00 00 00 00 00 00 00
       0.0 -0.30310777 0.0 0.0

exp_avg_sq f4 [12]
000000 6b 3f e5 3e 46 c2 9a 3e 00 3a db 3e f3 27 8f 3c
       0.44774947 0.30226344 0.42817688 0.017475104
000010 6b 84 7c 3e b7 3c 53 3c 00 00 00 00 00 00 00 00
       0.24659888 0.0128928935 0.0 0.0
000020 00 00 00 00 50 23 f0 3d 00 00 00 00 00 00 00 00
       0.0 0.11725485 0.0 0.0

exp_avg f4 [12, 1]
000000 8e cc 22 41 25 3d e5 40 23 7c 91 40 d2 73 37 bf
       10.17494 7.163714 4.5464034 -0.716611
000010 c7 9b ac c0 b7 3c cd be 00 00 00 00 00 00 00 00
       -5.394016 -0.40085384 0.0 0.0
000020 00 00 00 00 2f f9 18 c0 00 00 00 00 00 00 00 00
       0.0 -2.390209 0.0 0.0

exp_avg_sq f4 [12, 1]
000000 ac 49 e7 42 05 70 8f 42 b1 6b ca 41 9e d0 a9 3e
       115.64389 71.71879 25.302584 0.33166975
000010 60 1d cb 41 48 bb 10 3e 00 00 00 00 00 00 00 00
       25.389343 0.14133942 0.0 0.0
000020 00 00 00 00 86 9d d4 40 00 00 00 00 00 00 00 00
       0.0 6.644229 0.0 0.0

exp_avg f4 [12, 3]
000000 39 78 c0 3e c0 dd 94 40 72 18 83 bf d8 5f 03 40
       0.37591723 4.652069 -1.0241835 2.0527248
000010 f6 71 bc bf 70 c3 04 40 f9 ec d7 40 9e 99 d8 40
       -1.4722278 2.0744286 6.7476773 6.768752
000020 61 a8 c8 be e5 ca 29 c0 23 90 ab bf 08 0c b9 bc
       -0.39190963 -2.6530087 -1.3403362 -0.022588745
000030 80 19 e8 c0 44 a7 f8 3f 63 88 b0 3f 19 fc e7 bf
       -7.253113 1.9426045 1.3791622 -1.8123809
000040 e5 87 07 bf 52 e2 c6 be 00 00 00 00 00 00 00 00
       -0.52941734 -0.38844544 0.0 0.0
000050 00 00 00 00 00 00 00 00 00 00 00 00 00 00 00 00
       0.0 0.0 0.0 0.0
000060 00 00 00 00 00 00 00 00 00 00 00 00 19 b0 7b c0
       0.0 0.0 0.0 -3.9326231
000070 e1 a5 a2 bf 3c 18 09 40 00 00 00 00 00 00 00 00
       -1.2706872 2.1421041 0.0 0.0
000080 00 00 00 00 00 00 00 00 00 00 00 00 00 00 00 00
       0.0 0.0 0.0 0.0

exp_avg_sq f4 [12, 3]
000000 7b 5b 87 3d ed 78 a0 41 2b 1b 32 3f ba d9 a1 40
       0.066092454 20.059046 0.69572705 5.057828
000010 88 5a 32 40 d8 53 b7 40 33 76 44 42 8c 6f 52 42
       2.7867756 5.728985 49.11543 52.608932
000020 a9 a5 21 3e 59 fe a0 40 49 e3 85 3f cd 3c a4 3a
       0.1578585 5.0310483 1.0459987 0.0012530327
000030 05 50 48 42 0e 6d 45 40 2b 0b dc 3f c8 07 48 40
       50.078144 3.0847812 1.7190908 3.125475
000040 a1 21 a1 3e 42 86 07 3e 00 00 00 00 00 00 00 00
       0.3147097 0.13234809 0.0 0.0
000050 00 00 00 00 00 00 00 00 00 00 00 00 00 00 00 00
       0.0 0.0 0.0 0.0
000060 00 00 00 00 00 00 00 00 00 00 00 00 e3 f8 98 41
       0.0 0.0 0.0 19.121527
000070 da 0b 17 40 e9 29 a8 40 00 00 00 00 00 00 00 00
       2.3600984 5.255116 0.0 0.0
000080 00 00 00 00 00 00 00 00 00 00 00 00 00 00 00 00
       0.0 0.0 0.0 0.0

exp_avg f4 [2, 12]
000000 10 ae 7e 41 5d b4 c7 41 35 50 26 41 2a 57 3b 3f
       15.917496 24.963068 10.394582 0.73179877
000010 fa 58 4b 41 07 06 b8 40 00 00 00 00 00 00 00 00
       12.709223 5.7507358 0.0 0.0
000020 00 00 00 00 fa d0 39 41 00 00 00 00 00 00 00 00
       0.0 11.61352 0.0 0.0
000030 be b1 80 be 43 92 ef be 6b 9f 86 bd 3b 1c b3 3b
       -0.25135607 -0.46791276 -0.06573375 0.005466012
000040 70 dd 94 be 5a 37 14 be 00 00 00 00 00 00 00 00
       -0.29075193 -0.1447424 0.0 0.0
000050 00 00 00 00 39 7c 63 be 00 00 00 00 00 00 00 00
       0.0 -0.22215356 0.0 0.0

exp_avg_sq f4 [2, 12]
000000 a8 37 97 43 42 57 35 44 41 fa 08 43 55 57 9a 3e
       302.4348 725.3634 136.97755 0.30144754
000010 b7 a3 23 43 43 72 f3 41 00 00 00 00 00 00 00 00
       163.63951 30.430792 0.0 0.0
000020 00 00 00 00 34 3e 09 43 00 00 00 00 00 00 00 00
       0.0 137.24298 0.0 0.0
000030 b1 72 1a 40 4c 9c dd 40 0f a6 08 3f 39 ee 9a 39
       2.4132502 6.925329 0.53378385 0.0002955066
000040 78 fd f2 3f ae a9 c2 3e 00 00 00 00 00 00 00 00
       1.8983603 0.3802008 0.0 0.0
000050 00 00 00 00 19 3b 99 3f 00 00 00 00 00 00 00 00
       0.0 1.197116 0.0 0.0

exp_avg f4 [2]
000000 78 cc 1f 40 f4 cf 76 bd
       2.4968548 -0.060256913

exp_avg_sq f4 [2]
000000 16 cc da 40 97 df b1 3d
       6.837413 0.086852245
