Experimental_Models/Three_Layer_12_6_Run_v1.2.pt (torch_old, 543755 bytes, 15 tensors)

fc1.bias f4 [12]
-0.015034528 0.5740408 -0.65978056 0.2332122 -0.5743151 0.4353402 -0.0727126 -0.13615748
0.10714954 -0.047167785 -0.51102114 -0.56996566
00000000: 6253 76bc 56f4 123f 61e7 28bf 2ecf 6e3e
00000010: 5006 13bf e9e4 de3e 58ea 94bd de6c 0bbe
00000020: 3871 db3d 0233 41bd 48d2 02bf 45e9 11bf

fc1.weight_g f4 [12, 1]
0.4154625 0.353733 0.5729914 0.5918781 0.3960442 0.26227853 0.6837408 0.38104242
0.5143188 0.34148642 0.5466328 0.48082554
00000000: 80b7 d43e 7e1c b53e 90af 123f 5385 173f
00000010: 4ec6 ca3e 5f49 863e a309 2f3f fe17 c33e
00000020: 66aa 033f 4fd7 ae3e 21f0 0b3f c42e f63e

fc1.weight_v f4 [12, 3]
0.31019646 -0.26157847 -0.30278933 0.13379519 -0.17433809 -0.054921497 0.5173495 -0.31014115
0.14899893 0.37233067 -0.5228565 -0.20840017 -0.31122348 -0.24481684 -0.0074607134 0.025002737
0.1354448 -0.09568138 -0.43992284 0.10031402 -0.51371825 0.19445422 0.23447 -0.29130697
-0.13293841 0.030941606 -0.49587682 -0.06749229 0.18211573 -0.014670147 0.13000882 -0.28118482
0.23297262 -0.24486686 0.31970617 0.38260022
00000000: 12d2 9e3e 9ded 85be 3407 9bbe 9b01 093e
00000010: af85 32be 5df5 60bd 0471 043f d2ca 9ebe
00000020: 2d93 183e 20a2 be3e ecd9 05bf db66 55be
00000030: af58 9fbe 44b1 7abe 0079 f4bb 8ad2 cc3c
00000040: 0bb2 0a3e 99f4 c3bd 913d e1be 7071 cd3d
00000050: 0a83 03bf 021f 473e e718 703e 3026 95be
00000060: 0221 08be 4079 fd3c 91e3 fdbe 6639 8abd
00000070: 8c7c 3a3e 0e5b 70bc 0821 053e 75f7 8fbe
00000080: 6090 6e3e 61be 7abe 87b0 a33e 2de4 c33e

fc2.weight f4 [2, 12]
0.12691472 -0.34914508 0.17079408 -0.014696163 0.014558107 -0.26553553 0.10704276 0.09172463
0.20462266 -0.29314628 -0.05283629 0.010589093 0.060686458 0.22038539 -0.024167761 -0.0007786044
0.1982744 -0.082305096 -0.25172576 -0.22232752 -0.20909676 0.29143596 -0.31656894 -0.23629759
00000000: eff5 013e 25c3 b2be a5e4 2e3e 2dc8 70bc
00000010: 2085 6e3c 46f4 87be 3c39 db3d 1fda bb3d
00000020: 9a88 513e 4517 96be de6a 58bd e07d 2d3c
00000030: 5d92 783d b5ac 613e 78fb c5bc 421b 4cba
00000040: 7208 4b3e 938f a8bd 33e2 80be d3a9 63be
00000050: 761d 56be 1837 953e 5315 a2be fff7 71be

fc2.bias f4 [2]
-0.0931594 0.21294469
00000000: 5bca bebd 2c0e 5a3e

exp_avg f4 [12]
0.0028190922 -0.010032578 0.0045742327 -0.00037461758 0.0 -0.006484156 0.0 0.0032954554
0.0 -0.00022789754 -0.0015770147 -0.000105221276
00000000: 85c0 383b af5f 24bc 72e3 953b 5268 c4b9
00000010: 0000 0000 0b79 d4bb 0000 0000 91f8 573b
00000020: 0000 0000 c8f7 6eb9 d5b3 ceba 3eaa dcb8

exp_avg_sq f4 [12]
4.3290995e-05 0.00036847792 8.2524864e-05 5.8202784e-07 0.0 0.0001922906 0.0 3.518301e-05
0.0 0.00012178292 5.268513e-06 3.1539741e-07
00000000: 5a93 3538 4530 c139 3311 ad38 a63c 1c35
00000010: 0000 0000 9da1 4939 0000 0000 7891 1338
00000020: 0000 0000 b565 ff38 2fc8 b036 e453 a934

exp_avg f4 [12, 1]
0.008599528 -0.031656794 0.013714955 -0.0012732794 0.0 0.014204092 0.0 0.005060887
0.0 -0.0030291937 -0.0054524364 -0.001376475
00000000: 09e5 0c3c 8eaa 01bd b1b4 603c 2be4 a6ba
00000010: 0000 0000 48b8 683c 0000 0000 ccd5 a53b
00000020: 0000 0000 7085 46bb 5aaa b2bb d66a b4ba

exp_avg_sq f4 [12, 1]
0.0018816624 0.009062002 0.008165086 1.2002587e-05 0.0 0.010106936 0.0 0.0034374737
0.0 0.0010906745 6.2520354e-05 2.5256104e-06
00000000: 1da2 f63a cb78 143c dac6 053c b85e 4937
00000010: 0000 0000 9097 253c 0000 0000 3d47 613b
00000020: 0000 0000 f7f4 8e3a 5c1d 8338 a87d 2936

exp_avg f4 [12, 3]
-0.0020989948 -0.0063318373 0.0033207447 -0.009821288 -0.0048971707 -0.008356301 -0.0013190082 -0.0042262375
-0.00421941 -4.7356443e-06 9.379881e-05 -0.00024363764 0.0 0.0 0.0 -0.018472424
0.0147964265 0.01613208 0.0 0.0 0.0 0.010692459 -0.0052967533 0.002875156
0.0 0.0 0.0 0.09958403 0.037094593 0.0024820324 -0.01632106 -0.0032473297
0.0051857005 0.0014799101 0.00015107902 0.00082056416
00000000: 4a8f 09bb 4d7b cfbb daa0 593b 78e9 20bc
00000010: 7278 a0bb dee8 08bc 92e2 acba 407c 8abb
00000020: fa42 8abb e0e6 9eb6 dab5 c438 fb78 7fb9
00000030: 0000 0000 0000 0000 0000 0000 7b53 97bc
00000040: b66c 723c 6d27 843c 0000 0000 0000 0000
00000050: 0000 0000 6c2f 2f3c 6390 adbb 1d6d 3c3b
00000060: 0000 0000 0000 0000 0000 0000 b6f2 cb3d
00000070: 80f0 173d 98a9 223b beb3 85bc 27d1 54bb
00000080: cfec a93b 8bf9 c13a f76a 1e39 211b 573a

exp_avg_sq f4 [12, 3]
0.003959992 0.0025350237 0.0004930375 0.1370567 0.07538351 0.0016561628 0.003493864 0.008111457
0.00035614226 7.672884e-05 3.481106e-05 1.1246765e-06 0.0 0.0 0.0 0.096147045
0.00046032853 0.008354272 0.0 0.0 0.0 0.0027443708 0.00012122953 0.0013937772
0.0 0.0 0.0 0.10297399 0.014345926 7.497689e-05 0.0023378052 0.00037608994
4.7856767e-05 1.9982654e-05 1.6131218e-05 8.7860843e-07
00000000: d2c2 813b a422 263b 303f 013a 9758 0c3e
00000010: ab62 9a3d 9a13 d93a 50f9 643b ebe5 043c
00000020: 9bb8 ba39 7be9 a038 1702 1238 97f3 9635
00000030: 0000 0000 0000 0000 0000 0000 bee8 c43d
00000040: 4058 f139 5be0 083c 0000 0000 0000 0000
00000050: 0000 0000 e7da 333b 9c3c fe38 67af b63a
00000060: 0000 0000 0000 0000 0000 0000 07e4 d23d
00000070: 2d0b 6b3c e93c 9d38 dd35 193b f02d c539
00000080: d0b9 4838 6ca0 a737 8751 8737 83d9 6b35

exp_avg f4 [2, 12]
0.030060692 0.045903884 0.02682878 0.057525244 0.0 -0.0012960586 0.0 -0.008293609
0.0 0.0044014873 0.036105383 -9.871375e-07 -0.0046951408 -0.004220068 -0.010676006 -0.0046390356
0.0 -0.0067885937 0.0 -0.010076019 0.0 0.0009138131 0.0008457261 0.002547593
00000000: d741 f63c b605 3c3d 08c8 db3c 979f 6b3d
00000010: 0000 0000 83e0 a9ba 0000 0000 ebe1 07bc
00000020: 0000 0000 5a3a 903b 3de3 133d c97d 84b5
00000030: b2d9 99bb 7f48 8abb 6aea 2ebc 0d03 98bb
00000040: 0000 0000 da72 debb 0000 0000 e315 25bc
00000050: 0000 0000 f68c 6f3a b8b3 5d3a 85f5 263b

exp_avg_sq f4 [2, 12]
0.020168692 0.014761185 0.075450666 0.023101337 0.0 0.014318363 0.0 0.03996925
0.0 0.0011540719 0.002572925 2.5668962e-06 0.00044598573 0.00029796982 0.0017631538 0.00041118427
0.0 0.0010047073 0.0 0.0020615212 0.0 0.0002175699 4.4123808e-05 5.3546555e-06
00000000: d038 a53c e6d8 713c e185 9a3d 043f bd3c
00000010: 0000 0000 9197 6a3c 0000 0000 ccb6 233d
00000020: 0000 0000 3a44 973a 859e 283b f142 2c36
00000030: 31d3 e939 d538 9c39 a019 e73a 3894 d739
00000040: 0000 0000 62b0 833a 0000 0000 961a 073b
00000050: 0000 0000 7a23 6439 9411 3938 24ac b336

exp_avg f4 [2]
0.025724407 -0.004209779
00000000: febb d23c 30f2 89bb

exp_avg_sq f4 [2]
0.0027972718 0.00014592422
00000000: 6f52 373b 3c03 1939
