Experimental_Models/Three_Layer_12_6_Run_v1.0.pt (torch_old, 2076 bytes, 5 tensors)

fc1.bias f4 [12]
000000 bc 96 fc 3e 20 a2 f6 bd 20 26 85 3e 77 19 0b bf
       0.4933375 -0.12042642 0.2600565 -0.5433573
000010 08 33 89 bd 2c e5 7c be 00 dd 9b 3d 10 11 1e 3d
       -0.066991866 -0.24696797 0.07610512 0.03859049
000020 10 80 96 3e 80 e6 ed 3d e8 ab 5a 3e 00 76 c5 bb
       0.2939458 0.1161623 0.2135464 -0.0060260296

fc1.weight_g f4 [12, 1]
000000 5a 5d d9 3e b4 90 50 3f 8a a2 0d 3f 71 ef 29 3f
       0.42454034 0.814708 0.5532614 0.66380984
000010 a9 93 1c 3f 67 73 0b 3f fb f1 af 3e 2f f0 4f 3f
       0.6116281 0.54472965 0.34364304 0.81225866
000020 cd 79 e9 3e 23 83 32 3f 85 29 f6 3e fd 63 c8 3e
       0.4560074 0.6973135 0.48078552 0.39138785

fc1.weight_v f4 [12, 3]
000000 94 d7 43 be 90 44 53 bd ed 40 c0 be 38 da cc be
       -0.19125205 -0.05157906 -0.37549534 -0.40010238
000010 bb e8 ea be 30 9c 0a 3f ca 52 9a 3e 54 4d 46 3e
       -0.45880684 0.54144573 0.30141288 0.19365436
000020 ef db d7 be f6 8a 86 3e 02 b0 fa be 60 eb b9 be
       -0.42159984 0.26277894 -0.48962408 -0.3631239
000030 2c e1 d2 3e 30 17 10 bd e0 cd e6 3e 24 e1 3a 3e
       0.41187418 -0.035178363 0.45078945 0.18249947
000040 8c fb f7 3e b8 e4 2d be 88 00 56 3e a0 13 7a 3e
       0.48434103 -0.1698178 0.2089864 0.24421549
000050 68 ee f8 bd 94 f4 e1 3e 34 87 f8 be 6c 37 f5 be
       -0.121548474 0.4413191 -0.48540652 -0.47893846
000060 00 15 d3 3d ea 96 5b be 38 2d c7 3e 91 ad 0a bf
       0.1030674 -0.21444288 0.38901687 -0.5417109
000070 86 3e bc 3e 7c cc 75 be d0 9c e0 3d f5 e2 dc be
       0.36766452 -0.24003786 0.109674096 -0.43141904
000080 a4 07 3a be a6 df 75 be 58 8b 84 3e 58 ea 2c 3e
       -0.18166977 -0.24011096 0.2588756 0.1688627

fc2.weight f4 [6, 12]
000000 d0 83 d6 bc 68 85 42 3d 48 e6 db bd dc ea 28 be
       -0.0261859 0.047490507 -0.10737282 -0.16495842
000010 5a 95 20 be 4d 64 2a be 78 22 65 3e 12 f2 17 be
       -0.15681973 -0.16639824 0.2237643 -0.14838436
000020 46 26 2f be d0 c6 86 3e bb a1 0a be 9c 8c 57 bd
       -0.17104444 0.26323557 -0.13538258 -0.05262433
000030 f0 ae c3 bc 9c 36 83 3e 48 64 62 3e 0e dc 27 be
       -0.023887128 0.256276 0.22108567 -0.16392538
000040 20 97 0e bc dc ba 54 be 9c fc 35 be ea ea 82 be
       -0.008703023 -0.20774406 -0.17772144 -0.2556985
000050 ac b3 f0 3d 1c ea 3e 3e 78 74 7b 3e f6 aa 66 be
       0.1175302 0.18643993 0.24556148 -0.22526154
000060 72 fb c0 bd fc dd 8a bd 9c a7 a8 bd 7d 12 37 be
       -0.094229594 -0.067806214 -0.08235094 -0.17878146
000070 c1 6f 8d be 40 b5 64 3e 2e 2f 5f be c6 cf 8e 3e
       -0.27624324 0.22334766 -0.21795341 0.27892894
000080 74 49 6b 3e 38 81 ab 3d 34 14 8b be ec f1 c1 bd
       0.22977239 0.08374256 -0.2716385 -0.09469971
000090 60 63 8d 3c 2c b2 8a be a8 76 bb bd 08 ce f1 bd
       0.0172593 -0.2708906 -0.09153491 -0.118068755
0000a0 67 f6 3d be b0 24 41 3e 82 27 54 be fc 73 8d be
       -0.18551026 0.18861651 -0.20718196 -0.27627552
0000b0 62 0c 46 3e 04 f5 58 bd f0 b8 95 3c 86 84 12 3e
       0.19340661 -0.05296804 0.018276662 0.14308366
0000c0 82 1c 02 be 78 af 5f 3d 70 d9 eb 3c a0 b5 00 3e
       -0.12706187 0.0546107 0.028790206 0.12569284
0000d0 6e dd dc bd 7c 68 9d 3d fe d7 32 be bc 68 6c 3e
       -0.10784422 0.076859444 -0.17465207 0.23086828
0000e0 3c 7b 4a bd c0 53 17 3c 9c 93 36 bd ec 9c 76 3e
       -0.04943393 0.009236276 -0.044574365 0.24083298
0000f0 a0 81 a7 bd 28 ac ef 3d 30 80 56 bd 54 f4 20 3e
       -0.08179021 0.11702758 -0.052368343 0.15718204
000100 00 f5 8e 3b b6 91 89 be 78 2f 11 bd 8b 41 8e be
       0.0043627024 -0.2686898 -0.03544566 -0.2778438
000110 00 a6 d2 3a 3c d0 1b be 5b 2c 48 be d0 f1 ee 3d
       0.00160712 -0.15216154 -0.1954817 0.11667216

fc2.bias f4 [6]
000000 b8 82 9d 3d 50 f1 8b 3c 30 a0 1b 3e b1 8d 92 be
       0.07690948 0.01708284 0.15197825 -0.28623727
000010 b8 9f 34 3d b0 8e 8c 3e
       0.044097632 0.27452612
