Experimental_Models/Three_Layer_30_Run_v1.2.pt (torch_old, 557805 bytes, 24 tensors)

fc1.bias f4 [30]
0	0x3d5f139e	0.054462068
1	0x3df98d4e	0.12185155
2	0xbdb8d83c	-0.090256184
3	0xbefecc17	-0.49765083
4	0xbe52832c	-0.2055785
5	0xbef0e49a	-0.4704941
6	0x3cdf5e20	0.027266562
7	0xbee0fd2a	-0.4394315
8	0x3f049cd0	0.51801777
9	0xbecd37e9	-0.4008172
10	0xbed1cf56	-0.40978497
11	0x3eb7b163	0.35877523
12	0xbef24c06	-0.47323626
13	0xbdef4a6c	-0.11684117
14	0xbec01374	-0.37514842
15	0x3e932e83	0.28746423
16	0x3f1ae249	0.60501534
17	0x3e68dfdc	0.22741646
18	0xbf2472c2	-0.64237607
19	0xbd242f50	-0.040084183
20	0xbf00af03	-0.50267047
21	0xbeb89dfb	-0.3605803
22	0x3d2e9780	0.04262495
23	0xbebae19c	-0.3650025
24	0x3e4a34d5	0.19746716
25	0x3f1d5a12	0.6146556
26	0xbf0adf30	-0.5424681
27	0xbe187902	-0.14889911
28	0x3f0e2c6d	0.5553654
29	0xbedce701	-0.43144992

fc1.weight_g f4 [30, 1]
0	0x3f43da1a	0.7650467
1	0x3f2a194b	0.66444844
2	0x3f05a65e	0.5220698
3	0x3f2664fd	0.64997846
4	0x3eff2d60	0.49839306
5	0x3eff0588	0.49808908
6	0x3f2d1312	0.67607224
7	0x3f22777b	0.6346356
8	0x3f3e5576	0.74349153
9	0x3ef3557d	0.4752616
10	0x3f45a1a8	0.7719979
11	0x3f47aa2c	0.77994037
12	0x3f3630b7	0.7116808
13	0x3f1a22d2	0.6020938
14	0x3f2cb2fb	0.674606
15	0x3ec9805c	0.39355743
16	0x3e9588ca	0.29205924
17	0x3f3e9fce	0.7446259
18	0x3f2dd0ea	0.678969
19	0x3e8d8534	0.27640688
20	0x3ec42432	0.38308865
21	0x3f195b38	0.59904814
22	0x3f2d0fc0	0.6760216
23	0x3f0ba52c	0.5454891
24	0x3f1425b0	0.57870007
25	0x3f004767	0.5010895
26	0x3f0688e8	0.5255265
27	0x3eef526a	0.46742564
28	0x3ea4bd0a	0.32175475
29	0x3f135738	0.5755496

fc1.weight_v f4 [30, 3]
0	0x3f04e6d5	0.5191472
1	0xbc6305ad	-0.013856334
2	0x3f108212	0.5644847
3	0xbec341a7	-0.38136026
4	0x3eb3cb83	0.35116205
5	0x3e84acb3	0.2591301
6	0xbdd5c05c	-0.1043708
7	0xbe007244	-0.12543589
8	0xbefde846	-0.49591273
9	0x3f0e58e5	0.5560439
10	0x3cb6bc79	0.022306668
11	0x3eb3dd1e	0.35129637
12	0xbc5a79c0	-0.0133346915
13	0xbee98ed8	-0.45616794
14	0xbe4d210a	-0.20032135
15	0xbee8c02c	-0.45459116
16	0xbcf72960	-0.030171096
17	0xbe4e2690	-0.20131898
18	0xbf087369	-0.533011
19	0xbdc09044	-0.094025165
20	0xbecf6d82	-0.40513235
21	0xbb6b2300	-0.0035879016
22	0xbee740d0	-0.45166636
23	0x3ee44148	0.44581056
24	0x3ec348ef	0.3814158
25	0xbe8e8bd4	-0.27841055
26	0x3f053c52	0.52045166
27	0x3edaf5df	0.4276571
28	0xbe41437e	-0.18873402
29	0x3d959791	0.073042996
30	0xbf0f7b1a	-0.56047213
31	0xbebb1131	-0.36536554
32	0xbec535a8	-0.385175
33	0x3f0037f0	0.50085354
34	0x3ebf190d	0.373238
35	0x3ef215ef	0.4728236
36	0xbec00259	-0.3750179
37	0xbed942a6	-0.4243366
38	0xbedcb060	-0.43103313
39	0xbee42194	-0.44556868
40	0xbd266c50	-0.04063064
41	0x3ece49ec	0.40290773
42	0xbf01dee3	-0.50730723
43	0xbec0b797	-0.37640068
44	0xbe727122	-0.23675969
45	0x3e8c1028	0.27356076
46	0x3e85f72e	0.26165146
47	0xbd86b203	-0.06576922
48	0xbcc9262f	-0.02455434
49	0x3e5944e9	0.21217693
50	0x3e472455	0.19447453
51	0x3ebd4fc5	0.36974922
52	0x3f08ec0f	0.53485197
53	0x3ec0d2cf	0.37660834
54	0x3ef0ea8a	0.4705394
55	0x3eddb903	0.43305215
56	0x3e567228	0.20941985
57	0xbe32a266	-0.17444763
58	0xbe4f11ca	-0.2022163
59	0xbd91ee70	-0.071255565
60	0x3c9401c0	0.01806724
61	0xbe9977a3	-0.29974088
62	0xbe739644	-0.2378779
63	0x3e4c888b	0.19973962
64	0x3f0e8ce2	0.5568372
65	0x3debcaa3	0.11513259
66	0xbe7ff5ce	-0.24996111
67	0xbf04a3ef	-0.5181264
68	0xbeb5cacc	-0.35506284
69	0xbcecdcc1	-0.028913857
70	0x3ec76c2a	0.3894971
71	0xbea0e898	-0.31427455
72	0xbc377d36	-0.011199286
73	0x3e71b0f0	0.23602653
74	0x3ee621cf	0.4494767
75	0xbe722138	-0.23645484
76	0x3e483a07	0.19553386
77	0x3e9f56bb	0.31120858
78	0xbea521d4	-0.3225237
79	0xbe21f9f2	-0.15818003
80	0xbec464f1	-0.38358262
81	0xbe13bbb0	-0.14427066
82	0x3d1e5460	0.038654685
83	0x3ee2c678	0.44292045
84	0xbdd1cf55	-0.102446236
85	0xbc37805b	-0.011200036
86	0x3e9da030	0.30786276
87	0xbe94df51	-0.29076627
88	0x3e398118	0.18115652
89	0xbee57511	-0.44815877

fc2.bias f4 [30]
0	0x3e089142	0.13336661
1	0x3e3e341a	0.18574563
2	0xbe6db3b8	-0.23213089
3	0xbd731774	-0.05934854
4	0x3db3e074	0.087830454
5	0x3bd21bb8	0.0064119957
6	0xbc97c338	-0.018525705
7	0xbcff17e0	-0.031139314
8	0xbe24d162	-0.16095498
9	0xbae82c00	-0.0017713308
10	0xbddae504	-0.106882125
11	0x3e106287	0.14100085
12	0x3df2d15a	0.11856337
13	0x3b805a67	0.003917027
14	0x3dacd5dd	0.08439229
15	0x3bc8242c	0.0061078276
16	0xbb9e2180	-0.004825771
17	0x3cc56d7d	0.02410006
18	0x3dba774e	0.09104787
19	0xbca65d78	-0.020308241
20	0xbe845bdd	-0.25851336
21	0x3b05b6c0	0.0020403117
22	0xbdc2fb7f	-0.09520625
23	0x3d158440	0.036503077
24	0xbe3863ef	-0.18006872
25	0x3d9388de	0.0720384
26	0xbe315360	-0.17316961
27	0x3e333267	0.17499696
28	0x3d7020ee	0.058625154
29	0xbc43f2b0	-0.011959717

fc2.weight_g f4 [30, 1]
0	0x3f41600a	0.7553717
1	0x3f2957df	0.66149706
2	0x3f2844b4	0.6572983
3	0x3f1c8c48	0.6115155
4	0x3f0a7836	0.5408968
5	0x3f0ec268	0.5576539
6	0x3f0bc605	0.5459903
7	0x3f06e200	0.526886
8	0x3f235bdd	0.6381205
9	0x3f0b8dc7	0.5451321
10	0x3ee2a43d	0.4426593
11	0x3f12530f	0.5715799
12	0x3f1776c3	0.5916559
13	0x3f1993c5	0.59991103
14	0x3f274fdf	0.6535625
15	0x3f3439ac	0.704005
16	0x3f131fb9	0.5747028
17	0x3efad860	0.48993206
18	0x3f01f997	0.5077147
19	0x3f122ac5	0.5709651
20	0x3f0c3948	0.54774904
21	0x3f248ea3	0.64280146
22	0x3f185e4b	0.5951888
23	0x3f1735d6	0.5906652
24	0x3f15c061	0.5849667
25	0x3f1f164b	0.6214339
26	0x3f18eaea	0.5973345
27	0x3f31da2d	0.69473535
28	0x3f18761e	0.5955523
29	0x3f232ddb	0.63741845

fc2.weight_v f4 [30, 30]
0	0x3e193f39	0.14965524
1	0xbd360625	-0.044439454
2	0x3d62e7df	0.05539691
3	0x3ca537a0	0.020168126
4	0x92cbaf91	-1.2854382e-27
5	0x8001d8b3	-1.69573e-40
6	0xbca87f52	-0.020568524
7	0xbcb21ded	-0.021742785
8	0xbe45a17d	-0.19299884
9	0x3dce79f3	0.10081854
10	0xbc648056	-0.013946613
11	0xbe00d89b	-0.12582628
12	0x3d21e9f7	0.039529767
13	0x93f8029b	-6.260657e-27
14	0xbda23127	-0.07919531
15	0xbd24cfc1	-0.040237192
16	0x3dc1e3cb	0.09467276
17	0x3e05e70c	0.13076419
18	0xbe1475e5	-0.14498098
19	0x00034e52	3.03603e-40
20	0x3d243499	0.040089224
21	0xbca15a4c	-0.019696377
22	0xbc2828ed	-0.010263664
23	0x3e54a0c3	0.2076445
24	0x3e470b9b	0.19438021
25	0xbda9a162	-0.082827345
26	0xbc874151	-0.016510637
27	0x3d627f57	0.055297222
28	0x3c0998ce	0.008398248
29	0xb942e718	-0.00018587371
30	0xbc8e168d	-0.017344737
31	0x3d5129c7	0.051065233
32	0x3d75022b	0.05981652
33	0x3b7636b7	0.0037569234
34	0xbd92a790	-0.07160866
35	0x80165517	-2.050905e-39
36	0x000d0256	1.1947e-39
37	0x3d732f9a	0.05937157
38	0xbc0ea722	-0.00870684
39	0xbde2e180	-0.11078167
40	0x0017aa12	2.173226e-39
41	0x3cae0c5a	0.021246124
42	0x8014968b	-1.890715e-39
43	0xbbab7c80	-0.0052333474
44	0xb89216d1	-6.9660724e-05
45	0x3dfb48f9	0.12269778
46	0xbd518bf9	-0.05115888
47	0xbd868980	-0.06569195
48	0x3cd2f67b	0.025752297
49	0x80121901	-1.662009e-39
50	0x3aca0a7c	0.0015414502
51	0xbcfffaee	-0.031247582
52	0x3c277382	0.01022041
53	0x3e5a2f01	0.21306993
54	0xbce4d4e4	-0.027933545
55	0xbd21c8fc	-0.039498314
56	0xbd920da7	-0.0713151
57	0x3a9a04e1	0.0011750722
58	0x3cbba0b0	0.02290377
59	0xbc5e99be	-0.01358646
60	0xbce5256d	-0.027971948
61	0xbe1bf7de	-0.15231273
62	0xbe23fd6e	-0.16014645
63	0xbe103f9a	-0.14086762
64	0x3d87bcf7	0.06627839
65	0xbe2d2df1	-0.16912057
66	0x3db09719	0.086225696
67	0xbd36a1d4	-0.044587925
68	0x3d79f8a7	0.06102815
69	0x3cc97729	0.024592953
70	0x3e178c59	0.14799632
71	0x3e32a1b7	0.17444502
72	0xbdb90372	-0.0903386
73	0x3cecc8c4	0.028904326
74	0x3de42f09	0.11141784
75	0xbe01ad87	-0.12663852
76	0x3cd8a658	0.026446506
77	0x3dd6c9f2	0.10487737
78	0x3e380450	0.17970395
79	0x3e06319f	0.13104866
80	0x3e2231cb	0.15839307
81	0x3d816230	0.06317556
82	0x3c0b3ae8	0.008497931
83	0xbe06054c	-0.13087958
84	0x3e292317	0.16517292
85	0x3e1c23fd	0.15248103
86	0xbe29c62e	-0.16579506
87	0x3c99fbcc	0.018796824
88	0xbe0db03f	-0.13836764
89	0x3de9b423	0.114113115
90	0xbe2a51a6	-0.16632709
91	0x3e00b0aa	0.12567392
92	0x3d2dd4d8	0.04243931
93	0x3e252138	0.16125953
94	0x3cfb2bad	0.030660475
95	0x3e16ec31	0.14738537
96	0x3daec7e3	0.08534219
97	0x3e0c7bc3	0.13719086
98	0xbde3a886	-0.11116128
99	0x3e0ae1d2	0.13562706
100	0xbd637129	-0.05552784
101	0x3dc095bd	0.0940356
102	0xbe106e53	-0.14104585
103	0x3bb13bce	0.0054087406
104	0xbdf9b460	-0.12192607
105	0x3e0dedeb	0.1386029
106	0xbd76cda8	-0.060254723
107	0x3a097582	0.0005243645
108	0x3e2602ca	0.16212001
109	0x1eb5833f	1.9218403e-20
110	0xbd65110d	-0.055924464
111	0xbba9b2cc	-0.005178785
112	0x3dae258c	0.08503255
113	0xbd069d63	-0.03286494
114	0xbdff8ba6	-0.12477808
115	0x3dc404c3	0.09571221
116	0xbd93219e	-0.07184146
117	0x3dac94cf	0.084268205
118	0xbd8eb2e6	-0.06967716
119	0x3e2c0c5b	0.16801588
120	0xbd4f4730	-0.050605
121	0x3ce7808a	0.028259534
122	0x3e31b550	0.17354321
123	0x3cb94e21	0.022620263
124	0x3e066c97	0.13127361
125	0x3e08b272	0.13349321
126	0x3dc110ff	0.0942707
127	0x3d70533a	0.05867312
128	0xbd9d3062	-0.07675244
129	0x3d6e005d	0.058105815
130	0xbd063c4d	-0.03277235
131	0xbd63881d	-0.05554973
132	0x3e04a8c4	0.12955004
133	0x3c862efd	0.016379828
134	0xbdb1430c	-0.08655366
135	0xbe0177ba	-0.12643328
136	0x3dc13ee5	0.09435824
137	0xbd5482e7	-0.05188265
138	0xbd3b8227	-0.04577842
139	0xbc8a01a9	-0.016846495
140	0xbd6d6928	-0.057961613
141	0x3d90a8e3	0.070634626
142	0x3e2f71da	0.17133275
143	0x3e2208b5	0.15823634
144	0xbc1e9c79	-0.009680861
145	0x3dba82ba	0.09106965
146	0xbd85f7a5	-0.06541375
147	0xbde8b786	-0.11363129
148	0xbe2b12af	-0.16706346
149	0xbd7cc341	-0.061709646
150	0x3ddc6654	0.10761705
151	0x3bb5611a	0.005535257
152	0x3d57ead4	0.052714184
153	0x3d9fdafa	0.07805438
154	0x3ca7a86d	0.020466054
155	0x3d9e4cea	0.07729514
156	0x3e2ca151	0.16858412
157	0x3e0f6e12	0.14006832
158	0x3d2e5d92	0.042569704
159	0xbdd8c161	-0.10583759
160	0xbdfea15d	-0.12433121
161	0xbdc21fd0	-0.09478724
162	0xbda59c29	-0.08086426
163	0xbe312568	-0.17299426
164	0xbd898a8f	-0.06715881
165	0xbdcaea86	-0.09908013
166	0xbd6f25b1	-0.058385555
167	0xbde4cd87	-0.11172014
168	0x3d8b7ba5	0.06810693
169	0xbd508d25	-0.050915856
170	0x3e1191a3	0.14215712
171	0x3c15a82f	0.009134336
172	0xbdb60051	-0.08886779
173	0x3df31708	0.11869627
174	0x3e07114c	0.13190192
175	0x3e395635	0.18099292
176	0x3d0551f2	0.032548852
177	0xbd4cd36c	-0.050006315
178	0x3dc24e95	0.094876446
179	0xbc315ad8	-0.0108248815
180	0x3e119b6a	0.14219442
181	0x3d2628bb	0.040566187
182	0xbdcaf6d4	-0.0991036
183	0xbb5cc319	-0.0033685623
184	0x3de5a341	0.11212779
185	0x3c09db0f	0.008414044
186	0xbd9147d1	-0.07093776
187	0x3d3d0dc5	0.04615571
188	0xbc24d5c3	-0.01006073
189	0xbca93b85	-0.020658264
190	0xbc9599cc	-0.018261813
191	0xbda9c564	-0.082896024
192	0x3e3948a6	0.1809412
193	0x3d01891f	0.03162491
194	0x3e180b8c	0.14848155
195	0x3dfb3904	0.12266734
196	0xbd1581f4	-0.036500886
197	0x3e3859cd	0.18003006
198	0x3d8feee9	0.0702799
199	0x3dc5d9e7	0.09660702
200	0x3e23d371	0.15998627
201	0x3dc85446	0.09781699
202	0xbcb44d14	-0.02200941
203	0xbdd6255e	-0.10456346
204	0xbd4e5fd3	-0.050384354
205	0xbd8d925f	-0.06912684
206	0x3db9b654	0.090679795
207	0xbe0b9db8	-0.13634384
208	0x3e3647bb	0.178008
209	0x3e02e0be	0.12781045
210	0x3cab1d88	0.020888105
211	0xbe162d11	-0.14665629
212	0x3db53d54	0.08849588
213	0x3d75dbb0	0.060023963
214	0xbcaa0ab8	-0.020757064
215	0xbdd71bb5	-0.105033316
216	0x3e0aa986	0.1354123
217	0x3e224b6c	0.15849084
218	0x3d3fa27c	0.046785817
219	0xbe05c2a2	-0.13062528
220	0xbe1a412a	-0.1506392
221	0xbd783972	-0.06060166
222	0x3d30a54c	0.04312639
223	0xbdd9f19c	-0.106417865
224	0xbc747ea0	-0.014922768
225	0xbdb7700e	-0.089569196
226	0x3de608b0	0.11232126
227	0xba555900	-0.0008138567
228	0xbd3d8e88	-0.046278507
229	0x3d4e2d7c	0.050336346
230	0xbdc4308f	-0.09579574
231	0x3b866300	0.004101157
232	0x3c3b4870	0.011430845
233	0xbe1bb072	-0.15204027
234	0x3e326610	0.17421746
235	0x3d801600	0.06254196
236	0x3d6991e8	0.057023913
237	0x3e094a5c	0.13407272
238	0x3dd358a4	0.10319641
239	0xbda3bd55	-0.079950966
240	0x3ca69890	0.02033642
241	0xbdba508f	-0.090973966
242	0xbe0c2af7	-0.13688265
243	0xbd62b360	-0.055346847
244	0x3de57acc	0.11205062
245	0xbe3468d3	-0.17618112
246	0xbe2e8715	-0.17043717
247	0xbe14aaba	-0.14518252
248	0xbd6c2532	-0.05765266
249	0x3e35d1ad	0.17755766
250	0xbc8649b8	-0.016392574
251	0x3e0ac686	0.13552293
252	0xbe1cfe02	-0.15331271
253	0xbe0891fb	-0.13336937
254	0xbe271f6a	-0.16320577
255	0x3d644cc2	0.055737264

fc3.weight f4 [2, 30]
0	0xbe7e27a1	-0.24819805
1	0xbe5cea5f	-0.2157378
2	0x3dc7655a	0.09736128
3	0x3d3a1f99	0.04544029
4	0x3c9b75a1	0.018976988
5	0xbe276252	-0.163461
6	0xbcf3b7e0	-0.029750764
7	0x3d90fb64	0.07079199
8	0x3ddbae3b	0.10726591
9	0xbd7f8468	-0.06238213
10	0x3d9c7e6c	0.076413006
11	0xbe1edab1	-0.15513112
12	0x3e2694d0	0.16267705
13	0xbdec4995	-0.11537472
14	0xbe86173d	-0.26189604
15	0xbdb90fd8	-0.09036225
16	0x3c837b80	0.0160501
17	0x3c08ccff	0.008349656
18	0xbd9c1808	-0.07621771
19	0x3d1938ea	0.037407793
20	0x3e00d8c8	0.12582695
21	0x3d9f5568	0.07779962
22	0x3d8366d6	0.06416099
23	0xbe0bb888	-0.13644612
24	0x3e52bf88	0.20580876
25	0xbe3a5c92	-0.18199375
26	0xbe17e5ec	-0.14833802
27	0x3e10e55c	0.14149994
28	0x3dc02ea9	0.093839
29	0x3e26d0d4	0.16290599
30	0xbc1f2723	-0.009713921
31	0xbc9792c6	-0.018502604
32	0x3cdfdb73	0.027326321
33	0xbe28328b	-0.1642553
34	0x3de14f16	0.110014126
35	0x3df97c06	0.12181859
36	0xbdc01caa	-0.09380467
37	0x3d91702c	0.07101473
38	0xbd911605	-0.07084278
39	0x3d6b35bc	0.057424292
40	0xbcd6be78	-0.02621387
41	0x3e1ae053	0.15124635
42	0x3d8336ee	0.064069614
43	0x3e092619	0.1339344
44	0x3dbd132e	0.09232174
45	0xbd519418	-0.051166624
46	0x3d9cd0cc	0.07657012
47	0xbe04baa1	-0.12961818
48	0x3da4e247	0.080509715
49	0x3d764f75	0.06013437
50	0xbd8361ab	-0.06415113
51	0xbdbde1a8	-0.09271556
52	0xbdd0fb4d	-0.10204182
53	0x3d3f2bd4	0.046672657
54	0xbe4c831a	-0.19971886
55	0xbc163c64	-0.009169672
56	0xbc989530	-0.018625826
57	0xbd8795c8	-0.066203654
58	0x3e1eba19	0.15500678
59	0xbdc59fa3	-0.09649589

fc3.bias f4 [2]
0	0xbe4f3e8c	-0.20238703
1	0xbb5df273	-0.0033866435

exp_avg f4 [30]
0	0xbaadd76a	-0.0013263051
1	0xb885a19e	-6.372038e-05
2	0x00000000	0.0
3	0x38c03040	9.164261e-05
4	0x00000000	0.0
5	0x00000000	0.0
6	0x00000000	0.0
7	0x00000000	0.0
8	0x3985a772	0.00025492493
9	0x3b878c11	0.0041365703
10	0x00000000	0.0
11	0x3a2d50a9	0.00066114456
12	0x00000000	0.0
13	0x00000000	0.0
14	0x00000000	0.0
15	0x3a8cccc6	0.001074218
16	0xbb4b8df4	-0.0031059952
17	0xbaab7a50	-0.0013082717
18	0x3af34305	0.0018559402
19	0x00000000	0.0
20	0x00000000	0.0
21	0xb81eb400	-3.7837774e-05
22	0x00000000	0.0
23	0xbb39cf94	-0.0028352486
24	0xb7a9e500	-2.0253006e-05
25	0xb9126cac	-0.00013964128
26	0x00000000	0.0
27	0x00000000	0.0
28	0x3679f13c	3.7244308e-06
29	0x3662f732	3.382051e-06

exp_avg_sq f4 [30]
0	0x3703934f	7.842506e-06
1	0x332399e9	3.8091375e-08
2	0x00000000	0.0
3	0x368df810	4.2310057e-06
4	0x00000000	0.0
5	0x00000000	0.0
6	0x00000000	0.0
7	0x00000000	0.0
8	0x3779d6c8	1.4891564e-05
9	0x381546c6	3.559028e-05
10	0x00000000	0.0
11	0x36365f40	2.7175556e-06
12	0x00000000	0.0
13	0x00000000	0.0
14	0x00000000	0.0
15	0x36826fe2	3.887327e-06
16	0x37bb1775	2.230306e-05
17	0x36c4969c	5.8587884e-06
18	0x37081747	8.111651e-06
19	0x00000000	0.0
20	0x00000000	0.0
21	0x35cb50a4	1.5148148e-06
22	0x00000000	0.0
23	0x3808ef59	3.2647837e-05
24	0x36b1cbd3	5.2987393e-06
25	0x3423ddbc	1.5261224e-07
26	0x00000000	0.0
27	0x00000000	0.0
28	0x31024fe2	1.8962898e-09
29	0x30926786	1.0652321e-09

exp_avg f4 [30, 1]
0	0xbc18fc96	-0.009337565
1	0xb8a54dc2	-7.8822966e-05
2	0x00000000	0.0
3	0x3c2afc64	0.010436151
4	0x00000000	0.0
5	0x00000000	0.0
6	0x00000000	0.0
7	0x00000000	0.0
8	0x3b9e8d8d	0.0048386515
9	0x3c4b979b	0.012426282
10	0x00000000	0.0
11	0xbb61149e	-0.0034344564
12	0x00000000	0.0
13	0x00000000	0.0
14	0x00000000	0.0
15	0xba840feb	-0.0010075545
16	0xbb6cf3bc	-0.003615602
17	0x39e9d3a8	0.0004459892
18	0x3bc33034	0.005956674
19	0x00000000	0.0
20	0x00000000	0.0
21	0xbbc45520	-0.005991593
22	0x00000000	0.0
23	0xbc628235	-0.013824989
24	0xbb756ecc	-0.0037450073
25	0x3790402a	1.7196016e-05
26	0x00000000	0.0
27	0x00000000	0.0
28	0xb6bb97b3	-5.5906944e-06
29	0x367ef901	3.7993889e-06

exp_avg_sq f4 [30, 1]
0	0x3a8187c2	0.0009882378
1	0x339c40b5	7.276086e-08
2	0x00000000	0.0
3	0x3a415ca0	0.0007376168
4	0x00000000	0.0
5	0x00000000	0.0
6	0x00000000	0.0
7	0x00000000	0.0
8	0x3a297ffc	0.00064659095
9	0x3b8a1f6f	0.004215173
10	0x00000000	0.0
11	0x39ac5c46	0.00032875146
12	0x00000000	0.0
13	0x00000000	0.0
14	0x00000000	0.0
15	0x3a0d1c78	0.00053829653
16	0x39ab3511	0.000326552
17	0x3a1b8973	0.00059332623
18	0x3ace4094	0.0015735799
19	0x00000000	0.0
20	0x00000000	0.0
21	0x392c24f7	0.00016416969
22	0x00000000	0.0
23	0x3a8a19df	0.0010536275
24	0x3824bc8b	3.927624e-05
25	0x342786a1	1.5602065e-07
26	0x00000000	0.0
27	0x00000000	0.0
28	0x319b2824	4.515657e-09
29	0x30b78185	1.3351814e-09

exp_avg f4 [30, 3]
0	0xbc01ff6e	-0.007934434
1	0xbc243aed	-0.010023815
2	0x3be7020c	0.0070498046
3	0xba20a876	-0.0006128618
4	0xba364fb4	-0.0006954626
5	0x382977ef	4.0404437e-05
6	0x00000000	0.0
7	0x00000000	0.0
8	0x00000000	0.0
9	0x3b2d69a2	0.0026460667
10	0x3bba9272	0.005693727
11	0xbb951e0d	-0.0045507015
12	0x00000000	0.0
13	0x00000000	0.0
14	0x00000000	0.0
15	0x00000000	0.0
16	0x00000000	0.0
17	0x00000000	0.0
18	0x00000000	0.0
19	0x00000000	0.0
20	0x00000000	0.0
21	0x00000000	0.0
22	0x00000000	0.0
23	0x00000000	0.0
24	0x3c85bedf	0.016326366
25	0x3c840396	0.016114991
26	0xbb5b4c02	-0.0033462052
27	0x3c19753c	0.00936633
28	0x3ca26778	0.019824728
29	0xbb6dd32e	-0.0036289203
30	0x00000000	0.0
31	0x00000000	0.0
32	0x00000000	0.0
33	0xbac0e720	-0.0014717318
34	0x39c7432c	0.00038006285
35	0x3aa4ff97	0.0012588379
36	0x00000000	0.0
37	0x00000000	0.0
38	0x00000000	0.0
39	0x00000000	0.0
40	0x00000000	0.0
41	0x00000000	0.0
42	0x00000000	0.0
43	0x00000000	0.0
44	0x00000000	0.0
45	0x392b4798	0.00016334502
46	0xb9d17790	-0.00039952667
47	0xba6e179f	-0.00090824993
48	0xbc25aafa	-0.010111565
49	0xbba68959	-0.005082291
50	0x3b8bc230	0.0042650923
51	0x396531c0	0.00021857675
52	0xba5c5c55	-0.00084060925
53	0x3a804ea4	0.0009789062
54	0x3a9a4120	0.0011768676
55	0x395bf100	0.00020975247
56	0xbb49c76f	-0.0030789038
57	0x00000000	0.0
58	0x00000000	0.0
59	0x00000000	0.0
60	0x00000000	0.0
61	0x00000000	0.0
62	0x00000000	0.0
63	0xbba29838	-0.0049619935
64	0x3ad5da1e	0.0016315614
65	0x3a3bbd34	0.00071616773
66	0x00000000	0.0
67	0x00000000	0.0
68	0x00000000	0.0
69	0xbccda489	-0.02510287
70	0xbc0a4716	-0.0084398
71	0xbc05777f	-0.008146166
72	0xbc5ce9ba	-0.013483459
73	0xbbc9e44b	-0.006161248
74	0x3b3defa3	0.0028981946
75	0xba9fbe80	-0.0012187511
76	0xbabe49f0	-0.0014517885
77	0xb76b9018	-1.4040641e-05
78	0x00000000	0.0
79	0x00000000	0.0
80	0x00000000	0.0
81	0x00000000	0.0
82	0x00000000	0.0
83	0x00000000	0.0
84	0x3780d274	1.5356789e-05
85	0x3686871e	4.009241e-06
86	0x36b04901	5.2537075e-06
87	0x37848cd3	1.5801203e-05
88	0x380a534f	3.297935e-05
89	0x364eae91	3.0798003e-06

exp_avg_sq f4 [30, 3]
0	0x3a27cdcc	0.00064012106
1	0x3a21ae71	0.00061676564
2	0x3a06810b	0.0005130923
3	0x364011b6	2.8620539e-06
4	0x367f9cf4	3.808932e-06
5	0x32a4f667	1.9204164e-08
6	0x00000000	0.0
7	0x00000000	0.0
8	0x00000000	0.0
9	0x38998e7c	7.322148e-05
10	0x39011d57	0.00012313329
11	0x394ff36b	0.00019831739
12	0x00000000	0.0
13	0x00000000	0.0
14	0x00000000	0.0
15	0x00000000	0.0
16	0x00000000	0.0
17	0x00000000	0.0
18	0x00000000	0.0
19	0x00000000	0.0
20	0x00000000	0.0
21	0x00000000	0.0
22	0x00000000	0.0
23	0x00000000	0.0
24	0x3b3a6524	0.0028441632
25	0x3ac83044	0.0015273173
26	0x39c31e2b	0.00037215775
27	0x3a85b1fc	0.0010200138
28	0x3b9c2bb7	0.0047659534
29	0x38b937af	8.831859e-05
30	0x00000000	0.0
31	0x00000000	0.0
32	0x00000000	0.0
33	0x3911d36c	0.00013907038
34	0x37786df9	1.4807557e-05
35	0x38eea409	0.00011379278
36	0x00000000	0.0
37	0x00000000	0.0
38	0x00000000	0.0
39	0x00000000	0.0
40	0x00000000	0.0
41	0x00000000	0.0
42	0x00000000	0.0
43	0x00000000	0.0
44	0x00000000	0.0
45	0x38ca448b	9.644878e-05
46	0x38b8ca08	8.811435e-05
47	0x37aa51bf	2.0303645e-05
48	0x3ba4528e	0.005014724
49	0x39b2d2a8	0.00034107757
50	0x39116e46	0.00013869358
51	0x3a023e6d	0.00049684086
52	0x38780818	5.9135346e-05
53	0x390f2ce7	0.0001365427
54	0x394f3972	0.00019762458
55	0x38d3cc9d	0.00010099376
56	0x39184f59	0.00014525409
57	0x00000000	0.0
58	0x00000000	0.0
59	0x00000000	0.0
60	0x00000000	0.0
61	0x00000000	0.0
62	0x00000000	0.0
63	0x39745367	0.00023300723
64	0x37d7af4a	2.5711623e-05
65	0x36ade429	5.182363e-06
66	0x00000000	0.0
67	0x00000000	0.0
68	0x00000000	0.0
69	0x3c37dc52	0.011221962
70	0x3a3319cc	0.0006832152
71	0x3a08ee13	0.0005223464
72	0x3ae27f6a	0.0017280404
73	0x3928991f	0.0001607877
74	0x380aae28	3.306396e-05
75	0x373f9315	1.1418732e-05
76	0x377e41f6	1.51549375e-05
77	0x33e2af96	1.0555884e-07
78	0x00000000	0.0
79	0x00000000	0.0
80	0x00000000	0.0
81	0x00000000	0.0
82	0x00000000	0.0
83	0x00000000	0.0
84	0x3310e7e0	3.37385e-08
85	0x3213b490	8.597581e-09
86	0x318813f5	3.96039e-09
87	0x32c79d87	2.3238284e-08
88	0x33d83e0b	1.00695694e-07
89	0x30716c12	8.7828866e-10

exp_avg f4 [30]
0	0xbb80d32c	-0.0039314236
1	0xbb8f0b89	-0.004365389
2	0x3b4b64c8	0.0031035412
3	0x3b387d66	0.0028150915
4	0x00000004	6e-45
5	0x34e12942	4.1939535e-07
6	0xb996f768	-0.00028794562
7	0x00000000	0.0
8	0x3b8af88f	0.0042410563
9	0x00000000	0.0
10	0x00000000	0.0
11	0x00000004	6e-45
12	0xb9346660	-0.00017204275
13	0xbba289fe	-0.0049602976
14	0xbba4afb7	-0.0050258297
15	0xbad4b9cb	-0.0016229687
16	0x00000000	0.0
17	0x3aa88cee	0.0012859383
18	0xbb52b0b2	-0.0032148776
19	0x3a544343	0.0008097181
20	0x3b9c9332	0.0047782892
21	0x00000000	0.0
22	0x00000000	0.0
23	0x00000000	0.0
24	0x3c0cb0a7	0.008587039
25	0xbbc85ce8	-0.006114591
26	0x00000000	0.0
27	0xb9172059	-0.00014412533
28	0x3b02f509	0.0019982478
29	0x00000000	0.0

exp_avg_sq f4 [30]
0	0x388ead8c	6.803413e-05
1	0x3873cf51	5.8128793e-05
2	0x37ea9be0	2.7967559e-05
3	0x3771bd2b	1.44087635e-05
4	0x2a281dd8	1.4931752e-13
5	0x31c8ca2a	5.8437495e-09
6	0x364faac0	3.0944793e-06
7	0x00000000	0.0
8	0x3827bfea	3.9994637e-05
9	0x00000000	0.0
10	0x00000000	0.0
11	0x2f916fbd	2.645474e-10
12	0x35b770c8	1.3667386e-06
13	0x38582fe7	5.1543026e-05
14	0x38a75234	7.978492e-05
15	0x37128ac0	8.734583e-06
16	0x00000000	0.0
17	0x36822585	3.8786698e-06
18	0x37b9ac68	2.2134001e-05
19	0x36830182	3.9042798e-06
20	0x385bed82	5.2434865e-05
21	0x00000000	0.0
22	0x00000000	0.0
23	0x00000000	0.0
24	0x3920effc	0.0001534819
25	0x38d2b2fd	0.000100469195
26	0x00000000	0.0
27	0x34198512	1.4297646e-07
28	0x37cfedf9	2.4787138e-05
29	0x00000000	0.0

exp_avg f4 [30, 1]
0	0xbb3f416c	-0.0029183282
1	0xbb535701	-0.0032247903
2	0x3ac8d110	0.0015321095
3	0x3b5612f7	0.0032665113
4	0x80000004	-6e-45
5	0xb53b87d5	-6.986059e-07
6	0x3aae5c72	0.0013302697
7	0x00000000	0.0
8	0x39ec2298	0.00045039202
9	0x00000000	0.0
10	0x00000000	0.0
11	0x80000004	-6e-45
12	0x3829c770	4.047848e-05
13	0xbb969083	-0.004594864
14	0xbba0d7cf	-0.004908539
15	0xbb109d65	-0.002206647
16	0x00000000	0.0
17	0x3a4c3d77	0.00077911414
18	0xba7c8435	-0.00096327375
19	0xba0cb2f6	-0.00053672434
20	0x3b1c6a3e	0.0023867036
21	0x00000000	0.0
22	0x00000000	0.0
23	0x00000000	0.0
24	0x38a03840	7.639872e-05
25	0xba325c4e	-0.00068039156
26	0x00000000	0.0
27	0xb6de6d12	-6.628813e-06
28	0xb98fbf14	-0.0002741745
29	0x00000000	0.0

exp_avg_sq f4 [30, 1]
0	0x3782e1ec	1.560241e-05
1	0x37a9037d	2.0147994e-05
2	0x3a1566f9	0.0005699243
3	0x399d0f9e	0.0002995701
4	0x2789cc52	3.8246663e-15
5	0x2d8daee5	1.6107513e-11
6	0x3901eb0c	0.0001238996
7	0x00000000	0.0
8	0x3915e96b	0.00014296702
9	0x00000000	0.0
10	0x00000000	0.0
11	0x2d5ccf60	1.2551599e-11
12	0x348b7f6c	2.598348e-07
13	0x3a9686b9	0.0011484242
14	0x3852ad55	5.022933e-05
15	0x37356004	1.0810796e-05
16	0x00000000	0.0
17	0x36b2a5b7	5.324105e-06
18	0x37c92b37	2.398119e-05
19	0x3889deae	6.5741464e-05
20	0x39288e08	0.0001607464
21	0x00000000	0.0
22	0x00000000	0.0
23	0x00000000	0.0
24	0x39a8903d	0.00032150923
25	0x38b73a97	8.737033e-05
26	0x00000000	0.0
27	0x330df2b6	3.3049865e-08
28	0x3792fa33	1.7521064e-05
29	0x00000000	0.0

exp_avg f4 [30, 30]
0	0xbcb5ecc6	-0.022207629
1	0xb9e00ce6	-0.0004273422
2	0x3a046947	0.0005051088
3	0xbcc13501	-0.023584845
4	0x8fe44625	-2.2509554e-29
5	0x8000044d	-1.543e-42
6	0xb944f78e	-0.00018784238
7	0xb9502f8c	-0.00019854138
8	0xbc3dec0a	-0.011591921
9	0xbc249746	-0.010045832
10	0xb905b15d	-0.00012749941
11	0xbd27c390	-0.040957987
12	0x39bd0bf9	0.0003605781
13	0x8ed81a6e	-5.3273562e-30
14	0xba3d3c2a	-0.0007218743
15	0xbcd8dfb4	-0.026473857
16	0xbc1aa207	-0.009438044
17	0xbd1af2ef	-0.037829336
18	0xbd18517f	-0.037187096
19	0x000007b4	2.763e-42
20	0x39bfb7fa	0.00036567432
21	0xbcee12e6	-0.029061746
22	0xb8c4fa48	-9.392627e-05
23	0xbc42a794	-0.011880774
24	0xbc020265	-0.007935141
25	0xba398078	-0.0007076333
26	0xb91e31f8	-0.00015086669
27	0x3a042c57	0.00050420075
28	0x38a0c382	7.665811e-05
29	0xb5c4719d	-1.4636204e-06
30	0xbd17129e	-0.03688299
31	0x3a821f8d	0.0009927616
32	0x3a9efb40	0.0012129322
33	0xbd13e04b	-0.036102574
34	0xbabe4ba1	-0.0014518389
35	0x800073d3	-4.155e-41
36	0x00004377	2.4202e-41
37	0x3a9dccc3	0.0012039173
38	0xbc91b28c	-0.017785333
39	0xbca33c3f	-0.019926189
40	0x00007aba	4.4026e-41
41	0xbd6cd658	-0.0578216
42	0x80006ac8	-3.8306e-41
43	0xb8dfe548	-0.000106761756
44	0xb5c4a1db	-1.4650244e-06
45	0xbd0e252a	-0.03470341
46	0xbc7e6f35	-0.0155294435
47	0xbd6a8a7d	-0.05726098
48	0xbd50c7e8	-0.050971895
49	0x80005ddc	-3.367e-41
50	0x3804d2cd	3.1667576e-05
51	0xbd26fedd	-0.0407704
52	0x395a0b7e	0.00020794381
53	0xbc54e4f1	-0.012994037
54	0xbc6f8362	-0.014618726
55	0xba479d3b	-0.0007614677
56	0xbabd8413	-0.0014458917
57	0x37cae19c	2.4185334e-05
58	0x39f38047	0.00046444146
59	0xb9907301	-0.00027551505
60	0x3a97c234	0.0011578263
61	0x39cb078a	0.00038724794
62	0x39c7743a	0.00038042833
63	0x3a06a700	0.0005136579
64	0xb9250796	-0.00015738452
65	0x39d2a23e	0.000401752
66	0xb956bac8	-0.00020478212
67	0x38ddf938	0.00010584522
68	0x3a0378e8	0.000501527
69	0xba0f90c0	-0.00054765865
70	0xb9b8514e	-0.00035155792
71	0x3b733258	0.0037108865
72	0x3960fa2c	0.00021455501
73	0xb88fd21c	-6.857907e-05
74	0xb98abfae	-0.00026464224
75	0x3b817158	0.003950279
76	0x3b1a7ba5	0.0023572233
77	0x3b8003f3	0.003906721
78	0x3ab55c80	0.0013836771
79	0xb9a3345e	-0.000311288
80	0xb9c5450c	-0.00037626212
81	0x3b0bfef9	0.0021361692
82	0xb7a88e9a	-2.0093565e-05
83	0x3b313a34	0.0027042748
84	0x39ba5d9c	0.0003554643
85	0xb9bb3d2a	-0.0003571299
86	0x39ce7daa	0.0003938501
87	0xb83ae90e	-4.4562905e-05
88	0x39ac8be2	0.00032910617
89	0xb98e5cf2	-0.000271536
90	0x3bef014a	0.007293855
91	0xba6e5c16	-0.00090927014
92	0xb987650a	-0.00025824487
93	0x3b8eed88	0.004361812
94	0xb94397b4	-0.00018653163
95	0xba6b318a	-0.00089719205
96	0xba082bd1	-0.00051945174
97	0xba5aec3c	-0.00083512417
98	0x3baca15a	0.005268258
99	0x3b108dcb	0.0022057171
100	0x39b12c76	0.00033793197
101	0x3c0eca54	0.008715231
102	0x3a611352	0.0008585948
103	0xb80990ef	-3.2798325e-05
104	0x3a428f56	0.00074218714
105	0x3ba910e7	0.0051594856
106	0x3b472f1e	0.0030393074
107	0x3c06ab9b	0.008219625
108	0x3bb4c9e3	0.005517231
109	0x9ad0c7ce	-8.6349586e-23
110	0x39b27092	0.00034034677
111	0x3b98936f	0.0046562473
112	0xba07ad4e	-0.0005175666
113	0x3ae888f3	0.0017741009
114	0x3b24cdc4	0.002514706
115	0xba3c158b	-0.0007174841
116	0x39e53f58	0.00043725478
117	0xba067501	-0.0005129129
118	0x39dcf16c	0.00042141543
119	0xba85a6f8	-0.0010196855
120	0x00000004	6e-45
121	0x00000004	6e-45
122	0x00000004	6e-45
123	0x00000004	6e-45
124	0x00000004	6e-45
125	0x00000004	6e-45
126	0x00000004	6e-45
127	0x00000004	6e-45
128	0x80000004	-6e-45
129	0x00000004	6e-45
130	0x80000004	-6e-45
131	0x00000004	6e-45
132	0x00000004	6e-45
133	0x00000004	6e-45
134	0x80000004	-6e-45
135	0x00000004	6e-45
136	0x00000004	6e-45
137	0x00000004	6e-45
138	0x00000004	6e-45
139	0x80000004	-6e-45
140	0x80000004	-6e-45
141	0x00000004	6e-45
142	0x00000004	6e-45
143	0x00000004	6e-45
144	0x00000004	6e-45
145	0x00000004	6e-45
146	0x80000004	-6e-45
147	0x80000004	-6e-45
148	0x80000004	-6e-45
149	0x00000004	6e-45
150	0x36dd246c	6.5905533e-06
151	0xb6601b40	-3.3394463e-06
152	0x339759ee	7.0478436e-08
153	0x36e74c91	6.89325e-06
154	0x32eb1840	2.7368628e-08
155	0x33ddeae6	1.0333842e-07
156	0x3471fe53	2.2537397e-07
157	0x34490ffa	1.8725396e-07
158	0x33747520	5.69172e-08
159	0xb417ed9b	-1.4149411e-07
160	0xb432793d	-1.6621648e-07
161	0x3709be96	8.210211e-06
162	0xb3e829e5	-1.08109624e-07
163	0xb47852da	-2.3126941e-07
164	0xb3c0d18a	-8.978812e-08
165	0x36a44c6c	4.8964775e-06
166	0x3583f9ef	9.833001e-07
167	0x36f4b127	7.29239e-06
168	0x3706cc6d	8.034619e-06
169	0xb392304e	-6.8074414e-08
170	0x344c0f85	1.9004626e-07
171	0x36aefd35	5.2150813e-06
172	0xb3ff23d7	-1.1880882e-07
173	0x35f1b91f	1.8009777e-06
174	0x35c89b13	1.4946294e-06
175	0xb5e87c7e	-1.7321579e-06
176	0x333aec0e	4.352119e-08
177	0xb38f93de	-6.685853e-08
178	0xb496ddc3	-2.810103e-07
179	0xb616d29b	-2.247433e-06
180	0x3af8f442	0.0018993693
181	0xb935f562	-0.00017352917
182	0x3975ff76	0.00023460187
183	0x3b16a893	0.0022988662
184	0xb98b2a2a	-0.0002654356
185	0xb7a6f052	-1.990065e-05
186	0x3930140f	0.0001679214
187	0xb8e51e1c	-0.00010925179
188	0x3ae3a109	0.0017366718
189	0x3ad8e7a5	0.0016548528
190	0x383541ac	4.3214925e-05
191	0x3b103472	0.0022003916
192	0xb9e0939c	-0.00042834587
193	0xb89cf96a	-7.485117e-05
194	0xb9b84993	-0.00035150032
195	0x3a01e662	0.0004955289
196	0x37c727f0	2.3741246e-05
197	0x3a8e7c29	0.0010870743
198	0x3aeb7185	0.0017962909
199	0xb96fcce2	-0.00022869141
200	0xb9c69134	-0.00037873688
201	0x3a295d2b	0.00064607215
202	0x385a781e	5.2087118e-05
203	0xb9989722	-0.00029104302
204	0x3a06d1b4	0.00051429425
205	0x38d37d7a	0.00010084636
206	0xb9611620	-0.00021465914
207	0x39a938d2	0.00032276526
208	0xb9ddaca6	-0.00042281038
209	0xb99dc50e	-0.0003009219
210	0x00000000	0.0
211	0x00000000	0.0
212	0x00000000	0.0
213	0x00000000	0.0
214	0x00000000	0.0
215	0x00000000	0.0
216	0x00000000	0.0
217	0x00000000	0.0
218	0x00000000	0.0
219	0x00000000	0.0
220	0x00000000	0.0
221	0x00000000	0.0
222	0x00000000	0.0
223	0x00000000	0.0
224	0x00000000	0.0
225	0x00000000	0.0
226	0x00000000	0.0
227	0x00000000	0.0
228	0x00000000	0.0
229	0x00000000	0.0
230	0x00000000	0.0
231	0x00000000	0.0
232	0x00000000	0.0
233	0x00000000	0.0
234	0x00000000	0.0
235	0x00000000	0.0
236	0x00000000	0.0
237	0x00000000	0.0
238	0x00000000	0.0
239	0x00000000	0.0
240	0x3b8f6153	0.0043756156
241	0x385cd810	5.265331e-05
242	0x38c9a918	9.615923e-05
243	0x3b501e52	0.0031756354
244	0xb8a50f10	-7.870619e-05
245	0x3901caf4	0.00012378005
246	0x38fb1e70	0.00011974282
247	0x38d5e4e8	0.000101992686
248	0x3b46ea58	0.0030352082
249	0x3a91a79c	0.0011112574
250	0x37407ce8	1.1473174e-05
251	0x3c0c51d3	0.00856443
252	0x38e1e0b8	0.00010770693
253	0x38c47b68	9.3689945e-05
254	0x38f075c8	0.0001146603
255	0x3bd0c788	0.006371442

exp_avg_sq f4 [30, 30]
0	0x3c3c02c1	0.011475266
1	0x358897ce	1.0176971e-06
2	0x350a80cb	5.1596425e-07
3	0x3c4c5b26	0.012472903
4	0x2ca10c41	4.5772557e-12
5	0x247ae1d9	5.440141e-17
6	0x33b9cd4d	8.652078e-08
7	0x33cc6a85	9.518866e-08
8	0x3b77d436	0.0037815697
9	0x3b8743cf	0.0041279565
10	0x33424d8f	4.5239684e-08
11	0x3cb96d32	0.022635076
12	0x34943902	2.7608627e-07
13	0x27aa231b	4.722254e-15
14	0x358829a4	1.0144909e-06
15	0x3c085b46	0.0083225425
16	0x3a2303f9	0.00062185485
17	0x3c970530	0.01843509
18	0x3ca13e8d	0.019683147
19	0x24405f85	4.171427e-17
20	0x3498166d	2.8328523e-07
21	0x3c1b206a	0.009468177
22	0x32ef67c8	2.7870456e-08
23	0x3a8abcb1	0.0010584799
24	0x3a4a839f	0.00077253015
25	0x35ed2a83	1.7670249e-06
26	0x33802ff4	5.969187e-08
27	0x350a0958	5.1422603e-07
28	0x32b76931	2.135184e-08
29	0x30ab7581	1.2475284e-09
30	0x3c8b19f8	0.016980156
31	0x3641798b	2.8829988e-06
32	0x36498860	3.0030715e-06
33	0x3c933273	0.017968392
34	0x368dab9e	4.2221063e-06
35	0x28260b76	9.217336e-15
36	0x2a169f63	1.3377975e-13
37	0x3646b797	2.9611163e-06
38	0x3baf2861	0.0053453897
39	0x3bd52b4b	0.006505405
40	0x233ecf51	1.0343822e-17
41	0x3d011612	0.03151519
42	0x21f79628	1.6777117e-18
43	0x3362a0b7	5.2765895e-08
44	0x3104c354	1.931956e-09
45	0x3c37c7ca	0.011217067
46	0x3a818b00	0.0009883344
47	0x3cdbbd17	0.026823564
48	0x3cdea73a	0.02717935
49	0x288e388d	1.5789692e-14
50	0x32632fb8	1.3223989e-08
51	0x3c59e02e	0.0132980775
52	0x341486a4	1.3832556e-07
53	0x3aa6cc31	0.0012725649
54	0x3aa19723	0.0012328367
55	0x361293f4	2.1841815e-06
56	0x368c917d	4.189262e-06
57	0x3231d837	1.03519175e-08
58	0x350c8657	5.2349554e-07
59	0x346b1391	2.1893199e-07
60	0x3aded545	0.0017000815
61	0x3805b3ee	3.1877244e-05
62	0x38136c2a	3.5148267e-05
63	0x3b0b9077	0.0021295825
64	0x36cb47c6	6.058227e-06
65	0x38245e6a	3.9188577e-05
66	0x372b99a6	1.0228168e-05
67	0x3638f5ee	2.7561287e-06
68	0x3a145a48	0.0005659205
69	0x3a287d1d	0.0006427335
70	0x37fbe523	3.0028232e-05
71	0x3b02c847	0.00199558
72	0x373c4a55	1.122298e-05
73	0x359ccc00	1.1682278e-06
74	0x378efe12	1.704603e-05
75	0x3aa37b47	0.0012472653
76	0x3835d064	4.334784e-05
77	0x3adc9738	0.0016829735
78	0x3ad13c19	0.0015963345
79	0x37c5a15a	2.3559365e-05
80	0x3810381d	3.4384535e-05
81	0x3a4d0e01	0.0007822216
82	0x33e5b9b1	1.06974205e-07
83	0x394c954c	0.00019510573
84	0x374096a3	1.1479165e-05
85	0x3805ab50	3.186922e-05
86	0x381dfb3e	3.7665704e-05
87	0x35065da5	5.005516e-07
88	0x37dc42aa	2.6257087e-05
89	0x3795f74c	1.787734e-05
90	0x3a82d64c	0.0009982078
91	0x3788e165	1.631742e-05
92	0x35fe2367	1.8934778e-06
93	0x39f67e98	0.00047015096
94	0x35858d2b	9.950357e-07
95	0x37bd272e	2.25488e-05
96	0x36fea215	7.5886587e-06
97	0x37a3f422	1.9544797e-05
98	0x39c0524b	0.00036682407
99	0x39155f81	0.00014245325
100	0x36589f8d	3.227938e-06
101	0x3a8bad0a	0.0010656428
102	0x37ad4554	2.065549e-05
103	0x3314a099	3.4604998e-08
104	0x3781967f	1.5448079e-05
105	0x399c6c15	0.00029835166
106	0x388da5b2	6.754267e-05
107	0x3a89f752	0.0010525978
108	0x3a472c7d	0.0007597877
109	0x2ca6cd8b	4.7408236e-12
110	0x365bb52e	3.2739003e-06
111	0x3a0af10e	0.0005300202
112	0x36fccbf9	7.533931e-06
113	0x38bcddd7	9.0058595e-05
114	0x38fd0981	0.0001206575
115	0x371eb8bd	9.460547e-06
116	0x36b4be4d	5.386572e-06
117	0x36f84af9	7.399704e-06
118	0x36aa171a	5.069084e-06
119	0x37f5ae10	2.928733e-05
120	0x2b2865c6	5.982683e-13
121	0x2b37837d	6.5197137e-13
122	0x26052305	4.6191105e-16
123	0x2b38956e	6.5577307e-13
124	0x25989251	2.6466945e-16
125	0x259dc270	2.7366915e-16
126	0x251db3b2	1.3678462e-16
127	0x247566f2	5.3213105e-17
128	0x24d20a1d	9.1090115e-17
129	0x24735f93	5.277318e-17
130	0x239a4ddd	1.672969e-17
131	0x2cca94cd	5.7577055e-12
132	0x25949a47	2.577845e-16
133	0x229c340e	4.2339e-18
134	0x250506da	1.1538233e-16
135	0x2c360e64	2.5871744e-12
136	0x2ba395a9	1.1623386e-12
137	0x2d0a93a2	7.877173e-12
138	0x2cb31800	5.0901505e-12
139	0x22a521a5	4.4758962e-18
140	0x246f84d0	5.193736e-17
141	0x2cc978f9	5.7261943e-12
142	0x2601c637	4.5024497e-16
143	0x2c1d843e	2.238445e-12
144	0x2b9e8f7a	1.1266398e-12
145	0x2b088cfe	4.851257e-13
146	0x2498579d	6.6067915e-17
147	0x2564d57f	1.9848183e-16
148	0x234e434a	1.1181531e-17
149	0x280367fa	7.294507e-15
150	0x32e1bab5	2.6278352e-08
151	0x3304a0f5	3.0880035e-08
152	0x2a3902ec	1.6432314e-13
153	0x32d9f878	2.5375115e-08
154	0x28e0e548	2.496843e-14
155	0x2ac68b83	3.526867e-13
156	0x2beb9fa2	1.6742061e-12
157	0x2ba2b6b5	1.1561504e-12
158	0x29f19e3d	1.073e-13
159	0x2b39eea5	6.605639e-13
160	0x2b803d53	9.111968e-13
161	0x3477dcf6	2.3084053e-07
162	0x2ad94461	3.859439e-13
163	0x2bf819cb	1.7628619e-12
164	0x2a95f8ba	2.6640306e-13
165	0x33e03b2a	1.0441575e-07
166	0x3337de6a	4.2810292e-08
167	0x34a37063	3.0442888e-07
168	0x3454e123	1.9825943e-07
169	0x2a2ca2ed	1.5333195e-13
170	0x2ba79904	1.1908534e-12
171	0x346a8215	2.1840272e-07
172	0x2b03289e	4.6596917e-13
173	0x33b438e6	8.392253e-08
174	0x334a585f	4.7112163e-08
175	0x329a2204	1.7943428e-08
176	0x298d8909	6.28543e-14
177	0x2a268a6e	1.4791789e-13
178	0x2d25a358	9.415434e-12
179	0x2f8bb769	2.5414273e-10
180	0x38f7c5da	0.000118147305
181	0x352bf884	6.40641e-07
182	0x36816138	3.8558173e-06
183	0x394dd8fd	0.00019631158
184	0x36a5c386	4.940145e-06
185	0x32dbea3f	2.5601478e-08
186	0x36042f49	1.9697056e-06
187	0x355e95f3	8.291965e-07
188	0x389a23b2	7.349941e-05
189	0x38a93e91	8.070202e-05
190	0x3407f839	1.2663158e-07
191	0x39ce5363	0.0003935351
192	0x37585ebc	1.289666e-05
193	0x34cf7352	3.864066e-07
194	0x3711929d	8.67681e-06
195	0x389b0525	7.391934e-05
196	0x3776c291	1.4708044e-05
197	0x392d3c28	0.00016520976
198	0x39742f8d	0.00023287367
199	0x3675d6b6	3.6632823e-06
200	0x372910d3	1.0077102e-05
201	0x38bde7dc	9.0554095e-05
202	0x3446e3fa	1.8523124e-07
203	0x381a4a52	3.6785677e-05
204	0x37a885a7	2.0089397e-05
205	0x35fcd48b	1.8837321e-06
206	0x36587d44	3.2259422e-06
207	0x36f561d9	7.31296e-06
208	0x37516538	1.2480938e-05
209	0x36d78caf	6.423877e-06
210	0x00000000	0.0
211	0x00000000	0.0
212	0x00000000	0.0
213	0x00000000	0.0
214	0x00000000	0.0
215	0x00000000	0.0
216	0x00000000	0.0
217	0x00000000	0.0
218	0x00000000	0.0
219	0x00000000	0.0
220	0x00000000	0.0
221	0x00000000	0.0
222	0x00000000	0.0
223	0x00000000	0.0
224	0x00000000	0.0
225	0x00000000	0.0
226	0x00000000	0.0
227	0x00000000	0.0
228	0x00000000	0.0
229	0x00000000	0.0
230	0x00000000	0.0
231	0x00000000	0.0
232	0x00000000	0.0
233	0x00000000	0.0
234	0x00000000	0.0
235	0x00000000	0.0
236	0x00000000	0.0
237	0x00000000	0.0
238	0x00000000	0.0
239	0x00000000	0.0
240	0x3b04b548	0.0020249654
241	0x364115ea	2.8771997e-06
242	0x36da9a80	6.5148924e-06
243	0x3b1275d9	0.0022348075
244	0x3692702e	4.3641985e-06
245	0x373520bb	1.0796061e-05
246	0x372980ed	1.0103203e-05
247	0x36f5efd0	7.329487e-06
248	0x3a6e16db	0.0009082385
249	0x3a329a69	0.000681317
250	0x33c6a7fc	9.25065e-08
251	0x3b4ac287	0.0030938701
252	0x370922da	8.173951e-06
253	0x36cf84be	6.184534e-06
254	0x371b6af1	9.263619e-06
255	0x3a96a4f1	0.0011493248

exp_avg f4 [2, 30]
0	0x3c33fbd4	0.0109853335
1	0x3c5e8bbe	0.013583122
2	0x3bbf73d4	0.005842665
3	0x3be311d0	0.0069296136
4	0x00000004	6e-45
5	0x1a81017b	5.335554e-23
6	0x3c4e9312	0.0126083065
7	0x00000000	0.0
8	0xbbb3b5c8	-0.0054843165
9	0x00000000	0.0
10	0x00000000	0.0
11	0x80000004	-6e-45
12	0xb997c3fd	-0.00028946987
13	0x3c19f03e	0.009395657
14	0x3c66f98f	0.014097585
15	0x3c8f77a3	0.017513102
16	0x00000000	0.0
17	0x3bfe0105	0.0077515864
18	0x3c0a5f3e	0.008445559
19	0x3bbdeb1c	0.0057958495
20	0xb9b4d2a0	-0.00034489203
21	0x00000000	0.0
22	0x00000000	0.0
23	0x00000000	0.0
24	0xbbf821ce	-0.007572389
25	0x3ba0dc77	0.004909094
26	0x00000000	0.0
27	0xb7e79f1d	-2.7611439e-05
28	0x3b5a1d0b	0.003328147
29	0x00000000	0.0
30	0x39894321	0.0002618069
31	0x3a470284	0.00075916224
32	0xbc295566	-0.010335302
33	0xbc1726e8	-0.009225585
34	0x00000004	6e-45
35	0xb65527a5	-3.176255e-06
36	0xbc4130a2	-0.01179138
37	0x00000000	0.0
38	0xbb32ce33	-0.002728355
39	0x00000000	0.0
40	0x00000000	0.0
41	0x00000004	6e-45
42	0x3a4f11b8	0.00078990636
43	0xbc4eff54	-0.012634117
44	0x3a28fd73	0.0006446458
45	0xb9bb343e	-0.00035706343
46	0x00000000	0.0
47	0xbb2fd2cc	-0.0026828526
48	0xbae0c778	-0.001714929
49	0xbc1328ea	-0.008981923
50	0xbaec9432	-0.0018049537
51	0x00000000	0.0
52	0x00000000	0.0
53	0x00000000	0.0
54	0xb996a836	-0.00028735556
55	0xbb57b24a	-0.0032912665
56	0x00000000	0.0
57	0x39cd5ce9	0.0003916987
58	0xbb178e1c	-0.0023125475
59	0x00000000	0.0

exp_avg_sq f4 [2, 30]
0	0x39840783	0.000251826
1	0x39c597af	0.0003768778
2	0x3cc0db1c	0.02354198
3	0x3ce64c1d	0.028112466
4	0x267e07a5	8.8134313e-16
5	0x2f8b5d81	2.535039e-10
6	0x3cf81d56	0.030287426
7	0x00000000	0.0
8	0x3b829ff2	0.003986352
9	0x00000000	0.0
10	0x00000000	0.0
11	0x2c916520	4.132375e-12
12	0x36979095	4.5169822e-06
13	0x3ce15a4f	0.027508883
14	0x39c98dea	0.00038443442
15	0x3a2e1450	0.00066406
16	0x00000000	0.0
17	0x3a805f97	0.0009794113
18	0x3a8a1e3c	0.0010537575
19	0x3c7322de	0.014839856
20	0x3af4eea0	0.0018686838
21	0x00000000	0.0
22	0x00000000	0.0
23	0x00000000	0.0
24	0x3ae67a7b	0.001758411
25	0x3aa560e2	0.0012617374
26	0x00000000	0.0
27	0x35a9fd24	1.2665155e-06
28	0x3a4bb22e	0.00077703863
29	0x00000000	0.0
30	0x38ca97dc	9.6603966e-05
31	0x38f16472	0.00011510485
32	0x3abfd4c2	0.001463555
33	0x3abcb6c2	0.0014397728
34	0x2505ccbf	1.1605282e-16
35	0x2e28b03a	3.8355298e-11
36	0x3adb4202	0.0016728046
37	0x00000000	0.0
38	0x38c511f1	9.397034e-05
39	0x00000000	0.0
40	0x00000000	0.0
41	0x2a8c833e	2.4960063e-13
42	0x36c0fb91	5.751332e-06
43	0x3aa348cf	0.0012457612
44	0x391efe82	0.00015162866
45	0x397f4027	0.00024342594
46	0x00000000	0.0
47	0x38950d27	7.1073235e-05
48	0x3906df75	0.0001286248
49	0x3a4a94d1	0.0007727864
50	0x3901aca9	0.0001236672
51	0x00000000	0.0
52	0x00000000	0.0
53	0x00000000	0.0
54	0x38c81ccb	9.542106e-05
55	0x380042e0	3.057986e-05
56	0x00000000	0.0
57	0x34c7052f	3.707041e-07
58	0x388f2dd1	6.827305e-05
59	0x00000000	0.0

exp_avg f4 [2]
0	0x3d0b6ba0	0.034038186
1	0xbbfcefd4	-0.0077190194

exp_avg_sq f4 [2]
0	0x3b4bded3	0.0031108155
1	0x393a354b	0.00017758195
