Experimental_Models/Three_Layer_60_20_Run_v1.0.pt (torch_old, 832785 bytes, 24 tensors)

fc1.bias f4 [60]
-0.4144295 0.06736815 -0.64637303 -0.22608356 -0.48899537 -0.5971575 0.25603223 0.2939925
-0.5258031 -0.16006434 0.1113425 0.28718808 0.5117345 -0.41397315 0.29543257 0.37181067
-0.10312288 0.5046567 0.2048287 0.39561322 0.36476246 -0.42511597 -0.19876866 0.30714014
0.5560302 -0.41213602 -0.16789854 -0.32683447 0.5177281 -0.23339434 -0.5632375 0.30109257
-0.27598557 0.23875524 -0.20785876 0.16737384 -0.37129968 0.016839674 0.30216467 -0.12060267
-0.3767565 0.58122444 0.19343936 -0.15464759 0.40370753 0.05685664 0.0010246966 -0.07085635
0.4090808 -0.42265934 0.39166385 -0.42202497 -0.6672528 0.14928502 0.15612207 -0.12201393
-0.46303108 0.016188681 -0.4406201 0.58199716
00000000: 1a30 d4be 50f8 893d b478 25bf 7382 67be
00000010: 9a5d fabe 50df 18bf a816 833e 2f86 963e
00000020: 089b 06bf e8e7 23be 8907 e43d 510a 933e
00000030: 0801 033f 4af4 d3be f042 973e f85d be3e
00000040: 1732 d3bd 2e31 013f 9dbe 513e d18d ca3e
00000050: 25c2 ba3e cda8 d9be 038a 4bbe 7941 9d3e
00000060: ff57 0e3f 7e03 d3be 98ed 2bbe d956 a7be
00000070: d489 043f edfe 6ebe 5530 10bf ce28 9a3e
00000080: fb4d 8dbe 417c 743e edd8 54be 0c64 2b3e
00000090: fe1a bebe 5bf3 893c 54b5 9a3e 88fe f6bd
000000a0: 3ae6 c0be 20cb 143f f814 463e f05b 1ebe
000000b0: c1b2 ce3e 82e2 683d 1d4f 863a 221d 91bd
000000c0: 0a73 d13e ce66 d8be 2a88 c83e a813 d8be
000000d0: 14d1 2abf 2cde 183e 77de 1f3e 70e2 f9bd
000000e0: 6912 edbe 209e 843c f598 e1be c4fd 143f

fc1.weight_g f4 [60, 1]
0.6945788 0.5155939 0.29877356 0.5761339 0.48494825 0.76857185 0.43603694 0.9662628
0.57008815 0.39945334 0.54753584 0.7364071 0.36324662 0.7942071 0.71873516 0.6369875
0.72219133 0.5716362 0.38748163 0.3419163 0.67343843 0.857111 0.684387 0.38293704
0.65185434 0.691898 0.7970486 0.53325987 0.6732549 0.74863064 0.69286317 0.76093054
0.4333385 0.66936135 0.47305688 0.6133728 0.5932652 0.88692915 0.4923594 0.5225135
0.5173554 0.5752515 0.38588464 0.38402227 0.332958 0.65621436 0.7297818 0.8558605
0.6518716 0.18745187 0.37110424 0.42588922 0.7353674 0.5179246 0.5036251 0.61033994
0.59590155 0.593078 0.68178254 0.24943534
00000000: ebcf 313f f6fd 033f d9f8 983e 837d 133f
00000010: 234b f83e 20c1 443f 3c40 df3e 005d 773f
00000020: 4cf1 113f 2685 cc3e 4f2b 0c3f 2d85 3c3f
00000030: 76fb b93e 2851 4b3f 07ff 373f 9d11 233f
00000040: 88e1 383f c056 123f fe63 c63e a70f af3e
00000050: 7666 2c3f a06b 5b3f fd33 2f3f 5310 c43e
00000060: eddf 263f 3a20 313f 610b 4c3f b883 083f
00000070: 6f5a 2c3f 42a6 3f3f 7b5f 313f 58cc 423f
00000080: 8bde dd3e 445b 2b3f 8334 f23e 0006 1d3f
00000090: 3ae0 173f ca0d 633f 8816 fc3e 72c3 053f
000000a0: 6771 043f af43 133f ac92 c53e 919e c43e
000000b0: 7979 aa3e aafd 273f fbd2 3a3f ac19 5b3f
000000c0: 0fe1 263f 62f3 3f3e 6001 be3e 270e da3e
000000d0: 0a41 3c3f b596 043f 93ed 003f 3d3f 1c3f
000000e0: 018d 183f f6d3 173f 4d89 2e3f fa6b 7f3e

fc1.weight_v f4 [60, 3]
-0.299067 0.5281499 -0.19143692 -0.37783417 0.018059552 -0.35036016 0.17060572 -0.10084344
-0.19999976 0.09314055 0.5382944 0.19276975 -0.41060773 0.09765422 0.23882997 0.4663882
0.27025902 -0.53302 -0.26015052 -0.29037628 0.19527298 0.4767466 -0.54709953 0.59566534
-0.097025454 -0.0017542839 0.5617682 -0.08348039 -0.2601656 -0.29138952 0.46704382 0.06971665
-0.10287862 0.5207208 0.5258522 0.018370165 -0.36066997 0.005570829 0.042827845 0.39824566
0.48041153 -0.48521736 -0.4084821 -0.42766446 -0.40844303 -0.2141546 0.43969157 -0.13638797
0.49138704 0.3046884 0.4083367 0.42051852 -0.3537305 -0.18425202 -0.10823535 0.32109985
-0.045321237 0.082132265 -0.26954985 0.0850495 -0.37885085 0.34290883 0.41271767 -0.51823217
0.4330466 -0.54588634 0.48371023 -0.35518733 -0.327545 -0.25361782 0.15004185 -0.25173077
-0.4574588 0.3413587 0.32282293 -0.15358064 0.42525813 -0.2911597 -0.40473396 -0.57224727
0.3794865 -0.44325757 -0.16218251 -0.2481645 -0.4711567 0.43310732 0.12568961 0.5599435
-0.38839117 0.31351936 0.32659888 0.33369523 0.48712832 0.2626168 0.4877392 0.5299767
-0.2381508 -0.087486506 0.35130125 0.28920975 -0.39053226 -0.49365413 0.4291604 -0.121664666
0.14563264 -0.22220653 0.0012606978 0.571707 -0.37387612 0.41740188 -0.18760946 0.56185657
-0.43200898 0.53643477 0.41035038 0.18786463 -0.13505849 -0.51492375 -0.036827505 0.08073199
0.37107763 0.20259638 -0.26359347 0.044712555 0.08812657 0.55744547 -0.09737289 -0.070818126
0.36662006 0.20895973 0.0074589415 0.3116156 0.102138765 -0.2367554 -0.07190679 0.17930174
-0.5460395 0.029136315 0.44032007 0.5875942 -0.117470905 -0.55075014 0.33853865 0.52893186
0.074047 0.2872065 -0.5380061 -0.016863167 -0.18605107 -0.015454233 -0.26423132 -0.13932914
0.22019893 0.22657466 0.27320513 -0.24026997 0.2172406 0.43570492 -0.5352132 0.25965825
0.3465272 -0.24041562 -0.01996705 0.34657294 -0.3153743 -0.23512524 -0.559767 -0.062385082
-0.2688522 -0.3241403 -0.42160434 -0.449556 0.078770995 -0.37872958 0.33980447 -0.23920353
-0.55552673 0.16710241 -0.021971727 0.18439126
00000000: 4f1f 99be d534 073f 0a08 44be 7b73 c1be
00000010: a0f1 933c 6862 b3be 44b3 2e3e 0187 cebd
00000020: bdcc 4cbe 79c0 be3d a9cd 093f 6f65 453e
00000030: 2d3b d2be f0fe c73d d88f 743e 6fca ee3e
00000040: 645f 8a3e 0074 08bf 7332 85be 33ac 94be
00000050: a4f5 473e 2118 f43e b70e 0cbf 867d 183f
00000060: 48b5 c6bd 00f0 e5ba 0ad0 0f3f c4f7 aabd
00000070: 6d34 85be 0231 95be 5e20 ef3e 9ac7 8e3d
00000080: 07b2 d2bd f54d 053f 409e 063f 077d 963c
00000090: bca9 b8be 808b b63b 406c 2f3d dbe6 cb3e
000000a0: 80f8 f53e 696e f8be 9124 d1be d6f6 dabe
000000b0: 721f d1be 584b 5bbe 411f e13e 4aa9 0bbe
000000c0: 1597 fb3e 1e00 9c3e 8211 d13e 344e d73e
000000d0: 2a1c b5be 90ac 3cbe 7faa ddbd 3367 a43e
000000e0: c3a2 39bd f634 a83d 7002 8abe 6f2e ae3d
000000f0: bdf8 c1be bf91 af3e bb4f d33e ddaa 04bf
00000100: 49b8 dd3e 35bf 0bbf dea8 f73e 1ddb b5be
00000110: fab3 a7be 32da 81be 92a4 193e dbe2 80be
00000120: 0a38 eabe 91c6 ae3e 0c49 a53e 3e44 1dbe
00000130: 6fbb d93e e212 95be 4a39 cfbe cc7e 12bf
00000140: 0e4c c23e a8f2 e2be 2c13 26be d61e 7ebe
00000150: 733b f1be 3ec0 dd3e c7b4 003e 7558 0f3f
00000160: 35db c6be 9c85 a03e f837 a73e 1ada aa3e
00000170: e268 f93e b675 863e f4b8 f93e 8eac 073f
00000180: cedd 73be 202c b3bd c2dd b33e 4d13 943e
00000190: d8f3 c7be 3cc0 fcbe e9ba db3e 532b f9bd
000001a0: b920 153e 1c8a 63be 003e a53a 645b 123f
000001b0: b16c bfbe b3b5 d53e b21c 40be d5d5 0f3f
000001c0: 4830 ddbe ca53 093f 7219 d23e 965f 403e
000001d0: c64c 0abe 0bd2 03bf 70d8 16bd d056 a53d
000001e0: e3fd bd3e 6d75 4f3e b9f5 86be 8324 373d
000001f0: b47b b43d bfb4 0e3f 706b c7bd 1809 91bd
00000200: a0b5 bb3e 8af9 553e 236a f43b 148c 9f3e
00000210: 212e d13d 0270 72be de43 93bd e09a 373e
00000220: 3fc9 0bbf 48af ee3c a271 e13e 936c 163f
00000230: 9694 f0bd f6fd 0cbf f054 ad3e 1468 073f
00000240: f4a5 973d bb0c 933e c5ba 09bf a024 8abc
00000250: 2c84 3ebe c033 7dbc 5449 87be 4cac 0ebe
00000260: d47b 613e 3003 683e 8be1 8b3e 5509 76be
00000270: 5274 5e3e b714 df3e bb03 09bf edf1 843e
00000280: 036c b13e 832f 76be f091 a3bc 0272 b13e
00000290: be78 a1be acc4 70be e44c 0fbf 8087 7fbd
000002a0: ffa6 89be b8f5 a5be 86dc d7be 342c e6be
000002b0: b052 a13d d8e8 c1be dafa ad3e c5f1 74be
000002c0: 0037 0ebf e51c 2b3e 0dfe b3bc 10d1 3c3e

fc2.bias f4 [20]
0.08998901 -0.07452257 0.22037187 -0.0121173095 0.1277551 -0.12002902 0.010092676 0.041852072
-0.11016655 0.17924155 -0.02804925 -0.15548837 -0.061632268 0.07249372 0.19532399 0.043656215
-0.06230606 -0.242447 -0.06600914 -0.009302546
00000000: 284c b83d 4a9f 98bd 2aa9 613e ae87 46bc
00000010: 3cd2 023e c6d1 f5bd c05b 253c 146d 2b3d
00000020: 009f e1bd 198b 373e 8ac7 e5bc 5838 1fbe
00000030: 1e72 7cbd 9677 943d 0303 483e dcd0 323d
00000040: a434 7fbd 0744 78be cd2f 87bd b569 18bc

fc2.weight_g f4 [20, 1]
0.5833001 0.553699 0.65074784 0.5586835 0.5577223 0.58026814 0.57878095 0.6369533
0.61695254 0.6371666 0.621703 0.6261266 0.61472404 0.52875286 0.5659035 0.5711489
0.6259547 0.63077253 0.59606904 0.5546348
00000000: 2853 153f 38bf 0d3f 6997 263f e205 0f3f
00000010: e3c6 0e3f 748c 143f fd2a 143f 5f0f 233f
00000020: 9af0 1d3f 5a1d 233f ee27 1f3f d549 203f
00000030: 8e5e 1d3f 595c 073f 0ddf 103f d036 123f
00000040: 913e 203f 4f7a 213f fb97 183f 8cfc 0d3f

fc2.weight_v f4 [20, 60]
0.089499176 0.06108927 0.042953517 -0.012554824 -6.702392e-10 -0.006149961 0.017278796 0.060266495
0.013240826 0.05545684 0.12866221 -0.060713656 -2.3168058e-10 0.03480309 -0.046551827 0.030135531
0.08750132 0.036327213 0.17803468 0.09423601 -0.09550657 -0.058839593 0.05641379 0.09139137
0.017602632 0.114903726 -0.03045248 0.07504495 0.06353257 0.028271968 -0.12240116 0.014771599
-0.085902125 -0.03172641 -0.05962924 0.012289629 0.0800498 -0.09676942 -0.07594189 -1.1808892e-28
0.039030083 -0.015530679 0.076426536 -0.09654132 0.1559958 -0.05026419 0.08197647 -0.0033648247
0.07837026 0.058466278 -0.0017942057 0.08239403 0.092675276 -0.057377726 0.06790912 -0.06929357
2.8943373e-06 -0.058251508 -0.10972995 0.084530614 -0.09780703 -0.0064738365 -0.08935889 0.076015666
0.098900594 0.06421363 0.121974625 0.086822696 0.07774078 0.12636895 -0.07955619 -0.12928349
-0.017047698 -0.05232711 0.07814718 -0.028172197 -0.04461622 -0.12543869 0.015385276 0.043395627
0.096266724 -0.112749435 0.006109558 -0.07076882 -0.014976206 0.056085225 -0.09716297 0.09582255
0.07460674 0.061899614 -0.006647494 0.07478563 -0.032200456 0.07661249 0.042346694 -0.017028643
-0.11249774 0.0089275045 0.014315407 0.007166942 0.016984668 0.02429464 0.05855997 0.072103254
0.08250617 -0.013110822 -0.0061085955 0.09412452 0.10529088 0.00095279684 0.08195438 0.105415516
-0.039912835 -0.11864995 -0.049546838 0.013477754 -0.09463602 0.050386094 0.05392969 -0.009001443
-0.14054944 -0.00013607486 -0.047054566 0.0662872 1.32046e-09 -0.038342766 -0.0032158764 0.07823237
-1.739442e-39 -2.69175e-39 0.11660736 -0.035263635 -5.221507e-39 0.06505006 0.022901345 -0.078366265
-0.066531114 -0.030123735 -0.0043395245 -0.06278512 0.0045707407 -0.00430621 -0.03920974 -0.010070868
-0.0007798297 0.07686675 0.023196977 -2.3951222e-10 -0.021760577 0.03081938 -0.07717183 0.014497705
0.0001460069 -0.005942589 -0.010729518 0.021276422 -0.0417743 -0.08729479 -0.0017381442 -0.00033345883
0.010940155 0.080756456 0.012999195 -0.006020303 0.068938926 0.07345985 0.06435425 -5.0076387e-38
0.005613703 -5.77221e-40 1.04674e-39 0.09409306 -0.11475586 -0.036438197 -0.03722314 1.64948e-40
-3.84466e-40 -2.6855485e-20 -0.086182825 0.07196609 -0.06885135 -0.048122264 -0.12303858 0.063773684
0.05042382 -0.11827753 0.0488178 -0.10467112 0.08654005 0.048665453 0.08121796 0.114476755
0.047396302 -0.01841226 0.10033332 0.003063074 -0.09374246 0.020941328 0.06321024 -0.078453615
-0.016568942 0.0940964 -0.009111946 -0.045280382 -0.13262095 0.018417003 0.017386222 -0.099564396
-0.13961284 -0.008056344 -0.09573787 0.062261313 -0.013636459 -0.09125906 -0.12339504 0.07079019
0.00028392198 0.08624514 -0.034620956 0.036753032 -0.11555902 0.029003669 0.08348669 0.08698077
0.08502495 -0.12486228 -0.007483664 0.08637972 0.113452755 -0.07591533 0.062386222 0.051376533
-0.07217826 0.0458542 -0.070120655 0.022727245 -0.08680622 0.06006945 -0.060742654 -0.042029336
-0.06802085 1.2004727e-13 0.013694951 -0.107426204 0.022641243 0.098068535 1.5045206e-38 -0.032654107
0.037967846 -7.2550215e-09 0.08054923 -0.02684396 -0.09787692 0.036717694 0.022657083 0.06840861
00000000: 584b b73d be38 7a3d 07f0 2f3d c0b2 4dbc
00000010: e43b 38b0 9d85 c9bb 438c 8d3c 00da 763d
00000020: 0df0 583c b626 633d 07c0 033e e2ae 78bd
00000030: 49bc 7eaf af8d 0e3d 21ad 3ebd cade f63c
00000040: e433 b33d d8cb 143d b94e 363e cffe c03d
00000050: f398 c3bd c901 71bd 2512 673d 662b bb3d
00000060: 6533 903c a552 eb3d 7b77 f9bc 2bb1 993d
00000070: 5d1d 823d 9d9a e73c 76ad fabd 9404 723c
00000080: 74ed afbd 8df3 01bd ca3d 74bd 715a 493c
00000090: 26f1 a33d 0c2f c6bd 6c87 9bbd 0cb2 1591
000000a0: 02de 1f3d 6474 7ebc 8485 9c3d 75b7 c5bd
000000b0: 5dbd 1f3e d3e1 4dbd 48e3 a73d 6484 5cbb
000000c0: 9680 a03d 567a 6f3d 8e2b ebba 34be a83d
000000d0: 89cc bd3d e804 6bbd f013 8b3d cae9 8dbd
000000e0: 563c 4236 2299 6ebd 19ba e0bd 631e ad3d
000000f0: 0d4f c8bd 7a22 d4bb cb01 b7bd 1aae 9b3d
00000100: 658c ca3d 7082 833d d5cd f93d 19d0 b13d
00000110: 8f36 9f3d dd66 013e 5bee a2bd e462 04be
00000120: 9da7 8bbc f454 56bd a10b a03d 61c9 e6bc
00000130: 7fbf 36bd 0073 00be 8612 7c3c 9dbf 313d
00000140: 7d27 c53d 2de9 e6bd b032 c83b 3eef 90bd
00000150: c35e 75bc 9fb9 653d 61fd c6bd 9d3e c43d
00000160: 6bcb 983d 738a 7d3d 39d3 d9bb 3529 993d
00000170: a0e4 03bd 02e7 9c3d ba73 2d3d a77f 8bbc
00000180: 3765 e6bd ab44 123c 2b8b 6a3c abd8 ea3b
00000190: 6e23 8b3c 8e05 c73c 94dc 6f3d dfaa 933d
000001a0: fff8 a83d c6ce 56bc 9d2a c8bb 5bc4 c03d
000001b0: bfa2 d73d 1dc5 793a b3d7 a73d 17e4 d73d
000001c0: a47b 23bd bffe f2bd a0f1 4abd ccd1 5c3c
000001d0: 88d0 c1bd a661 4e3d 61e5 5c3d ca7a 13bc
000001e0: 31ec 0fbe 51af 0eb9 4abc 40bd 95c1 873d
000001f0: 8e7b b530 4e0d 1dbd 74c1 52bb 4b38 a03d
00000200: dbf0 1280 814f 1d80 d7cf ee3d 9a70 10bd
00000210: 70db 3880 f738 853d 9a9b bb3c 7e7e a0bd
00000220: 7741 88bd 0dc6 f6bc 9232 8ebb 7c95 80bd
00000230: 27c6 953b 1c1b 8dbb 649a 20bd 4800 25bc
00000240: 7c6d 4cba 516c 9d3d 9607 be3c 59ac 83af
00000250: 3d43 b2bc ed78 fc3c 440c 9ebd c887 6d3c
00000260: 6e19 1939 0dba c2bb dcca 2fbc e44b ae3c
00000270: 871b 2bbd 9cc7 b2bd 71d2 e3ba 16d4 aeb9
00000280: 563e 333c a463 a53d 93fa 543c f645 c5bb
00000290: da2f 8d3d 1e72 963d 29cc 833d 2652 8881
000002a0: 27f3 b73b 0f49 0680 e365 0b00 ddb3 c03d
000002b0: 1f05 ebbd 3840 15bd 4b77 18bd cfcb 0100
000002c0: bc2f 0480 94a4 fd9e 9f80 b0bd f562 933d
000002d0: f001 8dbd da1b 45bd a7fb fbbd c79b 823d
000002e0: 3589 4e3d 7d3b f2bd 2cf5 473d d05d d6bd
000002f0: e93b b13d 6d55 473d 9a55 a63d ca72 ea3d
00000300: a022 423d 4fd5 96bc 8e7b cd3d dbbd 483b
00000310: 0cfc bfbd 268d ab3c 5f74 813d 4aac a0bd
00000320: 97bb 87bc 9db5 c03d 464a 15bc ec77 39bd
00000330: c9cd 07be 41df 963c 8d6d 8e3c 6be8 cbbd
00000340: abf6 0ebe c2fe 03bc 3712 c4bd b805 7f3d
00000350: 746b 5fbc 08e6 babd 8ab6 fcbd 72fa 903d
00000360: 5ddb 9439 4ba1 b03d b4ce 0dbd 598a 163d
00000370: 35aa ecbd 1a99 ed3c 12fb aa3d f922 b23d
00000380: 9021 ae3d ccb7 ffbd 8639 f5bb dae7 b03d
00000390: eb59 e83d 7f79 9bbd b288 7f3d 3370 523d
000003a0: 32d2 93bd 9dd1 3b3d 6b9b 8fbd 7d2e ba3c
000003b0: 76c7 b1bd 620b 763d 4acd 78bd f426 2cbd
000003c0: 844e 8bbd 4529 072a ca60 603c 4502 dcbd
000003d0: 217a b93c 28d8 c83d ead3 a300 50c0 05bd
000003e0: 2c84 1b3d d847 f9b1 fff6 a43d dde7 dbbc
000003f0: b273 c8bd 4b65 163d 599b b93c d019 8c3d

fc3.weight f4 [2, 20]
-0.11814022 -0.10447215 -0.23310882 0.117078826 -0.2051942 -0.16761974 -0.08802013 -0.028653726
0.066883534 -0.018271616 0.092182994 0.18330826 0.07169321 0.13126296 -0.18858802 0.11591023
0.07394006 0.27742618 0.032522924 0.23382187 -0.05620916 0.19296691 0.33098865 -0.12173773
-0.18825713 -0.09546423 0.1509138 0.107652225 0.22008294 0.23880711 -0.09283292 -0.056432497
0.18435892 0.006287828 -0.052750874 0.04262817 -0.2207611 0.05008493 -0.09376472 0.16718554
00000000: 80f3 f1bd 7ff5 d5bd 14b4 6ebe 06c7 ef3d
00000010: 6e1e 52be 82a4 2bbe e643 b4bd 38bb eabc
00000020: 3cfa 883d 5bae 95bc 70ca bc3d 29b5 3b3e
00000030: e4d3 923d cc69 063e 381d 41be 5862 ed3d
00000040: e36d 973d ce0a 8e3e c236 053d 006f 6f3e
00000050: 933b 66bd 1e99 453e 5877 a93e a251 f9bd
00000060: 7ac6 40be c082 c3bd 2689 1a3e c578 dc3d
00000070: 6c5d 613e da89 743e 301f bebd c325 67bd
00000080: 96c8 3c3e 200a ce3b 4d11 58bd e09a 2e3d
00000090: 330f 62be db25 4d3d b807 c0bd b032 2b3e

fc3.bias f4 [2]
0.04117161 -0.120942526
00000000: 90a3 283d b7b0 f7bd

exp_avg f4 [60]
9.855263e-05 0.0 0.0018988937 0.00040401885 0.0 0.001212117 0.0 -0.00023189052
0.0 0.0 -0.0017225615 0.0010286607 0.0 -0.00062265416 0.0 -0.0015237351
0.00019104753 -0.0011971989 -0.0013834621 -0.00030732437 -2.7189312e-06 -1.0439913e-05 0.0013731961 -9.860082e-08
-9.878685e-06 -0.001440217 0.0 0.0 -5.5993683e-06 -0.00021647179 0.002398858 -0.0005573661
0.0 -0.00036258553 0.00092615193 0.0 -1.465292e-05 0.001819781 -0.00088868104 0.0
0.0002675727 -0.002813027 0.0 0.00075645593 -0.002376398 -8.03944e-05 -0.0009233246 -1.126248e-05
-0.001480831 0.0 0.0 -0.0018038277 0.0018660167 -0.00019288703 -0.00019181415 0.0
0.0 0.0 0.001500328 -0.0018810133
00000000: 0aae ce38 0000 0000 4de4 f83a 7ed2 d339
00000010: 0000 0000 e6df 9e3a 0000 0000 a327 73b9
00000020: 0000 0000 0000 0000 93c7 e1ba 20d4 863a
00000030: 0000 0000 9d39 23ba 0000 0000 11b8 c7ba
00000040: ee53 4839 54eb 9cba 4955 b5ba 6120 a1b9
00000050: e276 36b6 1627 2fb7 d1fc b33a 60be d3b3
00000060: a1bc 25b7 aac5 bcba 0000 0000 0000 0000
00000070: 35e2 bbb6 b4fc 62b9 2936 1d3b 351c 12ba
00000080: 0000 0000 6819 beb9 01c9 723a 0000 0000
00000090: d0d5 75b7 b885 ee3a 60f6 68ba 0000 0000
000000a0: 0049 8c39 c35a 38bb 0000 0000 e64c 463a
000000b0: 58bd 1bbb 6a99 a8b8 440b 72ba fcf3 3cb7
000000c0: 7118 c2ba 0000 0000 0000 0000 6a6e ecba
000000d0: 2195 f43a b841 4ab9 b821 49b9 0000 0000
000000e0: 0000 0000 0000 0000 a7a6 c43a 558c f6ba

exp_avg_sq f4 [60]
8.499341e-07 0.0 1.253904e-05 7.1857016e-06 0.0 5.0132817e-06 0.0 1.2596541e-06
0.0 0.0 1.4251628e-05 6.014821e-06 0.0 1.9221868e-06 0.0 1.3740099e-05
1.6570335e-06 7.8748635e-06 8.299554e-06 3.4518225e-06 7.1312023e-09 8.2973406e-10 1.0824691e-05 7.2517623e-09
6.049289e-09 1.3450799e-05 0.0 0.0 1.0429598e-08 2.8046756e-07 2.8635593e-05 1.4680015e-06
0.0 7.307098e-07 3.0218305e-06 0.0 1.2774181e-08 1.2147783e-05 4.605401e-06 0.0
1.1657322e-06 2.882199e-05 0.0 9.262013e-06 3.7960766e-05 8.5984675e-06 3.4158209e-06 1.4011242e-10
1.6751244e-05 0.0 0.0 1.2775887e-05 1.1624205e-05 1.5128974e-06 1.9341321e-06 0.0
0.0 0.0 9.736109e-06 1.7098435e-05
00000000: 0727 6435 0000 0000 c45e 5237 b51c f136
00000010: 0000 0000 c337 a836 0000 0000 6311 a935
00000020: 0000 0000 0000 0000 471a 6f37 ebd2 c936
00000030: 0000 0000 ebfe 0036 0000 0000 4785 6637
00000040: 3d67 de35 481e 0437 503e 0b37 dca5 6736
00000050: b806 f531 5813 6430 b29b 3537 2d2b f931
00000060: 1cda cf31 beaa 6137 0000 0000 0000 0000
00000070: db2d 3332 2b93 9634 7836 f037 2608 c535
00000080: 0000 0000 ff25 4435 a7ca 4a36 0000 0000
00000090: 7175 5b32 55ce 4b37 1888 9a36 0000 0000
000000a0: 4176 9c35 c1c6 f137 0000 0000 0b64 1b37
000000b0: 1038 1f38 2342 1037 5b3b 6536 240e 1a2f
000000c0: 0685 8c37 0000 0000 0000 0000 0458 5637
000000d0: 9505 4337 c20e cb35 23cc 0136 0000 0000
000000e0: 0000 0000 0000 0000 4558 2337 9c6e 8f37

exp_avg f4 [60, 1]
3.3671502e-05 0.0 0.0036658384 0.0019417703 0.0 0.0042941957 0.0 -0.0015899462
0.0 0.0 -0.00790606 0.006788987 0.0 -0.0034319884 0.0 -0.0018367083
0.0013071046 -0.0014875494 -0.0024758268 0.00050290633 3.535058e-05 -1.679975e-05 0.002133339 1.5768353e-05
1.5721149e-05 -0.002916615 0.0 0.0 -3.6101414e-06 -0.0007992744 0.007360545 -0.0012134797
0.0 -0.00020466585 0.0033995635 0.0 -1.2801683e-05 0.0024063124 -0.0056226323 0.0
0.0007701884 -0.0013942592 0.0 0.00093672285 0.0018328347 0.0006875143 -0.00523298 -4.5182924e-06
-0.005079277 0.0 0.0 -0.0082909595 0.006755432 -0.0016084888 -0.001513455 0.0
0.0 0.0 0.0022202532 -0.004311767
00000000: 803a 0d38 0000 0000 903e 703b 0083 fe3a
00000010: 0000 0000 53b6 8c3b 0000 0000 be65 d0ba
00000020: 0000 0000 0000 0000 6b88 01bc 2776 de3b
00000030: 0000 0000 36eb 60bb 0000 0000 b4bd f0ba
00000040: 2753 ab3a e0f9 c2ba 7b41 22bb 79d5 033a
00000050: 6545 1438 30ed 8cb7 7dcf 0b3b 4846 8437
00000060: e9e0 8337 ae24 3fbb 0000 0000 0000 0000
00000070: c245 72b6 6686 51ba ba30 f13b 9f0d 9fba
00000080: 0000 0000 929b 56b9 36cb 5e3b 0000 0000
00000090: cfc6 56b7 39b3 1d3b 0f3e b8bb 0000 0000
000000a0: 78e6 493a 93bf b6ba 0000 0000 688e 753a
000000b0: ba3b f03a 4e3a 343a 6b79 abbb d69b 97b6
000000c0: 1070 a6bb 0000 0000 0000 0000 ced6 07bc
000000d0: ac5c dd3b eed3 d2ba 1f5f c6ba 0000 0000
000000e0: 0000 0000 0000 0000 ab81 113b b949 8dbb

exp_avg_sq f4 [60, 1]
4.899167e-06 0.0 0.0005764178 0.0005551944 0.0 0.00059804984 0.0 2.1643942e-05
0.0 0.0 0.0034826647 0.0014467823 0.0 0.00026475938 0.0 1.8151715e-05
0.00031035786 0.00049238396 5.3086762e-05 1.4114777e-05 4.509892e-09 1.6112431e-09 0.00071824307 2.5148976e-09
4.5483013e-09 6.153552e-05 0.0 0.0 1.3040929e-08 1.3347114e-05 0.0031469406 0.00012772322
0.0 6.7348283e-06 0.00044924748 0.0 3.4491766e-08 0.00053450424 0.0012041484 0.0
0.00021868318 0.00014843052 0.0 0.000766229 0.0002798404 5.576085e-05 0.0006540669 8.8931494e-11
0.00038695018 0.0 0.0 0.0017697113 0.0007947372 0.00025807528 3.8899438e-05 0.0
0.0 0.0 0.00028851785 0.0017008504
00000000: 8663 a436 0000 0000 be1a 173a 778a 113a
00000010: 0000 0000 72c6 1c3a 0000 0000 0390 b537
00000020: 0000 0000 0000 0000 6b3d 643b f5a1 bd3a
00000030: 0000 0000 67cf 8a39 0000 0000 8344 9837
00000040: 87b7 a239 5413 013a 7aa9 5e38 81ce 6c37
00000050: 6ef5 9a31 9472 dd30 7a48 3c3a 8cd2 2c31
00000060: 4847 9c31 a10c 8138 0000 0000 0000 0000
00000070: 9d0a 6032 6bed 5f37 e73c 4e3b 71ed 0539
00000080: 0000 0000 bcfb e136 fa88 eb39 0000 0000
00000090: 1924 1433 f91d 0c3a 84d4 9d3a 0000 0000
000000a0: 524e 6539 04a4 1b39 0000 0000 c2dc 483a
000000b0: 8bb7 9239 c2e0 6938 b075 2b3a fb8f c32e
000000c0: 93df ca39 0000 0000 0000 0000 a8f5 e73a
000000d0: e955 503a 474e 8739 f427 2338 0000 0000
000000e0: 0000 0000 0000 0000 3644 9739 12ef de3a

exp_avg f4 [60, 3]
1.9778381e-05 2.9037707e-05 4.959356e-05 0.0 0.0 0.0 0.006450616 0.006802953
0.002072965 0.0004855704 0.0006684542 -0.002103298 0.0 0.0 0.0 0.0026945176
0.0012903651 0.003012045 0.0 0.0 0.0 -0.0025852444 -0.0018471985 0.00037191773
0.0 0.0 0.0 0.0 0.0 0.0 0.0005696534 -0.0046562776
-0.0005678164 0.00060021173 -0.00055960036 -0.001001085 0.0 0.0 0.0 -0.0017902544
-0.00030482482 -0.0017710633 0.0 0.0 0.0 -0.024865577 -0.012120399 -2.548594e-05
0.00052927196 0.0010241066 -0.0014014042 -0.004032151 -0.005041852 0.00047788175 -0.015696758 -0.0052696737
0.00015636657 0.002669841 0.0010194897 0.0006518331 -0.00011595499 -0.000100729354 -2.2773314e-05 -3.261473e-05
-5.217265e-05 -1.04234705e-05 0.0038875388 0.005423118 -0.00013894997 -4.6062243e-05 -6.0909682e-05 1.0120273e-05
-0.000101063844 -0.00012819805 -7.693333e-06 -0.018067844 -0.0074211364 -0.0013063233 0.0 0.0
0.0 0.0 0.0 0.0 -7.8075595e-05 -8.515234e-05 7.186536e-07 -0.0008533827
-0.001023912 0.00025561266 0.0065633473 0.0042469064 -0.007310329 -0.0013883229 -0.00028322023 0.000948539
0.0 0.0 0.0 -0.000805117 -0.0007266705 0.00010329499 0.0015704402 0.0039153933
-0.0013572848 0.0 0.0 0.0 -0.00014102283 -0.00012816557 -4.0807895e-06 0.00677701
0.006248693 -0.0020661233 0.0004265362 -0.00158037 -0.0009018774 0.0 0.0 0.0
0.00085172296 -0.00024573776 0.0010110228 -0.013292221 -0.008552063 0.0024177881 0.0 0.0
0.0 0.0033396473 0.0044953222 -0.0023483888 -0.010773524 -0.005864034 0.004008564 0.011491867
0.0038405121 0.0012387877 -0.0014484979 0.0010117454 -0.00036830702 -5.0334074e-05 -8.6487205e-05 2.931345e-06
-0.00633412 -0.0037506907 -0.002873213 0.0 0.0 0.0 0.0 0.0
0.0 -0.003970541 -0.00010759717 -0.0038661775 0.007904266 0.0017729132 0.0046518166 0.00019332097
-0.00022549285 -0.00011568476 -9.35134e-05 -0.00021964035 -0.00023449128 0.0 0.0 0.0
0.0 0.0 0.0 0.0 0.0 0.0 0.004916015 0.0047501316
0.0009619249 -0.005959209 -0.007014731 0.0045632133
00000000: c0e9 a537 0096 f337 ae02 5038 0000 0000
00000010: 0000 0000 0000 0000 b05f d33b 4eeb de3b
00000020: 95da 073b 2894 fe39 343b 2f3a 7cd7 09bb
00000030: 0000 0000 0000 0000 0000 0000 8196 303b
00000040: 7821 a93a bb65 453b 0000 0000 0000 0000
00000050: 0000 0000 346d 29bb b21d f2ba f4fd c239
00000060: 0000 0000 0000 0000 0000 0000 0000 0000
00000070: 0000 0000 0000 0000 cb54 153a b093 98bb
00000080: 83d9 14ba 8757 1d3a 25b2 12ba d736 83ba
00000090: 0000 0000 0000 0000 0000 0000 f8a6 eaba
000000a0: e5d0 9fb9 0623 e8ba 0000 0000 0000 0000
000000b0: 0000 0000 e5b2 cbbc a394 46bc a4ca d5b7
000000c0: d7be 0a3a 513b 863a 52af b7ba 2220 84bb
000000d0: 1f36 a5bb 348c fa39 7d96 80bc 3aad acbb
000000e0: 55f6 2339 80f8 2e3b 66a0 853a c7df 2a3a
000000f0: dc2c f3b8 a93e d3b8 5209 bfb7 cdcb 08b8
00000100: f5d3 5ab8 77e0 2eb7 14c6 7e3b 69b4 b13b
00000110: 19b3 11b9 f532 41b8 4679 7fb8 3eca 2937
00000120: 3df2 d3b8 e76c 06b9 9d12 01b7 0403 94bc
00000130: 012d f3bb f038 abba 0000 0000 0000 0000
00000140: 0000 0000 0000 0000 0000 0000 0000 0000
00000150: 84bc a3b8 d093 b2b8 80e9 4035 8bb5 5fba
00000160: c934 86ba c003 8639 5911 d73b a229 8b3b
00000170: 7c8b efbb 63f8 b5ba 2d7d 94b9 60a7 783a
00000180: 0000 0000 0000 0000 0000 0000 7d0e 53ba
00000190: 087e 3eba 13a0 d838 3bd7 cd3a b34c 803b
000001a0: ece6 b1ba 0000 0000 0000 0000 0000 0000
000001b0: 87df 13b9 2f64 06b9 b7ed 88b6 ae11 de3b
000001c0: d6c1 cc3b cc67 07bb b8a0 df39 6b24 cfba
000001d0: f86b 6cba 0000 0000 0000 0000 0000 0000
000001e0: 2946 5f3a 5dd6 80b9 4c84 843a 9ec7 59bc
000001f0: f41d 0cbc c173 1e3b 0000 0000 0000 0000
00000200: 0000 0000 fcdd 5a3b 7f4d 933b 6de7 19bb
00000210: 6f83 30bc 1527 c0bb 465a 833b 6248 3c3c
00000220: 1ab1 7b3b d15e a23a 86db bdba 8b9c 843a
00000230: 5519 c1b9 cd1d 53b8 7760 b5b8 20b8 4436
00000240: 738e cfbb 26ce 75bb 844c 3cbb 0000 0000
00000250: 0000 0000 0000 0000 0000 0000 0000 0000
00000260: 0000 0000 501b 82bb caa5 e1b8 b25f 7dbb
00000270: e580 013c 1861 e83a 446e 983b 34b6 4a39
00000280: 4772 6cb9 c89b f2b8 a01c c4b8 424f 66b9
00000290: c6e1 75b9 0000 0000 0000 0000 0000 0000
000002a0: 0000 0000 0000 0000 0000 0000 0000 0000
000002b0: 0000 0000 0000 0000 8616 a13b fea6 9b3b
000002c0: b029 7c3a 7845 c3bb d4db e5bb 0287 953b

exp_avg_sq f4 [60, 3]
0.00017832007 6.193584e-05 5.680283e-07 0.0 0.0 0.0 0.001605652 0.0010628068
0.0003432467 0.001555973 2.0076144e-05 5.6927067e-05 0.0 0.0 0.0 0.0002896777
5.942686e-05 0.00031140848 0.0 0.0 0.0 0.00023519594 0.00011837024 8.456601e-06
0.0 0.0 0.0 0.0 0.0 0.0 3.647139e-06 0.00034787686
0.00021545978 0.00014905194 0.0001457388 1.0333424e-06 0.0 0.0 0.0 0.00017523776
7.637135e-06 0.000103411854 0.0 0.0 0.0 0.0065269615 0.0015748013 4.6123487e-06
5.949083e-05 1.6303416e-05 0.00010505763 0.0007752715 0.00087309466 5.366064e-05 0.0029374098 0.0003496651
2.8018812e-06 0.0010799019 9.6815624e-05 1.8016387e-06 5.0141097e-07 6.2359084e-07 1.873256e-09 3.456465e-08
6.3276566e-08 6.186364e-10 0.0010865573 0.0011021702 0.00017731581 2.3414647e-07 6.457483e-07 1.041798e-09
2.684926e-07 4.961895e-07 1.088733e-09 0.007085992 0.0011716627 3.597515e-05 0.0 0.0
0.0 0.0 0.0 0.0 7.8825855e-07 9.2636674e-07 5.175261e-10 2.3177416e-05
3.435894e-05 2.1925625e-06 0.0032916593 0.00013173108 0.001671834 0.00017629759 5.3033027e-06 5.8501053e-05
0.0 0.0 0.0 0.00012341439 4.089382e-05 3.5090336e-06 4.6596477e-05 0.00027805998
4.150957e-05 0.0 0.0 0.0 1.152451e-06 9.571299e-07 3.4934478e-09 0.0013827952
0.0010608175 0.0001831229 1.9330813e-05 3.0785304e-05 0.00011296849 0.0 0.0 0.0
2.4426672e-05 1.3075743e-05 6.738657e-05 0.006504484 0.001147076 0.00013306088 0.0 0.0
0.0 0.0011399108 0.00046633402 0.0005352551 0.012606256 0.0022195096 4.793029e-05 0.0026415691
0.00028794503 2.0301911e-06 0.00017300888 8.245989e-05 1.7468607e-05 3.843432e-09 1.2119726e-08 3.718251e-11
0.004435213 0.00036358292 0.0003488513 0.0 0.0 0.0 0.0 0.0
0.0 0.0009767181 5.8604357e-05 0.00056657125 0.0018390313 5.7902325e-05 0.00046364413 0.0001417136
1.4693057e-05 6.8409776e-05 0.0005840508 2.9544346e-05 2.1526961e-05 0.0 0.0 0.0
0.0 0.0 0.0 0.0 0.0 0.0 0.0014948436 0.00059990364
0.00018857206 0.0013514708 0.00089097786 0.00089618145
00000000: 6efb 3a39 8de3 8138 9c7a 1835 0000 0000
00000010: 0000 0000 0000 0000 be74 d23a e14d 8b3a
00000020: cbf5 b339 caf1 cb3a 3169 a837 f9c4 6e38
00000030: 0000 0000 0000 0000 0000 0000 e2df 9739
00000040: 1b41 7938 8a44 a339 0000 0000 0000 0000
00000050: 0000 0000 ee9e 7639 8a3d f838 d3e0 0d37
00000060: 0000 0000 0000 0000 0000 0000 0000 0000
00000070: 0000 0000 0000 0000 5fc1 7436 3e63 b639
00000080: 0bed 6139 d34a 1c39 76d1 1839 60b1 8a35
00000090: 0000 0000 0000 0000 0000 0000 07c0 3739
000000a0: 3f21 0037 d1de d838 0000 0000 0000 0000
000000b0: 0000 0000 1fe0 d53b 9069 ce3a c6c3 9a36
000000c0: cb85 7938 52c3 8837 6352 dc38 973b 4b3a
000000d0: 64e0 643a ac11 6138 8f81 403b 4153 b739
000000e0: f407 3c36 7f8b 8d3a 7e09 cb38 d6cf f135
000000f0: b398 0635 d664 2735 abba 0031 3c74 1433
00000100: a9e2 8733 ab0c 2a30 d06a 8e3a b276 903a
00000110: daed 3939 b169 7b34 7c57 2d35 022f 8f30
00000120: 5825 9034 e231 0535 63a2 9530 9c31 e83b
00000130: 7a92 993a 06e4 1638 0000 0000 0000 0000
00000140: 0000 0000 0000 0000 0000 0000 0000 0000
00000150: b798 5335 70ab 7835 a941 0e30 1f6d c237
00000160: a21c 1038 f023 1336 e1b8 573b 4b21 0a39
00000170: 7121 db3a 86dc 3839 06f3 b136 075f 7538
00000180: 0000 0000 0000 0000 0000 0000 cc68 0139
00000190: 6885 2b38 bd7c 6b36 9670 4338 94c8 9139
000001a0: 901a 2e38 0000 0000 0000 0000 0000 0000
000001b0: eaad 9a35 bc76 8035 6211 7031 e83e b53a
000001c0: 210b 8b3a ae04 4039 9b28 a237 781f 0138
000001d0: 7fe9 ec38 0000 0000 0000 0000 0000 0000
000001e0: e1e7 cc37 e35f 5b37 e451 8d38 9123 d53b
000001f0: 7c59 963a 4286 0b39 0000 0000 0000 0000
00000200: 0000 0000 0f69 953a 4b7e f439 5d50 0c3a
00000210: 788a 4e3c 3175 113b c208 4938 2d1e 2d3b
00000220: 54f7 9639 6b3e 0836 b869 3539 51ee ac38
00000230: 8c89 9237 2f0f 8431 1e37 5032 c987 232e
00000240: 4355 913b 469f be39 07e6 b639 0000 0000
00000250: 0000 0000 0000 0000 0000 0000 0000 0000
00000260: 0000 0000 3905 803a f3cd 7538 f485 143a
00000270: a70b f13a 26dc 7238 4315 f339 f498 1439
00000280: 3382 7637 3877 8f38 fc1a 193a 00d6 f737
00000290: cc94 b437 0000 0000 0000 0000 0000 0000
000002a0: 0000 0000 0000 0000 0000 0000 0000 0000
000002b0: 0000 0000 0000 0000 a1ee c33a da42 1d3a
000002c0: 6dbb 4539 d623 b13a 8390 693a b8ed 6a3a

exp_avg f4 [20]
-0.0018348861 6e-45 -0.0068992795 6e-45 -0.0025194117 0.0 0.0 -0.0013384011
0.0 -0.0021070144 0.0018230722 0.0035732973 0.0 0.0 -0.0033626813 0.0
0.0030344983 0.0051973904 6.944771e-05 0.00023977304
00000000: 9080 f0ba 0400 0000 5a13 e2bb 0400 0000
00000010: b71c 25bb 0000 0000 0000 0000 4a6d afba
00000020: 0000 0000 d615 0abb 27f4 ee3a fb2d 6a3b
00000030: 0000 0000 0000 0000 6e60 5cbb 0000 0000
00000040: 6fde 463b df4e aa3b 75a4 9138 966b 7b39

exp_avg_sq f4 [20]
3.0493718e-05 2.8908938e-16 0.0001735035 3.696447e-12 9.086074e-05 0.0 0.0 5.816506e-06
0.0 1.5783082e-05 1.9144198e-05 8.031434e-05 0.0 0.0 7.8638775e-05 0.0
3.0253603e-05 0.00016873558 5.853887e-08 1.5214992e-05
00000000: c3cc ff37 10a6 a625 7eee 3539 a20e 822c
00000010: 7d8c be38 0000 0000 0000 0000 682b c336
00000020: 0000 0000 e965 8437 da97 a037 6f6e a838
00000030: 0000 0000 0000 0000 dfea a438 0000 0000
00000040: 1ec9 fd37 9dee 3039 2b6c 7b33 e543 7f37

exp_avg f4 [20, 1]
-0.004417122 6e-45 -0.0022957593 6e-45 -0.0058642547 0.0 0.0 -0.0022538193
0.0 -0.0034429568 -0.0009536361 0.002402785 0.0 0.0 -0.0024479632 0.0
0.003685155 -0.006237003 9.632256e-05 0.00065682374
00000000: 81bd 90bb 0400 0000 7374 16bb 0400 0000
00000010: ef28 c0bb 0000 0000 0000 0000 d0b4 13bb
00000020: 0000 0000 3ba3 61bb 6ffd 79ba 0b78 1d3b
00000030: 0000 0000 0000 0000 026e 20bb 0000 0000
00000040: a482 713b c65f ccbb c800 ca38 b22e 2c3a

exp_avg_sq f4 [20, 1]
0.0004270811 5.9265783e-18 8.904883e-06 2.1099216e-15 0.0007327948 0.0 0.0 7.826759e-05
0.0 0.00015090927 3.9561794e-05 0.00031772946 0.0 0.0 0.00015769595 0.0
0.00067364174 0.0007739888 5.0231332e-08 1.0835817e-05
00000000: dbe9 df39 f3a6 da22 2e66 1537 2f09 1827
00000010: 0719 403a 0000 0000 0000 0000 9823 a438
00000020: 0000 0000 663d 1e39 27ef 2538 ed94 a639
00000030: 0000 0000 0000 0000 2f5b 2539 0000 0000
00000040: 5597 303a 82e5 4a3a efbd 5733 7bcb 3537

exp_avg f4 [20, 60]
0.00035608187 0.0005184204 0.0005626175 -0.0039232755 -1.547124e-11 -0.005696722 0.00014673542 0.002062303
0.00011247691 0.0004706355 -0.003777253 -0.008692478 -2.9886239e-12 -0.0066450164 -0.00039508627 -0.0014905492
-0.0039410326 -0.0014264653 -0.0005301894 0.0009230055 -0.0009453177 -0.0005205546 -0.00071284827 0.0007740531
8.947506e-05 -0.0009809493 -0.00025850072 0.00063681905 0.00035372417 0.00044985366 -0.0036809472 -0.00467711
-0.0007289301 -0.0011628851 -0.0018724212 0.000104406754 0.0005452916 -0.00023159932 -0.0061277966 -1.968006e-30
-0.0039636977 -0.0008419559 0.00064854015 -0.0012955645 0.0011166328 5.532056e-06 -0.0070588007 -2.5668784e-05
-0.0044433726 0.0004961672 -1.5344402e-05 -0.0027483415 -0.0042272885 -0.0060972213 -0.0032670004 -0.0005880248
-1.9405732e-08 -0.00049434527 -0.0020593887 -0.0009680373 6e-45 6e-45 6e-45 6e-45
-6e-45 6e-45 -6e-45 6e-45 -6e-45 -6e-45 6e-45 6e-45
6e-45 6e-45 -6e-45 6e-45 6e-45 6e-45 -6e-45 6e-45
-6e-45 6e-45 6e-45 6e-45 6e-45 -6e-45 6e-45 -6e-45
-6e-45 6e-45 6e-45 6e-45 6e-45 6e-45 6e-45 6e-45
6e-45 6e-45 6e-45 -6e-45 6e-45 6e-45 -6e-45 6e-45
6e-45 6e-45 6e-45 -6e-45 6e-45 -6e-45 -6e-45 6e-45
6e-45 6e-45 6e-45 -6e-45 6e-45 -6e-45 6e-45 6e-45
0.0005942027 -1.3616211e-06 -0.0006953112 -0.020250883 1.4176463e-11 -0.03264449 -3.1651794e-05 -0.009254894
-1.6957e-41 -2.6244e-41 -0.03405863 -0.052032754 -5.0894e-41 -0.036659554 0.00022388888 -0.004654894
-0.037921555 -0.018554363 -0.0064985557 0.0001626153 -0.00016832899 -4.342578e-05 -0.014934465 -0.00010197201
-8.457631e-05 -0.0010082519 0.00022677287 -2.6015453e-12 -0.0005039933 -0.014629149 -0.023919642 -0.033483174
1.4604353e-06 -0.0078078434 -0.017953882 0.0002080368 -0.00060059567 -0.016390141 -0.035808153 -3.3203328e-06
-0.02636558 -0.009524999 0.00012726508 -0.009757561 -0.0006685979 0.0033017178 -0.045184165 -1.08976e-40
-0.022074834 -5.628e-42 1.0206e-41 -0.017758312 -0.023916367 -0.031522166 -0.015345849 1.607e-42
-3.748e-42 -3.6420044e-22 -0.008983007 -0.014185175 6e-45 6e-45 6e-45 6e-45
-6e-45 6e-45 -6e-45 6e-45 -6e-45 -6e-45 6e-45 6e-45
-6e-45 6e-45 -6e-45 6e-45 6e-45 6e-45 6e-45 6e-45
6e-45 -6e-45 6e-45 6e-45 6e-45 6e-45 -6e-45 6e-45
6e-45 6e-45 6e-45 6e-45 6e-45 6e-45 6e-45 -6e-45
-6e-45 6e-45 6e-45 -6e-45 6e-45 6e-45 -6e-45 6e-45
-6e-45 6e-45 6e-45 -6e-45 6e-45 6e-45 -6e-45 6e-45
6e-45 6e-45 6e-45 -6e-45 6e-45 -6e-45 6e-45 6e-45
-0.0019005984 1.9046478e-15 0.00053507707 -0.007233393 0.00029646748 -0.0074561574 8.16939e-40 0.0041211396
0.00049699296 -1.2949233e-10 -0.0055870325 -0.012183586 -0.001280805 -0.010426534 0.00029667476 -0.0022903634
00000000: 80b0 ba39 9be6 073a 9f7c 133a d28e 80bb
00000010: 2316 88ad 91ab babb fddc 1939 b427 073b
00000020: 95e1 eb38 a1bf f639 ca8b 77bb e56a 0ebc
00000030: 434e 52ac 70be d9bb 9523 cfb9 885e c3ba
00000040: c723 81bb 3cf8 baba 69fc 0aba daf5 713a
00000050: 32cf 77ba d475 08ba 70de 3aba d3e9 4a3a
00000060: 8fa4 bb38 3293 80ba 6187 87b9 34f0 263a
00000070: 0e74 b939 56da eb39 0c3c 71bb 7142 99bb
00000080: ac15 3fba f36b 98ba 086c f5ba f3f4 da38
00000090: e6f1 0e3a 78d9 72b9 afcb c8bb e3a9 1f8e
000000a0: e8e1 81bb b4b6 5cba cb02 2a3a eecf a9ba
000000b0: fb5b 923a 00a0 b936 834d e7bb 4b53 d7b7
000000c0: b699 91bb 3811 023a dab7 80b7 851d 34bb
000000d0: 1185 8abb 33cb c7bb 2c1b 56bb ad25 1aba
000000e0: a8b1 a6b2 f396 01ba cff6 06bb e2c3 7dba
000000f0: 0400 0000 0400 0000 0400 0000 0400 0000
00000100: 0400 0080 0400 0000 0400 0080 0400 0000
00000110: 0400 0080 0400 0080 0400 0000 0400 0000
00000120: 0400 0000 0400 0000 0400 0080 0400 0000
00000130: 0400 0000 0400 0000 0400 0080 0400 0000
00000140: 0400 0080 0400 0000 0400 0000 0400 0000
00000150: 0400 0000 0400 0080 0400 0000 0400 0080
00000160: 0400 0080 0400 0000 0400 0000 0400 0000
00000170: 0400 0000 0400 0000 0400 0000 0400 0000
00000180: 0400 0000 0400 0000 0400 0000 0400 0080
00000190: 0400 0000 0400 0000 0400 0080 0400 0000
000001a0: 0400 0000 0400 0000 0400 0000 0400 0080
000001b0: 0400 0000 0400 0080 0400 0080 0400 0000
000001c0: 0400 0000 0400 0000 0400 0000 0400 0080
000001d0: 0400 0000 0400 0080 0400 0000 0400 0000
000001e0: 45c4 1b3a f2c0 b6b5 8b45 36ba 2ee5 a5bc
000001f0: 1d65 792d 3bb6 05bd dbc1 04b8 d7a1 17bc
00000200: 452f 0080 2849 0080 1081 0bbd 4c20 55bd
00000210: df8d 0080 5428 16bd b7c3 6a39 1588 98bb
00000220: a253 1bbd 52ff 97bc d6f1 d4bb b683 2a39
00000230: 7881 30b9 1424 36b8 b0af 74bc ced9 d5b8
00000240: 905e b1b8 5227 84ba e1c9 6d39 4611 37ac
00000250: 6b1e 04ba 19af 6fbc 20f3 c3bc a725 09bd
00000260: 2d04 c435 f0d8 ffbb 0514 93bc 7424 5a39
00000270: 4b71 1dba 9e44 86bc 92ab 12bd e2d2 5eb6
00000280: a1fc d7bc be0e 1cbc 7672 0539 2dde 1fbc
00000290: d844 2fba a261 583b 0813 39bd c82f 0180
000002a0: 48d6 b4bc b00f 0080 731c 0000 e179 91bc
000002b0: 42ec c3bc 631d 01bd 286d 7bbc 7b04 0000
000002c0: 730a 0080 4a25 dc9b 762d 13bc f068 68bc
000002d0: 0400 0000 0400 0000 0400 0000 0400 0000
000002e0: 0400 0080 0400 0000 0400 0080 0400 0000
000002f0: 0400 0080 0400 0080 0400 0000 0400 0000
00000300: 0400 0080 0400 0000 0400 0080 0400 0000
00000310: 0400 0000 0400 0000 0400 0000 0400 0000
00000320: 0400 0000 0400 0080 0400 0000 0400 0000
00000330: 0400 0000 0400 0000 0400 0080 0400 0000
00000340: 0400 0000 0400 0000 0400 0000 0400 0000
00000350: 0400 0000 0400 0000 0400 0000 0400 0080
00000360: 0400 0080 0400 0000 0400 0000 0400 0080
00000370: 0400 0000 0400 0000 0400 0080 0400 0000
00000380: 0400 0080 0400 0000 0400 0000 0400 0080
00000390: 0400 0000 0400 0000 0400 0080 0400 0000
000003a0: 0400 0000 0400 0000 0400 0000 0400 0080
000003b0: 0400 0000 0400 0080 0400 0000 0400 0000
000003c0: 801d f9ba 8d3e 0927 6a44 0c3a 1906 edbb
000003d0: 316f 9b39 c852 f4bb 4be5 0800 a00a 873b
000003e0: a248 023a da60 0eaf 6d13 b7bb aa9d 47bc
000003f0: afe0 a7ba 0ed4 2abc 038b 9b39 ec19 16bb

exp_avg_sq f4 [20, 60]
1.3141252e-05 5.931488e-06 6.640185e-05 0.0007811936 5.724824e-13 0.0025096906 4.8904894e-07 0.0007662275
2.9083972e-07 4.894095e-06 0.0022383407 0.0049839406 2.4354295e-12 0.002541431 3.4572531e-06 1.4869043e-05
0.0028882888 0.00080025825 1.6004382e-05 1.641108e-05 1.5136538e-05 5.6510776e-06 0.0008884017 1.3178696e-05
6.3653283e-07 1.343107e-05 1.491765e-06 8.931149e-06 6.555533e-06 0.0013718453 0.0020643063 0.0018575113
1.1687887e-05 0.00026267537 0.0013832434 2.516019e-07 1.009477e-05 0.0017502861 0.0026157168 1.0398711e-12
0.0015493658 0.00013544149 9.261397e-06 0.0005391871 3.2891905e-05 5.6888173e-05 0.0032950342 3.168791e-08
0.00030018578 5.435992e-06 7.2997666e-09 0.0006183605 0.00083760294 0.0016821878 0.00011368459 7.620837e-06
2.915868e-14 5.396382e-06 0.00059992867 0.00021845227 1.8382645e-19 7.596293e-22 2.600079e-15 1.6446077e-15
1.8797157e-19 2.4186179e-14 2.8619366e-19 3.2432512e-14 1.159792e-19 3.0723047e-19 3.658993e-14 3.9546203e-14
5.4586194e-21 1.8549034e-14 1.1719945e-19 1.5063453e-20 3.5994025e-14 2.2017912e-14 4.4338634e-21 1.3384892e-15
1.7806809e-19 2.4445532e-19 2.4852475e-14 9.604817e-20 4.198057e-21 6.021342e-20 1.8140752e-19 1.7642378e-19
1.06787466e-19 3.9270226e-14 1.5576062e-14 1.3433639e-14 1.9720661e-20 7.293664e-15 2.3255664e-14 5.446266e-21
2.4336318e-19 4.140306e-14 2.5529639e-14 9.355346e-22 1.7532682e-14 1.3183238e-15 6.5669436e-20 6.2866984e-15
1.5754991e-15 4.336202e-15 2.6236107e-14 1.7021013e-19 8.3688666e-16 1.4629812e-23 1.2893564e-19 5.2168382e-15
4.4958874e-15 1.0046431e-14 4.6937585e-20 3.3895046e-21 1.720704e-19 4.8549347e-20 9.780831e-15 4.9678533e-15
4.6256908e-05 1.6086387e-09 0.0010090793 0.0100099435 1.4958948e-10 0.030147804 1.14737775e-08 0.009218168
4.4280924e-16 3.925372e-13 0.032439433 0.057564035 1.08094785e-16 0.033427235 1.3610786e-07 0.0003318706
0.03969258 0.0095537845 0.00049497257 0.00015675413 6.9960424e-07 1.575203e-08 0.011005436 4.5014062e-08
1.458069e-07 0.00044109553 1.388788e-07 1.239751e-10 1.6216e-06 0.015825663 0.020365305 0.024148563
1.6558154e-09 0.0023432972 0.0139237195 1.2135119e-07 9.625766e-07 0.015910165 0.028048517 2.4069569e-09
0.020249661 0.0015346943 5.868096e-08 0.004448886 0.00036591565 0.00041658242 0.04598292 4.755224e-16
0.005427703 9.081275e-13 1.5810587e-12 0.009862592 0.013561746 0.018795243 0.0024388635 7.6725674e-16
4.5388876e-17 2.8468354e-11 0.004499944 0.0038238424 7.8810016e-13 1.2984152e-17 1.5482606e-16 1.7298094e-11
1.4264248e-17 1.9416977e-11 1.33646356e-17 8.781708e-14 4.2251482e-17 1.3280824e-17 2.1546055e-11 6.635515e-11
1.2592873e-17 3.2282357e-11 5.68606e-17 7.281381e-12 3.328055e-11 2.0654557e-12 4.182603e-12 3.4701484e-17
1.5734203e-13 4.9484293e-17 4.5242597e-13 1.24897796e-17 2.0942664e-14 3.0435294e-12 1.6640584e-18 5.5989235e-17
4.760785e-13 8.7899225e-13 1.5694527e-11 3.5633933e-11 1.016993e-18 5.6956477e-15 3.8349927e-12 2.822004e-17
8.320022e-19 1.1787393e-12 2.6131736e-11 7.5451395e-18 1.360927e-11 4.094797e-12 3.9310508e-17 1.8468263e-12
4.0771746e-17 8.8195585e-17 5.3854837e-11 4.1979102e-17 1.22718155e-11 3.247584e-17 2.1888906e-17 7.9439025e-12
1.32067465e-11 2.3673657e-11 8.063475e-12 2.86062e-18 4.2513063e-17 2.0284998e-17 1.207114e-14 4.4462173e-12
3.916765e-05 3.2716708e-11 0.00028610116 0.00323954 1.9607846e-06 0.007312014 1.062146e-12 0.003136277
5.3982176e-06 1.236566e-11 0.008280114 0.01603756 3.518128e-05 0.008605441 1.9634529e-06 5.2947908e-05
00000000: 3f79 5c37 1807 c736 3941 8b38 04c9 4c3a
00000010: b423 212b 9f79 243b 3047 0335 a8dc 483a
00000020: b524 9c34 f537 a436 20b1 123b 5350 a33b
00000030: cc60 2b2c 238e 263b 2803 6836 0e76 7937
00000040: 7249 3d3b 6cc8 513a 2641 8637 87aa 8937
00000050: f0f2 7d37 639e bd36 a1e3 683a 111a 5d37
00000060: 34de 2a35 0256 6137 a838 c835 fed6 1537
00000070: 9af7 db36 7dcf b33a 5049 073b bd77 f33a
00000080: 1817 4437 b1b7 8939 f24d b53a e713 8734
00000090: b55c 2937 db69 e53a 726c 2b3b 4e59 922b
000000a0: 1714 cb3a 4c05 0e39 6661 1b37 3c58 0d3a
000000b0: 6af5 0938 369b 6e38 80f1 573b 3a19 0833
000000c0: 4162 9d39 d166 b636 6dd1 fa31 7819 223a
000000d0: 9592 5b3a db7c dc3a f369 ee38 7eb6 ff36
000000e0: ab51 0329 9212 b536 8844 1d3a 5610 6539
000000f0: 2306 5920 7895 651c fe5a 3b27 5103 ed26
00000100: ecea 5d20 88d9 d928 5df0 a820 2410 1229
00000110: 90ec 0820 5b5b b520 51c9 2429 ab19 3229
00000120: 8738 ce1d 2913 a728 5c5d 0a20 3245 8e1e
00000130: 491a 2229 d951 c628 b281 a71d 89e5 c026
00000140: c739 5220 0b4d 9020 e8d9 df28 8ec9 e21f
00000150: 1e99 9e1d c72c 8e1f 0f2b 5620 d148 5020
00000160: 1025 fc1f 7ddb 3029 f44b 8c28 baff 7128
00000170: a241 ba1e 1764 0328 e977 d128 0dc1 cd1d
00000180: 01a8 8f20 7a76 3a29 57f3 e528 be5f 8d1c
00000190: 9deb 9d28 90fd bd26 bd0e 9b1f 8f80 e227
000001a0: a80d e326 673a 9c27 5850 ec28 dbf2 4820
000001b0: 5637 7126 a97d 8d19 6838 1820 d7f4 bb27
000001c0: 3efb a127 fcfa 3428 0fa8 5d1f 470d 801d
000001d0: 1625 4b20 8f44 651f 1f32 3028 5cfc b227
000001e0: fa03 4238 f116 dd30 1543 843a bf00 243c
000001f0: b279 242f 87f8 f63c 351e 4532 cd07 173c
00000200: 1c43 ff25 93fa dc2a 36df 043d 44c8 6b3d
00000210: e63f f924 ffea 083d 0b25 1234 ebfe ad39
00000220: b094 223d 7a87 1c3c 0cc1 013a 5e5e 2439
00000230: 70cc 3b35 154f 8732 2550 343c 7c55 4133
00000240: 188f 1c34 d742 e739 b71e 1534 e34f 082f
00000250: c0a5 d935 d2a4 813c 24d5 a63c 35d3 c53c
00000260: d392 e330 0192 193b 5020 643c c34c 0234
00000270: e131 8135 0956 823c 01c6 e53c a267 2531
00000280: 9ee2 a53c cc27 c93a 6608 7c33 f6c7 913b
00000290: 5ed8 bf39 bf68 da39 9658 3c3d 5c0f 0926
000002a0: dfda b13b 7c9d 7f2b a583 de2b b696 213c
000002b0: 1632 5e3c 7bf8 993c 57d5 1f3b 8e25 5d26
000002c0: ba51 5124 0969 fa2d 4474 933b 6e99 7a3b
000002d0: 9ad4 5d2b ed83 6f23 9680 3225 d827 982d
000002e0: 8190 8323 25cb aa2d b588 7623 1abf c529
000002f0: bfd9 4224 ebfc 7423 6785 bd2d a1ea 912e
00000300: 294c 6823 b4fa 0d2e 931c 8324 6d18 002d
00000310: 915e 122e f157 112c 8a29 932c 4808 2024
00000320: c126 312a be34 6424 74b1 fe2a 5165 6623
00000330: 7fa2 bc28 5a2b 562c 5992 f521 361a 8124
00000340: 1201 062b 116a 772b ef0c 8a2d 3eb8 1c2e
00000350: e914 9621 1435 cd27 8bee 862c 5824 0224
00000360: 4f90 7521 8fe4 a52b 70db e52d ea2e 0b23
00000370: b46a 6f2d a712 902c a849 3524 77f5 012c
00000380: c806 3c24 7c5d cb24 28db 6c2e 2d98 4124
00000390: 58e3 572d b4c4 1524 b8e3 c923 28c0 0b2d
000003a0: e655 682d 563c d02d aada 0d2d 9613 5322
000003b0: 910e 4424 9918 bb23 4f74 5928 f76f 9c2c
000003c0: f247 2438 bde3 0f2e d9ff 9539 764e 543b
000003d0: 0696 0336 9e99 ef3b d87b 952b ff89 4d3b
000003e0: 5622 b536 fb89 592d 51a9 073c 3361 833c
000003f0: 9d8f 1338 d6fd 0c3c ddc3 0336 6214 5e38

exp_avg f4 [2, 20]
0.02521276 -6e-45 0.006954614 6e-45 0.020702653 0.0 0.0 0.018533228
0.0 0.013655353 -0.0065296483 0.0046145897 0.0 0.0 0.01111105 0.0
0.016059257 -0.01814687 0.0008567717 0.0005049945 -0.0042095743 -6e-45 -0.0042097657 6e-45
-0.0034809746 0.0 0.0 -0.008929005 0.0 -0.009725096 0.00045550725 -0.0018194151
0.0 0.0 -0.0010057318 0.0 -0.0042106854 -0.0032080389 -0.00026588683 0.0014591578
00000000: fd8a ce3c 0400 0080 88e3 e33b 0400 0000
00000010: 9c98 a93c 0000 0000 0000 0000 ffd2 973c
00000020: 0000 0000 b4ba 5f3c a9f6 d5bb fc35 973b
00000030: 0000 0000 0000 0000 1f0b 363c 0000 0000
00000040: b48e 833c bfa8 94bc fa98 603a 9b61 043a
00000050: 78f0 89bb 0400 0080 13f2 89bb 0400 0000
00000060: 1021 64bb 0000 0000 0000 0000 f64a 12bc
00000070: 0000 0000 0256 1fbc 26d1 ee39 7179 eeba
00000080: 0000 0000 0000 0000 c2d2 83ba 0000 0000
00000090: caf9 89bb f63d 52bb ba66 8bb9 3641 bf3a

exp_avg_sq f4 [2, 20]
0.011692024 2.1378417e-18 0.0001707724 3.254047e-15 0.006364473 0.0 0.0 0.012766308
0.0 0.0103635965 0.0016309546 0.002882447 0.0 0.0 0.0020541437 0.0
0.021123528 0.0031090805 6.8538034e-06 4.2814838e-05 0.001462032 1.6003724e-19 2.4182413e-05 2.6296085e-16
0.0008285843 0.0 0.0 0.0014661776 0.0 0.0011109582 6.141626e-05 0.00015058494
0.0 0.0 9.654176e-05 0.0 0.0020036164 0.00011436442 8.6727573e-07 3.3668075e-05
00000000: e78f 3f3c b0be 1d22 5e11 3339 927a 6a27
00000010: 128d d03b 0000 0000 0000 0000 c729 513c
00000020: 0000 0000 13cc 293c c1c5 d53a 70e7 3c3b
00000030: 0000 0000 0000 0000 d09e 063b 0000 0000
00000040: 400b ad3c b7c1 4b3b b9f9 e536 1594 3338
00000050: a7a1 bf3a 4af0 3c20 56db ca37 2c96 9725
00000060: 5a35 593a 0000 0000 0000 0000 c22c c03a
00000070: 0000 0000 929d 913a 9bcc 8038 56e6 1d39
00000080: 0000 0000 0000 0000 7676 ca38 0000 0000
00000090: 1b4f 033b eed6 ef38 bcce 6835 d236 0d38

exp_avg f4 [2]
0.019039659 -0.007367866
00000000: 0ff9 9b3c 246e f1bb

exp_avg_sq f4 [2]
0.0023337165 0.00023609692
00000000: 44f1 183b c990 7739
