Experimental_Models/Three_Layer_12_6_Run_v1.1.pt (torch_old, 2076 bytes, 5 tensors)

fc1.bias f4 [12]
-0.42796957 -0.4131925 0.20931745 0.022851765 0.309668 -0.10856667 -0.23902336 -0.22707435
0.17148256 -0.046794474 0.32474393 -0.51990813
00000000: d41e dbbe f88d d3be 5057 563e a033 bb3c
00000010: ce8c 9e3e 3458 debd 8ac2 74be 2e86 68be
00000020: 2099 2f3e 90ab 3fbd d644 a63e b318 05bf

fc1.weight_g f4 [12, 1]
0.6248208 0.34684122 0.65395397 0.7689038 0.3293912 0.70850116 0.66132075 0.74967945
0.530867 0.22384173 0.591863 0.6298308
00000000: 42f4 1f3f 2c95 b13e 8769 273f e1d6 443f
00000010: f7a5 a83e 5560 353f 514c 293f feea 3f3f
00000020: e6e6 073f c436 653e 5584 173f 973c 213f

fc1.weight_v f4 [12, 3]
-0.43410748 0.046275735 0.44700146 0.15506214 -0.20722735 0.2308926 0.3713814 -0.5227231
-0.12842187 -0.04343599 -0.5095943 0.5741428 0.20065206 -0.17561361 0.19338351 -0.55098134
0.14444816 0.42134094 -0.46562 0.14945185 0.44520473 -0.51474416 0.004959345 -0.54500747
0.27059627 -0.4347036 0.14010781 -0.096468925 0.037318885 0.19850987 0.33509445 -0.3413283
0.34858072 0.48492086 -0.39188325 -0.08925307
00000000: 5643 debe a08b 3d3d 60dd e43e 9cc8 1e3e
00000010: 6833 54be 1c6f 6c3e b425 be3e 2ed1 05bf
00000020: 0681 03be f0e9 31bd c674 02bf 06fb 123f
00000030: bc77 4d3e 0ed4 33be 5406 463e 1d0d 0dbf
00000040: 38ea 133e 00ba d73e bf65 eebe e809 193e
00000050: e0f1 e33e 46c6 03bf 0082 a23b 9c85 0bbf
00000060: 988b 8a3e 7891 debe 6c78 0f3e 8091 c5bd
00000070: b0db 183d 2c46 4b3e 8091 ab3e 95c2 aebe
00000080: 2c79 b23e 8c47 f83e eca4 c8be 50ca b6bd

fc2.weight f4 [6, 12]
-0.2645762 0.16750261 -0.19402893 -0.19221851 0.021779865 -0.25610238 0.2610504 -0.23813212
-0.12758571 -0.0058924854 -0.13942018 -0.07846412 0.24996018 0.042261094 -0.058440715 -0.18201259
-0.21801823 -0.28491962 -0.069935605 0.13006687 0.25643557 0.15354735 -0.17330554 0.029788822
-0.18661284 0.058347583 0.2779262 -0.040391967 -0.10018499 0.25932133 -0.23926377 0.25991195
-0.25186265 0.069954574 0.11892632 -0.20871261 -0.050451547 -0.08256963 0.21190745 0.18143246
-0.0419389 0.07517785 0.21685785 0.10624364 0.022858977 0.24192536 -0.05310996 -0.2787497
0.2008121 -0.245323 -0.018923193 0.15702707 -0.14532965 0.06582993 0.12835577 0.28337574
-0.2534502 -0.052754104 0.08827829 0.2661537 -0.17038113 0.18976185 0.046527058 -0.26113653
-0.07522367 0.20855558 0.07031229 0.06122017 -0.00017076731 0.06462899 -0.061421096 0.15847468
00000000: 8876 87be ce85 2b3e 85af 46be eed4 44be
00000010: b06b b23c da1f 83be 66a8 853e e8d8 73be
00000020: d4a5 02be c015 c1bb 2ac4 0ebe ccb1 a0bd
00000030: 90f5 7f3e f819 2d3d 885f 6fbd 8261 3abe
00000040: 2c40 5fbe fce0 91be 663a 8fbd 4030 053e
00000050: 864b 833e 843b 1d3e 0277 31be b007 f43c
00000060: 7017 3fbe e0fd 6e3d 584c 8e3e 0c72 25bd
00000070: ca2d cdbd c4c5 843e 9001 75be 2e13 853e
00000080: 24f4 80be 5844 8f3d a48f f33d c2b8 55be
00000090: 48a6 4ebd 441a a9bd 44fe 583e 6ec9 393e
000000a0: 20c8 2bbd d8f6 993d fc0f 5e3e 4496 d93d
000000b0: c042 bb3c 48bb 773e d489 59bd 48b8 8ebe
000000c0: b0a1 4d3e f435 7bbe d004 9bbc b4cb 203e
000000d0: 4cd1 14be d8d1 863d b26f 033e a016 913e
000000e0: 3ac4 81be b014 58bd 40cb b43d 4c45 883e
000000f0: 6478 2ebe ee50 423e 2893 3e3d b0b3 85be
00000100: de0e 9abd 988f 553e e4ff 8f3d 00c2 7a3d
00000110: 0010 33b9 345c 843d b094 7bbd 3047 223e

fc2.bias f4 [6]
-0.25313625 0.05844927 0.1974284 -0.23510961 -0.27782276 -0.26863745
00000000: 139b 81be 8068 6f3d ac2a 4a3e 93c0 70be
00000010: c93e 8ebe d98a 89be
