Secondary_Models/Mdl_Medium_Network_Stp0.1_lr1e-05_v1.7.pt (torch_old, 132874 bytes, 24 tensors)

fc1.weight f4 [96, 3]
0	0x3e7b5c7b	0.24546997
1	0xbf0033f0	-0.5007925
2	0x3d97a0fd	0.07403753
3	0x3ecb3910	0.39691973
4	0xbea0979d	-0.31365672
5	0xbe9d883f	-0.3076801
6	0xbea29700	-0.3175583
7	0x3db188ac	0.08668646
8	0xbe1ef8fc	-0.15524668
9	0x3e2ee9f4	0.17081434
10	0xbea78907	-0.3272173
11	0x3f14b431	0.5808745
12	0x3e1a0536	0.1504105
13	0xbe892fac	-0.26794183
14	0xbeb25af8	-0.3483503
15	0x3d91d80d	0.071212865
16	0x3e86cc1d	0.263276
17	0x3efcb1aa	0.49354297
18	0x3ee17760	0.44036388
19	0x3e5ac6da	0.21364918
20	0xbe689e52	-0.22716644
21	0xbee719a8	-0.45136762
22	0xbe886385	-0.26638427
23	0xbe9d1bac	-0.30685174
24	0x3ebfe358	0.37478137
25	0xbe80be5c	-0.25145233
26	0x3d34e87b	0.044167023
27	0xbf104043	-0.56348056
28	0x3f0ac84e	0.5421189
29	0x3e243990	0.16037583
30	0x3f08afd2	0.5339328
31	0xbeb36760	-0.35039806
32	0x3da37ab9	0.07982392
33	0xbe957e46	-0.291979
34	0x3e197280	0.14985085
35	0x3f0f2f12	0.559312
36	0x3d8dab97	0.06917494
37	0x3e5f67e8	0.21816981
38	0x3ecedd6c	0.40403306
39	0x3e76db2a	0.24107042
40	0x3ca6f86b	0.020382127
41	0xbef6e688	-0.48222756
42	0x3c955b4e	0.018232014
43	0xbe33dcf1	-0.17564751
44	0x3db103eb	0.086433254
45	0x3ee0ff96	0.43944997
46	0x3e97bb6e	0.29635185
47	0x3cafe732	0.021472547
48	0x3ee21229	0.4415448
49	0x3e890134	0.2675873
50	0xbe5f4efa	-0.21807471
51	0x3cf5ddcd	0.03001299
52	0xbea022f6	-0.31276673
53	0xbef3ceb6	-0.47618645
54	0x3cf9f368	0.030511573
55	0x3e9ec467	0.31009218
56	0xbf0dea03	-0.554352
57	0x3edbfa01	0.42964175
58	0xbf06e3f3	-0.5269157
59	0x3e277c0d	0.16355915
60	0xbe1e2236	-0.15442738
61	0x3d90a758	0.07063168
62	0x3e151dd4	0.1456216
63	0x3e13de2b	0.14440219
64	0x3dfbcefa	0.12295337
65	0xbd2bf3ed	-0.041980673
66	0xbb91c145	-0.0044480884
67	0x3eb71d26	0.35764426
68	0xbe5c7763	-0.21529917
69	0x3ea57ab1	0.3232017
70	0x3ef861ac	0.48512018
71	0xbe81afc5	-0.25329414
72	0xbe96a47b	-0.29422364
73	0x3ea07046	0.31335658
74	0x3ef92946	0.48664302
75	0x3ea1c827	0.31598017
76	0x3d99faa6	0.075185105
77	0xbf024d2e	-0.50899017
78	0xbe2e3fee	-0.17016575
79	0x3f048983	0.51772326
80	0x3e2ef732	0.17086485
81	0x3d47bf8e	0.048766665
82	0x3edd9d65	0.43284145
83	0xbe811fb3	-0.25219497
84	0x3e8ce48b	0.27518114
85	0x3ed35d27	0.41282007
86	0xbe5c1149	-0.21490969
87	0xbd8cf178	-0.06881994
88	0xbed7cff9	-0.42150858
89	0xbeb963ca	-0.36208946
90	0x3dcb06f4	0.099134356
91	0xbef87a87	-0.4853098
92	0xbda16ca0	-0.07882047
93	0x3e0a1070	0.13482833
94	0x3ee8c65d	0.4546384
95	0xbe0615a2	-0.1309419
96	0x3baff77e	0.0053700795
97	0x3eff1f6f	0.4982867
98	0x3f08ca8e	0.53434074
99	0xbd8b0998	-0.06788939
100	0xbf0a46a6	-0.5401405
101	0xbeaa2326	-0.3322994
102	0xbef904c2	-0.48636442
103	0x3eff6f7e	0.4988975
104	0xbdda71e4	-0.10666254
105	0xbe9911e4	-0.29896462
106	0xbecb68f8	-0.39728522
107	0x3ee5038c	0.4472927
108	0x3de94b37	0.11391299
109	0xbe240ba5	-0.16020067
110	0xbe664706	-0.22488031
111	0x3e01814c	0.12646979
112	0xbe9e0969	-0.30866554
113	0x3ea4e75e	0.3220777
114	0x3e3d1f10	0.1846888
115	0x3e45c4a6	0.19313297
116	0xbe0d7cef	-0.1381719
117	0xbe963f49	-0.29345158
118	0x3e906e64	0.2820922
119	0xbe6323ac	-0.22181576
120	0x3f0669ca	0.5250517
121	0x3e60561a	0.21907845
122	0xbe873e00	-0.2641449
123	0xbe41b14c	-0.1891529
124	0xbed8fbce	-0.42379612
125	0x3e6323bc	0.221816
126	0xbec49226	-0.38392752
127	0x3e096b00	0.13419724
128	0x3ed210d4	0.41028464
129	0xbeadbd3e	-0.33933443
130	0xbef6ab07	-0.48177359
131	0xbeb773ea	-0.35830623
132	0xbe66de22	-0.22545674
133	0x3ee2bdd9	0.44285467
134	0xbdedffe0	-0.1162107
135	0xbee3009d	-0.44336405
136	0xbf091d7d	-0.5356062
137	0x3c0dde40	0.008658946
138	0x3d9f29c1	0.07771636
139	0x3f06b38d	0.5261772
140	0x3e92d32f	0.28676745
141	0x3e7c02cc	0.24610442
142	0x3ddd310c	0.108003706
143	0xbe1303e3	-0.14356951
144	0xbef8ebe6	-0.48617476
145	0xbe1fcb1c	-0.15604824
146	0xbef8d01b	-0.48596272
147	0xbe18499c	-0.1487183
148	0xbef1ee49	-0.4725211
149	0x3d6f8a00	0.058481216
150	0x3ebc206a	0.3674348
151	0x3f11910e	0.5686196
152	0xbec7ae0c	-0.38999975
153	0x3df1ff61	0.11816288
154	0xbef951d5	-0.48695245
155	0xbed40528	-0.41410184
156	0xbe0571a2	-0.13031629
157	0xbcebd740	-0.028789163
158	0x3eb8127a	0.35951596
159	0xbdf6ca46	-0.12050299
160	0x3debbbd0	0.11510432
161	0x3ef2e4fa	0.4744032
162	0x3f066c7e	0.52509296
163	0x3d226b91	0.039653365
164	0xbd71edb4	-0.059064582
165	0xbdccae48	-0.09994179
166	0xbe9d76f7	-0.30754825
167	0x3ed6d2ae	0.4195761
168	0xbeece818	-0.46270823
169	0xbeb9fcee	-0.36325783
170	0xbf08f0ab	-0.5349223
171	0x3e7a512d	0.24445029
172	0xbed4345f	-0.41446206
173	0x3f02bf51	0.51073176
174	0xbf0dffb7	-0.55468315
175	0x3e4862cc	0.19568938
176	0x3e26d870	0.16293502
177	0xbddc460b	-0.10755547
178	0x3da3f80f	0.08006298
179	0xbe53d4f0	-0.20686698
180	0x3e9a0918	0.30085063
181	0xbec72ec1	-0.38902858
182	0xbf053e7a	-0.52048457
183	0xbeae55ec	-0.34049928
184	0xbf03c5eb	-0.51473874
185	0xbeb264ec	-0.34842622
186	0xbe63c22e	-0.22242042
187	0x3ee886a7	0.45415232
188	0xbe3c9d25	-0.18419321
189	0xbe2935f0	-0.16524482
190	0xbc9145a0	-0.017733395
191	0xbd534180	-0.051576138
192	0xbdac892f	-0.08424603
193	0x3e8759d2	0.26435715
194	0x3e9a4c2b	0.30136237
195	0xbe9853c5	-0.2975141
196	0x3f0b30a7	0.5437111
197	0xbe99dcbc	-0.3005122
198	0x3dd7bfb1	0.10534609
199	0x3eb0c89a	0.34528047
200	0xbea79c6f	-0.32736537
201	0xbf0f27be	-0.55920017
202	0xbdda43bc	-0.106574506
203	0x3e2e4158	0.17017114
204	0x3e5fc9b9	0.21854295
205	0x3db10ee1	0.08645416
206	0x3f102f44	0.5632212
207	0xbef1570e	-0.4713673
208	0xbec67770	-0.38763
209	0xbe2c5004	-0.16827399
210	0xbd9d7cb0	-0.07689798
211	0xbe9c8991	-0.30573705
212	0xbef44f15	-0.47716585
213	0xbf02ba8c	-0.510659
214	0xbe97cbf3	-0.29647788
215	0x3e00b60c	0.12569445
216	0x3f11bb89	0.5692678
217	0x3eecf8e4	0.46283638
218	0x3f0361bb	0.51321
219	0x3f0fd9c4	0.5619166
220	0x3eab8e79	0.33507136
221	0x3ee8667e	0.45390695
222	0x3e9128d2	0.28351456
223	0xbc9f58c9	-0.019451516
224	0xbe9e5b21	-0.309289
225	0xbf0db30c	-0.5535133
226	0xbe8092cd	-0.25112
227	0xbe29c1d6	-0.16577849
228	0xbead873e	-0.33892244
229	0xbec146e0	-0.37749386
230	0xbefb8d02	-0.49131018
231	0xbd2484f0	-0.04016584
232	0xbe3291be	-0.17438409
233	0x3edc523c	0.4303149
234	0xbd04c820	-0.032417417
235	0xbedf35ce	-0.43595737
236	0xbf06f321	-0.52714735
237	0x3e7d5f88	0.24743474
238	0x3f01fc3e	0.50775516
239	0x3d38b0e9	0.04509059
240	0xbebe0c3a	-0.37118703
241	0xbdad02e4	-0.08447817
242	0x3e880594	0.26566756
243	0x3e0a569c	0.13509601
244	0x3e5c685c	0.21524185
245	0x3eba17ae	0.3634619
246	0xbe65134e	-0.22370645
247	0xbf0e6373	-0.556205
248	0x3ef72c60	0.48276043
249	0x3e80d773	0.25164375
250	0xbeeecfef	-0.46643016
251	0x3f1811ad	0.5940197
252	0xbead99e6	-0.33906478
253	0xbec9c353	-0.39406833
254	0xbe4ebd8a	-0.20189491
255	0x3dff8ef3	0.12478437

fc1.bias f4 [96]
0	0x3f15171f	0.58238405
1	0xbd46951d	-0.04848205
2	0x3f08157c	0.5315778
3	0xbeedc0f8	-0.46436286
4	0xbed7f9fd	-0.42182913
5	0xbebca3c7	-0.36843702
6	0x3e5134b4	0.20430261
7	0xbdbcc06c	-0.09216389
8	0xbeda0d0e	-0.42588085
9	0x3ed33dbd	0.4125804
10	0x3f0bd3e8	0.5462022
11	0xbf06253c	-0.52400565
12	0xbdb66ae2	-0.08907105
13	0x3ea34f78	0.31896567
14	0x3e9ff709	0.3124316
15	0x3f05e3b2	0.5230056
16	0xbe27bc8f	-0.16380523
17	0x3e45b0c0	0.19305706
18	0x3ee7dbbf	0.4528484
19	0xbf0747f6	-0.5284418
20	0xbe318dfe	-0.17339322
21	0x3ed817d1	0.4220567
22	0xbefdeb28	-0.49593472
23	0x3f02a4c6	0.51032674
24	0x3d9c822d	0.076420166
25	0xbefa741c	-0.4891671
26	0xbb2facb1	-0.0026805813
27	0xbf0c846a	-0.5488955
28	0x3ef8660a	0.4851535
29	0xb9af9800	-0.0003349185
30	0x3f15c7d5	0.58508044
31	0x3f0e5f0b	0.55613774
32	0x3f1438de	0.5789927
33	0x3f033120	0.51246834
34	0xbe66faea	-0.22556654
35	0x3ea977f4	0.3309933
36	0x3f0afcdb	0.54292077
37	0xbe8d5369	-0.276027
38	0xbee54fde	-0.44787496
39	0xbe8b1afb	-0.27169022
40	0xbeb96003	-0.36206064
41	0xbd2fb5c0	-0.04289794
42	0xbeafde0e	-0.34349102
43	0xbf10b6a6	-0.565287
44	0x3dff7cb8	0.1247496
45	0x3ed8592e	0.4225554
46	0xbf0c6e89	-0.54856163
47	0xbe6690eb	-0.2251622
48	0x3efd72fc	0.4950179
49	0xbed5fc1a	-0.417939
50	0xbebf77a2	-0.3739596
51	0xbf07e686	-0.53086126
52	0x3d17dd40	0.037076235
53	0xbe0f821c	-0.14014477
54	0x3ecc3966	0.39887542
55	0x3e754e24	0.2395559
56	0xbed73ef6	-0.42040223
57	0xbebcfc9e	-0.36911482
58	0xbed0db74	-0.4079243
59	0x3f0f1c79	0.5590282
60	0xbe3d4145	-0.1848193
61	0xbeaa1a94	-0.33223403
62	0x3f01bb3f	0.5067634
63	0xbe355ea6	-0.17711887
64	0xbf0f9644	-0.5608866
65	0xbeb100de	-0.34570974
66	0x3eff4625	0.49858204
67	0xbecfbeb4	-0.40575182
68	0xbef48609	-0.4775851
69	0xbe104882	-0.1409016
70	0xbeb4ae31	-0.35289147
71	0xbd1e10a0	-0.038590074
72	0x3eeca44c	0.462191
73	0xbeaaf11d	-0.3338708
74	0xbe055503	-0.1302071
75	0x3e4a8028	0.1977545
76	0xbf0afc34	-0.5429108
77	0xbedcd4e0	-0.4313116
78	0xbdaa4904	-0.08314708
79	0xbe36766a	-0.17818609
80	0x3e245fdc	0.16052192
81	0x3da8e824	0.08247402
82	0x3df0a648	0.11750466
83	0x3ccce36a	0.025010783
84	0xbe86ce89	-0.2632945
85	0x3e9a70fe	0.3016433
86	0xbd35a03c	-0.044342265
87	0xbec0a88a	-0.37628585
88	0x3f04e154	0.51906323
89	0x3ee0ced8	0.4390781
90	0x3ea5ca8a	0.32381088
91	0x3e3b5768	0.18295062
92	0xbe8f7151	-0.2801614
93	0xbf06fd31	-0.5273009
94	0x3eb24a13	0.3482214
95	0xbe207563	-0.1566978

fc2.weight f4 [48, 96]
0	0xbd5b35e6	-0.0535182
1	0x3c2812a1	0.010258348
2	0x3d460146	0.04834106
3	0xbd84f4e8	-0.06492025
4	0x3d9c1d6e	0.07622801
5	0x3bd29cd6	0.0064273877
6	0x3d804f1b	0.06265088
7	0xbdaa7937	-0.08323901
8	0x3c931845	0.017955909
9	0xbd09df83	-0.033660423
10	0x3d7a1f73	0.06106515
11	0x3c76f468	0.015072919
12	0x3d1bd3a4	0.038043633
13	0xbca11b2d	-0.019666279
14	0x3c9b47b5	0.018955091
15	0x3d96a43e	0.073555455
16	0xbd7d6f0e	-0.061873488
17	0xbd21b232	-0.03947658
18	0xbd8c4735	-0.06849519
19	0xbd532aa3	-0.051554333
20	0x3bca39e0	0.00617145
21	0xbd5c22d3	-0.05374415
22	0x3d7b0ac0	0.06128955
23	0xba03adae	-0.00050231337
24	0x3d240c81	0.040050987
25	0x3db203a4	0.08692101
26	0x3deb2caf	0.11483132
27	0x3d5109c5	0.051034708
28	0xbd0a3753	-0.033744168
29	0x3da26988	0.07930285
30	0xbd3dcfae	-0.046340637
31	0x3daeb672	0.085308924
32	0x3dc1b458	0.09458226
33	0x3d3b9348	0.045794755
34	0x3b4a0b35	0.0030829434
35	0xbb453120	-0.0030089095
36	0xbcaefcb8	-0.02136074
37	0xbd622141	-0.055207495
38	0xbd2d5d25	-0.042325158
39	0xbdce1ebf	-0.10064458
40	0xbd64dc32	-0.055874057
41	0x3dabc6a0	0.08387494
42	0x3cb91868	0.022594646
43	0x3d581480	0.052753925
44	0xbd3303db	-0.04370485
45	0x3d6e7c68	0.05822411
46	0xbce3a253	-0.027787363
47	0xbc853999	-0.016262816
48	0xbdbdd0bd	-0.09268329
49	0xbd897f36	-0.06713717
50	0x3ccabdf8	0.024748787
51	0x3da31ee0	0.07964873
52	0x3db13a60	0.08653712
53	0xbca982f0	-0.020692319
54	0xbdbda8c8	-0.09260708
55	0x3db1787a	0.08665557
56	0xbbfc6b40	-0.007703215
57	0xbca15d65	-0.019697854
58	0xbdbc083d	-0.09181259
59	0x3dc45706	0.09586911
60	0xbd5e0b3b	-0.05420993
61	0x3d0f9efc	0.03506373
62	0x3c87316a	0.016503055
63	0x3cfb7400	0.030694962
64	0x3d907ffe	0.070556626
65	0xbda5cc18	-0.080955684
66	0x3cd77d2b	0.026304802
67	0x3d1b44fc	0.037907586
68	0xbc8ab040	-0.016929746
69	0x3da5d502	0.08097269
70	0x3d983048	0.07431084
71	0x3d831ef0	0.06402385
72	0xbc5ed13f	-0.013599693
73	0xbd6ec8bd	-0.058296908
74	0x3cde96a8	0.027171448
75	0xbd24bf2d	-0.040221382
76	0x3d69b3e0	0.057056308
77	0xbd51e535	-0.05124398
78	0xbdcbda51	-0.0995375
79	0x3d8c043e	0.06836747
80	0x3dc1d71a	0.094648555
81	0xbd97c819	-0.074112125
82	0xbd634e53	-0.055494618
83	0xbdb369b5	-0.087603964
84	0xbd6611ad	-0.0561692
85	0x3d313c5b	0.04327045
86	0x3d75188b	0.05983786
87	0x3d11a49c	0.035557374
88	0x3d4fa97c	0.050698742
89	0xbcab31a8	-0.020897701
90	0x3dcfd8a2	0.10148741
91	0xbd9337a1	-0.07188345
92	0x3c6d5b5c	0.014487114
93	0x3d09e720	0.033667684
94	0xbd9c745c	-0.07639381
95	0x3d8117ff	0.06303405
96	0xbca0750c	-0.019587062
97	0x3da6f59c	0.08152315
98	0xbd4b79fc	-0.04967688
99	0x3da044c1	0.07825614
100	0xbd66dceb	-0.056363028
101	0xbdbbb64a	-0.09165628
102	0xbcc9c926	-0.024632048
103	0xbd13be6c	-0.036070272
104	0xbd34c48a	-0.044132747
105	0xbbcfdd70	-0.006343536
106	0x3d397ada	0.045283176
107	0xbd629a32	-0.055322833
108	0xbd9eed52	-0.07760109
109	0xbd923d93	-0.071406506
110	0xbcfc8115	-0.03082327
111	0xbd5a7676	-0.05333563
112	0x3d815182	0.063143745
113	0xbd55a10a	-0.052155532
114	0x3c634da8	0.013873495
115	0x3d155621	0.036459092
116	0x3d25527c	0.040361866
117	0xbd859e82	-0.065243736
118	0x3dccd7cd	0.10002098
119	0xbd921ff1	-0.071349986
120	0x39918a00	0.00027759373
121	0xbdc14559	-0.09437055
122	0x3d73b925	0.05950274
123	0xbd7f7729	-0.0623695
124	0x3daa2bb7	0.08309119
125	0xbdbf3371	-0.093359835
126	0x3db94dc6	0.09048037
127	0x3d964b9b	0.07338639
128	0xbdab0ab5	-0.083516516
129	0xbd00beae	-0.031431846
130	0xbd792ccf	-0.06083375
131	0xbdd0b932	-0.10191573
132	0x3dc0d79d	0.09416125
133	0x3dba7610	0.0910455
134	0xbd9b6c79	-0.07589049
135	0xbdbd2447	-0.09235435
136	0x3b06d36c	0.0020572795
137	0xbd94a5cd	-0.072581865
138	0xbd9b1eac	-0.075742096
139	0xbdb8a4ef	-0.090158336
140	0xbce94930	-0.028477281
141	0x3c50f778	0.012754314
142	0xbd6080d2	-0.054810353
143	0x3d8109c8	0.06300694
144	0xbc5bddd8	-0.013419591
145	0xbd00093a	-0.0312588
146	0xbcf01b2c	-0.029309832
147	0xbd344c65	-0.044018168
148	0x3da33924	0.07969883
149	0x3cbc9e18	0.023024604
150	0x3d04c190	0.032411158
151	0xbd83ddbc	-0.06438777
152	0x3bfa9f50	0.007648386
153	0x3d992e19	0.074794956
154	0xbd3e5a72	-0.046472974
155	0xbc7b303c	-0.015331324
156	0x3d8df3f4	0.06931296
157	0x3d8fcc44	0.070213825
158	0x3d339543	0.04384352
159	0xbdcb1058	-0.09915227
160	0x3d5be16c	0.053681776
161	0xbd64dacf	-0.055872735
162	0x3db2b326	0.08725576
163	0xbd7477d7	-0.0596846
164	0xbdb92e91	-0.09042085
165	0x3d938734	0.07203522
166	0x3d59dc2c	0.053188488
167	0x3dc89e9a	0.09795876
168	0x3d604bdd	0.05475985
169	0xbdd5a494	-0.104317814
170	0x3cf0ff34	0.029418565
171	0x3cdc3848	0.026882306
172	0xbd1cf496	-0.038319193
173	0x3d84d820	0.06486535
174	0x3d991f16	0.07476632
175	0xbd280ebd	-0.04102968
176	0x3d840674	0.06446543
177	0xbd3690cf	-0.044571694
178	0x3d26acf0	0.04069227
179	0xbc9b0f7a	-0.018928278
180	0x3d130c9c	0.035900697
181	0xbd8f8198	-0.0700714
182	0xbdad9d5e	-0.08477281
183	0xbd80880f	-0.06275951
184	0xbdabbdf0	-0.08385837
185	0xbc8a6184	-0.016892202
186	0xbd370925	-0.044686455
187	0xbdbd73ce	-0.092506036
188	0xbc8c42c0	-0.017121673
189	0x3d9ed9f6	0.077564165
190	0x3d56df3f	0.052458998
191	0x3d6304cc	0.055424497
192	0xbd32aeaf	-0.043623623
193	0xbd82a359	-0.06378812
194	0xbd85435c	-0.065069884
195	0x3d814367	0.06311684
196	0x3d3c46fc	0.045966133
197	0x3daae9c9	0.08345372
198	0xbdc49b3e	-0.095999226
199	0x3d0abbb8	0.03387043
200	0xbc8b7f6d	-0.017028535
201	0x3db6acb6	0.08919661
202	0x3d99a47e	0.075020775
203	0x3cf9a1d0	0.030472666
204	0x3d74342c	0.059620067
205	0x3d9a6428	0.075386345
206	0xbd83357d	-0.064066865
207	0x3c196f84	0.009364966
208	0xbdb021e4	-0.08600214
209	0xbce7e3ea	-0.02830692
210	0x3d6033eb	0.054737013
211	0x3da7c48c	0.08191785
212	0xbc367a88	-0.011137612
213	0xbd83f9c1	-0.06444121
214	0x3d80cb71	0.06288803
215	0x3d6d4b95	0.05793341
216	0x3d8d9175	0.06912509
217	0xbc5543cd	-0.013016653
218	0x3dbc1780	0.0918417
219	0xbd530f4e	-0.051528268
220	0x3d7b2b30	0.061320484
221	0x3c6f9ae8	0.014624335
222	0xbd8fe33d	-0.07025764
223	0xbcfe04f9	-0.03100823
224	0xbdc41f24	-0.09576252
225	0x3d306e4c	0.043073937
226	0x3dc6aeaa	0.09701283
227	0xbd38451b	-0.04498778
228	0x3b1339cb	0.0022464867
229	0xbbeb2db6	-0.00717708
230	0x3dbd81d1	0.09253276
231	0xbdd513a4	-0.10404137
232	0x3d3901b4	0.04516764
233	0x3d7a3430	0.061084926
234	0x3db3d1a0	0.08780217
235	0x3d4d0230	0.050050914
236	0x3d3111f4	0.043230012
237	0xbc619938	-0.01376944
238	0xbd0686de	-0.032843463
239	0x3cf1c02c	0.02951058
240	0x3c6e7838	0.01455503
241	0xbd3f7267	-0.046739962
242	0xbd860dcf	-0.065456025
243	0xbc960f26	-0.01831777
244	0xbc8da91c	-0.017292552
245	0xbda75e7b	-0.081723176
246	0x3d8cbb59	0.06871671
247	0xbc8ef5f4	-0.017451264
248	0x3da826d2	0.082105294
249	0x3dacbf2a	0.08434899
250	0xbcb0e560	-0.02159375
251	0x3d93c1c9	0.07214696
252	0x3d44d848	0.048057824
253	0x3dab9dca	0.08379705
254	0x3d81a173	0.06329622
255	0x3d72e710	0.05930239

fc2.bias f4 [48]
0	0xbd3feb9d	-0.046855558
1	0x3bc370c6	0.0059643714
2	0xbd49ea2c	-0.04929559
3	0x3bf1ebd0	0.0073828474
4	0xbd00236a	-0.031283773
5	0xbd5e98dd	-0.054345
6	0xbdc09e30	-0.09405172
7	0xbb79af34	-0.0038098814
8	0x3d812cfe	0.0630741
9	0x3d937df4	0.07201758
10	0xbdb0fe2a	-0.08642228
11	0xbd1a61ba	-0.037690856
12	0xbc3e0772	-0.011598455
13	0xbd86249c	-0.065499514
14	0x3d9b1530	0.075724006
15	0x3da8f31c	0.082494944
16	0x3dad15bc	0.08451411
17	0xbd9e34e5	-0.077249326
18	0xbaab5d56	-0.0013074081
19	0xbc8bdc77	-0.0170729
20	0x3c4cb8ff	0.012495278
21	0xbd8d2794	-0.068923146
22	0x3dc08a7a	0.09401412
23	0x3c4aef2c	0.012386125
24	0x3b7541d9	0.0037423281
25	0xbd825472	-0.06363763
26	0xbd8e9d57	-0.06963604
27	0x3ca71628	0.020396307
28	0x3c381ee9	0.011237838
29	0x3d0bc3d7	0.034122314
30	0x3d001998	0.031274408
31	0x3cb07e7b	0.021544686
32	0xbd401098	-0.046890825
33	0xbdac3280	-0.084080696
34	0xbd588840	-0.052864313
35	0xbd990ff9	-0.0747375
36	0x3d8854f4	0.066568285
37	0xbd990606	-0.07471852
38	0xbcd12bc4	-0.025533564
39	0xbcaf28c9	-0.021381753
40	0xbd84b632	-0.064800635
41	0xbad872c0	-0.001651369
42	0xbdc56527	-0.09638434
43	0x3cd14588	0.02554585
44	0xbd873dc2	-0.06603576
45	0x3dd6b584	0.1048384
46	0xbd36d8ad	-0.044640232
47	0xbd8eb177	-0.069674425

fc3.weight f4 [24, 48]
0	0xbd8dd367	-0.069250874
1	0x3b5afb1c	0.0033413833
2	0x3dafc810	0.08583081
3	0x3d164d2a	0.036694683
4	0x3e00d153	0.12579851
5	0xbb806741	-0.003918559
6	0xbd822483	-0.0635462
7	0xbd9ad2b9	-0.075597234
8	0xbe13792a	-0.14401689
9	0x3d7a62d8	0.06112942
10	0xbceef478	-0.029169306
11	0x3d52f453	0.051502537
12	0xbd844998	-0.064593494
13	0xbdb07186	-0.08615403
14	0x3e032d08	0.12810147
15	0x3d02f041	0.031967405
16	0x3d450c95	0.048107702
17	0x3dc94cac	0.09829077
18	0xbd943acf	-0.07237779
19	0x3d8101dd	0.062991835
20	0x3dd1e2d5	0.10248343
21	0x3ded1760	0.11576724
22	0xbe10ceb8	-0.14141357
23	0x3cd7041e	0.02624708
24	0xbd73da3f	-0.059534308
25	0x3dbdda9e	0.092702135
26	0x3d85f31e	0.065405115
27	0x3db6033e	0.08887337
28	0x3d4f3756	0.05058988
29	0xbc488077	-0.01223766
30	0x3c0a92d0	0.008457854
31	0xbd1a5591	-0.03767926
32	0xbd8edf0d	-0.06976137
33	0x3db5aef6	0.08871262
34	0x3e0df02c	0.1386115
35	0x3de12a20	0.10994363
36	0x3db6343c	0.08896682
37	0xbb4ccc40	-0.0031249672
38	0xbe0aae51	-0.13543059
39	0xbdc3151a	-0.09525509
40	0xbd87dfee	-0.06634508
41	0x3db5e8c8	0.0888229
42	0xbde3e4aa	-0.111275986
43	0x3ddf01d8	0.108890235
44	0x3e0a0450	0.13478208
45	0xbca75b99	-0.02042942
46	0x3d1b02c3	0.03784443
47	0xbd9e0f30	-0.077177405
48	0x3de81dfa	0.113338426
49	0x3d056639	0.03256819
50	0xbb915a51	-0.0044358154
51	0x3cee62bb	0.029099813
52	0x3b92b6a8	0.0044773407
53	0x392c9a05	0.00016460575
54	0xbddd75f7	-0.10813516
55	0x3d67c96b	0.05658857
56	0x3ac49300	0.0014997423
57	0xbc57f898	-0.013181828
58	0xbcb28bc4	-0.021795161
59	0xbe04284d	-0.12905999
60	0x3dfce125	0.123476304
61	0xbdd7fe4b	-0.105465494
62	0xbdc62575	-0.09675113
63	0xbd1e5d16	-0.038662992
64	0x3d840954	0.06447092
65	0x3d66018e	0.056153826
66	0x3d861f6b	0.06548961
67	0xbcda6a6f	-0.02666208
68	0x3e04026a	0.12891546
69	0xbe0547ef	-0.13015722
70	0xbe014868	-0.12625277
71	0xbd179826	-0.037010334
72	0xbe0a0f02	-0.13482288
73	0x3d87b070	0.0662545
74	0xbd1f67a6	-0.038917206
75	0x3dd4d07f	0.1039133
76	0xbd965f87	-0.07342439
77	0x3d98f814	0.07469192
78	0xbd70c58e	-0.058782153
79	0x3e099e52	0.134393
80	0xbde2cc48	-0.1107412
81	0x3de778f4	0.11302367
82	0xbd84a47c	-0.064766854
83	0x3d5f478c	0.05451159
84	0x3db6340b	0.08896645
85	0xbd294c2c	-0.04133241
86	0x3c390913	0.011293667
87	0x3ddab1b0	0.106784225
88	0x3e0fe97b	0.1405391
89	0x3d199238	0.03749296
90	0xbdaa1c28	-0.08306152
91	0x3de20ed8	0.110379875
92	0xbbea1b80	-0.0071443915
93	0x3d3acc03	0.045604717
94	0x3d8ccf71	0.06875504
95	0x3c183240	0.009289324
96	0x3da6d678	0.081463754
97	0xbe013993	-0.12619619
98	0x3bce0c4e	0.006288088
99	0x3e0bf3ec	0.13667268
100	0xbdf4ff81	-0.11962796
101	0xbd105691	-0.035238806
102	0x3dc6e6f0	0.097120166
103	0x3e0634aa	0.13106027
104	0x3dd5fe80	0.10448933
105	0x3d2d6d84	0.04234077
106	0xbd8755f6	-0.066081926
107	0xbc894d34	-0.016760446
108	0x3d8d5f1c	0.06902906
109	0x3d51bf8d	0.051208068
110	0xbc788c50	-0.015170172
111	0xbd749506	-0.059712432
112	0xbd4c9eea	-0.04995624
113	0x3d34d847	0.04415157
114	0x3d20af6f	0.039229807
115	0xbe0ba0fa	-0.13635626
116	0x3c310a26	0.010805642
117	0x3d2a3b40	0.04156041
118	0x3d1e0b76	0.03858515
119	0x3c0f6598	0.008752249
120	0x3e0c12d9	0.13679065
121	0xbd22fe76	-0.039793454
122	0x3d262166	0.040559195
123	0x3d1aa741	0.037757162
124	0xbc4b8854	-0.01242264
125	0xbcbb59fa	-0.022870053
126	0xbd797090	-0.060898364
127	0x3a8e19d4	0.0010841438
128	0x3d691373	0.056903314
129	0xbcb5c028	-0.022186354
130	0x3d64c328	0.055850178
131	0xbd71047c	-0.058842167
132	0xbd031bd3	-0.032008957
133	0x3d8cb862	0.06871106
134	0x3d14ecea	0.03635875
135	0x3e0637db	0.13107245
136	0xbdf87669	-0.1213196
137	0x3d60cf50	0.05488521
138	0xbe119d8f	-0.1422026
139	0x3e0b6da8	0.1361605
140	0x3dd42bb2	0.10359897
141	0xbe08f56d	-0.13374873
142	0xbe07395b	-0.13205473
143	0xbd83478d	-0.064101316
144	0x3defcfd0	0.11709559
145	0x3da28137	0.07934802
146	0x3dfbd4fc	0.12296483
147	0x3dec0ab8	0.11525482
148	0x3deb05cf	0.11475717
149	0x3cf4671c	0.029834323
150	0x3d7622c8	0.060091764
151	0x3ded3016	0.11581437
152	0x3d17fd00	0.037106514
153	0x3ce9250c	0.028460048
154	0xbbaadefa	-0.005214569
155	0xbe11e51b	-0.14247553
156	0xbc5b6f56	-0.013393244
157	0xbcacb7cc	-0.021083735
158	0xbd1dbaad	-0.038508106
159	0x3e06f8ad	0.131808
160	0xbb95ea9f	-0.004575088
161	0xbdf3d274	-0.11905375
162	0x3d9dcb2f	0.0770477
163	0xbdec6c79	-0.11544127
164	0x3e0491e8	0.12946284
165	0x3cbf6580	0.023363829
166	0x3d189c2a	0.037258305
167	0xbd24cde7	-0.040235426
168	0x3d8c1a2a	0.06840928
169	0x3d8e14ce	0.06937562
170	0xbdfb2cb1	-0.122643836
171	0x3e0a6fa8	0.13519156
172	0x3d3e6e81	0.046492103
173	0xbcd8f7e5	-0.026485393
174	0x3d24ce6c	0.04023592
175	0x3def19b6	0.11674826
176	0xbd532673	-0.05155034
177	0x3d13c028	0.036071926
178	0xbdd4012e	-0.103517875
179	0x3c50d4e0	0.012746066
180	0xbdc7d7aa	-0.097579315
181	0x3dd4aacc	0.103841394
182	0xbcf78393	-0.030214107
183	0xbdd2feb6	-0.103024885
184	0x3c5f4189	0.013626465
185	0x3dbb13a6	0.09134607
186	0x3c0896e0	0.008336753
187	0xbda08487	-0.078377776
188	0xbde50c4e	-0.111839876
189	0xbc8b96a1	-0.017039599
190	0x3df46e47	0.11935096
191	0xbdad3737	-0.08457797
192	0x3bcc8c80	0.006242335
193	0xbdd4524f	-0.103672616
194	0xbdfdc95a	-0.123919204
195	0x3dba0200	0.09082413
196	0x3cb62a98	0.022237107
197	0xbd2fcccd	-0.042919923
198	0x3de8bc80	0.113640785
199	0xbd161340	-0.036639452
200	0xbd3e7548	-0.046498567
201	0x3c235410	0.0099687725
202	0x3c7a169a	0.015264178
203	0xbdd001a3	-0.10156562
204	0x3d9b678c	0.075881094
205	0xbdd2eada	-0.10298701
206	0x3db52486	0.08844857
207	0x3dc5c725	0.096571244
208	0x3de40f37	0.111357145
209	0x3dcdbbcd	0.10045586
210	0xbddb58d4	-0.10710302
211	0xbdb1b597	-0.08677214
212	0x3c6057cf	0.01369281
213	0x3c348f70	0.011020526
214	0x3ddbcf19	0.1073286
215	0x3e0fd517	0.14046131
216	0xbc844f68	-0.016151145
217	0xbd606405	-0.054782886
218	0x3d3fd990	0.046838343
219	0x3cca6ab7	0.024709089
220	0xbd76376b	-0.060111444
221	0xbde6b12f	-0.11264264
222	0x3cfd9a60	0.0309574
223	0xbd186dab	-0.037213963
224	0xbd55e9ce	-0.052224927
225	0xbdad8ef2	-0.0847453
226	0x3d5a68d8	0.053322643
227	0x3d1c78bc	0.03820108
228	0x3c221e0f	0.009894862
229	0x3dbd294a	0.09236391
230	0xbe131fac	-0.1436755
231	0xbd5ca2cb	-0.05386619
232	0x3dc6956a	0.09696467
233	0xbd7184a8	-0.0589644
234	0xbe0849e0	-0.13309431
235	0x3dc8b146	0.09799437
236	0xbc9b0848	-0.018924847
237	0xbdc2b9a9	-0.09508068
238	0x3da9254b	0.08259066
239	0xbc6e57b0	-0.0145472735
240	0xbde9fe03	-0.11425402
241	0xbd054ab4	-0.032541946
242	0x3d0e14c8	0.034687787
243	0x3d7f0408	0.062259704
244	0xbcb7eba4	-0.02245123
245	0xbdea850e	-0.114511594
246	0x3d39c060	0.04534948
247	0xbd871f5b	-0.065977775
248	0xbdd9a434	-0.106270224
249	0xbd81e057	-0.063416176
250	0xbe094fbb	-0.13409321
251	0xbd983b57	-0.07433193
252	0x3d6260d0	0.05526811
253	0x3d40057c	0.04688023
254	0xbdb5bcec	-0.088739246
255	0xbe00b0e2	-0.12567475

fc3.bias f4 [24]
0	0xbd58a2bf	-0.05288958
1	0xbda6f80f	-0.08152782
2	0x3d907c7d	0.07054994
3	0xbdf72e5f	-0.120693915
4	0x3b9052a8	0.0044043846
5	0x3e01570e	0.12630865
6	0x3dbd04d6	0.09229438
7	0xbe150464	-0.14552456
8	0xbddef394	-0.108863026
9	0x3e0512ba	0.12995425
10	0xbb9f5ac0	-0.004863113
11	0x3de28ba4	0.110617906
12	0x3c38a719	0.011270308
13	0xbcd91070	-0.026497096
14	0xbdf5957b	-0.11991402
15	0x3ce0f2d8	0.027459547
16	0x3ddceb14	0.10787025
17	0x3d8a6a6b	0.06758579
18	0x3c86d840	0.016460538
19	0x3d53b5c4	0.051687017
20	0xbd2ec8c1	-0.042671923
21	0x3de81b50	0.113333344
22	0x3dcf124c	0.10110912
23	0x3d091dcd	0.033475686

fc4.weight f4 [2, 24]
0	0xbdcb7900	-0.09935188
1	0xbd69438a	-0.056949176
2	0xbd03ef05	-0.03221037
3	0x3ca13aa6	0.019681286
4	0x3e2a65af	0.16640352
5	0x3d7549f0	0.059884965
6	0x3e077194	0.1322692
7	0x3c477533	0.012173939
8	0xbd516691	-0.051123206
9	0xbdf33681	-0.1187563
10	0xbe3d54ae	-0.18489334
11	0xbc41b54e	-0.011823012
12	0x3de2495c	0.110491484
13	0x3bf733fe	0.0075440397
14	0xbdf48558	-0.11939496
15	0xbe088e2d	-0.13335486
16	0x3dd71880	0.1050272
17	0x3df9c248	0.12195259
18	0x3e16dba0	0.14732218
19	0xbe123f7f	-0.14282034
20	0x3c5a7da1	0.013335616
21	0xbe182fe2	-0.14862016
22	0xbdd0b62e	-0.10190998
23	0x3b1f0549	0.0024264625
24	0xbd805b1f	-0.0626738
25	0xbcf2e54c	-0.029650353
26	0x3ddef052	0.10885681
27	0x3d9f28b1	0.07771433
28	0x3c974c4c	0.018468998
29	0xbe4b036a	-0.19825521
30	0xbdec87dc	-0.115493506
31	0xbcb1105e	-0.02161425
32	0xbe02c67d	-0.1277103
33	0x3d26e23e	0.040743105
34	0x3db494b0	0.088174224
35	0x3e2cb3a7	0.16865407
36	0xbd9c863b	-0.0764279
37	0xbe28372e	-0.164273
38	0x3e3d073f	0.18459795
39	0xbd181eff	-0.037138935
40	0x3d4bfd60	0.049802184
41	0xbe20ba49	-0.15696062
42	0x3d72f997	0.05932006
43	0xbd9e7f5e	-0.07739137
44	0xbe09f471	-0.13472153
45	0x3d4d797b	0.05016468
46	0xbab1ae3d	-0.0013555955
47	0xbe14e7e3	-0.14541583

fc4.bias f4 [2]
0	0x3ce130eb	0.027489146
1	0xbc1b84e5	-0.009492134

exp_avg f4 [96, 3]
0	0xbc25199f	-0.010076909
1	0xbb8f468c	-0.0043724235
2	0xb919d1dd	-0.00014669397
3	0x3a3208c8	0.00067914696
4	0xba11bbda	-0.0005559303
5	0xb6700318	-3.5764588e-06
6	0x37004972	7.646495e-06
7	0x379ff702	1.9069299e-05
8	0x00000000	0.0
9	0xba34f92b	-0.0006903584
10	0xb9a9e910	-0.00032407837
11	0xb906bebd	-0.00012850291
12	0xba3b498b	-0.00071444426
13	0x38e535ba	0.00010929578
14	0x38a46be7	7.840228e-05
15	0xbb10aa28	-0.0022074077
16	0xba49fc7f	-0.00077051664
17	0xb90fc76c	-0.00013711833
18	0xba9b2326	-0.0011836037
19	0x39a46492	0.00031355448
20	0x378c655c	1.67365e-05
21	0x00000000	0.0
22	0x00000000	0.0
23	0x00000000	0.0
24	0xbb15b3a9	-0.0022842682
25	0xba39df0d	-0.0007090427
26	0x3920d6fa	0.00015338874
27	0xb889c78a	-6.569836e-05
28	0xb8efb126	-0.000114294045
29	0x00000000	0.0
30	0xbb54254e	-0.0032370868
31	0xba89f996	-0.0010526653
32	0xb87444d0	-5.823822e-05
33	0x00000000	0.0
34	0x00000000	0.0
35	0x00000000	0.0
36	0x3b5a7903	0.0033336289
37	0x3aa4d979	0.0012577019
38	0xb779f2d2	-1.4898093e-05
39	0xbaaa916d	-0.0013013311
40	0xb940e664	-0.00018396374
41	0xb8455295	-4.704537e-05
42	0xbb932524	-0.0044905115
43	0xb9e436f0	-0.0004352848
44	0x37a02a22	1.9093106e-05
45	0x3b120bec	0.0022284938
46	0x3aa99137	0.0012936954
47	0xb78de04a	-1.6912953e-05
48	0x3bb88322	0.0056308666
49	0x3ac7085c	0.0015184986
50	0x379b4b22	1.8512426e-05
51	0xbbada148	-0.0052987672
52	0xb9d25f12	-0.00040125154
53	0x3807626f	3.227818e-05
54	0x3c0b7dda	0.008513892
55	0x3b0690fa	0.002053319
56	0x39940076	0.00028229103
57	0xbc31dc19	-0.010855698
58	0xbb973515	-0.004614482
59	0xb9a88db8	-0.00032149046
60	0x00000000	0.0
61	0x00000000	0.0
62	0x00000000	0.0
63	0x3b140737	0.0022587308
64	0xb8e8335c	-0.000110721885
65	0x39e621bf	0.0004389416
66	0xbc2058f0	-0.009786829
67	0xbb218658	-0.0024646726
68	0xb92a6d38	-0.0001625315
69	0xbbdfbaa2	-0.0068276683
70	0xbb213dd1	-0.0024603496
71	0xb929bcc0	-0.00016187411
72	0x38650a52	5.4607466e-05
73	0x391732eb	0.0001441945
74	0x367ebe3f	3.7959687e-06
75	0xbbb67e30	-0.005569242
76	0xbb06e64a	-0.002058404
77	0xb9aedbb3	-0.00033351555
78	0x3b952cc9	0.004552458
79	0x3a157ec0	0.0005702786
80	0x396bdddd	0.00022493997
81	0xbb48c674	-0.0030635865
82	0xbab993b1	-0.0014158395
83	0x36b7059e	5.454479e-06
84	0x39e6a000	0.00043988228
85	0x38ac86fa	8.2267405e-05
86	0x39280a22	0.00016025503
87	0x00000000	0.0
88	0x00000000	0.0
89	0x00000000	0.0
90	0xbbeeb52a	-0.00728478
91	0xba16a3b2	-0.00057464384
92	0x383707a6	4.3637723e-05
93	0x3bdf46d7	0.0068138647
94	0x3accbfae	0.001562109
95	0x393bfaa5	0.00017927082
96	0x3bffc2a8	0.0078051873
97	0x3b0ac46c	0.0021174205
98	0x3991ab65	0.00027784254
99	0x00000000	0.0
100	0x00000000	0.0
101	0x00000000	0.0
102	0x37e24c7f	2.697692e-05
103	0x38452af9	4.700848e-05
104	0x00000000	0.0
105	0x00000000	0.0
106	0x00000000	0.0
107	0x00000000	0.0
108	0x3c1cfea8	0.009582199
109	0x3b417323	0.002951809
110	0x398b94c8	0.00026622997
111	0x3a03b41e	0.0005024093
112	0x3a54e170	0.0008120751
113	0x3703d79c	7.858409e-06
114	0xbc29449a	-0.010331297
115	0xbb715ece	-0.003683019
116	0xb9a721bc	-0.00031877856
117	0xb9d81834	-0.00041216763
118	0xba316c55	-0.0006768157
119	0x00000000	0.0
120	0xbb5672a4	-0.003272214
121	0xb94a24da	-0.0001927795
122	0xb8590302	-5.1739633e-05
123	0x00000000	0.0
124	0x00000000	0.0
125	0x00000000	0.0
126	0x00000000	0.0
127	0x00000000	0.0
128	0x00000000	0.0
129	0x00000000	0.0
130	0x00000000	0.0
131	0x00000000	0.0
132	0x395089b5	0.00019887726
133	0x39500b4a	0.00019840631
134	0xb7a2b30d	-1.9395282e-05
135	0x00000000	0.0
136	0x00000000	0.0
137	0x00000000	0.0
138	0x3b3e0a8f	0.0028997993
139	0x3933a3e1	0.0001713182
140	0x39440f50	0.00018697721
141	0x3b0ecf9b	0.0021791223
142	0x3a65d378	0.0008767168
143	0x39c030dd	0.000366575
144	0x00000000	0.0
145	0x00000000	0.0
146	0x00000000	0.0
147	0x00000000	0.0
148	0x00000000	0.0
149	0x00000000	0.0
150	0x3aada030	0.0013246592
151	0x3aa8917f	0.0012860744
152	0x37e3c6bf	2.7153057e-05
153	0xbb52a728	-0.003214309
154	0xb9951cc8	-0.00028440938
155	0x3877effb	5.911289e-05
156	0x00000000	0.0
157	0x00000000	0.0
158	0x00000000	0.0
159	0xb7b647ef	-2.1729587e-05
160	0xb8f369ed	-0.00011606873
161	0x36955063	4.4499043e-06
162	0x3a537af6	0.0008067334
163	0x39e91579	0.00044457222
164	0x38ab9c9c	8.183086e-05
165	0x00000000	0.0
166	0x00000000	0.0
167	0x00000000	0.0
168	0x00000000	0.0
169	0x00000000	0.0
170	0x00000000	0.0
171	0x3bfa85e6	0.0076453565
172	0x3b7f23b6	0.0038931197
173	0x397662ec	0.0002349724
174	0x00000000	0.0
175	0x00000000	0.0
176	0x00000000	0.0
177	0xba3089ee	-0.00067344203
178	0xba01545a	-0.0004933529
179	0x00000000	0.0
180	0xbc1f0cfc	-0.009707686
181	0xbb95b3b8	-0.0045685433
182	0xb90ce75b	-0.00013437627
183	0x00000000	0.0
184	0x00000000	0.0
185	0x00000000	0.0
186	0x3b1a55f2	0.0023549763
187	0xba0bd3fc	-0.00053340173
188	0x3813c015	3.522642e-05
189	0x00000000	0.0
190	0x00000000	0.0
191	0x00000000	0.0
192	0x3b31cbaf	0.0027129462
193	0x3a1d3935	0.0005997599
194	0x37a055bd	1.9113411e-05
195	0xbb8a683c	-0.0042238515
196	0xbb36dc03	-0.0027902133
197	0xb88b798c	-6.6506764e-05
198	0x3c3fd600	0.011708736
199	0x3b761380	0.0037548244
200	0x39369b33	0.00017414689
201	0x00000000	0.0
202	0x00000000	0.0
203	0x00000000	0.0
204	0x3aec4a32	0.0018027483
205	0x397fb873	0.00024387408
206	0xb7652321	-1.3657643e-05
207	0x00000000	0.0
208	0x00000000	0.0
209	0x00000000	0.0
210	0x00000000	0.0
211	0x00000000	0.0
212	0x00000000	0.0
213	0x00000000	0.0
214	0x00000000	0.0
215	0x00000000	0.0
216	0x3bd30da4	0.006440835
217	0x3aa8721a	0.0012851388
218	0x394cd489	0.00019534132
219	0xbc1a2923	-0.009409222
220	0xbb6ed648	-0.003644364
221	0x394afe56	0.00019358969
222	0xbb3df722	-0.0028986414
223	0xbad2ec02	-0.0016092064
224	0x3628f228	2.5174904e-06
225	0x00000000	0.0
226	0x00000000	0.0
227	0x00000000	0.0
228	0x00000000	0.0
229	0x00000000	0.0
230	0x00000000	0.0
231	0x00000000	0.0
232	0x00000000	0.0
233	0x00000000	0.0
234	0x00000000	0.0
235	0x00000000	0.0
236	0x00000000	0.0
237	0x3b7f3a4a	0.0038944655
238	0x3a8e805d	0.0010871995
239	0x388bfb90	6.674894e-05
240	0x00000000	0.0
241	0x00000000	0.0
242	0x00000000	0.0
243	0xbb699200	-0.0035640001
244	0xba682861	-0.00088561146
245	0xb97d3198	-0.00024146435
246	0x00000000	0.0
247	0x00000000	0.0
248	0x00000000	0.0
249	0xbbbe5834	-0.0058088545
250	0xbb17807e	-0.0023117359
251	0xb92909e9	-0.00016120788
252	0x00000000	0.0
253	0x00000000	0.0
254	0x00000000	0.0
255	0x3c04cd84	0.008105639

exp_avg_sq f4 [96, 3]
0	0x38c835c7	9.54676e-05
1	0x378be09f	1.6674689e-05
2	0x339123cd	6.758601e-08
3	0x37e15b38	2.6864567e-05
4	0x361f1e45	2.3710465e-06
5	0x32928906	1.7058948e-08
6	0x3102175f	1.8930775e-09
7	0x3243724b	1.1376481e-08
8	0x00000000	0.0
9	0x37820f5d	1.5504362e-05
10	0x35ad3862	1.2905914e-06
11	0x33088e5b	3.179444e-08
12	0x379991f6	1.830699e-05
13	0x353d0c32	7.0425733e-07
14	0x328bf0a4	1.629116e-08
15	0x38016f70	3.085978e-05
16	0x36c4845d	5.8566643e-06
17	0x33266ffc	3.8751736e-08
18	0x37d4c059	2.5361938e-05
19	0x36a592d9	4.9344785e-06
20	0x328a6e2c	1.6115415e-08
21	0x00000000	0.0
22	0x00000000	0.0
23	0x00000000	0.0
24	0x38346106	4.3005704e-05
25	0x369d295a	4.6837786e-06
26	0x338cd35f	6.557706e-08
27	0x35ba80b7	1.3895541e-06
28	0x36013df5	1.9258562e-06
29	0x00000000	0.0
30	0x3813b2f2	3.5214187e-05
31	0x3712661a	8.7260505e-06
32	0x3296784f	1.7517008e-08
33	0x00000000	0.0
34	0x00000000	0.0
35	0x00000000	0.0
36	0x38465e1b	4.729452e-05
37	0x370b7ac1	8.3136265e-06
38	0x32b3d1fc	2.0933832e-08
39	0x37c02d13	2.2909173e-05
40	0x36c5dd14	5.8967944e-06
41	0x329cd6e6	1.8258515e-08
42	0x37d80ef4	2.575617e-05
43	0x34b8a6ad	3.4393943e-07
44	0x3239ddf1	1.0818881e-08
45	0x38684d51	5.5385117e-05
46	0x37005671	7.649521e-06
47	0x32d4157d	2.468982e-08
48	0x38851aeb	6.346948e-05
49	0x379c32e6	1.862035e-05
50	0x3312eec4	3.421043e-08
51	0x381aae79	3.687895e-05
52	0x346a12ee	2.1799835e-07
53	0x2fcf04f2	3.7656595e-10
54	0x396517b3	0.0002184797
55	0x3880eb4e	6.1473445e-05
56	0x34758ecb	2.2869351e-07
57	0x3981aabd	0.00024732007
58	0x382b9a98	4.0913554e-05
59	0x3483980a	2.4511274e-07
60	0x00000000	0.0
61	0x00000000	0.0
62	0x00000000	0.0
63	0x39637565	0.0002169214
64	0x3836b356	4.35592e-05
65	0x34f1a6cd	4.5011112e-07
66	0x3905198d	0.00012693387
67	0x37a4c2ce	1.9641036e-05
68	0x339225f8	6.805561e-08
69	0x3912bbb6	0.00013993573
70	0x380a8cf7	3.3033048e-05
71	0x33ca08d5	9.4079645e-08
72	0x360b5484	2.0761809e-06
73	0x363349d9	2.6716064e-06
74	0x30d4a905	1.5473068e-09
75	0x394802fe	0.00019074601
76	0x38112f7c	3.4614917e-05
77	0x34574160	2.0047219e-07
78	0x388bedee	6.672354e-05
79	0x37986a87	1.8169418e-05
80	0x33d6a7bc	9.995662e-08
81	0x382cfae2	4.124165e-05
82	0x36968fea	4.487102e-06
83	0x32ba66ab	2.1699938e-08
84	0x37906b9f	1.7216253e-05
85	0x363daf9b	2.826541e-06
86	0x33686888	5.411178e-08
87	0x00000000	0.0
88	0x00000000	0.0
89	0x00000000	0.0
90	0x391fbaef	0.0001523306
91	0x368d1e71	4.2056713e-06
92	0x33a51d36	7.688725e-08
93	0x38f5a541	0.00011713291
94	0x381350c5	3.5122754e-05
95	0x33f9e5d6	1.1636773e-07
96	0x3940817b	0.00018358782
97	0x3831fffb	4.243849e-05
98	0x3460442d	2.0886428e-07
99	0x00000000	0.0
100	0x00000000	0.0
101	0x00000000	0.0
102	0x3411a9f2	1.3566003e-07
103	0x348c9fee	2.6193396e-07
104	0x00000000	0.0
105	0x00000000	0.0
106	0x00000000	0.0
107	0x00000000	0.0
108	0x394d4d95	0.00019579225
109	0x383e8d29	4.5430996e-05
110	0x342b099a	1.5929109e-07
111	0x383c48f7	4.4890647e-05
112	0x361594da	2.2289373e-06
113	0x33298723	3.9471285e-08
114	0x39acee35	0.00032983875
115	0x38821afd	6.20391e-05
116	0x349354d6	2.744261e-07
117	0x344b45b3	1.8931205e-07
118	0x34df43bf	4.158628e-07
119	0x00000000	0.0
120	0x38a7ef13	8.0077116e-05
121	0x3795642c	1.780883e-05
122	0x3302f7d0	3.0493368e-08
123	0x00000000	0.0
124	0x00000000	0.0
125	0x00000000	0.0
126	0x00000000	0.0
127	0x00000000	0.0
128	0x00000000	0.0
129	0x00000000	0.0
130	0x00000000	0.0
131	0x00000000	0.0
132	0x378bb86d	1.6655971e-05
133	0x37096bd0	8.190938e-06
134	0x30bbcd75	1.3664435e-09
135	0x00000000	0.0
136	0x00000000	0.0
137	0x00000000	0.0
138	0x389318c6	7.014121e-05
139	0x376dd087	1.4174852e-05
140	0x33ca7e1c	9.429297e-08
141	0x395eb4e4	0.00021238957
142	0x380668a1	3.2045533e-05
143	0x34943588	2.7606097e-07
144	0x00000000	0.0
145	0x00000000	0.0
146	0x00000000	0.0
147	0x00000000	0.0
148	0x00000000	0.0
149	0x00000000	0.0
150	0x3852473a	5.0134237e-05
151	0x36842ef4	3.9393726e-06
152	0x32f330f3	2.8311183e-08
153	0x37d13639	2.493999e-05
154	0x3474a3b2	2.2783823e-07
155	0x32026107	7.589057e-09
156	0x00000000	0.0
157	0x00000000	0.0
158	0x00000000	0.0
159	0x34ae1156	3.242264e-07
160	0x352848d8	6.269088e-07
161	0x2fe8e56b	4.2363565e-10
162	0x38145426	3.536432e-05
163	0x36be257c	5.666805e-06
164	0x33034096	3.0559555e-08
165	0x00000000	0.0
166	0x00000000	0.0
167	0x00000000	0.0
168	0x00000000	0.0
169	0x00000000	0.0
170	0x00000000	0.0
171	0x38c31765	9.302682e-05
172	0x376fee4a	1.4300991e-05
173	0x33d5304e	9.927372e-08
174	0x00000000	0.0
175	0x00000000	0.0
176	0x00000000	0.0
177	0x35a39a9a	1.2189441e-06
178	0x3569ae1c	8.7052626e-07
179	0x00000000	0.0
180	0x391ba869	0.0001484469
181	0x37b193e2	2.1168908e-05
182	0x33a487c6	7.661542e-08
183	0x00000000	0.0
184	0x00000000	0.0
185	0x00000000	0.0
186	0x38c8e141	9.5787e-05
187	0x381ac17c	3.6896658e-05
188	0x334b6c85	4.736332e-08
189	0x00000000	0.0
190	0x00000000	0.0
191	0x00000000	0.0
192	0x372f0fd9	1.0434503e-05
193	0x3666432d	3.4311772e-06
194	0x315cb153	3.211501e-09
195	0x375f609d	1.331433e-05
196	0x36e3c676	6.788231e-06
197	0x314f37e8	3.0154244e-09
198	0x398e9094	0.0002719207
199	0x38932b4c	7.017571e-05
200	0x3458f2d4	2.0204908e-07
201	0x00000000	0.0
202	0x00000000	0.0
203	0x00000000	0.0
204	0x378e2409	1.69445e-05
205	0x3690ef89	4.31942e-06
206	0x31b2aa61	5.1998517e-09
207	0x00000000	0.0
208	0x00000000	0.0
209	0x00000000	0.0
210	0x00000000	0.0
211	0x00000000	0.0
212	0x00000000	0.0
213	0x00000000	0.0
214	0x00000000	0.0
215	0x00000000	0.0
216	0x391b1d41	0.0001479285
217	0x383b6f21	4.468777e-05
218	0x34065f50	1.2514397e-07
219	0x3997e61c	0.0002897241
220	0x387c93b8	6.0219056e-05
221	0x348af103	2.5879862e-07
222	0x38608281	5.3527303e-05
223	0x36f09ba1	7.170675e-06
224	0x33340b17	4.1919602e-08
225	0x00000000	0.0
226	0x00000000	0.0
227	0x00000000	0.0
228	0x00000000	0.0
229	0x00000000	0.0
230	0x00000000	0.0
231	0x00000000	0.0
232	0x00000000	0.0
233	0x00000000	0.0
234	0x00000000	0.0
235	0x00000000	0.0
236	0x00000000	0.0
237	0x38160e78	3.5776262e-05
238	0x371eacc7	9.457762e-06
239	0x32e5d6cd	2.6756789e-08
240	0x00000000	0.0
241	0x00000000	0.0
242	0x00000000	0.0
243	0x38dcfe36	0.00010537768
244	0x37937f5d	1.7583074e-05
245	0x3412a949	1.3658895e-07
246	0x00000000	0.0
247	0x00000000	0.0
248	0x00000000	0.0
249	0x3818b8ea	3.641184e-05
250	0x36a2191d	4.8309e-06
251	0x3376fe45	5.7507595e-08
252	0x00000000	0.0
253	0x00000000	0.0
254	0x00000000	0.0
255	0x39104cd8	0.00013761537

exp_avg f4 [96]
0	0xba0cae76	-0.0005366573
1	0x39105eb9	0.00013768197
2	0x36004972	1.9116237e-06
3	0xb8494a97	-4.79916e-05
4	0xb9022282	-0.00012410621
5	0x37d97d42	2.5926744e-05
6	0xb92ea49a	-0.00016655252
7	0x00000000	0.0
8	0xb8b0c81a	-8.429606e-05
9	0xb7469cd5	-1.1838235e-05
10	0x3824f5eb	3.9329676e-05
11	0x00000000	0.0
12	0xb8436144	-4.658221e-05
13	0xb808f849	-3.265616e-05
14	0xb9e209ed	-0.00043113474
15	0xb9128e09	-0.00013976557
16	0x38da5bc8	0.00010412146
17	0xb9ed9aa4	-0.0004531938
18	0xb7306bd8	-1.0515527e-05
19	0xb8278666	-3.994107e-05
20	0x00000000	0.0
21	0xb8844766	-6.3075495e-05
22	0xb97ea78a	-0.00024285741
23	0x38ae58e6	8.313525e-05
24	0x373c9dea	1.124244e-05
25	0x39771b7f	0.00023565999
26	0x37d9c140	2.5958405e-05
27	0x38d07500	9.940006e-05
28	0xb8250da1	-3.935176e-05
29	0x00000000	0.0
30	0xba6be804	-0.00089991116
31	0x3889254b	6.5396154e-05
32	0xb84879d6	-4.7797184e-05
33	0x00000000	0.0
34	0x368ea4ce	4.2511156e-06
35	0x00000000	0.0
36	0xb8200cf5	-3.815904e-05
37	0xb952a705	-0.0002008938
38	0x39745be9	0.00023303893
39	0xb88a10ab	-6.5834574e-05
40	0xb8f21ca2	-0.000115447925
41	0x00000000	0.0
42	0x00000000	0.0
43	0x00000000	0.0
44	0x378315a0	1.5626487e-05
45	0x00000000	0.0
46	0x389c5089	7.4536605e-05
47	0xb97071cb	-0.00022930575
48	0x00000000	0.0
49	0x00000000	0.0
50	0xb920becd	-0.00015329868
51	0xb98f19ea	-0.00027294393
52	0x00000000	0.0
53	0xb705d539	-7.9770625e-06
54	0xb92c6dd0	-0.00016444107
55	0x00000000	0.0
56	0x00000000	0.0
57	0x391d3507	0.00014992441
58	0x00000000	0.0
59	0xb891bafb	-6.9489666e-05
60	0xb864411e	-5.442008e-05
61	0x00000000	0.0
62	0xb935243a	-0.00017275
63	0x00000000	0.0
64	0x3827a948	3.9973558e-05
65	0xb9a0bf4d	-0.00030660108
66	0xb8690448	-5.5555516e-05
67	0x00000000	0.0
68	0x386abbf2	5.5964985e-05
69	0x00000000	0.0
70	0x00000000	0.0
71	0x00000000	0.0
72	0x382e8a18	4.1613443e-05
73	0x380475b6	3.158088e-05
74	0x38e0f021	0.0001072588
75	0x00000000	0.0
76	0x00000000	0.0
77	0x00000000	0.0
78	0x00000000	0.0
79	0xb75ca004	-1.3150278e-05
80	0x00000000	0.0
81	0x3843d3ec	4.668899e-05
82	0x00000000	0.0
83	0xb9b44b73	-0.0003438849
84	0x00000000	0.0
85	0x38482a3b	4.7723046e-05
86	0x35a5f940	1.2365999e-06
87	0x3983e583	0.00025157267
88	0x36b61aed	5.4271572e-06
89	0x00000000	0.0
90	0x00000000	0.0
91	0xb78444e9	-1.5767715e-05
92	0xb8e45782	-0.00010888187
93	0x00000000	0.0
94	0x38e27862	0.00010798943
95	0xb8e4cc8c	-0.00010909987

exp_avg_sq f4 [96]
0	0x3493e2b5	2.7545835e-07
1	0x33f2dfe6	1.130973e-07
2	0x2f02175f	1.1831734e-10
3	0x33631d8a	5.287942e-08
4	0x33b5d3f7	8.4670255e-08
5	0x3405d8ad	1.2465416e-07
6	0x33f69d9a	1.1483935e-07
7	0x00000000	0.0
8	0x341bef38	1.4522527e-07
9	0x32c02083	2.2366526e-08
10	0x344c562c	1.903033e-07
11	0x00000000	0.0
12	0x345b0b36	2.0400043e-07
13	0x33dcf725	1.0289504e-07
14	0x341cfcd6	1.4620613e-07
15	0x34836ba3	2.4478967e-07
16	0x34942c93	2.759958e-07
17	0x3445d873	1.8425798e-07
18	0x358418cb	9.841982e-07
19	0x3584d045	9.895381e-07
20	0x00000000	0.0
21	0x355fbbea	8.3347425e-07
22	0x34f961cb	4.6451018e-07
23	0x354325f0	7.2698367e-07
24	0x3304b4c9	3.0898068e-08
25	0x3569f82a	8.716039e-07
26	0x348085be	2.3939168e-07
27	0x342ec80b	1.6277788e-07
28	0x33820349	6.054194e-08
29	0x00000000	0.0
30	0x355805d9	8.047478e-07
31	0x3505bf66	4.982488e-07
32	0x356a1684	8.720456e-07
33	0x00000000	0.0
34	0x3144f749	2.866232e-09
35	0x00000000	0.0
36	0x355db226	8.2588156e-07
37	0x342fb38f	1.6363468e-07
38	0x35d6a8e8	1.5993401e-06
39	0x31987f31	4.438242e-09
40	0x34a3e806	3.0529935e-07
41	0x00000000	0.0
42	0x00000000	0.0
43	0x00000000	0.0
44	0x33cefca2	9.638576e-08
45	0x00000000	0.0
46	0x3482aa9c	2.4338522e-07
47	0x357cffcb	9.4249543e-07
48	0x00000000	0.0
49	0x00000000	0.0
50	0x348e51fb	2.650921e-07
51	0x33ec0290	1.09900725e-07
52	0x00000000	0.0
53	0x31e8fd3c	6.780878e-09
54	0x343832b2	1.7154778e-07
55	0x00000000	0.0
56	0x00000000	0.0
57	0x3480fc53	2.4025448e-07
58	0x00000000	0.0
59	0x3269cd31	1.360904e-08
60	0x351ec785	5.9149926e-07
61	0x00000000	0.0
62	0x35048ae5	4.937595e-07
63	0x00000000	0.0
64	0x332e7ba8	4.0624997e-08
65	0x33a95ff7	7.887132e-08
66	0x35a62ac5	1.2380411e-06
67	0x00000000	0.0
68	0x3395b428	6.9711234e-08
69	0x00000000	0.0
70	0x00000000	0.0
71	0x00000000	0.0
72	0x353bf870	7.002445e-07
73	0x359e901f	1.1813862e-06
74	0x348761c4	2.5216843e-07
75	0x00000000	0.0
76	0x00000000	0.0
77	0x00000000	0.0
78	0x00000000	0.0
79	0x342b0682	1.5927984e-07
80	0x00000000	0.0
81	0x34ea8d0d	4.3688524e-07
82	0x00000000	0.0
83	0x340d815b	1.3178708e-07
84	0x00000000	0.0
85	0x352e1442	6.484953e-07
86	0x320978f8	8.001955e-09
87	0x3515eb64	5.5849364e-07
88	0x33155783	3.4771357e-08
89	0x00000000	0.0
90	0x00000000	0.0
91	0x311c6b03	2.2761817e-09
92	0x350ab55f	5.1672936e-07
93	0x00000000	0.0
94	0x3599be04	1.145469e-06
95	0x32e87484	2.706134e-08

exp_avg f4 [48, 96]
0	0x3a331ee6	0.00068329123
1	0x3b4bffde	0.003112785
2	0xb248da72	-1.1691201e-08
3	0x39225db5	0.00015484433
4	0x38a2883f	7.75014e-05
5	0x3aba8184	0.0014229272
6	0x3ba6b132	0.0050870413
7	0x00000000	0.0
8	0x3b4515c3	0.0030072785
9	0x38e98137	0.00011134374
10	0x3b91cb8e	0.0044493144
11	0x00000000	0.0
12	0x3aac83eb	0.0013161873
13	0x3b264252	0.002536912
14	0xb492f51d	-2.7372963e-07
15	0x3bafe946	0.0053683845
16	0x3baa587e	0.0051985374
17	0x00000000	0.0
18	0x3aa76530	0.0012771245
19	0x3b3353e7	0.0027363242
20	0x00000000	0.0
21	0x3af60e90	0.001877265
22	0x3a6f57e8	0.00091302255
23	0x3b9b5c59	0.0047412333
24	0x3884cdbe	6.332573e-05
25	0x3b59d182	0.0033236449
26	0xb95fdafa	-0.00021348512
27	0x3ad97262	0.0016589875
28	0x3b848911	0.00404466
29	0x00000000	0.0
30	0xb3bc4737	-8.767386e-08
31	0x3b351e24	0.0027636373
32	0x3ad06d2b	0.0015901675
33	0x00000000	0.0
34	0x38b7df17	8.767674e-05
35	0x00000000	0.0
36	0x3a4d73ca	0.00078373833
37	0x33942571	6.8985976e-08
38	0x3b19f969	0.0023494607
39	0x380ee993	3.407297e-05
40	0x3bc040bc	0.005867092
41	0x00000000	0.0
42	0x00000000	0.0
43	0x00000000	0.0
44	0xba3e5c2e	-0.00072616606
45	0x00000000	0.0
46	0x3b11a733	0.0022224903
47	0x3b34adec	0.0027569486
48	0x00000000	0.0
49	0x00000000	0.0
50	0x3bad5f50	0.005290903
51	0x00000000	0.0
52	0x00000000	0.0
53	0x37411cba	1.1510385e-05
54	0x3bb326ed	0.005467287
55	0x00000000	0.0
56	0x00000000	0.0
57	0x3a3b9238	0.0007155272
58	0x00000000	0.0
59	0x35806744	9.566797e-07
60	0x3af533ef	0.0018707494
61	0x00000000	0.0
62	0xba50c1b5	-0.0007963435
63	0x00000000	0.0
64	0xb951d504	-0.00020011148
65	0xb9ad1902	-0.00033015764
66	0x3b0c49a5	0.00214062
67	0x00000000	0.0
68	0x3b1bdd08	0.0023782868
69	0x00000000	0.0
70	0x00000000	0.0
71	0x00000000	0.0
72	0x3bea4860	0.007149741
73	0x3bd79851	0.006579437
74	0x3b361721	0.0027784782
75	0x00000000	0.0
76	0x00000000	0.0
77	0x00000000	0.0
78	0x00000000	0.0
79	0x3b81032e	0.0039371466
80	0x00000000	0.0
81	0x3b02ee37	0.0019978413
82	0x00000000	0.0
83	0x3a3b5ec9	0.0007147608
84	0x00000000	0.0
85	0x3b372cea	0.0027950355
86	0x385dbf59	5.2868712e-05
87	0x3a377e56	0.00069997215
88	0x37ff51e4	3.0436502e-05
89	0x00000000	0.0
90	0x00000000	0.0
91	0x38b29bd2	8.516725e-05
92	0x3b66fe8e	0.0035246941
93	0x00000000	0.0
94	0x3ada498f	0.0016654002
95	0x37d70eac	2.563683e-05
96	0x392bfcd0	0.00016402011
97	0x39819bc6	0.00024720858
98	0x00000000	0.0
99	0x38ae5cd7	8.314259e-05
100	0x389a137c	7.3469215e-05
101	0x3833d1e5	4.2872405e-05
102	0x399f80c0	0.0003042277
103	0x00000000	0.0
104	0x3967e25a	0.00022114199
105	0x00000000	0.0
106	0x39bb6dda	0.00035749265
107	0x00000000	0.0
108	0x38523f2a	5.0126728e-05
109	0x3932de31	0.00017058176
110	0x378e14be	1.6937378e-05
111	0x39a6e3ca	0.00031831703
112	0x3999e6a4	0.00029354275
113	0x37803c2d	1.528681e-05
114	0x38490370	4.7925336e-05
115	0x397f2229	0.0002433142
116	0x00000000	0.0
117	0x38f07de9	0.000114675444
118	0x952bc9c8	-3.4692352e-26
119	0x39824227	0.0002484482
120	0x00000000	0.0
121	0x394986fe	0.00019219142
122	0x00000004	6e-45
123	0x37e8ac3e	2.7736762e-05
124	0x395fc21a	0.00021339246
125	0x00000000	0.0
126	0x38900734	6.867797e-05
127	0x3903879c	0.00012543652
128	0x38340501	4.2920004e-05
129	0x00000000	0.0
130	0x00000000	0.0
131	0x00000000	0.0
132	0x38ba2334	8.875728e-05
133	0x38813917	6.161833e-05
134	0x38ea9520	0.00011185766
135	0x00000000	0.0
136	0x39b1e26d	0.0003392877
137	0x00000000	0.0
138	0x00000000	0.0
139	0x00000000	0.0
140	0x00000000	0.0
141	0x00000000	0.0
142	0x38527a95	5.0182065e-05
143	0x3924d74b	0.00015720462
144	0x00000000	0.0
145	0x00000000	0.0
146	0x398223de	0.00024822255
147	0x38291097	4.030819e-05
148	0x00000000	0.0
149	0x00000000	0.0
150	0x39bd0ccd	0.00036058426
151	0x00000000	0.0
152	0x00000000	0.0
153	0x390a2eb0	0.00013178098
154	0x00000000	0.0
155	0x1888ee89	3.5396035e-24
156	0x3938f877	0.00017640168
157	0x00000000	0.0
158	0x15a5cb0f	6.696334e-26
159	0x00000000	0.0
160	0x00000000	0.0
161	0x00000000	0.0
162	0x38d1b4af	9.9995515e-05
163	0x00000000	0.0
164	0x3907629a	0.00012911335
165	0x00000000	0.0
166	0x00000000	0.0
167	0x00000000	0.0
168	0x39d59385	0.00040736436
169	0x39c152f6	0.0003687364
170	0x393d5121	0.00018054667
171	0x00000000	0.0
172	0x00000000	0.0
173	0x00000000	0.0
174	0x00000000	0.0
175	0x3936e5d6	0.00017442493
176	0x00000000	0.0
177	0x38d0b75c	9.952366e-05
178	0x00000000	0.0
179	0x391c311c	0.00014895614
180	0x00000000	0.0
181	0x38ea487e	0.00011171492
182	0x00000000	0.0
183	0x00000004	6e-45
184	0x00000000	0.0
185	0x00000000	0.0
186	0x00000000	0.0
187	0x00000000	0.0
188	0x39448a4a	0.00018743533
189	0x00000000	0.0
190	0x3929443e	0.00016142518
191	0x00000000	0.0
192	0x3981dd9c	0.0002476991
193	0xbb9cc6e5	-0.0047844523
194	0x35a24331	1.2089496e-06
195	0xb9aa5643	-0.00032489197
196	0x39abb4f6	0.00032750488
197	0xbb7bd96f	-0.003842916
198	0xbc188229	-0.009308376
199	0x00000000	0.0
200	0xbbaf8f1a	-0.005357635
201	0x388aa851	6.611704e-05
202	0xbbe8994c	-0.0070983525
203	0x00000000	0.0
204	0xbb54fc63	-0.0032499067
205	0xbb81e41e	-0.0039639613
206	0x39f69970	0.00047035096
207	0xbc22cb4f	-0.009936168
208	0xbc229f7d	-0.00992572
209	0x39b880e2	0.0003519124
210	0xbb03cc72	-0.0020110873
211	0xbb927d77	-0.004470523
212	0x00000000	0.0
213	0xbb55f3ed	-0.0032646612
214	0xbb1450ac	-0.0022631092
215	0xbc11adcf	-0.008891537
216	0x3818941c	3.637756e-05
217	0xbbc993c3	-0.006151648
218	0x3a692322	0.000889348
219	0xbb84a00a	-0.0040473985
220	0xbbf72a40	-0.0075428784
221	0x00000000	0.0
222	0x3adc8c2a	0.001682644
223	0xbbad85a0	-0.0052954704
224	0xbb7a992e	-0.0038238275
225	0x00000000	0.0
226	0x385fa100	5.3317286e-05
227	0x00000000	0.0
228	0xb9e4ba39	-0.00043626296
229	0x3a005548	0.00048955204
230	0xbba056d8	-0.004893165
231	0x37f203ab	2.8850356e-05
232	0xbc37376a	-0.011182645
233	0x00000000	0.0
234	0x00000000	0.0
235	0x00000000	0.0
236	0x3ac3ced9	0.0014938965
237	0x00000000	0.0
238	0xbbbc34ed	-0.005743614
239	0xbbad68d9	-0.00529204
240	0x00000000	0.0
241	0x00000000	0.0
242	0xbc2eaa10	-0.010660663
243	0x39fb58a6	0.000479405
244	0x00000000	0.0
245	0x374132a3	1.1515486e-05
246	0xbc1e92d9	-0.009678566
247	0x00000000	0.0
248	0x00000000	0.0
249	0xba9cb7d7	-0.0011956644
250	0x00000000	0.0
251	0x38104103	3.4392822e-05
252	0xbb14edc6	-0.0022724732
253	0x00000000	0.0
254	0x3aee0c06	0.0018161542
255	0x00000000	0.0
