Secondary_Models/Mdl_Medium_Network_Stp0.1_lr1e-05_v1.6.pt (torch_old, 27045 bytes, 8 tensors)

fc1.weight f4 [96, 3]
000000 e4 4e 06 3f 00 ed 96 bb bf 55 f1 be 20 ae 9b bd
       0.5246413 -0.0046058893 -0.47135732 -0.07601571
000010 d2 c7 b3 3e a0 0a 44 3d f6 77 0d 3f 20 38 e1 3e
       0.35113388 0.047861695 0.5526117 0.43988132
000020 2e ac f4 be ec bc d6 3e 28 25 e7 3d 02 98 c1 be
       -0.47787613 0.4194101 0.11286384 -0.37811285
000030 00 4e d4 3b e8 ca 81 3e cc 90 07 3f 06 10 07 bf
       0.006479025 0.25350118 0.5295532 -0.52758825
000040 bb d6 8e be 5a b0 0d bf d0 12 5d 3e f5 a7 db be
       -0.278982 -0.55347216 0.21589208 -0.4290158
000050 e8 08 cb 3d c1 12 d5 be 50 9e f7 3d a0 cc 9c 3e
       0.09913808 -0.4161587 0.120907426 0.30624866
000060 98 e6 ba 3d 30 23 0c 3f 68 05 f4 3e ac 3f bc be
       0.091260135 0.5474119 0.47660375 -0.36767328
000070 90 97 b5 3d 5e 4a 92 be 70 47 66 bd 4c f1 7f be
       0.08866799 -0.28572363 -0.05622047 -0.24994391
000080 a8 73 f9 3e 10 6c b8 bd f8 25 f9 3d 6a 7f b4 be
       0.4872105 -0.09004986 0.12165445 -0.3525346
000090 ba e0 41 be 10 d9 dd 3e b8 ac 82 bd 28 2c a5 3e
       -0.18933383 0.43329668 -0.063806 0.3226025
0000a0 8a 37 05 bf 38 9e f0 be b8 c1 01 bf 82 b3 1e be
       -0.5203787 -0.4699571 -0.50686216 -0.15498164
0000b0 e6 79 d4 be a4 9b d7 be 3b b5 01 bf a4 dc f7 bd
       -0.4149925 -0.42110932 -0.5066716 -0.12102631
0000c0 a2 23 0b bf 08 34 4e 3e 85 9a d3 be 30 7d ec 3e
       -0.54351246 0.20137036 -0.41328827 0.4618926
0000d0 b2 4b bb 3e 80 b0 dd 3c 38 48 a6 3d 20 f9 1f 3e
       0.36581188 0.0270617 0.081192434 0.15622377
0000e0 40 6b 0b bf bc d1 85 3e f4 4e 66 be 24 40 f7 bd
       -0.54460526 0.26136577 -0.22491056 -0.12072781
0000f0 00 4c 73 3a 77 57 b9 be 48 21 ee 3e 60 df da bd
       0.0009281039 -0.36199543 0.46509767 -0.10687137
000100 fc 04 cd be dc a6 57 3e 37 7e 8a be 40 06 08 bc
       -0.40042865 0.21059746 -0.2704942 -0.008302271
000110 0e 51 09 3f f0 02 77 3d b8 f5 bb 3d 28 45 ef 3e
       0.53639305 0.060305536 0.091777265 0.4673245
000120 50 3e 0b 3e 02 0d ad 3e 4c 07 4d 3e 0e 06 b5 be
       0.13597989 0.33798987 0.20022315 -0.35356182
000130 39 d5 06 bf fe 74 d6 3e 9c 6b 00 3f 40 3d 0f be
       -0.526691 0.41886133 0.501642 -0.13988209
000140 96 13 74 be 52 fb 0e be 70 a0 8c bd c0 9f 81 3e
       -0.23835596 -0.13963059 -0.068665385 0.25317192
000150 60 81 c7 bd 23 7e 0a bf 00 57 4b bc a0 38 60 3e
       -0.09741473 -0.5409872 -0.012410879 0.218966
000160 9a 99 0f bf 20 72 cb 3e 00 bb 90 3c 74 48 57 3e
       -0.5609375 0.39735508 0.017667294 0.21023732
000170 b8 b1 9d be 7e 13 10 bf 68 3d eb 3e 6f bb e6 be
       -0.3079965 -0.5627974 0.45945287 -0.45064875
000180 f0 44 11 3e 20 65 0e 3f 20 c6 7c 3d 3d 19 ed be
       0.14186454 0.55623055 0.061712384 -0.46308318
000190 cc 27 fc 3e 4e 4b c7 be 22 c0 9b be 80 6d 5e 3c
       0.49249113 -0.3892464 -0.30420023 0.0135759115
0001a0 62 42 9d 3e 00 e3 b8 bc 39 a9 92 be 1b 4b 12 bf
       0.3071471 -0.02256918 -0.28644732 -0.5714585
0001b0 e6 d0 a9 be c0 5d 3b 3d 98 bc 89 3e 40 2d 28 3e
       -0.3316719 0.045743704 0.26901698 0.16423512
0001c0 b4 15 14 3e b1 57 f9 be 6e c4 10 bf 3f 93 86 be
       0.14461404 -0.48699716 -0.5654973 -0.26284215
0001d0 89 8c dd be 6e 71 ee be 42 f6 bc 3e 80 97 2b 3e
       -0.43271282 -0.46570915 0.3690663 0.16757011
0001e0 00 37 be 3c d2 a2 c8 be 5c 5c b5 be a8 b4 62 3e
       0.023219585 -0.39186722 -0.35422027 0.22139227
0001f0 70 6f 35 3d 77 94 90 be 10 1f d9 bd fa 20 99 3e
       0.04429573 -0.2823827 -0.10601628 0.29907972
000200 1c 8b 0f bf b4 79 07 3e a8 2a 37 3e a0 fc 02 3e
       -0.5607164 0.1323002 0.17887366 0.12791681
000210 e8 a9 9f bd 7c 6b 11 3e a0 f9 89 3d d0 37 08 bd
       -0.07796079 0.14201158 0.06737065 -0.033256352
000220 9e 52 80 be 3c ba 50 3e bc a4 c7 bd 98 c6 a1 3e
       -0.25063032 0.20383543 -0.097482175 0.31596828
000230 8a 7e 3d be f8 c3 5a be 98 c2 5a 3e 4c 2d b4 be
       -0.18505302 -0.21363819 0.21363294 -0.3519081
000240 8c 04 0e 3f 86 8a cc 3e d8 12 92 bd 80 c2 87 3e
       0.5547569 0.39949435 -0.071325004 0.2651558
000250 fc 25 b1 3e b4 bf fd 3e 10 fc fd 3e 72 d3 57 be
       0.34599292 0.4956032 0.4960637 -0.21076754
000260 40 ea 80 bd 2a fb d2 3e 4a 64 8c 3e 80 5f 5f 3d
       -0.0629468 0.41207248 0.27420264 0.054534435
000270 6a f2 ff be 58 11 10 3f 9a f4 02 be fc 2c 9a 3e
       -0.49989635 0.56276464 -0.1278862 0.30112445
000280 6c 78 f3 3e 80 51 7d be 5c f2 09 bf 1a 3c b8 be
       0.47552812 -0.24738121 -0.53885436 -0.35983354
000290 66 bc a9 3e c0 76 8b 3d 06 0f b7 3e 40 38 b8 3e
       0.3315155 0.06809759 0.3575365 0.35980415
0002a0 d8 f4 59 3e c8 a9 99 bd 50 92 46 3e 3d 9c 00 bf
       0.21284807 -0.07503086 0.19391751 -0.502384
0002b0 00 c0 6b bd b0 fd 04 3f f8 21 85 be 40 c4 80 bc
       -0.057556152 0.51949596 -0.2600248 -0.01571858
0002c0 10 2d da 3e 40 57 ca 3e 62 16 89 3e 58 ce ec be
       0.42612505 0.3951969 0.2677489 -0.46251178
0002d0 2c fe ca bd ac 29 2e 3e f0 88 36 3e e0 1e 45 3d
       -0.09911761 0.17008084 0.17825675 0.048125148
0002e0 f9 f9 f9 be ea 25 0e be ea b8 c6 3e dc ef a8 bd
       -0.48823527 -0.1388165 0.38812953 -0.082488745
0002f0 12 db e3 be 08 99 9d 3d 79 fd 97 be 60 4b 7e 3d
       -0.44503075 0.07695204 -0.29685572 0.062083602
000300 30 6b 6a 3d 1a 0e 82 be 1a 9e 78 be 51 4b bd be
       0.05723113 -0.25401384 -0.24279061 -0.36971524
000310 e4 07 e1 3e 8a 35 0c be 20 a2 da 3e c9 18 dc be
       0.43951333 -0.13692299 0.42701817 -0.4298766
000320 c7 f5 12 bf d2 5b e0 be 48 36 13 bf 8a e7 06 3f
       -0.57406276 -0.43820053 -0.575047 0.5269705
000330 50 9e c3 be 5e f9 97 3e b8 ef 0b be 90 58 ae bd
       -0.3820672 0.2968244 -0.13665664 -0.08512986
000340 7a 78 f0 be a8 eb e5 3e 3c d5 f6 3e 88 c8 0b be
       -0.46966916 0.44906354 0.4820956 -0.13650715
000350 a2 f9 8a be 44 0d 0d 3f 08 e7 b8 3d e0 ac 20 3e
       -0.2714358 0.55098367 0.09028441 0.15690947
000360 c2 0b 5a be 08 ea d6 be a0 d3 e7 3e 54 c9 d8 3e
       -0.21293548 -0.41975427 0.45278645 0.423411
000370 54 6b e0 bd b5 c0 87 be 14 e2 f9 3e e4 32 28 be
       -0.10957971 -0.2651421 0.48805296 -0.16425663
000380 10 9c e2 3e e1 40 80 be a6 f3 20 be 56 c0 b8 be
       0.4425969 -0.250495 -0.15717945 -0.3608424
000390 c9 da 07 bf ea 79 0c 3f 5a ba 46 be dc 21 d3 3e
       -0.53068215 0.54873526 -0.19407025 0.4123677
0003a0 a0 e6 d6 3d c2 46 06 bf da ad 60 be 44 3a 34 3e
       0.10493207 -0.5245172 -0.21941319 0.17600352
0003b0 ce cb 0c 3f 16 40 d5 be 95 a4 98 be 81 83 82 be
       0.5499848 -0.41650456 -0.29813066 -0.25490955
0003c0 a8 7c 51 be c0 01 8e 3c ec 33 2e be e0 6a e3 3e
       -0.20457709 0.017334819 -0.17011994 0.44417477
0003d0 22 93 8e 3e f0 34 4b 3e ce 21 cc 3e 72 62 06 3f
       0.27846628 0.19844413 0.3986954 0.52493966
0003e0 d0 1e d1 3d 60 44 ab 3d a0 ee 32 3e 4d e7 0d bf
       0.10210955 0.08362651 0.1747384 -0.5543106
0003f0 0c c1 54 3e 74 91 bd 3e 7e de bd 3e 5c ae d2 3e
       0.20776767 0.37025034 0.3708381 0.4114865

fc1.bias f4 [96]
000000 74 57 92 3e 28 5c df be a8 2f 92 3d 7c 45 db be
       0.28582346 -0.43624997 0.07137996 -0.4282645
000010 80 34 13 bd 1a e8 89 be c0 78 ce bc fa 02 08 bf
       -0.03593874 -0.26934892 -0.025204062 -0.5312954
000020 f6 a9 05 3f 64 39 c5 3e 7f 4b 87 be 3c 98 a1 bd
       0.52212465 0.38520348 -0.26424786 -0.078903645
000030 2c 9b 50 3e f0 1b 71 bd 1c cd 9e 3e 14 08 f9 3e
       0.20371693 -0.058864534 0.3101586 0.48638976
000040 ac 7e 29 be 80 0a 27 3e 8a 93 40 be d8 04 87 3e
       -0.16552228 0.16312599 -0.18806282 0.26370883
000050 08 a3 03 bf c4 4f d6 be 63 39 90 be a8 a2 83 3e
       -0.5142064 -0.4185773 -0.28168783 0.25710034
000060 54 60 f4 3e 40 1c 1d 3c d0 c3 b8 3d aa 36 02 3f
       0.47729743 0.009589255 0.09021723 0.5086466
000070 79 fa 08 bf a8 f1 94 be 27 88 ec be f6 e4 ba be
       -0.5350719 -0.2909062 -0.46197626 -0.36502808
000080 20 b8 94 3c 54 34 9e 3e 1a af 0d bf 40 f0 af 3c
       0.018154204 0.30899298 -0.5534531 0.021476865
000090 6b 02 05 bf 94 28 be 3e 42 b1 8e be ec ac 9a 3e
       -0.51956815 0.37140334 -0.27869612 0.30210054
0000a0 80 c3 ea 3e a0 90 3f 3d b0 58 0f 3f 9e 25 4e be
       0.4585228 0.046768785 0.559947 -0.20131537
0000b0 ef 40 a3 be be 47 00 3f 5a de d4 3e b8 f2 c6 be
       -0.31885478 0.5010947 0.4157589 -0.38857055
0000c0 b8 f2 07 bf 30 7f 3a 3d ba ad c6 3e 81 34 fd be
       -0.53104734 0.04553145 0.38804418 -0.4945412
0000d0 51 57 8d be 60 c2 9b 3c 6a 67 05 bf e8 d6 62 3e
       -0.2760568 0.019013584 -0.5211092 0.22152293
0000e0 70 ae c6 3d 52 9a 07 bf b0 f9 de 3e 84 db 18 3e
       0.0970124 -0.5296985 0.4354987 0.14927489
0000f0 0e da 01 bf d2 bf 91 be 0b ad be be 74 92 d5 bd
       -0.5072335 -0.2846666 -0.37241396 -0.10428324
000100 60 7f fd 3c 6e 74 c3 3e 7a 98 07 bf 74 af a8 be
       0.030944526 0.38174766 -0.52967036 -0.3294636
000110 f8 1d e4 3d 18 1a 10 3f e0 92 2f bd 0b e8 da be
       0.111385286 0.56289816 -0.04286468 -0.4275516
000120 08 07 3a 3e a0 4b 02 3f 26 ca 02 be 78 fa e2 3e
       0.18166745 0.50896645 -0.12772426 0.44331717
000130 ce e9 16 be e1 fb 8b be 80 40 4e 3e 4a e4 f2 be
       -0.14737627 -0.27340606 0.20141792 -0.47439796
000140 2a d1 99 be 44 d6 f5 be ae 76 8c 3e 5a 53 d4 be
       -0.30042392 -0.48015034 0.27434295 -0.41469842
000150 c1 bf bf be 88 cb db 3e 6e 4a bc be 84 a1 56 3e
       -0.37450984 0.4292872 -0.36775535 0.20960051
000160 7c b4 e5 be 60 6b 04 3f e2 7d 81 3e f4 2d f0 3e
       -0.4486426 0.5172634 0.25291353 0.4691006
000170 28 90 01 3f fb 9e cd be 48 75 6f be 7c 64 0c be
       0.5061059 -0.40160355 -0.23384583 -0.13710207

fc2.weight f4 [48, 96]
000000 6e 23 5b bd 84 1a 05 3d a8 38 c2 bc a8 b8 d4 3c
       -0.053500585 0.03249599 -0.023708656 0.025966957
000010 d0 d3 1e bd dc 02 1c 3d 80 65 97 bd 94 1e 68 3d
       -0.03877622 0.038088664 -0.073924065 0.056669787
000020 fd 8a 92 bd 3d 4b 22 bd 14 39 e3 bc fa d8 a9 3d
       -0.07155416 -0.039622534 -0.027737178 0.08293338
000030 80 52 78 3d 20 72 a8 bb 69 04 34 bd c4 f6 6b 3d
       0.060625553 -0.005140558 -0.04394952 0.05760838
000040 2c 59 a8 3c a4 e2 b2 bd 80 fc bf 3d 2c b6 95 3c
       0.020550333 -0.087346345 0.093743324 0.018275343
000050 1a 49 9a 3d 40 29 c4 3c 30 45 89 3b 4c 79 95 bc
       0.07533474 0.02394545 0.004189156 -0.018246315
000060 dc 17 a1 3d 90 ee e3 3c 62 35 a6 3d 78 17 74 bc
       0.07865879 0.027823716 0.08115651 -0.0148981735
000070 8b 77 a8 bd 96 49 88 3d a0 16 0c bb 50 45 fd bb
       -0.08225926 0.066546604 -0.002137579 -0.00772921
000080 34 37 13 bd 14 59 78 3d 84 02 c5 3d 92 ba a7 3d
       -0.035941318 0.060631827 0.096196204 0.08189882
000090 f8 ee 86 bd e0 79 3d 3d 5b fa bc bd 48 c7 c5 3d
       -0.065885484 0.046258807 -0.09227439 0.096571505
0000a0 69 94 64 bd 90 38 84 bc 10 79 e9 3c 78 35 5c 3d
       -0.055805597 -0.016140252 0.02850011 0.05376193
0000b0 a0 c9 6e 3c 20 b4 3b 3d 1c 0f aa bc a6 4a cf bd
       0.014574438 0.045826077 -0.020759158 -0.1012166
0000c0 13 7d ac bd 40 9b 58 3d d4 3a 4e 3d e4 40 9c 3c
       -0.084222935 0.052882433 0.05034907 0.019073911
0000d0 4e fd 90 3d 41 55 c2 bd ed e6 a5 bd a0 c6 7f bc
       0.07079564 -0.09488917 -0.08100686 -0.015611321
0000e0 83 cb 9d bd 3c 92 c5 bc 02 91 9d bd 04 df a2 3c
       -0.077048324 -0.024117582 -0.07693674 0.019881733
0000f0 64 73 ba 3c a8 a8 a6 3d b1 93 94 bd 00 a4 35 3c
       0.0227601 0.081376374 -0.072547324 0.011086464
000100 08 1f 09 3c 3c 1f 0a 3d 88 be 22 3d de d7 90 bd
       0.008369215 0.033721194 0.039732486 -0.070724234
000110 a0 6e cc bc 40 19 2d 3b e8 4e 13 bd ec b6 86 3d
       -0.024955094 0.0026412755 -0.035963923 0.06577858
000120 74 e5 a6 3c e0 6a ea 3b b8 73 14 3d ec d1 70 3d
       0.020373084 0.007153854 0.03624317 0.058793947
000130 b8 81 16 bd 58 19 85 bd dc 0a 46 3d 9d ac 32 bd
       -0.036744803 -0.064989746 0.0483502 -0.043621648
000140 80 7f 78 bb 44 5e b7 3d e0 7c 22 3d c8 97 28 bd
       -0.0037917793 0.089535266 0.03966987 -0.041160375
000150 44 a5 e2 bc 94 72 cd bc f2 60 b8 3d 0a 5c bd 3d
       -0.027666695 -0.02507905 0.09002866 0.09246071
000160 1c 1e c7 3d a4 36 ad 3d 20 d1 20 bd 60 e3 d8 bb
       0.0972254 0.084576875 -0.039261937 -0.006618902
000170 80 de d6 3a d0 18 86 3c 10 0c 95 bc a0 37 e0 3c
       0.0016393214 0.016369253 -0.018194228 0.027370274
000180 80 a0 c8 3b 98 02 d0 3c 4a 28 8d 3d c8 2d 87 3d
       0.0061226487 0.025391862 0.0689245 0.06600529
000190 08 76 89 3c 74 af b4 3d 80 2d a2 bc 30 5a a3 3d
       0.016779914 0.088225275 -0.019797087 0.07976186
0001a0 a0 e7 36 3b d5 94 97 bd 80 57 cc bb 72 0a 84 3d
       0.0027909055 -0.07401434 -0.0062360168 0.06447305
0001b0 48 c7 a8 3d 00 95 19 ba 30 ed 09 3d 80 6c c6 3c
       0.08241135 -0.00058586895 0.033673465 0.024221659
0001c0 d0 fd d2 3c 98 4f 80 bd 08 6a c0 3c 0d d7 79 bd
       0.025755793 -0.06265181 0.02348806 -0.060996104
0001d0 50 76 c0 3c 60 f5 3c 3d e4 db 82 bc 20 b9 fd bc
       0.023493916 0.046132445 -0.015973993 -0.030972064
0001e0 34 1f 65 bd 44 73 ac bd fe b2 cc 3d c0 f7 2b 3d
       -0.05593796 -0.08420423 0.099950776 0.04198432
0001f0 ba 7b ab bd cc 57 ad 3d 61 ac 3d bd 90 81 80 3c
       -0.08373208 0.084640115 -0.04630697 0.01568678
000200 17 1f 4e bd c8 27 50 bc ae 25 84 3d 21 a2 aa bd
       -0.05032262 -0.012704797 0.06452499 -0.08331705
000210 b0 c5 d9 3c 7c c0 c9 3d e3 6d 9c bd 5a f9 99 3d
       0.026583523 0.098511666 -0.07638147 0.07518263
000220 3c c6 1a bd ca dc 8d bd 8c 25 99 3d 5e 11 91 3d
       -0.037786707 -0.06926878 0.074778646 0.07083391
000230 2c df 8b bd 40 9a 59 bc 50 63 de 3c 96 af 83 3d
       -0.06829676 -0.013281405 0.027146965 0.06429975
000240 4c 10 95 bd 35 7d 75 bd b0 1e c5 bc 8c f8 64 bd
       -0.07278499 -0.05993386 -0.024062485 -0.055901095
000250 7e cc 84 3d 5c 06 9e 3d f8 62 8a bc b1 45 c8 bd
       0.06484316 0.07716057 -0.016892895 -0.097789176
000260 70 ae 52 bc a8 a8 91 bc d0 b9 2f 3c 5c dd bb 3c
       -0.012858972 -0.017780617 0.0107254535 0.0229327
000270 62 31 be bd 7c 48 7b 3d 58 1f 9a 3c 70 b2 2f bc
       -0.09286763 0.061348423 0.018813774 -0.010723695
000280 2c c9 02 bd 08 78 b2 3c 60 fb ef 3c a5 2e 44 bd
       -0.031930134 0.021785751 0.02929467 -0.047896046
000290 c9 d0 70 bd af 89 94 bd d4 ff b2 3d 2c e6 a5 bc
       -0.058792863 -0.072528236 0.087402016 -0.020251356
0002a0 0c 1a 9a 3c 0c 3b 9a bc 54 1d bc bd 28 4c 37 3d
       0.018811248 -0.018826984 -0.091852814 0.044750363
0002b0 0e a9 82 bd c8 2f 44 3c a0 6c 7a 3b 00 37 7b 3b
       -0.06379901 0.011974283 0.0038211718 0.0038332343
0002c0 cc 3e 68 bd 9a 84 4a bd bf 51 a8 bd bc 7c bb 3c
       -0.056700513 -0.049442865 -0.08218717 0.022886626
0002d0 04 cd c1 bc 98 05 5b 3d bc 58 f1 bc bd c5 be bd
       -0.02365733 0.05347213 -0.029461257 -0.09315059
0002e0 29 24 9c bd 9e a6 89 3d 08 fa 5d bc 69 fe 6b bd
       -0.076240845 0.06721233 -0.013548382 -0.05761567
0002f0 8c 92 a3 3d ee 2b 8a 3d 38 db c3 bc a8 e2 38 3d
       0.07986936 0.0674666 -0.023908243 0.04513803
000300 ee c1 8b 3d 3e 28 a0 bd 20 34 f1 3c 70 d0 c6 3d
       0.068240985 -0.078201756 0.0294438 0.09707725
000310 ac d9 a0 3d b2 b9 bd bd 7c 84 1b 3d e8 36 ae bd
       0.078540176 -0.09263934 0.037968144 -0.08506566
000320 a8 cf db 3c 64 96 c0 3d de 68 ae 3d c2 3d 8e bd
       0.026832417 0.09403685 0.085160956 -0.06945373
000330 be b3 c4 3d 2e 2a 63 bd e4 b4 08 3d 6c 9b 98 bd
       0.096045956 -0.055460148 0.033375636 -0.07451519
000340 b2 f8 c8 bd 68 9f f3 3c 14 eb 19 3d 7f 70 c0 bd
       -0.0981306 0.029739097 0.037577704 -0.09396457
000350 0c 3a cb 3d c8 46 ee bc 88 64 d1 3c 58 24 cb 3d
       0.09923181 -0.029086486 0.025560632 0.099190414
000360 98 2d df 3c 70 0a 37 bc 34 32 02 3d 50 cf 09 3d
       0.02724342 -0.011171922 0.03178616 0.033644974
000370 e2 66 39 bd 2a cf 08 bd 2c ce b5 3c 0c ca b9 3d
       -0.045264132 -0.033400692 0.022193037 0.090717405
000380 86 8c 89 3d 00 48 22 b8 a8 b3 cc 3c 7c 01 63 bd
       0.06716256 -3.8690865e-05 0.02498801 -0.055421337
000390 e6 2f b5 3d 29 bc 7c bd 9c d6 9e bc 88 a2 d9 3c
       0.088470265 -0.06170288 -0.019389443 0.026566759
0003a0 c4 e8 98 bc 99 8a 8e bd d6 e2 87 3d 58 b7 57 bc
       -0.018665679 -0.06960029 0.066350624 -0.013166271
0003b0 14 51 0c 3d 64 03 0b bd 38 c5 c6 3d 48 6f 9f bd
       0.03425701 -0.03393878 0.09705585 -0.07784897
0003c0 26 42 21 bd 9b 2e 43 bd 30 6b f8 bc 64 1b 86 3d
       -0.039369725 -0.04765187 -0.030324548 0.06548193
0003d0 ee c9 16 bd de cf b0 3d 26 4f 04 bd 74 56 87 bc
       -0.03681367 0.086333975 -0.032302044 -0.016520716
0003e0 a4 6a 3a 3d ec fc 7f 3d 00 aa e7 bb 98 1d 65 bd
       0.045511857 0.062497064 -0.007069826 -0.055936426
0003f0 0c 1f a4 3c bf 93 bb bd 80 6f 09 3a c0 2a 82 3b
       0.020034336 -0.0915904 0.000524275 0.0039723814

fc2.bias f4 [48]
000000 cc 0b ca 3d 50 2b 67 bc 3c 85 83 bd 72 a0 1e bd
       0.09865531 -0.014109448 -0.06421897 -0.03872723
000010 68 0e 1c bc 29 7d b2 bd 34 5d 03 3d fc 35 7a 3d
       -0.009524919 -0.08715279 0.032071307 0.06108664
000020 dc 01 87 bd b9 61 cc bd 28 d9 03 bd b8 ef 31 3d
       -0.065921515 -0.099795766 -0.03218952 0.043441504
000030 b0 b7 cc 3c 5d 7e 8c bd a4 b7 54 bd 20 8e 8f 3d
       0.024989933 -0.068600394 -0.051932946 0.0700953
000040 00 7c b1 3c 54 ee 1f 3d 78 0d 17 3d 04 55 67 3d
       0.021665573 0.039045647 0.03687808 0.05647756
000050 e0 c0 89 bb fa e4 c9 3d d8 4d c4 3c 94 35 b1 bc
       -0.0042039007 0.09858127 0.0239629 -0.021631993
000060 1b bb c9 bd 08 58 70 3d 10 07 3b 3c a0 3d 47 3c
       -0.09850141 0.058677703 0.011415258 0.012160689
000070 c8 72 af bd bb e6 2f bd 70 aa 6e 3c 60 e9 6b bb
       -0.08566815 -0.04294465 0.014567003 -0.0035997257
000080 58 98 67 3d e0 9b 53 3d 4c 68 9f bc 52 06 86 3d
       0.05654177 0.051662326 -0.019458912 0.06544174
000090 80 5a 20 bc 7c 2a 7f 3d 38 7e 97 3c 33 ad b9 bd
       -0.009787202 0.062296376 0.018492803 -0.09066238
0000a0 63 21 a2 bd e9 d6 7e bd ca 07 9c 3d 46 32 b2 bd
       -0.07916524 -0.062216673 0.07618673 -0.08700995
0000b0 f0 01 b9 3b 3b 31 73 bd 20 43 1e 3b 38 e1 52 3c
       0.005645983 -0.05937312 0.0024148896 0.012871079

fc3.weight f4 [24, 48]
000000 04 60 f1 3d 19 a7 09 be 2c 91 d8 3d 90 af 0b 3e
       0.11785892 -0.13442649 0.10574564 0.1364119
000010 51 c7 83 bd 32 b5 2c bd f0 0f 3f bc 86 ca 4c bd
       -0.06434501 -0.04216499 -0.011661515 -0.04999783
000020 1a 61 fd bd 00 0b 78 3b 3c f0 d8 3d 74 a8 a9 3d
       -0.12372036 0.0037848353 0.10592696 0.08284083
000030 c0 f1 42 3b 84 45 c7 bc f0 eb 6e 3d 8c 26 27 bd
       0.0029746145 -0.02432514 0.058330476 -0.040808246
000040 ce 56 86 bd 84 ca f7 3d f5 8d b3 bd dc 40 09 be
       -0.065595254 0.12099174 -0.087673105 -0.13403648
000050 66 e6 bb bd 12 d7 01 3e b8 cc e3 3d 72 f2 05 3e
       -0.091748044 0.12679699 0.111230314 0.13080767
000060 c4 40 ca bc 70 52 94 3c 20 b8 d8 3d fc f0 cb 3d
       -0.024689086 0.018105716 0.10581994 0.099580735
000070 a0 f8 36 3d 0a 26 c8 3d e2 40 9c 3d 80 51 3e 3b
       0.0446707 0.097728804 0.07629563 0.0029040277
000080 20 26 aa bd 0a 54 b7 3d 84 ae f6 3d 40 89 fa 3c
       -0.08308053 0.08951576 0.12045005 0.030583024
000090 10 7e 36 bd 90 30 8d bd c0 8a 53 3d 1e c2 f3 bd
       -0.044553816 -0.06894028 0.051645994 -0.11902259
0000a0 84 4c 7d bd 20 67 2c bc 0c fc d7 bc f8 50 11 3d
       -0.06184055 -0.010522634 -0.026365303 0.03547761
0000b0 94 1d e9 3d 02 0b 48 bd 00 44 99 bd 02 6d d3 3d
       0.11382595 -0.048838623 -0.07483673 0.10323526
0000c0 28 f6 cf 3c 1c 52 b2 3d 4c 85 47 3d 50 1d fa 3d
       0.025385931 0.08707067 0.048711106 0.12212622
0000d0 e0 81 77 3c 78 99 e3 3d 3c 67 fe bc f0 15 a9 3c
       0.015106648 0.11113256 -0.031055085 0.020640343
0000e0 e1 64 0d be bc ca 05 3e e0 d9 2e 3d 80 33 42 bc
       -0.13808013 0.13065618 0.04268825 -0.011853099
0000f0 c0 8a a5 bb 66 cd c9 bd 70 2c e6 3d f4 c0 98 bd
       -0.0050519407 -0.0985363 0.112389445 -0.07458678
000100 c8 40 57 3d 8c 61 2e 3d 87 e8 09 be 5c de 38 bd
       0.052552015 0.042573497 -0.13467608 -0.045133933
000110 a0 55 84 bd 2c d0 a8 3d ec 45 e7 3d 28 a4 9f 3c
       -0.06461644 0.08242831 0.112926334 0.019487455
000120 7d 7b d4 bd b0 03 0c be c0 89 02 3e b2 62 ae 3d
       -0.10375116 -0.13673282 0.1274786 0.085149184
000130 e8 ab 0f be 91 13 fd bd f2 e3 81 3d 44 f8 20 bd
       -0.14030421 -0.123572476 0.06342305 -0.039299265
000140 d0 4e c4 3d 28 b4 9f bd 53 c4 bc bd 78 0b 85 bd
       0.09585345 -0.07798034 -0.092171334 -0.06496328
000150 09 87 0d be d0 eb e5 3d da 58 8c 3d 5c eb 03 3e
       -0.13821043 0.11226618 0.068528846 0.12882751
000160 22 bd 16 bd e4 ab fc 3d 96 85 b0 3d 10 85 78 bc
       -0.036801465 0.12337473 0.086192295 -0.015168443
000170 48 a5 e5 3c 56 99 8f 3d 70 60 e3 bd 5c e9 f6 bc
       0.028032914 0.070116684 -0.11102378 -0.030140571
000180 58 27 90 3d 94 6b dc bc e8 1a db 3d c6 73 76 bd
       0.07038754 -0.026906766 0.10698491 -0.060169004
000190 76 da 55 bd 82 0d d9 bd 64 cd 4f 3d 90 0a 40 bd
       -0.052210294 -0.105982795 0.050732985 -0.046885073
0001a0 04 aa 7b 3d 6d ff 90 bd 1f d2 f4 bd a0 07 c4 3d
       0.061441436 -0.070799686 -0.1195414 0.09571767
0001b0 22 ab e8 bd d8 d9 a4 3d 80 2f 11 bd 7d 21 8f bd
       -0.11360766 0.08049363 -0.03544569 -0.06988809
0001c0 be e2 68 bd 4c 2c ab bd 6c 87 c2 3d c0 47 05 3c
       -0.056856863 -0.08358058 0.09498486 0.008134782
0001d0 a2 bb 11 be ed f4 03 be 4c d7 06 3d 30 5d 07 3d
       -0.14231732 -0.128864 0.032920167 0.033047855
0001e0 d0 4b 91 3c fc 96 20 bd 0c 50 42 bd e0 e9 f1 3c
       0.017736346 -0.03920649 -0.04743962 0.029530466
0001f0 bc 59 ad bc 28 6b cf 3c ec a1 12 3e a0 a6 6c bd
       -0.021160953 0.02531965 0.14319581 -0.057776093
000200 b8 3f 09 3e 04 13 8e 3d 34 5a 2b bd c0 92 2e 3b
       0.13403213 0.06937221 -0.04183407 0.0026637763
000210 50 ab 0a 3d a4 6f 80 3d 89 d2 01 be fa 89 0c 3e
       0.033854783 0.06271294 -0.12677969 0.13724509
000220 ee 92 9e bd 74 32 d4 bd c0 61 4d bc fc bd 4e bd
       -0.07742868 -0.10361186 -0.012535512 -0.050474152
000230 d4 f3 f1 3d 82 31 cb bd 4c 2c 66 bd 28 5d 17 3d
       0.11814085 -0.09921552 -0.05619459 0.036954075
000240 8a ca 0e be ce ef 11 3e 24 8d ac 3d c0 84 67 bc
       -0.1394445 0.14251634 0.08425358 -0.014130771
000250 2e ed d2 3d 44 f3 7e bd 3c 2d 4a 3d a4 66 89 3d
       0.10299145 -0.062243715 0.049359545 0.0670903
000260 c6 79 35 bd 19 0b 05 be 60 dc db 3d 64 86 47 bd
       -0.044305585 -0.12992515 0.107353926 -0.04871215
000270 42 93 00 3e 50 a2 74 3c 92 e5 49 bd 08 f4 54 3d
       0.12556174 0.014931276 -0.0492912 0.05199054
000280 a4 1b 38 3d 78 d9 24 3d b8 a7 76 3d fe 9a 99 bd
       0.044948235 0.040246457 0.060218543 -0.075002655
000290 b7 18 a2 bd af aa ac bd 0c 40 c2 bc 98 7d aa bd
       -0.0791487 -0.08430993 -0.02371218 -0.08324736
0002a0 fa 4e dc bd 98 97 bb 3c b8 56 13 3d 58 1c 78 bd
       -0.10757251 0.022899434 0.035971373 -0.060573906
0002b0 7c be 0b 3d 40 c3 7a bd c6 0c b2 3d b8 90 57 3d
       0.034117207 -0.06122136 0.086938426 0.05262825
0002c0 10 2b cb bc aa 1b 0e 3e b6 a0 c2 3d 40 7a 26 3c
       -0.024800807 0.1387774 0.095033094 0.010160983
0002d0 5e 2a 3c bd 9f c9 02 be b4 71 f3 3d 82 ff 28 bd
       -0.045938842 -0.12772225 0.118869215 -0.041259296
0002e0 d2 b4 f2 bd 00 58 fa 38 95 8f c1 bd bb 3a a7 bd
       -0.11850895 0.0001193732 -0.09451214 -0.08165499
0002f0 e0 9c 62 3c d4 e0 e5 3d 82 89 05 bd 04 87 88 3d
       0.013831347 0.11224523 -0.03260184 0.06666377
000300 c4 57 09 be 1e 4c 11 bd b4 90 cf 3d e2 07 cc bd
       -0.13412386 -0.03547298 0.10135022 -0.09962441
000310 4c 3c 08 3e 28 bc 07 3e dc 78 d0 bd bc fb 44 3d
       0.13304251 0.1325537 -0.10179302 0.048091635
000320 fa ce 49 bd 10 16 08 bc a8 5a 0b 3e 21 10 99 bd
       -0.049269654 -0.008306041 0.13608801 -0.074737795
000330 f4 a8 2a 3d 20 86 c2 bc 4f c6 07 be 10 66 f7 bd
       0.041665033 -0.023745596 -0.13259242 -0.12080014
000340 b0 da a1 3c b6 2c d8 bd 80 03 f9 3a ce 43 cf bd
       0.019757599 -0.10555403 0.0018998235 -0.101203546
000350 d0 f0 6a bc c4 b4 17 3d 5e c4 ad bd 08 d0 ab bd
       -0.014339641 0.037037626 -0.0848472 -0.08389288
000360 d0 e8 e5 3c 5a 2c f4 bd 20 5c a1 3b 43 16 c7 bd
       0.028065115 -0.11922522 0.0049243122 -0.09721043
000370 da 55 10 3e 42 ec 11 be 78 85 bb 3c 68 ee c7 bd
       0.1409525 -0.14250281 0.022890791 -0.09762269
000380 1c 2a e2 3d 00 7a 47 3d 08 c0 db 3d 20 1a 0d 3c
       0.11043188 0.048700333 0.107299864 0.008612186
000390 54 f4 64 3d c0 fb 3d 3c 46 65 9e 3d 84 df a7 3d
       0.055897072 0.011595666 0.0773416 0.08196929
0003a0 04 de b9 bd 44 19 c5 bd e4 c6 56 bd a8 3c f8 3d
       -0.09075549 -0.0962396 -0.05243577 0.12120944
0003b0 27 c6 b7 bd cc 81 16 bd 50 1f 98 3c 9f 90 8e bd
       -0.089733414 -0.036744878 0.018569618 -0.06961178
0003c0 3c c3 ee bd 70 95 b6 3c 6e f7 c0 3d 64 6c 20 3d
       -0.11658332 0.022288054 0.094221935 0.03916587
0003d0 a6 94 7c bd 24 1a 68 3d c4 92 51 3d 32 97 bd 3d
       -0.0616652 0.056665555 0.051165357 0.09257354
0003e0 a4 18 13 be 55 bb 00 be fc ac 00 3e 40 79 6d bc
       -0.14364868 -0.12571461 0.12565988 -0.01449424
0003f0 2a 95 fc bd 94 42 07 3e 79 76 b0 bd a0 f8 16 bc
       -0.12333138 0.13208991 -0.08616347 -0.00921455

fc3.bias f4 [24]
000000 0a ee f2 bd 14 7b 42 3d 68 ab ca bc d3 b2 a2 bd
       -0.118618086 0.047480658 -0.024739936 -0.07944264
000010 24 45 6f 3d 11 37 07 be 00 db 17 3c e0 a9 9b 3b
       0.058415547 -0.132046 0.009268522 0.0047504753
000020 08 f5 dd 3c e4 cd c2 bc d6 d1 7f bd 66 56 ac 3d
       0.027094379 -0.023779817 -0.062455975 0.08414917
000030 d4 80 97 3d ca 4a c8 3d b0 bf 90 3c 54 12 c3 bd
       0.07397619 0.0977989 0.017669529 -0.0952498
000040 8a 96 16 bd fc c8 0a 3d da 75 e4 bd 62 50 10 3e
       -0.03676466 0.03388308 -0.11155291 0.14093164
000050 85 d1 c3 bd 08 26 9e 3d e0 c2 b1 bb 6a 4d b6 bd
       -0.09561447 0.07722098 -0.0054248422 -0.08901484

fc4.weight f4 [2, 24]
000000 78 c0 01 be 6b b0 40 be d2 ca 8d bd 5e e8 3f 3e
       -0.12671077 -0.18817298 -0.069234505 0.18740985
000010 9c bf 9a bd cd f8 00 be 40 15 7f bc 68 36 8e bc
       -0.07556078 -0.1259491 -0.015569031 -0.017359927
000020 5b 96 17 be c0 2b 3e be e4 19 14 3e 60 23 32 3d
       -0.1480345 -0.18571377 0.14463001 0.043490767
000030 f8 e4 98 3d 10 2e b5 3c 7c d5 9c 3d 18 ff 16 3d
       0.07465547 0.02211669 0.076579064 0.03686437
000040 58 57 89 3d 98 58 b1 bd 80 87 e4 bd 80 ac 03 3e
       0.067061126 -0.08659476 -0.11158657 0.12858772
000050 32 88 d0 bd 1e 7a 49 be ea 5f db bd 20 65 07 be
       -0.10182227 -0.1967549 -0.107116535 -0.1322217
000060 68 a2 ac 3c 87 39 01 be 0e e2 fb bd ec cd cb 3d
       0.021073535 -0.12619601 -0.12298976 0.09951386
000070 de bb 36 3e b8 76 cd bc e0 6a a5 3d 78 59 18 3e
       0.17845103 -0.025081024 0.080770254 0.1487788
000080 c0 41 bc bd 4c 30 c5 bd d8 12 fa 3c 78 63 d9 3d
       -0.09192228 -0.096283525 0.030526564 0.10614675
000090 c4 1b af 3d 00 c1 a4 3a e2 b6 1e be 28 6e 4c 3d
       0.08550218 0.0012569726 -0.15499452 0.04990974
0000a0 15 95 16 be 92 d2 fe bd d4 7e 53 bd 62 90 42 3e
       -0.14705308 -0.12442507 -0.051634625 0.1900039
0000b0 ac 76 6e bd 0a af 2d be c8 37 59 bd 8c 1b cf 3d
       -0.058218643 -0.16961303 -0.053031713 0.10112676

fc4.bias f4 [2]
000000 4e 3c 80 bd 30 f3 1c bc
       -0.06261502 -0.009579465
