Secondary_Models/Mdl_Ep4_Stp0.1_lr1e-05_v1.0.pt (torch_old, 190094 bytes, 33 tensors)

fc1.bias f4 [96]
0	0x3d16bf50	0.036803544
1	0xbc41f180	-0.011837363
2	0x3e86a71a	0.26299363
3	0xbeaff14f	-0.3436379
4	0x3d4913d0	0.04909116
5	0xbe32f2bd	-0.1747541
6	0x3e11fae9	0.14255871
7	0xbe21e3f4	-0.15809613
8	0xbebf0f62	-0.37316424
9	0x3ed67b90	0.41891146
10	0x3da4e550	0.080515504
11	0x3e7214bc	0.23640722
12	0x3efc669f	0.49297044
13	0x3ec4565b	0.38347134
14	0x3f146f8b	0.579827
15	0xbeab6428	-0.3347485
16	0x3dd94ba4	0.106101304
17	0x3e7b857c	0.24562639
18	0x3f0dcd32	0.5539123
19	0x3e5ab254	0.2135709
20	0x3d1db280	0.03850031
21	0xbefcd787	-0.49383184
22	0xbd7bdd3c	-0.061490282
23	0xbf159530	-0.5843077
24	0x3e949a58	0.29024005
25	0x3ef7e098	0.4841354
26	0x3ef2a266	0.47389525
27	0xbc962320	-0.018327296
28	0xbda4a7a8	-0.080397904
29	0xbbc2d501	-0.005945802
30	0x3ebcb9c0	0.36860466
31	0xbf0bbe6a	-0.54587424
32	0x3b4f099d	0.0031591423
33	0x3d571873	0.05251355
34	0x3e72e664	0.237207
35	0x3da14a10	0.078754544
36	0xbeeb139f	-0.45913407
37	0x3e3aed2f	0.18254541
38	0x3eafdd78	0.34348655
39	0x3f0e7ba4	0.5565741
40	0x3dd66a43	0.104694866
41	0xbed5234c	-0.41628492
42	0x3df4c360	0.11951327
43	0x3f153b29	0.58293396
44	0xbf09e1ec	-0.53860354
45	0xbea831e0	-0.32850552
46	0x3d93481a	0.07191487
47	0xbf01e4e3	-0.5073988
48	0xbea64a5f	-0.32478616
49	0x3efc1b54	0.492396
50	0x3eed74a7	0.4637806
51	0x3e9ff6aa	0.31242877
52	0x3eb900cc	0.3613342
53	0x3df8eb1a	0.12154217
54	0x3ea17d79	0.3154104
55	0x3e61d681	0.22054483
56	0x3eaa898a	0.3330806
57	0x3cb0bc87	0.021574272
58	0xbe1bae2e	-0.15203163
59	0x3f0f400e	0.55957115
60	0x3e894de0	0.26817226
61	0xbebc92fe	-0.36830896
62	0x3d8f022b	0.069828354
63	0xbcebd2a0	-0.028786957
64	0xbf0a3674	-0.5398934
65	0xbed9fef7	-0.42577335
66	0x3e789e29	0.24279083
67	0x3eef71e2	0.46766573
68	0xbe671860	-0.22567892
69	0x3e600870	0.21878219
70	0xbec433b0	-0.38320684
71	0xbdc6bf14	-0.09704414
72	0xbeafdbdb	-0.34347424
73	0xbec475cc	-0.38371122
74	0xbee9ebb5	-0.45687643
75	0x3e2f0a64	0.17093807
76	0x3e80992f	0.2511687
77	0xbea4f46e	-0.32217735
78	0x3e31c19c	0.17359012
79	0x3e6bfaf4	0.2304495
80	0x3e4d8920	0.2007184
81	0x3e9fd58c	0.3121761
82	0x3ef762aa	0.48317462
83	0xbe1cb3ab	-0.15302913
84	0x3f12eae0	0.5738964
85	0xbe92be7e	-0.2866096
86	0x3ed2b0af	0.41150424
87	0x3f0f2360	0.5591335
88	0x3e0bd92c	0.13657063
89	0xbea61b23	-0.3244258
90	0x3d0eeead	0.034895588
91	0x3eb52d64	0.35386193
92	0x3e9263bc	0.28591716
93	0xbe51bc74	-0.20482045
94	0x3ed50a6d	0.41609517
95	0x3eed5542	0.4635411

fc1.weight_g f4 [96, 1]
0	0x3f31fd68	0.6952729
1	0x3eb5dd52	0.35520416
2	0x3f2573da	0.646299
3	0x3f01f224	0.507601
4	0x3f04eae8	0.5192094
5	0x3f4ecdcb	0.80782765
6	0x3f53f827	0.82800525
7	0x3f1034d1	0.5633059
8	0x3ef1ff5b	0.47265133
9	0x3f5f6d3e	0.87276065
10	0x3e853769	0.26018837
11	0x3efe12f6	0.4962384
12	0x3ef6a332	0.48171383
13	0x3f4853ee	0.78253067
14	0x3f242656	0.64120996
15	0x3efacdb8	0.48985076
16	0x3e8468f6	0.2586133
17	0x3f03edae	0.51534545
18	0x3eea73d8	0.45791507
19	0x3f52e661	0.8238278
20	0x3f5a6b42	0.8531991
21	0x3ecc979c	0.3995942
22	0x3ede4196	0.43409413
23	0x3f1288b7	0.5723986
24	0x3eee65be	0.46561998
25	0x3f1e7d4e	0.6190995
26	0x3ebe79dc	0.37202346
27	0x3f46e68b	0.7769553
28	0x3f26aa2d	0.6510342
29	0x3f1e1b4d	0.6176041
30	0x3eaf5fe0	0.34252834
31	0x3f3a3bda	0.72747576
32	0x3f46073f	0.77354807
33	0x3f1ac91e	0.6046313
34	0x3ec43ba7	0.3832676
35	0x3f4671fa	0.77517664
36	0x3f50cc1c	0.81561446
37	0x3f318348	0.69340944
38	0x3f3ef668	0.74594736
39	0x3eddb1d3	0.43299732
40	0x3ed01240	0.40638924
41	0x3f176531	0.5913878
42	0x3f06cf37	0.52659935
43	0x3f259e70	0.6469488
44	0x3f0065b3	0.5015518
45	0x3f1fdff5	0.62451106
46	0x3f1bbb13	0.6083233
47	0x3f443f83	0.7665941
48	0x3f395d5a	0.7240807
49	0x3f0382af	0.5137128
50	0x3f0ed237	0.5578951
51	0x3f359c9c	0.7094209
52	0x3f366f82	0.712639
53	0x3f084871	0.53235537
54	0x3e91cf07	0.28478262
55	0x3f22a90f	0.6353921
56	0x3f51b98b	0.8192374
57	0x3f10b4f8	0.56526136
58	0x3f24047e	0.64069355
59	0x3eececd6	0.4627444
60	0x3f3588f5	0.70912105
61	0x3f14ea91	0.5817042
62	0x3f02f56a	0.5115572
63	0x3f22c83b	0.6358678
64	0x3f46ab68	0.77605295
65	0x3f3fd48a	0.74933684
66	0x3e1473a4	0.14497238
67	0x3f099f8e	0.53759086
68	0x3ee4aa55	0.44661203
69	0x3e75df93	0.24011068
70	0x3f0d1cd1	0.55122095
71	0x3e957165	0.29188076
72	0x3f448b5b	0.7677514
73	0x3f2eca6d	0.6827763
74	0x3ebed5f8	0.3727262
75	0x3eb5572a	0.35418063
76	0x3f37c70b	0.7178809
77	0x3f1de3de	0.6167582
78	0x3f494919	0.78627163
79	0x3f18c929	0.59681946
80	0x3f088f31	0.5334349
81	0x3f22269d	0.6334017
82	0x3f178d5c	0.5920007
83	0x3f05d1a5	0.5227302
84	0x3f2cc4c5	0.67487746
85	0x3ee861ac	0.45387018
86	0x3eb4c51a	0.35306627
87	0x3f611f4d	0.87938386
88	0x3f288cc8	0.65839815
89	0x3f06189c	0.523813
90	0x3f04085e	0.5157527
91	0x3eaa9cec	0.33322847
92	0x3ec0d8a9	0.376653
93	0x3f51e5e4	0.8199141
94	0x3ecb58d2	0.39716202
95	0x3ea6951e	0.32535642

fc1.weight_v f4 [96, 3]
0	0xbdd180d0	-0.10229647
1	0xbf133f78	-0.5751872
2	0xbec10106	-0.37696093
3	0xbe925985	-0.28583923
4	0xbe2c0d10	-0.16801858
5	0x3e027a3c	0.12741941
6	0xbf0f96cf	-0.5608949
7	0x3deee050	0.11663878
8	0xbe992b0d	-0.29915658
9	0x3ebe68ca	0.37189323
10	0x3ea8a151	0.32935575
11	0x3d732dad	0.05936973
12	0xbece7ea6	-0.40331
13	0x3dc87698	0.09788245
14	0xbe9fbd4e	-0.31199116
15	0xbee45b19	-0.44600752
16	0x3ed6ed16	0.41977757
17	0xbeda8afd	-0.42684165
18	0x3ef5b0a9	0.47986344
19	0x3ec8fc04	0.39254773
20	0xbf078e07	-0.5295109
21	0xbef90822	-0.48639017
22	0xbe9142c0	-0.2837124
23	0xbc805620	-0.015666068
24	0x3d8cfea5	0.06884507
25	0x3ea42c04	0.3206483
26	0x3e9632a5	0.29335514
27	0xbf0d7d68	-0.5526948
28	0x3ef33988	0.4750483
29	0xbf0f823a	-0.56058085
30	0xbe0c932e	-0.1372802
31	0xbd95e560	-0.073191404
32	0x3e558f6c	0.20855492
33	0x3d18c29c	0.03729497
34	0xbe606875	-0.21914847
35	0x3ec7630c	0.38942754
36	0x3e27c736	0.16384587
37	0xbeacb5d2	-0.33732468
38	0x3e878cec	0.26474702
39	0xbeac3e08	-0.33641076
40	0x3ead10b3	0.33801803
41	0xbedb0cf7	-0.4278333
42	0xbea0337f	-0.31289288
43	0x3f15c870	0.5850897
44	0xbe31ac89	-0.17350973
45	0xbdf6fc68	-0.120598614
46	0xbacbf200	-0.0015559793
47	0x3ef31528	0.47477078
48	0x3e6450c0	0.22296429
49	0x3d9b600d	0.075866796
50	0xbd4c483e	-0.049873583
51	0x3ebf517e	0.3736686
52	0x3e62f4aa	0.22163644
53	0xbe934eb3	-0.2877098
54	0xbec65692	-0.38737923
55	0xbe43a228	-0.19104826
56	0x3e1bb738	0.15206611
57	0xbf07b5bc	-0.5301168
58	0xbee4d758	-0.44695544
59	0xbee3c484	-0.44485867
60	0xbeb7c9da	-0.35896188
61	0xbf04c677	-0.51865333
62	0x3f1314ec	0.574538
63	0x3e901188	0.28138375
64	0xbdc470ae	-0.095918044
65	0x3e8d14db	0.27554974
66	0x3dde42fd	0.10852621
67	0x3e98607f	0.2976112
68	0x3e909841	0.2824116
69	0x3ee18df7	0.44053623
70	0x3de0c3b5	0.10974828
71	0x3eb1047e	0.3457374
72	0x3e8e31f4	0.27772486
73	0xbe99f3ff	-0.30068967
74	0x3e44a149	0.1920215
75	0x3ea653d9	0.32485846
76	0xbee99755	-0.4562327
77	0x3e67b03a	0.22625819
78	0x3db82ccb	0.089929186
79	0xbea27598	-0.31730342
80	0xbd78c9e8	-0.060739428
81	0xbe1c1820	-0.15243578
82	0xbf0699e3	-0.5257856
83	0x3f0d246a	0.5513369
84	0xbeda936f	-0.42690608
85	0xbeebde7a	-0.46068174
86	0xbe2f7ca6	-0.17137393
87	0x3ec19d28	0.37815213
88	0xbe144bab	-0.1448199
89	0x3ee48094	0.44629347
90	0xbd5c04f0	-0.053715646
91	0xbe58bdd4	-0.21166164
92	0x3e871d04	0.26389325
93	0x3e7903ad	0.24317808
94	0xbeadb175	-0.3392445
95	0xbf0c08e3	-0.5470106
96	0x3f105404	0.563782
97	0xbeba6df5	-0.36412016
98	0x3eb8310a	0.35974914
99	0x3e83a5c7	0.25712416
100	0xbed3446d	-0.41263142
101	0x3e8abbea	0.27096492
102	0xbe4b16d8	-0.19832933
103	0xbe4d4040	-0.2004404
104	0xbe84e807	-0.25958273
105	0xbf0e746a	-0.55646384
106	0xbefed72a	-0.49773532
107	0xbe559676	-0.20858178
108	0x3e6586a8	0.22414649
109	0xbf0b4b14	-0.54411435
110	0xbf01bc83	-0.5067827
111	0x3ecc33f8	0.398834
112	0x3f0ed8bc	0.5579946
113	0x3c2e5aab	0.010641734
114	0xbeff6d46	-0.49888057
115	0xbf0bd6fc	-0.54624915
116	0xbdc4173c	-0.09574744
117	0xbe2c0983	-0.16800503
118	0x3eaebd10	0.34128618
119	0xbe588464	-0.21144253
120	0xbca6db50	-0.020368248
121	0xbac75236	-0.0015206996
122	0x3eb1d670	0.34733915
123	0x3ed387cc	0.41314542
124	0x3e8ff638	0.28117537
125	0xbea55dfc	-0.32298267
126	0xbdde9a18	-0.10869235
127	0xbed89371	-0.4229999
128	0xbe96a3ad	-0.2942175
129	0x3e974f85	0.29552856
130	0x3ec608cd	0.3867859
131	0xbed74213	-0.42042598
132	0xbef1208f	-0.47095153
133	0x3da02e30	0.078213096
134	0xbe1d72ca	-0.1537582
135	0x3e82ca94	0.2554518
136	0xbf1307e4	-0.57433915
137	0x3dc1daa4	0.094655305
138	0x3f11a5e7	0.5689377
139	0x3cb42398	0.021989629
140	0x3e60b8e5	0.21945532
141	0xbef7194f	-0.48261496
142	0xbe9074af	-0.28214023
143	0xbf064881	-0.5245438
144	0xbe96a3fa	-0.2942198
145	0xbefd3048	-0.49450898
146	0xbee10a58	-0.43953204
147	0xbeb962a4	-0.3620807
148	0xbe9caec2	-0.3060208
149	0xbe4a9c8e	-0.19786283
150	0xbeb59122	-0.3546229
151	0x3ea2d504	0.31803143
152	0xbc3ae160	-0.011406273
153	0x3eb79482	0.3585549
154	0xbe637098	-0.2221092
155	0x3f110466	0.56647336
156	0x3eea1921	0.45722297
157	0x3f0ca079	0.5493236
158	0x3d0aa6ad	0.03385036
159	0x3ef2aef1	0.47399095
160	0xbe22a022	-0.15881398
161	0x3e404835	0.18777545
162	0xbd8131be	-0.06308316
163	0x3e5ce7cb	0.21572797
164	0x3e0fbd59	0.14037074
165	0x3eed5450	0.46353388
166	0xbea6c081	-0.32568744
167	0xbe86950b	-0.26285586
168	0x3efddfed	0.49584904
169	0x3eea397a	0.45746976
170	0xbeed3423	-0.4632884
171	0x3ecaba18	0.39595103
172	0x3ebbc394	0.36672652
173	0xbdf181d9	-0.117923446
174	0xbebd2b79	-0.3694723
175	0x3ec19e27	0.37815973
176	0xbe23cdee	-0.15996525
177	0xbe9bc001	-0.30419925
178	0x3ea0bd4a	0.31394416
179	0x3e928993	0.28620586
180	0xbebf408e	-0.3735394
181	0xbf0c0316	-0.5469221
182	0xbe81b9f2	-0.25337178
183	0x3ece26b1	0.40263894
184	0xbe9e8df1	-0.30967668
185	0xbe8c37e4	-0.2738639
186	0x3ec1ed83	0.3787652
187	0xbe61104a	-0.2197887
188	0xbe83ca27	-0.25740167
189	0xbed6f4bc	-0.41983593
190	0xbea4afe5	-0.32165447
191	0xbeb4bb7d	-0.35299292
192	0xbd2b2320	-0.041781545
193	0xbf05491d	-0.52064687
194	0xbf12ef92	-0.57396805
195	0xbee5f228	-0.44911313
196	0xbebfeafc	-0.37483966
197	0x3eefc418	0.46829295
198	0x3d68e099	0.056854818
199	0xbd4fb93a	-0.050713755
200	0xbdff431f	-0.12463974
201	0xbe68fb21	-0.22752048
202	0x3ee138ad	0.43988553
203	0xba85828e	-0.0010186003
204	0x3eb57e50	0.3544793
205	0xbe3eb6ef	-0.18624471
206	0xbe535273	-0.2063692
207	0xbdf716d7	-0.12064903
208	0x3debfbfa	0.1152267
209	0x3d098c34	0.033580974
210	0x3e9ef7cd	0.31048432
211	0xbee3ba8c	-0.4447826
212	0x3df52f3c	0.119719
213	0x3cbe66bc	0.023242347
214	0xbe920e2c	-0.28526437
215	0x3e07803b	0.1323251
216	0xbed22981	-0.4104729
217	0x3eea49ca	0.45759422
218	0x3e93fe63	0.2890502
219	0x3ef5810a	0.47950011
220	0x3dc2ff48	0.09521347
221	0xbef1b8fc	-0.47211444
222	0xbe870029	-0.2636731
223	0x3c6bf300	0.014401197
224	0xbe86ae26	-0.2630474
225	0xbea49de3	-0.32151708
226	0xbdaa5ef4	-0.08318892
227	0xbdfc14c8	-0.12308651
228	0x3eaeb6e1	0.341239
229	0x3e96a9a8	0.29426312
230	0x3f0efa8c	0.55851054
231	0x3f02dc3c	0.511173
232	0xbccb94c6	-0.024851214
233	0x3ea80895	0.32819048
234	0xbf01e25f	-0.5073604
235	0xbebd7c90	-0.37009096
236	0xbef23c98	-0.47311854
237	0x3d922c00	0.071372986
238	0x3eea8914	0.45807707
239	0xbebfc4a4	-0.37454712
240	0xbedb7994	-0.42866194
241	0xbda1b5ac	-0.07895979
242	0xbe9d72f6	-0.3075177
243	0xbde242df	-0.11047911
244	0x3e8395f3	0.2570034
245	0x3eff2ff0	0.4984126
246	0xbe3626e5	-0.17788275
247	0x3ee84bbe	0.45370287
248	0xbe87d346	-0.26528376
249	0x3da140a8	0.0787366
250	0x3e63c13b	0.2224168
251	0x3ee1d828	0.44110227
252	0xbef8b8e4	-0.4857856
253	0xbeef03ce	-0.4668259
254	0x3d210690	0.0393129
255	0x3e7113b4	0.23542672

fc2.bias f4 [48]
0	0x3d992cc6	0.07479243
1	0xbd913bd3	-0.07091489
2	0x3d29e587	0.04147866
3	0x3deabcae	0.11461769
4	0x3d87aaab	0.06624349
5	0x3d96d106	0.07364087
6	0xbd9ffec9	-0.07812268
7	0x3da55c81	0.08074284
8	0x3d9bb610	0.07603085
9	0xbbdc54b8	-0.0067239664
10	0x3d70e910	0.058816016
11	0xbd7d4e0d	-0.061842013
12	0x3c476cc8	0.012171932
13	0x3d988c8a	0.07448681
14	0x3a141280	0.00056485087
15	0xbda7d513	-0.081949376
16	0xbce255d4	-0.027628817
17	0xbcbe75cb	-0.023249527
18	0x3c2d28d5	0.010568817
19	0x3db9b7d6	0.09068267
20	0x3d7864ec	0.06064312
21	0x3dcb529a	0.099278644
22	0xbdd4b460	-0.10385966
23	0x3c9fb3ae	0.019494858
24	0xbda9fd0a	-0.083002165
25	0xbdd1f501	-0.10251809
26	0xbc716998	-0.014734648
27	0x3d20046f	0.03906673
28	0x3bb93a43	0.0056526973
29	0xbdde2cdd	-0.10848401
30	0xbd9193a2	-0.07108237
31	0x3d5c443a	0.053776003
32	0xbcbc6343	-0.02299655
33	0x3ccde3d0	0.025133044
34	0x3d981192	0.07425226
35	0x3d483cbc	0.048886046
36	0x3e11ecd6	0.14250502
37	0xbb791159	-0.0038004725
38	0x3d5c6c34	0.053814128
39	0x3d3eedfe	0.046613686
40	0xbcd8e7e0	-0.026477754
41	0x3e1734d6	0.14766249
42	0xbe170736	-0.14748845
43	0x3d1f4f7b	0.038894158
44	0xbc3529b6	-0.011057308
45	0xbcf46ba6	-0.029836487
46	0xbd2e3145	-0.042527456
47	0xbae27680	-0.0017277747

fc2.weight_g f4 [48, 1]
0	0x3f111679	0.56674916
1	0x3f1812ef	0.5940389
2	0x3f1ed04d	0.6203659
3	0x3f1bc2f1	0.6084433
4	0x3f1be433	0.6089508
5	0x3f171106	0.5901035
6	0x3f13a656	0.57675683
7	0x3f0f7ef5	0.56053096
8	0x3f24af82	0.64330304
9	0x3f18b351	0.59648615
10	0x3f196a0b	0.59927434
11	0x3f122e35	0.57101756
12	0x3f0429f7	0.51626533
13	0x3f1586da	0.5840889
14	0x3f100055	0.56250507
15	0x3f1ae6d8	0.6050849
16	0x3f1aaf69	0.60423905
17	0x3f0fe1e4	0.56204057
18	0x3f10889b	0.56458443
19	0x3f0b744c	0.5447433
20	0x3f172982	0.5904771
21	0x3f1337b4	0.5750687
22	0x3f16a328	0.58842707
23	0x3f1bf37b	0.60918397
24	0x3f0bc859	0.5460258
25	0x3f194969	0.5987764
26	0x3f0fbeb2	0.5615035
27	0x3f10af94	0.5651791
28	0x3f1bc7b7	0.60851616
29	0x3f121039	0.57056004
30	0x3f104c4f	0.5636644
31	0x3f1b7de9	0.60739
32	0x3f296230	0.6616545
33	0x3f172341	0.5903817
34	0x3f0c5616	0.54818857
35	0x3f145241	0.5793801
36	0x3f15bc8b	0.5849082
37	0x3f22c719	0.6358505
38	0x3f14a13e	0.58058536
39	0x3f16665e	0.5874995
40	0x3f0f3b51	0.55949885
41	0x3f21bc81	0.6317826
42	0x3f1ecdc0	0.620327
43	0x3f155a64	0.5834105
44	0x3f1efe53	0.6210682
45	0x3f1c7150	0.611104
46	0x3f1cd059	0.61255413
47	0x3f144040	0.5791054

fc2.weight_v f4 [48, 96]
0	0xbda2f5d4	-0.07957044
1	0xbc5285f1	-0.012849317
2	0x3d7895a9	0.060689602
3	0x3b834ed6	0.0040072007
4	0x3bb2fb48	0.005462084
5	0xbdd92976	-0.10603611
6	0x3c7a4c88	0.015277036
7	0xbda94afa	-0.08266254
8	0xbd01973d	-0.031638373
9	0x3d8a6135	0.06756822
10	0x3c76cffa	0.015064234
11	0xbdb681dc	-0.089114875
12	0x3c507187	0.0127223795
13	0x3da22525	0.07917241
14	0xbd06a0a0	-0.032868028
15	0x3dce31f0	0.100681186
16	0xbd419cde	-0.04726874
17	0xbcf5b08e	-0.029991414
18	0xbcb91200	-0.02259159
19	0xbdc98dcf	-0.09841501
20	0xbb78758e	-0.0037911865
21	0xbcdc3842	-0.026882295
22	0xbb8371ef	-0.0040113847
23	0xbda900e3	-0.08252122
24	0xbd068491	-0.03284127
25	0x3d544f90	0.05183369
26	0x3d5995c2	0.053121336
27	0xbcdb4261	-0.02676505
28	0x3dcf72b2	0.10129298
29	0xbc940555	-0.018068949
30	0xbd0194b2	-0.031635948
31	0x3db16c62	0.086632505
32	0xbd126bc7	-0.035747316
33	0x3d863fe1	0.06555153
34	0x3bf5cd7d	0.0075013028
35	0x3c841504	0.016123302
36	0xbd3c4c70	-0.045971334
37	0xbcc90c3f	-0.024541972
38	0x3d41108d	0.047134925
39	0xbc551ed3	-0.013007837
40	0x3db85bc4	0.09001878
41	0xbda886b7	-0.0822882
42	0xbdaea876	-0.08528225
43	0x3ca710af	0.020393698
44	0x3db74327	0.08948355
45	0x3d448c3f	0.04798531
46	0x3b2b1088	0.0026102383
47	0xbdcd32e8	-0.10019475
48	0x3da9cee5	0.08291415
49	0xbd58e3b8	-0.052951545
50	0x3dc1ecda	0.09469004
51	0xbcb6752a	-0.022272665
52	0xbd0ae998	-0.03391418
53	0xbc995878	-0.018718943
54	0x3ce939b2	0.028469894
55	0xbd8449e4	-0.06459406
56	0x3dab96bc	0.0837836
57	0xbc1bc0fa	-0.009506458
58	0xbdaf1407	-0.08548742
59	0xbd2dee6f	-0.042463716
60	0x3d9e3d6c	0.07726559
61	0x3d1093e5	0.035297293
62	0x3dc55a5c	0.09636375
63	0x3d9c3124	0.0762656
64	0xbbd8cf38	-0.0066164993
65	0xbdd0eab4	-0.10201016
66	0x3da4b1f8	0.08041757
67	0xbdb9bea6	-0.090695664
68	0x3cb454bc	0.02201306
69	0x3c9e760a	0.019343395
70	0x3d2d34cd	0.042286683
71	0xbd5f3481	-0.05449343
72	0x3d85299d	0.06502078
73	0xbd285b9e	-0.041102998
74	0x3d379c58	0.044826835
75	0xbd683796	-0.056693636
76	0xbd72604c	-0.059173867
77	0x3d8b008e	0.06787215
78	0xbdaad13d	-0.0834069
79	0x3d779b4e	0.060450844
80	0x3d932ddb	0.071864806
81	0x3953ed62	0.0002021096
82	0x3d3471dc	0.044053897
83	0xbbed965d	-0.0072505907
84	0xbd8b3837	-0.067978315
85	0xbcc62126	-0.024185728
86	0xbd306291	-0.04306275
87	0x3dac6808	0.0841828
88	0xbcb6ed69	-0.022330003
89	0xbd4668a5	-0.04843964
90	0x3cb2d8c3	0.021831876
91	0xbd50d6e1	-0.050986174
92	0xbb739905	-0.0037170064
93	0xbcb90340	-0.022584558
94	0xbdd672e4	-0.104711324
95	0xbd813fff	-0.063110344
96	0x3c630918	0.013857149
97	0xbd1a1df2	-0.037626214
98	0xbc4b3008	-0.012401588
99	0xbda19d06	-0.07891278
100	0x3dc30182	0.09521772
101	0x3cdd79c8	0.027035609
102	0xba96fd40	-0.0011519566
103	0xbd1c52aa	-0.038164772
104	0x3d6b6294	0.05746706
105	0xbd099318	-0.033587545
106	0x3d408304	0.046999946
107	0xbdce3d53	-0.100702904
108	0xbd00dbee	-0.03145974
109	0x3d671184	0.05641319
110	0xbd98dd27	-0.074640565
111	0xbdabb167	-0.08383446
112	0x3cae11b4	0.021248676
113	0xbdac2af9	-0.08406634
114	0xbda88390	-0.082282186
115	0x3d77eba8	0.060527474
116	0xbbf979f0	-0.007613413
117	0xbd81ded0	-0.06341326
118	0x3d4e58d4	0.05037768
119	0xbd11013a	-0.03540156
120	0x3c8a6708	0.016894832
121	0xbdbaec6e	-0.09127127
122	0x3ca3e888	0.02000834
123	0x3dc55d2a	0.0963691
124	0xbdb3ed25	-0.08785466
125	0x3d24e45c	0.040256843
126	0xbdc299d5	-0.095019974
127	0xbdc4f40e	-0.09616862
128	0x3d51db30	0.051234424
129	0xbd39e3ab	-0.045383137
130	0xbc3c81f8	-0.011505596
131	0xbc164468	-0.009171583
132	0xbda85981	-0.082201965
133	0x3c265fe0	0.010154694
134	0x3dc06244	0.09393743
135	0x3db60f8e	0.088896856
136	0xbca9df4c	-0.020736359
137	0x3d29625c	0.04135357
138	0xbcaae220	-0.020859778
139	0x3d0ca03c	0.0343325
140	0xbd68d3c8	-0.056842595
141	0xba3dc080	-0.00072384626
142	0x3d7e604c	0.062103555
143	0x3d7a3668	0.061087042
144	0x3c8a51ac	0.016884647
145	0xbd6b7ab9	-0.057490084
146	0xbcdd6478	-0.027025446
147	0xbd4c6642	-0.04990221
148	0xbd7bff00	-0.061522484
149	0xbdab564d	-0.0836607
150	0x3cbd3fa8	0.023101643
151	0x3d2616e0	0.04054916
152	0xbd322c24	-0.043499127
153	0x3daae6aa	0.08344777
154	0x3da38cf8	0.07985872
155	0xbdac5a7e	-0.084156975
156	0x3dce49d4	0.10072675
157	0x3db00aa6	0.08595781
158	0xbd87fe4c	-0.066403
159	0x3d13d30c	0.03608994
160	0xbd98b44d	-0.07456265
161	0xbb39b800	-0.0028338432
162	0xbdca1b13	-0.09868445
163	0xbce453b0	-0.027871937
164	0x3c64a1a8	0.0139545575
165	0x3d98c7c0	0.07459974
166	0xbd022a9a	-0.03177891
167	0xbdb474af	-0.08811318
168	0x3dcc5e70	0.0997895
169	0x3ace8080	0.0015754849
170	0x3d462ad8	0.048380703
171	0xbdad5340	-0.08463144
172	0x3cf46908	0.029835239
173	0xbc48f768	-0.0122660175
174	0xbdbbe2b0	-0.091740966
175	0x3d414c58	0.047191948
176	0xbda2e8e0	-0.07954574
177	0xbcf0be84	-0.02938772
178	0xbb280fe0	-0.0025644228
179	0x3d8fab78	0.07015127
180	0x3d9b41c2	0.07580902
181	0x3d29e7e0	0.0414809
182	0xbc0addd8	-0.008475743
183	0xbd8a4cd2	-0.067529336
184	0x3ce78300	0.028260708
185	0x3dcbdd0a	0.09954269
186	0xbd95f166	-0.07321434
187	0x3d017a94	0.03161104
188	0x3d37e784	0.044898525
189	0x3daf75f8	0.08567423
190	0xbda1327e	-0.07870959
191	0xbd163946	-0.036675714
192	0xba89ab78	-0.0010503372
193	0x000dac74	1.255726e-39
194	0x3d29eb6e	0.04148429
195	0x3d27ee52	0.040998764
196	0x800b77ac	-1.05312e-39
197	0x3cb50463	0.022096818
198	0x3da586e7	0.08082371
199	0xbb5c092c	-0.0033574803
200	0xbd944558	-0.07239789
201	0xbcd4228a	-0.025895376
202	0xbd3b55f4	-0.04573627
203	0xbd22020d	-0.039552737
204	0x3c94f437	0.018182857
205	0x3a5e211e	0.0008473563
206	0x3d5f13b0	0.054462135
207	0x80115a36	-1.593565e-39
208	0xbd834b03	-0.06410792
209	0xbdc62740	-0.09675455
210	0x3d30a71e	0.043128125
211	0x3a112c09	0.0005537873
212	0x8009590f	-8.58468e-40
213	0xbd95f25b	-0.07321616
214	0xba9af3eb	-0.0011821961
215	0xbbbdf18f	-0.0057966183
216	0x3d8bcbad	0.068259574
217	0xbdb6e3fb	-0.089302026
218	0xbce04779	-0.02737783
219	0x82bafa1c	-2.74738e-37
220	0x001354d3	1.775304e-39
221	0xbda4832e	-0.08032833
222	0x353de57e	7.074194e-07
223	0x3d64a41e	0.055820577
224	0xbbe9daa7	-0.007136661
225	0xbd986b83	-0.07442381
226	0x390db126	0.00013512801
227	0x3c3759ae	0.011190815
228	0x3cd663a6	0.026170563
229	0xbd99e0ed	-0.07513604
230	0xbc21f1a4	-0.009884272
231	0x3c671d1d	0.014106062
232	0xbcadfa1e	-0.02123743
233	0x3dbeb9ea	0.09312804
234	0xbca774d6	-0.020441454
235	0xbdbc8215	-0.09204499
236	0x91209f62	-1.2670888e-28
237	0xbc0c42b7	-0.008560828
238	0x3c1ce853	0.009576875
239	0x3d115b3a	0.03548739
240	0x8001fc55	-1.82355e-40
241	0xbb0a01c6	-0.0021058186
242	0x3c985d9d	0.018599326
243	0xbd3c2e42	-0.045942552
244	0x3dc83e98	0.09777564
245	0xbbf1562e	-0.0073650097
246	0xbd4e2ee3	-0.050337683
247	0xbcb4f832	-0.022091005
248	0x3c678918	0.014131807
249	0x3cfbd98a	0.03074338
250	0x3d267a4a	0.040643968
251	0x3d50a246	0.050936006
252	0x3d07a86d	0.033119608
253	0x3dab24e5	0.083566464
254	0x3cbb9ce9	0.022901969
255	0x3cb31ed4	0.021865286

fc3.bias f4 [24]
0	0xbe044675	-0.12917502
1	0xbd9b308b	-0.07577618
2	0xbe387c93	-0.18016271
3	0xbe10a322	-0.1412473
4	0x3e013cf3	0.12620907
5	0xbd864488	-0.0655604
6	0xbd91bc0f	-0.071159475
7	0x3d81711b	0.06320401
8	0xbc83b0a2	-0.016075436
9	0xbdeb51bc	-0.11490199
10	0xbd916d75	-0.071009554
11	0xbce96710	-0.028491527
12	0x3d124104	0.035706535
13	0xbc80b780	-0.0157125
14	0x3c47f497	0.012204311
15	0xbd9e49c5	-0.07728914
16	0x3d9b034c	0.07568988
17	0x3db3c5c6	0.08777957
18	0xbe248c3c	-0.1606912
19	0x3e049b96	0.12949976
20	0xbd913100	-0.07089424
21	0x3d962522	0.07331301
22	0x3d656c9c	0.05601178
23	0xbdc31d4e	-0.09527074

fc3.weight_g f4 [24, 1]
0	0x3f17660c	0.59140086
1	0x3f178516	0.5918745
2	0x3f269e01	0.65084845
3	0x3f0fb40f	0.5613412
4	0x3f1679f0	0.5877981
5	0x3f1e1852	0.6175586
6	0x3f2c094a	0.67201674
7	0x3f20096c	0.62514377
8	0x3f25c8da	0.647596
9	0x3f11ffc1	0.57030874
10	0x3f234f4d	0.6379288
11	0x3f1b0dde	0.60568035
12	0x3f0bd762	0.54625523
13	0x3f15cb10	0.58512974
14	0x3f22a612	0.63534653
15	0x3f1ab7b5	0.60436565
16	0x3f1173df	0.5681743
17	0x3f167ced	0.5878437
18	0x3f0f7e62	0.5605222
19	0x3f18be2a	0.5966517
20	0x3f21d73d	0.6321905
21	0x3f1b164c	0.605809
22	0x3f1e4d6f	0.61836904
23	0x3f11ad7e	0.56905353

fc3.weight_v f4 [24, 48]
0	0xbd5dc1ef	-0.054140028
1	0x3dc220fd	0.09478948
2	0x3de9c103	0.11413767
3	0xbe154043	-0.14575295
4	0xbd8a3328	-0.067480385
5	0xbd313161	-0.043259982
6	0x3d1eeb05	0.03879835
7	0xbe0a3c4c	-0.13499564
8	0x3d24ac2e	0.040203266
9	0x3d1c418d	0.03814845
10	0xae0b42af	-3.1664168e-11
11	0xbd60875c	-0.05481659
12	0xbd6150d3	-0.05500872
13	0x3d0b08d4	0.033943966
14	0xbd402dad	-0.04691856
15	0xbde6c757	-0.1126849
16	0xac2689ac	-2.3666442e-12
17	0x3dce40e0	0.10070968
18	0x3cad49ae	0.021153297
19	0xbd392ca2	-0.04520858
20	0x3de8f4c5	0.11374811
21	0x3e0508b9	0.12991609
22	0x3e14227f	0.14466284
23	0x3dd5669c	0.10419962
24	0x3dbdad7f	0.092616074
25	0x3deaed5c	0.11471054
26	0xbcb0bd00	-0.021574497
27	0xbe18cc34	-0.14921647
28	0x3e13ab58	0.14420831
29	0x39e321ff	0.00043322143
30	0xbbfb62ff	-0.0076717134
31	0xbc3729bb	-0.011179383
32	0xbda74667	-0.08167725
33	0xbcb09d92	-0.02155951
34	0xbddce199	-0.10785217
35	0xbdae8561	-0.08521534
36	0xbd9bdd31	-0.07610548
37	0x3de25dbc	0.11053035
38	0x3ce238fb	0.027615061
39	0x3dc5f645	0.09666113
40	0x3d660fb2	0.056167312
41	0x3d5e5530	0.05428046
42	0x3d4deba4	0.050273553
43	0x3df34e84	0.1188021
44	0x3d783176	0.060594045
45	0x3de40da3	0.111354135
46	0x3af83eef	0.0018939654
47	0x3dbdb773	0.09263506
48	0x3da253ca	0.07926138
49	0xbda163bc	-0.07880351
50	0x3e040efa	0.12896338
51	0xbc8347d0	-0.016025454
52	0xbbcbfc60	-0.006225154
53	0xbca94d8c	-0.02066686
54	0xbcd26920	-0.025684893
55	0x3c44fe00	0.012023449
56	0xbc9b19c8	-0.018933192
57	0xbdee7e72	-0.11645211
58	0xbd34da82	-0.044153698
59	0x3c4458d0	0.011984065
60	0x3d93a824	0.07209805
61	0x3e11644e	0.1419842
62	0xbc3e9fe0	-0.011634797
63	0x3d79ed74	0.06101747
64	0xbd927ab8	-0.07152313
65	0xbdbf9d2a	-0.093561485
66	0xbc948e70	-0.018134326
67	0xbde3d063	-0.11123731
68	0xbd74405e	-0.059631698
69	0xbdf03ccd	-0.11730347
70	0x3cd4a1a8	0.02595599
71	0x3dd83094	0.105561405
72	0xbc88d4d0	-0.01670304
73	0x3c448b20	0.011996061
74	0x3e071da8	0.13194907
75	0x3c3c0610	0.011476055
76	0x3e065312	0.13117626
77	0xbcdc9a50	-0.02692905
78	0xbd8d3208	-0.06894308
79	0x3e0852c8	0.13312829
80	0x3d9bce3c	0.076076955
81	0x3e12eff0	0.14349341
82	0xbe0f210e	-0.13977453
83	0xbdfc8d50	-0.12331641
84	0xbe05b7c0	-0.13058376
85	0xbd9141d0	-0.07092631
86	0xbd820e2a	-0.06350358
87	0x3ced0f50	0.028937966
88	0xbdea49ea	-0.11439879
89	0xbd8a9a2b	-0.067676865
90	0x3d130438	0.035892695
91	0x3db8aee4	0.09017733
92	0x3d940bf8	0.07228845
93	0x3e11169e	0.14168784
94	0x3d8812f6	0.066442415
95	0xbdfecd54	-0.12441507
96	0x800c5953	-1.13407e-39
97	0x3cfbc8f8	0.030735478
98	0xbe1d391e	-0.1535382
99	0xbde0a6fb	-0.10969349
100	0x3b02443a	0.0019877092
101	0x3e1b4b0a	0.15165344
102	0x3c715894	0.014730591
103	0xbb336b39	-0.0027377142
104	0xbe1304c4	-0.14357287
105	0xbd9bc3f0	-0.076057315
106	0x04278098	1.9689803e-36
107	0xbd360bc7	-0.044444826
108	0x3d62f31f	0.05540764
109	0x3d3e6864	0.046486273
110	0x3c9a3b19	0.018827008
111	0x3daa4920	0.08314729
112	0x3dc9b70f	0.09849369
113	0x3dedd8f8	0.11613649
114	0x3e030e88	0.12798512
115	0xbdb871cb	-0.09006079
116	0x3db86e35	0.09005395
117	0x3dfcf676	0.12351696
118	0xbb1df879	-0.00241044
119	0x3d4db35e	0.050219886
120	0xbd098eed	-0.03358357
121	0x000609f6	5.54586e-40
122	0x3d5ee000	0.05441284
123	0x3b48ceb5	0.0030640785
124	0x3dfd95e6	0.123821065
125	0xbd335c1f	-0.043789025
126	0xbd852198	-0.06500548
127	0x3c9e338c	0.019311689
128	0xbd21259f	-0.03934252
129	0x3c1f4864	0.009721849
130	0xbd9858b4	-0.07438794
131	0xbd9225bc	-0.071361035
132	0xbdf6bba2	-0.12047507
133	0x3d405170	0.046952665
134	0x3d233820	0.039848447
135	0xbda2a924	-0.07942417
136	0x39d36a0a	0.0004032406
137	0xbe25318f	-0.16132186
138	0xbcca99ad	-0.024731481
139	0xbc9bbda3	-0.019011324
140	0x3d59c618	0.053167433
141	0x3d9d0d3b	0.07668539
142	0x3d5a6351	0.05331737
143	0x3d914d31	0.07094801
144	0x3e034185	0.12817962
145	0xbd8607d0	-0.06544459
146	0xbd6c9fc0	-0.057769537
147	0xbd536a68	-0.05161515
148	0x3b74033a	0.0037233368
149	0xbd033384	-0.03203155
150	0xbd79aade	-0.060953967
151	0x3c7e17a8	0.01550857
152	0xbdb9a8a2	-0.09065367
153	0xbe102363	-0.14075999
154	0xbc946959	-0.01811664
155	0xbde49682	-0.111615196
156	0xbe1271cb	-0.14301221
157	0x3d2c1573	0.042012643
158	0x3bde27ee	0.0067796623
159	0xbd4c21f8	-0.049837083
160	0x39f0a25b	0.0004589733
161	0x3db98f12	0.090604916
162	0x3dbd7cc8	0.09252316
163	0x3df6f1cd	0.120578386
164	0x3ccb54db	0.024820736
165	0x3e094442	0.13404945
166	0x3d228ab2	0.03968305
167	0x3dde075c	0.108412474
168	0xbce568c5	-0.02800406
169	0xbdb0ed40	-0.08639002
170	0xbe096b32	-0.13419798
171	0xbe095fb2	-0.13415411
172	0xbd9da59a	-0.076976016
173	0xbd215b12	-0.039393492
174	0xbddb7b7c	-0.10716912
175	0xbbbbf0bb	-0.0057354844
176	0x3dde78cf	0.10862886
177	0xbda64011	-0.081176884
178	0x3dbe07be	0.092788205
179	0x3cd98aa6	0.02655537
180	0xbde1c56e	-0.11023985
181	0xbd1d7569	-0.03844205
182	0x3c80f6ba	0.015742648
183	0x3d00cb1a	0.031443693
184	0x3dea3bd5	0.11437193
185	0xbd2dfef4	-0.04247947
186	0x3bb4fc87	0.0055232677
187	0xbd831155	-0.0639979
188	0xbde8b119	-0.11361904
189	0x3d746950	0.059670746
190	0x3d25b61b	0.040456872
191	0x3de9d4c5	0.11417536
192	0xbd9974bf	-0.07492971
193	0x3e0a7691	0.13521792
194	0xbd881a5a	-0.06645651
195	0x3b9bbf84	0.004753055
196	0x3dc2df4c	0.09515247
197	0x3dca6001	0.098815925
198	0xbc8598bb	-0.01630818
199	0xbc6ca6a8	-0.014444031
200	0x3d99ab5a	0.07503386
201	0x39e62d92	0.0004390297
202	0xbd97d2af	-0.074132316
203	0xbe0d961e	-0.13826796
204	0x3df2b09a	0.1185009
205	0x3d56fda9	0.052488003
206	0x3d994067	0.07482987
207	0x3e026917	0.12735401
208	0xbdbad551	-0.09122718
209	0x3e0a4ff5	0.13507064
210	0x3dc7df11	0.097593434
211	0x3db67d27	0.0891059
212	0x3c9322cc	0.017960928
213	0x3dbc0f48	0.09182602
214	0x3de94665	0.1139038
215	0xbd3ba0a4	-0.045807496
216	0xbdd9c980	-0.10634136
217	0xbd88d7ff	-0.06681823
218	0x3ccd5990	0.02506712
219	0xbd06251f	-0.032750245
220	0xbd06b28f	-0.03288513
221	0xbd25c2c5	-0.04046895
222	0xbd95c76a	-0.07313426
223	0xbe059841	-0.13046362
224	0x3dc8f782	0.09812833
225	0x3dafcc2d	0.08583865
226	0x3d9a7b07	0.07542997
227	0xbdfacdde	-0.12246297
228	0x3d6d9871	0.058006708
229	0xbd2093b6	-0.039203368
230	0x3cd6ae01	0.026206018
231	0x3d83adaf	0.06429612
232	0x3ddb9b71	0.107230075
233	0xbda218e5	-0.079149045
234	0xbde84a6c	-0.1134232
235	0x3c0dc8ce	0.008653833
236	0x3dc0a2f6	0.09406082
237	0xbd96a0d4	-0.07354894
238	0xbd0b8dbf	-0.034070726
239	0x3ddcdffd	0.1078491
240	0xbbe777a2	-0.007063822
241	0x3db10007	0.08642583
242	0x3e18d812	0.14926174
243	0x3dce0b6c	0.10060772
244	0xbd6771b2	-0.056504913
245	0xbdfc8e28	-0.12331802
246	0x3d0e5875	0.034752328
247	0x3dc5f5dc	0.096660346
248	0x3e30292b	0.17203204
249	0x3dc3a49b	0.095528804
250	0x3d84004d	0.0644537
251	0x80023a12	-2.04503e-40
252	0x3c2f4164	0.010696743
253	0x3d6aaaa8	0.057291657
254	0xbb1fdef1	-0.0024394358
255	0xbcae74cb	-0.021295926

fc4.weight f4 [2, 24]
0	0x3dcfa181	0.10138226
1	0x3e2e8378	0.17042339
2	0x3e2bea3e	0.16788575
3	0x3e1e50ca	0.15460506
4	0xbe1c3746	-0.1525546
5	0xbd9e9550	-0.07743323
6	0x3e05c9ef	0.13065313
7	0xbdd438c1	-0.103623874
8	0x3d9da3b5	0.0769724
9	0xbe054516	-0.13014635
10	0x3d710afd	0.05884837
11	0x3dff86e8	0.12476903
12	0x3ce562a2	0.028001133
13	0xbe14c97a	-0.14529982
14	0xbe0529e9	-0.13004269
15	0x3dbddaec	0.09270272
16	0xbe3b1468	-0.18269503
17	0xbdf648e9	-0.12025625
18	0x3e19a1c5	0.15003116
19	0xbc995cff	-0.018721102
20	0xbe347aa5	-0.1762491
21	0xbd67e60c	-0.056615874
22	0x3e1de032	0.15417555
23	0x3d4fc6e8	0.0507268
24	0xbe516ae3	-0.2045093
25	0x3c80a9c8	0.015705958
26	0x3e467b16	0.19382891
27	0x3e0b919b	0.13629763
28	0x3d6e1ee8	0.058134943
29	0xbe359dd6	-0.17735991
30	0x3e7a7115	0.244572
31	0x3e3c98c1	0.18417646
32	0xbe388645	-0.1801997
33	0x3ce62338	0.028092965
34	0xbc7e73a0	-0.015530497
35	0xbde0aac3	-0.1097007
36	0xbd3c18ba	-0.04592202
37	0xbd9fc1b0	-0.07800615
38	0xbc880aff	-0.016606806
39	0xbc158750	-0.009126499
40	0x3dc738b8	0.09727615
41	0xbe419e19	-0.18907966
42	0xbe147a4e	-0.1449978
43	0xbd7ab278	-0.061205357
44	0xbd6b5be6	-0.057460688
45	0xbd93b5e6	-0.07212429
46	0x3e19b78e	0.15011427
47	0xbc8586b0	-0.016299576

fc4.bias f4 [2]
0	0x3d22fc7a	0.03979156
1	0xbd9fa6bb	-0.07795473

exp_avg f4 [96]
0	0x00000000	0.0
1	0x00000000	0.0
2	0x00000000	0.0
3	0x39daa00f	0.00041699453
4	0x00000000	0.0
5	0xb78c8574	-1.6751444e-05
6	0x3a04f4fe	0.0005071907
7	0x00000000	0.0
8	0x39bfe824	0.00036603317
9	0xb644af8e	-2.9308462e-06
10	0x00000000	0.0
11	0xba594563	-0.00082882325
12	0xbb491025	-0.003067979
13	0xb65ede5a	-3.3210003e-06
14	0x394175ac	0.0001844975
15	0x00000000	0.0
16	0x3a0d38c3	0.00053871813
17	0xba8128fa	-0.0009854131
18	0x00000000	0.0
19	0x00000000	0.0
20	0x00000000	0.0
21	0xb9656da3	-0.00021879985
22	0x39338806	0.00017121443
23	0x3aa62e01	0.0012678505
24	0xba269390	-0.0006354386
25	0xbb0f8736	-0.002190066
26	0xbaef9423	-0.0018278401
27	0x00000000	0.0
28	0x00000000	0.0
29	0xba6ae222	-0.0008960088
30	0x00000000	0.0
31	0x3a5e227e	0.00084737677
32	0xb8f2116b	-0.000115427036
33	0xba6e2cce	-0.0009085656
34	0x00000000	0.0
35	0x00000000	0.0
36	0xb984feb0	-0.0002536676
37	0x3a0f2c72	0.000546164
38	0x00000000	0.0
39	0x3848c8ec	4.787084e-05
40	0xb9ce8741	-0.00039392154
41	0x3a00d663	0.00049147586
42	0x00000000	0.0
43	0xbb35dcaa	-0.0027749934
44	0x00000000	0.0
45	0x39a51b93	0.00031491797
46	0x3acfd75b	0.0015857028
47	0x00000000	0.0
48	0x00000000	0.0
49	0x00000000	0.0
50	0xb62199da	-2.4080423e-06
51	0xbab68d58	-0.0013927622
52	0xb8175262	-3.607793e-05
53	0xba2540cc	-0.0006303906
54	0xb9f5e726	-0.0004690226
55	0xbae65ddf	-0.0017575583
56	0x3a5c5793	0.00084053836
57	0x3aa5192e	0.0012596005
58	0xb71ff0f1	-9.533237e-06
59	0xb878543d	-5.920626e-05
60	0x00000000	0.0
61	0x3b029221	0.0019923525
62	0x396a2ed0	0.00022333418
63	0x00000000	0.0
64	0x00000000	0.0
65	0x00000000	0.0
66	0xba56a6a8	-0.0008188286
67	0xb9a6477b	-0.00031715244
68	0xb9b0a7e7	-0.00033694433
69	0x38102ad9	3.437218e-05
70	0x3a74d287	0.00093392323
71	0x38d7cf50	0.00010290614
72	0x379e9b3b	1.8907353e-05
73	0x3a26ee41	0.00063679
74	0x00000000	0.0
75	0x00000000	0.0
76	0x3a602adf	0.000855131
77	0x3aa8822d	0.0012856178
78	0x00000000	0.0
79	0xbafbc072	-0.0019207133
80	0x00000000	0.0
81	0xba45a95a	-0.0007540189
82	0x39088a39	0.00013021463
83	0x3adb30da	0.0016722933
84	0x00000000	0.0
85	0x3a797882	0.0009516553
86	0xba42d9c7	-0.0007432964
87	0xbac600cb	-0.0015106437
88	0xba2f9252	-0.00066975236
89	0x00000000	0.0
90	0x3aafbbf2	0.0013407452
91	0x00000000	0.0
92	0x00000000	0.0
93	0x00000000	0.0
94	0x3b19be76	0.002345947
95	0xba840375	-0.0010071831

exp_avg_sq f4 [96]
0	0x00000000	0.0
1	0x00000000	0.0
2	0x00000000	0.0
3	0x35ae21bb	1.2973827e-06
4	0x00000000	0.0
5	0x3319488c	3.568907e-08
6	0x369cd8a1	4.674381e-06
7	0x00000000	0.0
8	0x370c44de	8.360685e-06
9	0x31c1ac3c	5.63662e-09
10	0x00000000	0.0
11	0x35a7e619	1.2509437e-06
12	0x37574d23	1.2832958e-05
13	0x3331173d	4.123216e-08
14	0x364de135	3.0678468e-06
15	0x00000000	0.0
16	0x36174d0c	2.25456e-06
17	0x363698a8	2.720897e-06
18	0x00000000	0.0
19	0x00000000	0.0
20	0x00000000	0.0
21	0x3620346c	2.3872371e-06
22	0x362ee6d0	2.606237e-06
23	0x3715ac76	8.921246e-06
24	0x355ba2d8	8.1820826e-07
25	0x36a2955e	4.845365e-06
26	0x381c169b	3.721435e-05
27	0x00000000	0.0
28	0x00000000	0.0
29	0x35ee3b76	1.7749687e-06
30	0x00000000	0.0
31	0x36aa3653	5.072719e-06
32	0x36ac01ad	5.1261945e-06
33	0x3726f6ed	9.951863e-06
34	0x00000000	0.0
35	0x00000000	0.0
36	0x358e5dff	1.0607181e-06
37	0x36ff7e6f	7.614311e-06
38	0x00000000	0.0
39	0x36f97b9d	7.4351688e-06
40	0x34ba3f6d	3.4691348e-07
41	0x360cd9a9	2.098832e-06
42	0x00000000	0.0
43	0x37c2d8fa	2.322764e-05
44	0x00000000	0.0
45	0x34b1ae7e	3.309578e-07
46	0x372c912d	1.02858e-05
47	0x00000000	0.0
48	0x00000000	0.0
49	0x00000000	0.0
50	0x33071aa5	3.145637e-08
51	0x36a20d50	4.829526e-06
52	0x36556ee7	3.1804027e-06
53	0x35c41c14	1.461131e-06
54	0x3668e219	3.47023e-06
55	0x36e4283a	6.7996125e-06
56	0x35c1f64f	1.4451306e-06
57	0x3681a99e	3.8642456e-06
58	0x331fdb9d	3.721981e-08
59	0x3332b765	4.161065e-08
60	0x00000000	0.0
61	0x37a71b6b	1.9920719e-05
62	0x36ae9f7c	5.2041705e-06
63	0x00000000	0.0
64	0x00000000	0.0
65	0x00000000	0.0
66	0x36af1889	5.2182627e-06
67	0x382309a0	3.8871192e-05
68	0x369879a3	4.5441134e-06
69	0x338bf8fc	6.517982e-08
70	0x378ec361	1.70187e-05
71	0x33e90ae5	1.085189e-07
72	0x3398eee7	7.121508e-08
73	0x3659dd70	3.2464413e-06
74	0x00000000	0.0
75	0x00000000	0.0
76	0x36dd96ce	6.603869e-06
77	0x37eb9e85	2.8088e-05
78	0x00000000	0.0
79	0x3783f42b	1.5730117e-05
80	0x00000000	0.0
81	0x370c2145	8.352396e-06
82	0x3771d93a	1.4415296e-05
83	0x37ff0139	3.0398938e-05
84	0x00000000	0.0
85	0x3704b1f2	7.909244e-06
86	0x37865f86	1.6018526e-05
87	0x36a2aee1	4.848335e-06
88	0x36d36fba	6.3012967e-06
89	0x00000000	0.0
90	0x36989df9	4.5483434e-06
91	0x00000000	0.0
92	0x00000000	0.0
93	0x00000000	0.0
94	0x3756ff72	1.28148695e-05
95	0x368c11a8	4.1743806e-06

exp_avg f4 [96, 1]
0	0x00000000	0.0
1	0x00000000	0.0
2	0x00000000	0.0
3	0x3bf91d5e	0.007602378
4	0x00000000	0.0
5	0xb799595c	-1.8280633e-05
6	0x3c076323	0.008263382
7	0x00000000	0.0
8	0xba9da7a6	-0.0012028113
9	0xb6bb7a9b	-5.5873074e-06
10	0x00000000	0.0
11	0xba0bb6db	-0.0005329677
12	0xbbeec2e5	-0.007286417
13	0xb7f15ed8	-2.8773604e-05
14	0xba5942ca	-0.00082878454
15	0x00000000	0.0
16	0x3b818705	0.003952863
17	0xbc717cff	-0.014739274
18	0x00000000	0.0
19	0x00000000	0.0
20	0x00000000	0.0
21	0xba7dc053	-0.00096798426
22	0xb9e8367a	-0.00044291076
23	0x3c5db2c5	0.0135313915
24	0xbb611c11	-0.0034349004
25	0xbc18b0f7	-0.009319535
26	0xbbb5ae40	-0.005544454
27	0x00000000	0.0
28	0x00000000	0.0
29	0xbc08f36d	-0.0083588185
30	0x00000000	0.0
31	0x3b2ca750	0.0026344843
32	0xbb1249e3	-0.0022321872
33	0xbaf5995e	-0.0018737724
34	0x00000000	0.0
35	0x00000000	0.0
36	0xba44ffa9	-0.0007514903
37	0x3c0b9d9b	0.008521463
38	0x00000000	0.0
39	0xb95dd0ae	-0.00021153942
40	0x36c90cff	5.9917797e-06
41	0x3c117e9d	0.008880285
42	0x00000000	0.0
43	0xbcb26b1c	-0.02177959
44	0x00000000	0.0
45	0x3aa3d9ab	0.0012500783
46	0x3c83096f	0.01599571
47	0x00000000	0.0
48	0x00000000	0.0
49	0x00000000	0.0
50	0xb80ba7e0	-3.329653e-05
51	0xbc0380a9	-0.00802628
52	0x3b68fe0c	0.0035551814
53	0xbbf6f8b7	-0.0075369733
54	0xba5f0ff0	-0.000850915
55	0xbc5c8338	-0.013459019
56	0x3c1c612c	0.009544652
57	0x3c6eb40b	0.014569293
58	0xb748e67a	-1.1974591e-05
59	0x36c4841c	5.8566347e-06
60	0x00000000	0.0
61	0x3c44c93a	0.012010867
62	0x3b1d5f76	0.0024013198
63	0x00000000	0.0
64	0x00000000	0.0
65	0x00000000	0.0
66	0xbb38e3f7	-0.002821205
67	0xbaccedb2	-0.0015634804
68	0xbb0f624c	-0.0021878658
69	0xb81a20d8	-3.674705e-05
70	0x3b8f6f8a	0.00437731
71	0x3856a812	5.1178104e-05
72	0xb6f46098	-7.2830117e-06
73	0x3bec8222	0.0072176615
74	0x00000000	0.0
75	0x00000000	0.0
76	0x3bb071bc	0.005384652
77	0x3c0c3578	0.00855767
78	0x00000000	0.0
79	0xbc11b59c	-0.008893397
80	0x00000000	0.0
81	0xba8f8be2	-0.0010951723
82	0x3a1aeb6a	0.0005909713
83	0x3b16fe82	0.0023039882
84	0x00000000	0.0
85	0x3bb9fd1d	0.0056759254
86	0xbb9566e4	-0.0045593847
87	0xbc7fa278	-0.0156027
88	0xbb595fc6	-0.0033168658
89	0x00000000	0.0
90	0x3c30eec1	0.010799111
91	0x00000000	0.0
92	0x00000000	0.0
93	0x00000000	0.0
94	0x3c411632	0.011785077
95	0xbb6e7377	-0.003638474

exp_avg_sq f4 [96, 1]
0	0x00000000	0.0
1	0x00000000	0.0
2	0x00000000	0.0
3	0x39c66d2f	0.0003784685
4	0x00000000	0.0
5	0x339393fe	6.8721405e-08
6	0x3a422ecf	0.0007407488
7	0x00000000	0.0
8	0x39c8880b	0.00038248333
9	0x31f0e8ba	7.0113773e-09
10	0x00000000	0.0
11	0x351109b9	5.403086e-07
12	0x390ed01f	0.00013619706
13	0x33279667	3.9019508e-08
14	0x363d99b8	2.825267e-06
15	0x00000000	0.0
16	0x3a2cf84a	0.0006598277
17	0x3a10866a	0.00055131933
18	0x00000000	0.0
19	0x00000000	0.0
20	0x00000000	0.0
21	0x39731e43	0.00023185559
22	0x39457ce4	0.0001883391
23	0x3ae99a33	0.0017822444
24	0x37dfa633	2.6661064e-05
25	0x38edac4d	0.00011333134
26	0x39054900	0.00012711063
27	0x00000000	0.0
28	0x00000000	0.0
29	0x39196762	0.0001462973
30	0x00000000	0.0
31	0x3834310d	4.2961026e-05
32	0x39d0bd85	0.00039814055
33	0x38b2ef88	8.5323176e-05
34	0x00000000	0.0
35	0x00000000	0.0
36	0x36f68059	7.346313e-06
37	0x3b0d264d	0.0021537722
38	0x00000000	0.0
39	0x36b6ba55	5.4457146e-06
40	0x323bbd2d	1.0927846e-08
41	0x39df40c4	0.0004258213
42	0x00000000	0.0
43	0x3b43675f	0.0029816253
44	0x00000000	0.0
45	0x368c4fcb	4.1816143e-06
46	0x3b1e238d	0.0024130077
47	0x00000000	0.0
48	0x00000000	0.0
49	0x00000000	0.0
50	0x33043e47	3.0790286e-08
51	0x397a0c63	0.00023846472
52	0x3a5b9dbf	0.0008377693
53	0x3977749b	0.00023599195
54	0x38060cb8	3.1959935e-05
55	0x3a286835	0.00064242195
56	0x3982df14	0.00024961738
57	0x3a83c927	0.0010054455
58	0x33e7706f	1.0777227e-07
59	0x33323a29	4.149675e-08
60	0x00000000	0.0
61	0x3a9f6b55	0.0012162725
62	0x3a0d420c	0.0005388565
63	0x00000000	0.0
64	0x00000000	0.0
65	0x00000000	0.0
66	0x38bbe4c4	8.959466e-05
67	0x37dac01c	2.6077083e-05
68	0x3a0b6696	0.00053177157
69	0x33d2d880	9.818268e-08
70	0x39b5c0fe	0.000346668
71	0x3339596f	4.315501e-08
72	0x3483a92f	2.452375e-07
73	0x39ee1749	0.00045412246
74	0x00000000	0.0
75	0x00000000	0.0
76	0x3a31ad31	0.00067778217
77	0x3bb1ddea	0.0054280655
78	0x00000000	0.0
79	0x3a78ccf2	0.00094909885
80	0x00000000	0.0
81	0x37426f32	1.1589191e-05
82	0x37d5d76f	2.5491898e-05
83	0x3a41c0c7	0.0007391092
84	0x00000000	0.0
85	0x3aa7ab82	0.0012792202
86	0x3a201ae5	0.0006107523
87	0x3a6e074a	0.00090800656
88	0x38c5bfaa	9.429392e-05
89	0x00000000	0.0
90	0x39edef68	0.00045382534
91	0x00000000	0.0
92	0x00000000	0.0
93	0x00000000	0.0
94	0x3a33d30e	0.00068597577
95	0x38b22c43	8.495946e-05

exp_avg f4 [96, 3]
0	0x00000000	0.0
1	0x00000000	0.0
2	0x00000000	0.0
3	0x00000000	0.0
4	0x00000000	0.0
5	0x00000000	0.0
6	0x00000000	0.0
7	0x00000000	0.0
8	0x00000000	0.0
9	0x3aea0df8	0.0017856946
10	0xbaf6fe30	-0.0018844064
11	0xba40791a	-0.0007342264
12	0x00000000	0.0
13	0x00000000	0.0
14	0x00000000	0.0
15	0xb8d03725	-9.928484e-05
16	0xb8f5652e	-0.000117013566
17	0xb73dbf64	-1.13098395e-05
18	0x3bc399a2	0.005969242
19	0x3a057251	0.0005090582
20	0x3bbda74d	0.005787766
21	0x00000000	0.0
22	0x00000000	0.0
23	0x00000000	0.0
24	0x3a5079de	0.000795273
25	0xba420d51	-0.0007402497
26	0x3a22bfaa	0.000620837
27	0xb6790440	-3.7106365e-06
28	0xb7088600	-8.137431e-06
29	0xb658fe18	-3.233441e-06
30	0x00000000	0.0
31	0x00000000	0.0
32	0x00000000	0.0
33	0xbc4d2bed	-0.01252268
34	0xbacd0f8c	-0.0015644892
35	0x39a6dcad	0.00031826404
36	0xbd279493	-0.040913176
37	0xbc8ad1ec	-0.016945802
38	0x3b7412b6	0.0037242598
39	0x368912c0	4.085101e-06
40	0xb7d72dc0	-2.5651301e-05
41	0xb7c4dd3e	-2.3468045e-05
42	0x3badd45c	0.005304856
43	0x3b345361	0.0027515518
44	0xb9964dd1	-0.00028668207
45	0x00000000	0.0
46	0x00000000	0.0
47	0x00000000	0.0
48	0x3a83f0bf	0.0010066255
49	0xbb1c93a9	-0.0023891723
50	0x3a63b9ed	0.0008687068
51	0xbbcde7b8	-0.0062837265
52	0xba28c1ee	-0.0006437589
53	0xbc0dcd8b	-0.008654962
54	0x00000000	0.0
55	0x00000000	0.0
56	0x00000000	0.0
57	0x00000000	0.0
58	0x00000000	0.0
59	0x00000000	0.0
60	0x00000000	0.0
61	0x00000000	0.0
62	0x00000000	0.0
63	0xbaad2fe0	-0.001321312
64	0xbb34221e	-0.0027486156
65	0x39cdafc7	0.0003923161
66	0x3a62f274	0.0008657344
67	0xb9ac3f51	-0.0003285357
68	0x3756af40	1.2796198e-05
69	0x3bc2bba1	0.0059427773
70	0x3a96e022	0.0011510889
71	0xbc0210c8	-0.007938571
72	0xbc03d3c9	-0.008046099
73	0xbbd7dfc2	-0.0065879533
74	0x3aaccc42	0.0013183432
75	0xbce7e03d	-0.028305167
76	0xbc9967ca	-0.018726248
77	0x3b3c504d	0.0028734386
78	0xbcaba759	-0.020953821
79	0xbbbd5a7e	-0.00577861
80	0xba58e92d	-0.0008274492
81	0x00000000	0.0
82	0x00000000	0.0
83	0x00000000	0.0
84	0x00000000	0.0
85	0x00000000	0.0
86	0x00000000	0.0
87	0xbc2d6265	-0.010582541
88	0xbc16c74d	-0.00920279
89	0x3bc3e4bd	0.0059781955
90	0x00000000	0.0
91	0x00000000	0.0
92	0x00000000	0.0
93	0x3c44774a	0.011991331
94	0x3b70180c	0.0036635427
95	0x3b487ada	0.0030590803
96	0xbb3508a5	-0.002762356
97	0xbb45c6cd	-0.003017831
98	0x3aa6eda0	0.0012735613
99	0xbcacbd5f	-0.021086393
100	0xbc4fed9c	-0.012690928
101	0x3a3180b8	0.0006771195
102	0x00000000	0.0
103	0x00000000	0.0
104	0x00000000	0.0
105	0x00000000	0.0
106	0x00000000	0.0
107	0x00000000	0.0
108	0xbaf1a1cf	-0.0018435064
109	0xb9dbc56f	-0.00041918035
110	0xb9bf6e9a	-0.00036512763
111	0x3bdb4aec	0.006692281
112	0xbb9c8552	-0.004776635
113	0xb9c6c7e4	-0.00037914433
114	0x00000000	0.0
115	0x00000000	0.0
116	0x00000000	0.0
117	0x3baa7bca	0.005202745
118	0x3b219dcd	0.0024660707
119	0xb91e5f04	-0.0001510345
120	0xbbfbfc56	-0.007689993
121	0xbb44ea78	-0.003004698
122	0xb9f3c175	-0.00046492708
123	0x3b5abbe0	0.0033376142
124	0x3a84222f	0.0010080988
125	0x3ba8b3dd	0.0051483945
126	0x00000000	0.0
127	0x00000000	0.0
128	0x00000000	0.0
129	0xbccb8ac0	-0.024846435
130	0x3b374252	0.0027963114
131	0xbc73f857	-0.014890752
132	0x00000000	0.0
133	0x00000000	0.0
134	0x00000000	0.0
135	0x3b6fb43d	0.0036575936
136	0x3ad12dae	0.0015959048
137	0xb945c3a1	-0.00018860261
138	0x3ae9b529	0.0017830479
139	0x3baaf89c	0.005217625
140	0xbba8a2d6	-0.0051463647
141	0x00000000	0.0
142	0x00000000	0.0
143	0x00000000	0.0
144	0x00000000	0.0
145	0x00000000	0.0
146	0x00000000	0.0
147	0x00000000	0.0
148	0x00000000	0.0
149	0x00000000	0.0
150	0xb6f26a90	-7.2245675e-06
151	0xb707e6b0	-8.100338e-06
152	0xb57b5ccd	-9.363983e-07
153	0xbc79bea0	-0.015243202
154	0xbc0a549e	-0.008443026
155	0x3bcfa64c	0.006336963
156	0x3a401867	0.0007327855
157	0xba2039a3	-0.0006112104
158	0x375d2184	1.318043e-05
159	0xbb2beab6	-0.0026232428
160	0xbba51734	-0.0050381664
161	0x3b1aa76d	0.0023598329
162	0xbb85d6b0	-0.0040844306
163	0xbab050ad	-0.0013451778
164	0x3971e090	0.00023067207
165	0xbc5809c7	-0.013185925
166	0xbc644569	-0.013932564
167	0xbbc43065	-0.0059872144
168	0x3be8de26	0.0071065603
169	0xbb032eb8	-0.002001686
170	0x3bb87ba9	0.005629976
171	0x3ba940ef	0.0051652114
172	0xbb8e9788	-0.00435156
173	0x3b79dc2d	0.003812562
174	0xb8360c54	-4.3403663e-05
175	0xb83913b8	-4.41258e-05
176	0xb686ffed	-4.023305e-06
177	0xb9ef21c1	-0.0004561078
178	0xb9e38512	-0.0004339596
179	0xb7144fae	-8.840039e-06
180	0x00000000	0.0
181	0x00000000	0.0
182	0x00000000	0.0
183	0x3c5b939e	0.013401894
184	0x3c4177af	0.01180832
185	0x3bd0329b	0.006353689
186	0x3b565efb	0.0032710421
187	0x3b6202a1	0.003448643
188	0x3af510d1	0.0018697028
189	0x00000000	0.0
190	0x00000000	0.0
191	0x00000000	0.0
192	0x00000000	0.0
193	0x00000000	0.0
194	0x00000000	0.0
195	0x00000000	0.0
196	0x00000000	0.0
197	0x00000000	0.0
198	0xbc10bf43	-0.008834663
199	0xbb7d19ce	-0.0038620117
200	0xbb20f4c2	-0.002455995
201	0x3c043a2a	0.008070508
202	0x3b88b428	0.004171867
203	0xb908390a	-0.0001299122
204	0x37da6560	2.6034832e-05
205	0x3a8daeec	0.0010809577
206	0xba737a04	-0.0009287896
207	0x39f3a71a	0.00046473072
208	0x39fd81a8	0.00048352522
209	0x372bc743	1.02387885e-05
210	0x3b8f976d	0.004382065
211	0x3b38da76	0.0028206385
212	0xba69bb33	-0.00089161395
213	0x3ac66056	0.0015134912
214	0x3910d542	0.00013812355
215	0x380548e8	3.177757e-05
216	0x3991b47b	0.00027791024
217	0x39818908	0.00024706894
218	0x366b147c	3.5029652e-06
219	0x3b93e660	0.004513547
220	0x3b94ad10	0.004537232
221	0x3bb43aa4	0.0055001546
222	0x00000000	0.0
223	0x00000000	0.0
224	0x00000000	0.0
225	0x00000000	0.0
226	0x00000000	0.0
227	0x00000000	0.0
228	0x3bf5e708	0.0075043477
229	0xba04f390	-0.0005071694
230	0xbb8d812f	-0.0043183784
231	0x3b4b559d	0.0031026371
232	0x38b00110	8.392532e-05
233	0xbb9e3abe	-0.00482878
234	0x00000000	0.0
235	0x00000000	0.0
236	0x00000000	0.0
237	0xbcaf632f	-0.0214096
238	0xbadff321	-0.0017086008
239	0xbbca1d23	-0.006168024
240	0x00000000	0.0
241	0x00000000	0.0
242	0x00000000	0.0
243	0xbbbb77d4	-0.0057210717
244	0xbb71c242	-0.0036889468
245	0x3a25fd13	0.00063319615
246	0x3bcf5422	0.006327168
247	0x3b2ca668	0.0026344303
248	0x398b4d70	0.0002656984
249	0x3c865988	0.016400114
250	0xba663e4f	-0.00087830884
251	0xbb22f63a	-0.0024866
252	0x00000000	0.0
253	0x00000000	0.0
254	0x00000000	0.0
255	0x3bc29690	0.0059383586
