Secondary_Models/Mdl_Medium_Network_Stp0.1_lr1e-05_v2.2.pt (torch_old, 889051 bytes, 24 tensors)

fc1.weight f4 [96, 3]
0.3329676 -0.35835534 -0.56031793 0.5177693 0.50912035 0.13129385 0.2710654 0.055271015
-0.42459986 0.18803647 -0.15170991 0.5336838 -0.51776385 0.525739 -0.25655007 -0.11037308
-0.29070866 0.42923033 0.18483017 -0.10886722 -0.1275793 0.5121017 -0.41478673 -0.21992862
-0.28982598 0.5414227 0.3503399 0.07423042 0.12691686 -0.0020737334 0.1404132 -0.10039487
-0.40188855 -0.1882638 -0.54268855 -0.2012701 0.53596103 0.17686358 0.21857531 -0.5505786
-0.12585866 -0.13050431 -0.0012702942 -0.46747404 -0.286091 -0.11621994 -0.42545557 0.14958763
-0.537645 0.19864005 -0.18541482 -0.23852184 -0.4437216 0.3918451 0.29123238 -0.15252271
-0.12636942 0.53158736 0.11913073 0.047936264 -0.4969803 0.49347478 -0.5300872 0.1841888
-0.3362114 -0.5483009 -0.26363894 0.07492435 0.20078212 -0.5168044 -0.3578681 -0.46079135
-0.5203272 -0.06685293 -0.42733175 0.56450826 -0.24054542 0.43767083 -0.09138879 -0.39492106
0.5452131 -0.52431434 0.40708292 0.16056144 0.27710804 0.5576933 -0.07336324 0.4389146
-0.41658285 0.3100958 0.3869065 -0.50905144 -0.08511235 0.05615333 0.02775618 -0.6820387
0.0193452 -0.20039015 -0.09675187 0.46426278 0.007292944 0.40874436 -0.3113285 -0.05390674
0.46389925 0.5595091 -0.39876106 -0.39595258 0.45453307 0.5335281 0.16065058 0.2124783
0.076036096 0.57402873 0.4166058 -0.14589469 -0.4920979 -0.335164 -0.2090981 0.45401978
0.27332655 0.3753694 0.28603706 0.011337974 -0.0142784165 0.6097845 -0.48437542 0.4529073
0.2702697 0.5302107 0.20121233 0.0009026941 -0.19648226 0.534121 0.09009721 -0.3595765
-0.14102122 -0.41696596 0.453127 0.45696306 -0.25681525 0.26899058 0.29454896 0.29815695
-0.1252859 -0.35448465 -0.1581313 -0.13957319 -0.36328337 0.00395602 0.17052048 0.06506734
-0.03662691 -0.09273633 -0.31831107 -0.3905303 -0.115893155 -0.5743187 0.27277488 -0.32161006
-0.18672666 0.46398008 -0.57087743 0.00239259 0.18319893 -0.55410236 -0.06294465 0.36538297
-0.28624338 0.014358044 -0.028428614 0.57169974 -0.12599167 -0.58698356 0.035695065 0.1511433
0.3213428 -0.42539123 0.2086649 0.2203449 0.1737107 -0.17444026 -0.27084517 0.15489742
-0.45845714 0.65209836 -0.43669027 0.51540434 -0.24035 0.20708862 0.06919131 0.2869778
-0.31858626 0.5028572 -0.020449985 -0.07131678 -0.14188346 -0.5726936 0.37411103 -0.24916661
-0.30319384 -0.44181705 -0.36289382 0.5400698 -0.25556454 -0.19442877 -0.4056688 0.36685994
-0.21659116 -0.6007013 0.18056585 0.055384777 -0.23425183 -0.43568203 0.20974565 0.5049238
0.4927256 0.06598677 0.15623234 -0.16439827 0.33552524 0.06493553 -0.34281087 -0.013998687
-0.26606965 -0.49953333 0.55879027 -0.56834316 -0.30512697 -0.43456402 -0.15221113 0.06897684
0.011199395 -0.25551036 0.4827489 -0.03565206 0.24477552 -0.46337727 -0.35482067 0.4338796
0.30790147 0.37147513 -0.4838342 -0.03261709 0.5079646 0.6676033 -0.36503026 0.53412193
-0.33054397 0.13964547 0.2925985 0.37874788 -0.037260454 -0.014223027 -0.093429685 0.5411617
00000000: bb7a aa3e 5a7a b7be ff70 0fbf 878c 043f
00000010: b655 023f e571 063e 16c9 8a3e dc63 623d
00000020: 2765 d9be a28c 403e d859 1bbe 809f 083f
00000030: 2c8c 04bf d596 063f 885a 83be 480b e2bd
00000040: c4d7 94be 14c4 db3e 1f44 3d3e c7f5 debd
00000050: 26a4 02be 1919 033f ed5e d4be f834 61be
00000060: 1264 94be ae9a 0a3f c05f b33e 1e06 983d
00000070: 7ef6 013e 79e7 07bb 7ac8 0f3e d39b cdbd
00000080: 56c4 cdbe 3ac8 40be a3ed 0abf c019 4ebe
00000090: be34 093f ba1b 353e 35d2 5f3e b8f2 0cbf
000000a0: 18e1 00be eca2 05be 0080 a6ba c258 efbe
000000b0: 857a 92be b804 eebd 50d5 d9be 802d 193e
000000c0: 1aa3 09bf 4c68 4b3e 62dd 3dbe 123f 74be
000000d0: 7a2f e3be ec9f c83e 691c 953e ea2e 1cbe
000000e0: fc66 01be 1c16 083f d0fa f33d d158 443d
000000f0: 3474 febe baa8 fc3e cbb3 07bf fd9b 3c3e
00000100: e723 acbe 735d 0cbf affb 86be f071 993d
00000110: d499 4d3e 4b4d 04bf 7d3a b7be d8ec ebbe
00000120: 2a34 05bf 30ea 88bd 3acb dabe 9d83 103f
00000130: 8a51 76be 6416 e03e 0c2a bbbd 1833 cabe
00000140: 1693 0b3f 7739 06bf 2c6d d03e 386a 243e
00000150: 1be1 8d3e fdc4 0e3f 773f 96bd 6ab9 e03e
00000160: 594a d5be e0c4 9e3e 9c18 c63e 3251 02bf
00000170: 624f aebd 0901 663d ee60 e33c 179a 2ebf
00000180: d379 9e3c 1333 4dbe d825 c6bd dab3 ed3e
00000190: a6f9 ee3b f146 d13e 7366 9fbe 50cd 5cbd
000001a0: 3484 ed3e fd3b 0f3f 692a ccbe 4cba cabe
000001b0: 8fb8 e83e 4c95 083f 9681 243e e993 593e
000001c0: d0b8 9b3d 8cf3 123f 5b4d d53e 6b65 15be
000001d0: 42f4 fbbe 9e9a abbe d01d 56be 4875 e83e
000001e0: 75f1 8b3e 6b30 c03e 7373 923e e9c2 393c
000001f0: 05f0 69bc d61a 1c3f 0e00 f8be 77e3 e73e
00000200: ca60 8a3e e3bb 073f 9b0a 4e3e c7a2 6c3a
00000210: a532 49be 27bc 083f e384 b83d 691a b8be
00000220: de67 10be 907c d5be 4300 e83e 10f7 e93e
00000230: 4a7d 83be 22b9 893e 1fcf 963e 07a8 983e
00000240: f24a 00be 037f b5be 2ced 21be 46ec 0ebe
00000250: 4700 babe 80a1 813b ec9c 2e3e 0742 853d
00000260: 1906 16bd 8cec bdbd abf9 a2be 96f3 c7be
00000270: 6459 edbd 8d06 13bf 26a9 8b3e 13aa a4be
00000280: 4635 3fbe cc8e ed3e 0625 12bf 00cd 1c3b
00000290: 8098 3b3e a7d9 0dbf 20e9 80bd 7a13 bb3e
000002a0: 7e8e 92be 003e 6b3c 20e3 e8bc ea5a 123f
000002b0: f603 01be 8e44 16bf fd34 123d 4fc5 1a3e
000002c0: 0b87 a43e e1cc d9be 40ac 553e 18a2 613e
000002d0: 38e1 313e 78a0 32be 38ac 8abe 6e9d 1e3e
000002e0: e5ba eabe ebef 263f de95 dfbe 8af1 033f
000002f0: 4f1e 76be 0a0f 543e 2cb4 8d3d c1ee 923e
00000300: bd1d a3be 40bb 003f ba86 a7bc 880e 92bd
00000310: e649 11be 0c9c 12bf 7b8b bf3e 8825 7fbe
00000320: 393c 9bbe d835 e2be 38cd b9be 0442 0a3f
00000330: 5bd9 82be 5618 47be d2b3 cfbe 11d5 bb3e
00000340: 13ca 5dbe 8fc7 19bf 41e6 383e 26db 623d
00000350: b6df 6fbe b711 dfbe 90c7 563e b042 013f
00000360: 8846 fc3e 1224 873d 5ffb 1f3e 0558 28be
00000370: f7c9 ab3e ebfc 843d e884 afbe c05a 65bc
00000380: 483a 88be d5c2 ffbe e10c 0f3f f07e 11bf
00000390: 9a39 9cbe 2d7f debe 3cdd 1bbe bb43 8d3d
000003a0: ab7d 373c 41d2 82be dd2a f73e e507 12bd
000003b0: 6fa6 7a3e c93f edbe 0eab b5be 7825 de3e
000003c0: 43a5 9d3e fd31 be3e 1eb9 f7be 7f99 05bd
000003d0: f809 023f 0de8 2a3f 3fe5 babe 37bc 083f
000003e0: 0f3d a9be 39ff 0e3e 78cf 953e 3eeb c13e
000003f0: 6b9e 18bd b307 69bc 1058 bfbd 9389 0a3f

fc1.bias f4 [96]
0.35813266 -0.18582541 0.038335934 0.5149773 0.14868765 0.03622353 -0.043622334 0.39766774
0.3833307 0.5448779 0.48454505 -0.03279084 0.5029781 0.0013116598 -0.013500631 -0.3450018
-0.28879297 -0.10705003 -0.5546369 0.17297266 0.03579471 -0.34146625 -0.39968875 -0.36805642
0.4199525 -0.4261926 -0.32308698 -0.2803485 0.4198405 -0.21721071 0.008804959 0.25695294
0.60470086 -0.32571515 -0.13932756 0.35445943 0.6344208 0.5787068 0.39507464 -0.45684785
0.5079046 0.47235677 0.31485438 0.11376674 0.07629518 -0.11107129 0.27276146 0.013263429
-0.46205622 0.2213499 0.0009891306 -0.24913791 -0.54818887 0.012333274 -0.39150932 -0.22268978
0.42069304 -0.07961018 -0.12876585 -0.4522013 0.066461705 0.68872416 0.5271561 0.5736653
0.19700852 0.2021513 -0.58474964 0.3001998 0.44183028 0.57235295 0.06715093 -0.4788867
-0.08741813 -0.32800543 -0.40999216 -0.514237 -0.17270711 0.5271895 0.24482156 -0.07159656
-0.16070932 -0.11355385 0.5920138 0.47610018 0.39932275 -0.46967053 0.14106674 -0.12268913
0.4107233 -0.38726687 0.077320464 0.17264128 -0.27694505 -0.1440156 0.3872142 0.43822667
00000000: 2a5d b73e 0449 3ebe 2406 1d3d 8dd5 033f
00000010: 9341 183e 205f 143d 55ad 32bd 1b9b cb3e
00000020: ec43 c43e 1e7d 0b3f 4a16 f83e b04f 06bd
00000030: 2cc3 003f 00ec ab3a c031 5dbc 13a4 b0be
00000040: acdc 93be 0c3d dbbd affc 0dbf bf1f 313e
00000050: 799d 123d aad4 aebe 01a4 ccbe e471 bcbe
00000060: 0404 d73e eb35 dabe a86b a5be d789 8fbe
00000070: 56f5 d63e 7c6c 5ebe ad42 103c 568f 833e
00000080: adcd 1a3f 23c4 a6be e2ab 0ebe b57b b53e
00000090: 6769 223f 2126 143f 3947 ca3e f6e7 e9be
000000a0: 0906 023f bfd8 f13e 9834 a13e 89fe e83d
000000b0: a640 9c3d 5879 e3bd 64a7 8b3e da4e 593c
000000c0: a292 ecbe 8ca9 623e b7a5 813a 021e 7fbe
000000d0: 1b56 0cbf 8011 4a3c e973 c8be ca08 64be
000000e0: 1465 d73e a90a a3bd 32db 03be ee86 e7be
000000f0: 131d 883d 3a50 303f b4f3 063f bbdb 123f
00000100: 9abc 493e c000 4f3e 27b2 15bf cab3 993e
00000110: 9437 e23e b985 123f 6d86 893d a330 f5be
00000120: 4708 b3bd 54f0 a7be 7eea d1be 09a5 03bf
00000130: 22da 30be e4f5 063f 81b2 7a3e 38a1 92bd
00000140: fc90 24be ec8e e8bd 378e 173f 67c3 f33e
00000150: 0874 cc3e a878 f0be cd73 103e 7044 fbbd
00000160: 534a d23e d847 c6be 315a 9e3d e0c8 303e
00000170: becb 8dbe d378 13be f140 c63e 3f5f e03e

fc2.weight f4 [48, 96]
-0.07045304 0.019097285 0.010049704 0.11061991 0.043296963 -0.080260456 0.04488405 -0.052134246
0.13407458 -0.05145415 0.047172766 -0.070008785 0.059726845 -0.014410853 0.021148302 0.023396969
0.04988931 -0.053541098 -0.026743954 0.06452761 -0.0338848 0.0013949957 0.06549823 -0.043821998
0.04479386 -0.09862348 0.08700733 0.024860447 0.032577116 -0.10783652 -0.04020605 0.07302441
0.16912918 0.08760104 0.023477748 0.08659249 0.05963575 -0.04712244 -0.0001757287 0.05898331
-0.0015392114 -0.048840623 0.04736471 -0.0745844 0.116240054 0.07421619 -0.07416591 -0.013057048
-0.070075795 0.06531067 0.0018167826 -0.031297937 0.06047067 -0.08341683 0.047524273 0.009538971
-0.0048836023 -0.06414191 0.079753295 0.039591074 0.10269287 0.109259985 0.04401256 0.05229782
-0.05805072 0.039316103 -0.017658189 0.035938784 -0.013138458 -0.04785117 0.040327944 -0.09325015
0.09973142 -0.037937384 0.08284399 0.07325976 0.02942796 0.1069755 0.09813823 0.02688089
-0.08189435 0.07182921 0.026296377 -0.009740759 -0.06608551 -0.08494164 -0.050641313 -0.07992243
0.075669736 -0.12119814 -0.08461747 -0.06852688 -0.045982197 -0.09871466 0.123117186 0.052128922
-0.039417453 -0.03538634 0.041397482 0.060241014 0.0076029003 -0.08377908 -0.044195615 0.099957064
-0.03916364 -0.09975056 -0.013093807 -0.06882596 -0.057147577 0.04286608 0.075766385 -0.088097036
0.043464214 0.048527583 -0.019741386 -0.074952275 -0.094420984 0.05081731 -0.088194504 0.10043511
0.038385525 0.079983816 0.0810011 0.067789584 0.009628668 -0.07777923 -0.05997501 0.096269816
-0.0704039 -0.06781539 0.07377216 0.09351033 -0.026217543 0.025062516 0.004455596 0.036714807
0.033651516 -0.026485376 -0.006789826 0.0691759 0.039482325 -0.020600066 -0.04591925 -0.0028079674
0.078242525 0.061422408 -0.061584875 -0.07766527 -0.09576981 0.052603334 0.030686796 0.006655395
-0.054494023 -0.018401429 -0.045481566 -0.044796746 -0.055346414 0.08198805 -0.04704756 -0.058840618
-0.028112538 -0.09741562 -0.05437054 0.080876246 -0.0260384 0.060989097 0.047364697 -0.09935853
-0.012724012 0.060223147 0.06502551 -0.089605734 -0.016977817 -0.10190883 -0.003984742 -0.056003332
-0.080806196 -0.07062054 -0.03572774 0.06566952 -0.010896124 -0.0782115 -0.064689875 0.028508946
-0.04247308 0.070594445 -0.041370142 0.091039434 0.04002914 0.084462866 -0.047818616 -0.004945539
-0.08453151 -0.020982236 0.0025291485 0.076645106 -0.08865898 -0.098521456 -0.036603708 -0.039025955
0.077087775 -0.03494175 -0.008490305 0.059014797 0.07199126 0.005136803 -0.06863676 -0.07220819
-0.010370307 -0.0024962872 0.0680815 -0.06844185 0.07429914 0.03356867 -0.065558 0.061235696
-0.037419528 -0.025513455 0.08005971 0.049599122 -0.08788337 -0.042989586 0.08196035 -0.09234442
0.06642372 -0.014675297 0.012386538 0.0028076123 0.04225589 0.010584281 -0.014323803 -0.0014279261
-0.07086621 0.06526779 -0.001529145 0.068443865 0.020937009 0.08882587 0.08902633 -0.043682013
0.036844283 0.035959587 -0.060450904 0.08849971 0.09905355 -0.06977904 -0.026418343 0.041803926
0.08200203 0.004873797 0.060986932 0.08315037 -0.10789477 0.13104692 -0.0045442604 0.024394913
00000000: af49 90bd e971 9c3c 84a7 243c b18c e23d
00000010: 2858 313d 985f a4bd 56d8 373d b88a 55bd
00000020: d94a 093e 96c1 52bd 3b38 413d c460 8fbd
00000030: 23a4 743d 801b 6cbc 343f ad3c 00ab bf3c
00000040: bc58 4c3d e94d 5bbd 2316 dbbc 0d27 843d
00000050: caca 0abd 4ad8 b63a f023 863d b27e 33bd
00000060: c479 373d 1bfb c9bd e630 b23d 23a8 cb3c
00000070: 956f 053d 65d9 dcbd 19af 24bd d28d 953d
00000080: 3330 2d3e 2d68 b33d 6854 c03c 6757 b13d
00000090: 9e44 743d 7603 41bd d043 38b9 7c98 713d
000000a0: 5dbf c9ba 1b0d 48bd 8001 423d b5bf 98bd
000000b0: 440f ee3d a8fe 973d 4ce4 97bd 3bed 55bc
000000c0: e683 8fbd 9ac1 853d 1c21 ee3a 4432 00bd
000000d0: 18b0 773d 71d6 aabd d0a8 423d 5849 1c3c
000000e0: a006 a0bb d55c 83bd b255 a33d 402a 223d
000000f0: a450 d23d b3c3 df3d 8446 343d 3d36 563d
00000100: 97c6 6dbd ec09 213d e8a7 90bc 8c34 133d
00000110: b042 57bc 97ff 43bd ea2e 253d eff9 bebd
00000120: fd3f cc3d 3b64 1bbd 1caa a93d 3709 963d
00000130: e812 f13c f915 db3d b2fc c83d 5035 dc3c
00000140: 3ab8 a7bd 311b 933d 806b d73c b497 1fbc
00000150: d757 87bd e2f5 adbd 446d 4fbd 5fae a3bd
00000160: bcf8 9a3d bb36 f8bd ed4b adbd d257 8cbd
00000170: d457 3cbd e92a cabd dd24 fc3d 2385 553d
00000180: 3274 21bd 44f1 10bd 6890 293d 48bf 763d
00000190: c021 f93b 5e94 abbd 7606 35bd 4ab6 cc3d
000001a0: 0e6a 20bd 064a ccbd 6887 56bc a0f4 8cbd
000001b0: 9413 6abd 5894 2f3d 682b 9b3d 386c b4bd
000001c0: 8807 323d dcc4 463d b0b8 a1bc 9480 99bd
000001d0: ca5f c1bd d025 503d 529f b4bd ecb0 cd3d
000001e0: 243a 1d3d 8ece a33d e8e3 a53d 44d5 8a3d
000001f0: 90c1 1d3c b84a 9fbd 5ba8 75bd 1c29 c53d
00000200: ec2f 90bd cce2 8abd dc15 973d 5882 bf3d
00000210: 2cc6 d6bc e84f cd3c 4000 923b 4462 163d
00000220: 2cd6 093d dcf7 d8bc 307d debb 18ac 8d3d
00000230: 38b8 213d 78c1 a8bc d315 3cbd e005 38bb
00000240: 9e3d a03d 1096 7b3d 6c40 7cbd f80e 9fbd
00000250: f622 c4bd 9876 573d e062 fb3c 8015 da3b
00000260: 2035 5fbd 98be 96bc e14a 3abd cb7c 37bd
00000270: ecb2 62bd 5ae9 a73d f1b4 40bd dc02 71bd
00000280: 444c e6bc d781 c7bd a5b3 5ebd 72a2 a53d
00000290: 7c4e d5bc b4cf 793d 7c01 423d 7c7c cbbd
000002a0: 6078 50bc 8cac 763d 182c 853d 3683 b7bd
000002b0: 1015 8bbc 94b5 d0bd 7092 82bb c063 65bd
000002c0: b87d a5bd 80a1 90bd 4057 12bd be7d 863d
000002d0: a885 32bc 5a2d a0bd 207c 84bd 988b e93c
000002e0: 41f8 2dbd d293 903d bd73 29bd e272 ba3d
000002f0: 98f5 233d defa ac3d 74dd 43bd 300e a2bb
00000300: db1e adbd f0e2 abbc 12c0 253b 1cf8 9c3d
00000310: d792 b5bd 9ec5 c9bd c5ed 15bd aed9 1fbd
00000320: 32e0 9d3d 151f 0fbd ec1a 0bbc 80b9 713d
00000330: 2770 933d a052 a83b 6e91 8cbd e3e1 93bd
00000340: 38e8 29bc c098 23bb 506e 8b3d 3e2b 8cbd
00000350: 262a 983d 4d7f 093d 4643 86bd 48d2 7a3d
00000360: 3845 19bd 9801 d1bc 58f6 a33d 7328 4b3d
00000370: 32fc b3bd d915 30bd d4da a73d 121f bdbd
00000380: 2909 883d a870 70bc e8f0 4a3c ebff 373b
00000390: 8314 2d3d b169 2d3c 62ae 6abc 4029 bbba
000003a0: 4e22 91bd 1eab 853d 986d c8ba 4c2c 8c3d
000003b0: 1784 ab3c 56ea b53d 7053 b63d e9eb 32bd
000003c0: 08ea 163d 5c4a 133d 5e9b 77bd 563f b53d
000003d0: 96dc ca3d 50e8 8ebd 486b d8bc 983a 2b3d
000003e0: aef0 a73d 5fb4 9f3b 6fcd 793d be4a aa3d
000003f0: eff7 dcbd 2a31 063e 05e8 94bb d7d7 c73c

fc2.bias f4 [48]
0.16191575 0.037515357 0.15441307 0.0809658 0.09886186 -0.1396109 0.080833085 0.039812803
0.054609746 0.025915956 0.08843802 0.07777018 -0.09711624 -0.001806698 -0.12456451 -0.005790509
0.04022289 -0.00796006 -0.030871816 0.111777395 -0.075542144 -0.081002705 0.13076302 -0.050940342
0.12257936 0.032714125 -0.08241168 -0.04847096 -0.024219407 -0.14742658 0.13577601 0.04377953
0.09233112 0.0102971345 -0.06313254 0.08674191 0.051878482 -0.071812384 -0.17204708 0.04541962
0.030320361 0.04395978 -0.03580127 0.06726611 -0.07951537 0.14008299 0.009942473 0.057065547
00000000: 3ecd 253e b4a9 193d 761e 1e3e 66d1 a53d
00000010: 1678 ca3d 29f6 0ebe d18b a53d c012 233d
00000020: 78ae 5f3d b34d d43c fe1e b53d f945 9f3d
00000030: e1e4 c6bd bace ecba ae1b ffbd 4fbe bdbb
00000040: c2c0 243d e96a 02bc e4e6 fcbc 8ceb e43d
00000050: d7b5 9abd bfe4 a5bd bee6 053e d2a6 50bd
00000060: e30a fb3d 3fff 053d 74c7 a8bd 7c89 46bd
00000070: c767 c6bc fef6 16be de08 0b3e 2a52 333d
00000080: 1918 bd3d 50b5 283c a24b 81bd bea5 b13d
00000090: 887e 543d 5f12 93bd 1c2d 30be ec09 3a3d
000000a0: 6862 f83c 2c0f 343d 5aa4 12bd d0c2 893d
000000b0: f4d8 a2bd ea71 0f3e c1e5 223c 90bd 693d

fc3.weight f4 [24, 48]
-0.105819546 -0.12964734 0.14005087 0.07934748 0.0066443235 0.12220963 -0.13600375 0.10684776
-0.0020022243 -0.14148955 -0.051535994 -0.09134187 0.028737545 -0.14166687 -0.12501125 -0.029643951
-0.04760649 -0.041027218 -0.05265497 0.06523115 -0.017722055 -0.091998495 0.07983467 0.10457281
0.07177451 -0.040790375 -0.056795616 0.13642052 -0.14355709 -0.020040404 -0.0962441 0.09520781
-0.021876052 -0.12196142 0.09183301 -0.056824736 -0.09412971 0.081887566 -0.09439961 -0.050095577
-0.002009064 0.10699747 0.068283066 -0.1315611 0.13995722 0.061054554 -0.12808889 -0.08416722
0.13673566 -0.09186713 0.103714384 0.060445502 -0.09440815 0.10601377 -0.07852407 -0.05061156
0.10561164 -0.08932513 -0.12584491 0.049499884 -0.034043215 -0.04752546 0.10355044 -0.03656688
0.095298074 0.013182977 0.052305296 0.13909577 0.02944918 -0.013031123 -0.06543762 -0.104873605
-0.124601856 -0.049609426 0.049433444 0.042125314 -0.12545834 -0.1408375 0.059457555 0.04314014
-0.14001513 0.06663228 0.10448982 0.08866157 0.026817247 -0.05689474 0.00035817502 -0.08719394
0.051173747 0.07783234 0.021165594 0.13761428 0.0011063218 -0.077145465 0.037795562 0.11492616
0.0153762875 -0.14394727 0.09545861 -0.13963972 -0.08725554 -0.123784766 -0.11582798 0.07007653
-0.03837525 -0.14695527 0.048480958 -0.13571997 0.112179525 -0.028446296 -0.041958768 0.050596666
0.035055693 0.034297463 -0.04313824 0.07131117 -0.11593384 0.110212564 0.10762478 0.021227118
0.10743245 -0.0025977183 0.017891634 0.09596385 0.042622898 0.034142602 -0.03206777 -0.11795331
-0.06143326 0.015084234 -0.14776225 -0.008850038 -0.008065656 0.013601061 -0.07578327 0.005341313
-0.06650243 -0.117051 0.035849046 -0.0019945651 -0.020440005 0.12569864 -0.14206782 0.07318574
-0.04422838 0.11804044 0.123296894 -0.06290255 0.08208819 -0.10842463 -0.11052587 -0.24402747
-0.04758331 0.09386361 0.064241394 0.12316084 0.009344769 0.038614593 0.15732943 0.020827528
-0.064649135 0.11297335 0.09358969 -0.018848075 0.04817216 0.09452288 -0.05944546 -0.020677194
-0.10413132 -0.030270297 0.026029421 0.01262559 0.10999766 -0.004257385 0.11025225 0.017074553
-0.07309193 -0.07414214 -0.062200677 0.09979476 -0.0718692 -0.09168396 0.05707045 -0.06918261
-0.055372775 -0.15796605 -0.16253644 0.1221914 0.014617488 0.09139492 0.087771066 0.11580786
0.124496765 -0.14271767 0.123531975 -0.12837927 0.024229005 0.0003271022 -0.1336179 -0.045368742
-0.11253662 0.13240114 -0.026994867 -0.017227484 -0.040467232 0.019383999 -0.04378793 -0.09672109
0.08777595 0.08666662 -0.014538616 -0.111410104 -0.026122034 0.11688147 -0.09551991 -0.10113785
0.08859598 0.09377596 -0.015801247 -0.05076088 -0.14022006 -0.07230542 0.087842874 0.008146614
0.022135861 0.03359064 0.108382426 -0.09204253 -0.056418426 0.06399335 -0.07203706 0.09511028
0.07512456 -0.012385655 0.055978164 0.07872872 -0.021071702 -0.037232988 0.00030481766 -0.053791784
0.06865033 -0.13198581 0.12851942 0.11968255 0.11943209 -0.08095277 -0.095388725 0.035516176
0.13323596 -0.013056985 0.11980904 0.14468995 -0.051230963 0.12712245 -0.00028299796 -0.080765285
00000000: ebb7 d8bd 46c2 04be 7f69 0f3e ee80 a23d
00000010: a0b8 d93b 0b49 fa3d 9144 0bbe 00d3 da3d
00000020: c037 03bb a3e2 10be 6817 53bd 7211 bbbd
00000030: 006b eb3c 1f11 11be f302 00be dfd7 f2bc
00000040: 06ff 42bd 280c 28bd bdac 57bd e997 853d
00000050: d82d 91bc b569 bcbd 5c80 a33d 452a d63d
00000060: 84fe 923d cf13 27bd 85a2 68bd d2b1 0b3e
00000070: a100 13be c62b a4bc a01b c5bd 50fc c23d
00000080: 6835 b3bc e9c6 f9bd f212 bc3d 0ec1 68bd
00000090: 14c7 c0bd abb4 a73d 9554 c1bd 0531 4dbd
000000a0: 80aa 03bb 7d21 db3d fed7 8b3d f4b7 06be
000000b0: f250 0f3e 5714 7a3d bc29 03be dd5f acbd
000000c0: 6f04 0c3e d524 bcbd 3568 d43d b495 773d
000000d0: 0f59 c1bd bf1d d93d 3ad1 a0bd 114e 4fbd
000000e0: ea4a d83d 18f0 b6bd 7ddd 00be 64c0 4a3d
000000f0: e670 0bbd 0faa 42bd 4112 d43d 27c7 15bd
00000100: a32b c33d 6afd 573c 143e 563d 1f6f 0e3e
00000110: 683f f13c 7e80 55bc 2904 86bd f9c7 d6bd
00000120: 422f ffbd 4133 4bbd b97a 4a3d 988b 2c3d
00000130: 2778 00be b537 10be c489 733d b7b3 303d
00000140: 2060 0fbe 8176 883d c2fe d53d 3294 b53d
00000150: d8af db3c 750a 69bd 70c9 bb39 bd92 b2bd
00000160: 909b 513d 9066 9f3d 7863 ad3c c2ea 0c3e
00000170: 0002 913a 71fe 9dbd 85cf 1a3d 685e eb3d
00000180: d3ec 7b3c ea66 13be ce7f c33d b7fd 0ebe
00000190: 08b3 b2bd de82 fdbd 3837 edbd 4984 8f3d
000001a0: 5e2f 1dbd 717b 16be f893 463d 2dfa 0abe
000001b0: 61be e53d 3508 e9bc f5dc 2bbd 733e 4f3d
000001c0: 8f96 0f3d 7f7b 0c3d b9b1 30bd 970b 923d
000001d0: b96e edbd 20b7 e13d 616a dc3d 7ee4 ad3c
000001e0: 8b05 dc3d 7b3e 2abb 7a91 923c b288 c43d
000001f0: 5995 2e3d 1dd9 0b3d 7e59 03bd 8191 f1bd
00000200: 71a1 7bbd dd23 773c fd4e 17be c0ff 10bc
00000210: d025 04bc fcd6 5e3c 4234 9bbd 2e06 af3b
00000220: 6d32 88bd 6fb8 efbd 73d6 123d 40b7 02bb
00000230: cc71 a7bc 25b7 003e 3a7a 11be 68e2 953d
00000240: d128 35bd 30bf f13d 1583 fc3d 0dd3 80bd
00000250: da1d a83d bb0d debd 635b e2bd 56e2 79be
00000260: b8e6 42bd 903b c03d fe90 833d c03b fc3d
00000270: cd1a 193c 562a 1e3d f71a 213e 7e9e aa3c
00000280: c466 84bd 925e e73d f4ab bf3d 4767 9abc
00000290: 2c50 453d 3695 c13d 157d 73bd 3863 a9bc
000002a0: cd42 d5bd 6af9 f7bc a73b d53c 90db 4e3c
000002b0: 7446 e13d 8981 8bbb efcb e13d efdf 8b3c
000002c0: 39b1 95bd d6d7 97bd 23c6 7ebd 3261 cc3d
000002d0: 2930 93bd cdc4 bbbd b4c2 693d 9daf 8dbd
000002e0: 90ce 62bd dac1 21be f46f 26be 7c3f fa3d
000002f0: 307e 6f3c 432d bb3d 51c1 b33d ac2c ed3d
00000300: 29f8 fe3d 9524 12be 55fe fc3d db75 03be
00000310: e87b c63c ea7e ab39 21d3 08be 93d4 39bd
00000320: 9979 e6bd 2a94 073e 5724 ddbc a720 8dbc
00000330: f8c0 25bd 31cb 9e3c f95a 33bd b515 c6bd
00000340: e1c3 b33d 457e b13d 6033 6ebc fb2a e4bd
00000350: e0fd d5bc 8d5f ef3d f19f c3bd 5c21 cfbd
00000360: cf71 b53d 9c0d c03d 9e71 81bc a4ea 4fbd
00000370: d995 0fbe dd14 94bd f7e6 b33d 6079 053c
00000380: 4456 b53c 5796 093d 9bf7 dd3d cb80 bcbd
00000390: 0217 67bd f20e 833d 2b88 93bd 2ec9 c23d
000003a0: e8da 993d 34ed 4abc 5c49 653d 863c a13d
000003b0: 909e acbc 9e81 18bd efcf 9f39 c654 5cbd
000003c0: 8b98 8c3d 4a27 07be 989a 033e 201c f53d
000003d0: d098 f43d 91ca a5bd 2a5b c3bd 6979 113d
000003e0: 026f 083e f7ec 55bc 715e f53d 9a29 143e
000003f0: 8fd7 51bd 632c 023e 585f 94b9 4568 a5bd

fc3.bias f4 [24]
0.062343474 0.058831118 0.08240802 0.07993379 -0.062439684 0.17819098 -0.1842085 0.13976061
-0.1633212 -0.066280074 -0.080814235 -0.13029884 -0.22183704 0.09281438 -0.006473139 -0.15264507
-0.14927186 0.04776872 -0.094149 0.20411521 -0.07529528 0.17466454 -0.07139742 -0.0041784584
00000000: df5b 7f3d e6f8 703d 89c5 a83d 54b4 a33d
00000010: c1c0 7fbd b277 363e 27a1 3cbe 681d 0f3e
00000020: ac3d 27be d9bd 87bd ef81 a5bd 0f6d 05be
00000030: 4029 63be 7715 be3d a01c d4bb fd4e 1cbe
00000040: b9da 18be 22a9 433d 31d1 c0bd 9403 513e
00000050: 6934 9abd 43db 323e cf38 92bd 73eb 88bb

fc4.weight f4 [2, 24]
0.0019715594 -0.015734456 0.17743532 -0.0773364 -0.12027438 -0.056509387 0.23877075 -0.15621233
0.120266505 -0.1443779 0.05236641 0.2051725 0.17231616 -0.22596638 -0.15658991 0.2741022
0.008645347 0.08514187 -0.12658055 -0.14166158 0.20784181 -0.084925294 0.1537137 -0.22307207
0.033458397 -0.08964319 0.12735894 -0.17024235 0.0514814 0.2918302 0.07320431 -0.10149215
-0.26911557 -0.20210499 -0.018263627 -0.08214669 -0.20756789 -0.04628722 -0.06605096 0.23286435
-0.18593793 0.03312319 0.15928948 0.026440887 0.14719832 0.04849118 0.07311292 -0.103397876
00000000: 4735 013b 8ce5 80bc 9bb1 353e 8c62 9ebd
00000010: 6a52 f6bd 6376 67bd 5280 743e 20f6 1fbe
00000020: 494e f63d cdd7 13be 297e 563d bd18 523e
00000030: a673 303e bb63 67be 1b59 20be 2057 8c3e
00000040: 37a5 0d3c dc5e ae3d 559e 01be bc0f 11be
00000050: 7cd4 543e 50ed adbd 2067 1d3e 016d 64be
00000060: ac0b 093d d996 b7bd 626a 023e 0354 2ebe
00000070: 29de 523d c56a 953e 24ec 953d 1edb cfbd
00000080: 84c9 89be 9cf4 4ebe 9a9d 95bc 863c a8bd
00000090: ad8c 54be ab97 3dbd ba45 87bd fe73 6e3e
000000a0: 8366 3ebe 2fac 073d c81c 233e 8f9a d83c
000000b0: 28bb 163e b09e 463d 3abc 953d 44c2 d3bd

fc4.bias f4 [2]
-0.25371405 0.0053693866
00000000: cfe6 81be aef1 af3b

exp_avg f4 [96, 3]
0.004329942 0.0022400846 -5.1989464e-05 0.0029730643 0.002101281 -1.7700775e-05 0.0009438077 0.001005762
-6.817671e-05 0.00020716162 -0.00041700806 9.272261e-05 0.00031086893 0.0003149807 0.0 0.0
0.0 0.0 -0.0019107612 -0.0009077421 -3.243239e-05 0.006999677 0.0031840962 -3.9774233e-05
0.013100566 0.007105176 -9.028222e-05 -0.004676548 -0.0029049257 3.364009e-05 -0.0049530547 -0.0029533932
2.5256857e-05 0.0 0.0 0.0 0.0031877845 0.0015020667 -3.4132227e-05 0.0
0.0 0.0 0.0 0.0 0.0 0.0 0.0 0.0
0.0 0.0 0.0 0.0 0.0 0.0 0.009563262 0.004384593
-6.814298e-05 -1.1987053e-05 -0.0009219965 1.1443932e-05 0.0002793008 0.00027224334 0.0 0.00012398744
8.054742e-05 -4.5130368e-05 0.0 0.0 0.0 0.0 0.0 0.0
0.0 0.0 0.0 0.004148949 0.0021128985 -4.8647482e-05 0.0 0.0
0.0 1.1510527e-05 -2.6673051e-06 0.0 -0.00474083 -0.0024733422 -3.916012e-05 0.0059996187
0.0029245669 -6.31789e-05 0.004958024 0.0019636364 2.2797642e-05 -0.006236912 -0.0032280213 1.2527933e-05
0.0033013448 -0.0023962911 0.0009804777 -0.0023322557 -0.00087387545 2.5529826e-05 0.0 0.0
0.0 -0.001775893 -0.0010011739 1.6468148e-06 -0.0031526661 -0.0015022376 3.7091155e-05 -0.0044724448
-0.0023109773 2.1577864e-05 -0.0025628896 -0.00065817515 -8.432113e-06 0.0 0.0 0.0
0.0003590478 7.079342e-05 1.0809374e-05 -0.00047128415 -0.0010493698 0.00012903442 0.00020137007 0.00020263536
0.0 -0.0014663885 -0.00045133202 1.2487402e-05 -0.0066086394 -0.0027707235 -6.63814e-06 0.0
0.0 0.0 -0.0008077059 0.000298241 -2.2799302e-05 0.0001116325 0.00010110636 -3.1942109e-06
0.0 0.0 0.0 0.0 0.0 0.0 -0.0009354024 -0.000289505
3.6465783e-05 0.0 0.0 0.0 0.0 0.0 0.0 0.0
0.0 0.0 0.0 0.0 0.0 0.0 0.0 0.0
0.0 0.0 0.0 -0.003398081 -0.00118535 -2.0580137e-05 0.005007387 0.0028648651
-3.0298273e-05 0.0 0.0 0.0 -1.8526218e-05 -0.0004172433 4.6562618e-05 -0.00382955
-0.0031266594 0.00011655837 -0.0015920497 -0.0016927244 -1.3125078e-05 -0.0015774707 -0.0007589111 3.851459e-05
0.00016044494 -0.00019225918 3.063275e-05 0.0 0.0 0.0 0.0021070316 0.0006829351
5.7474717e-06 0.0 0.0 0.0 0.0 0.0 0.0 -0.003397195
-0.0023169734 4.4925437e-05 -0.0017923047 -0.00034026598 -2.1429663e-05 0.0 0.0 0.0
-7.922894e-06 0.0011333898 -4.5716675e-05 -0.004781128 -0.0025860765 3.724725e-05 0.0 0.0
0.0 0.00015392892 0.00017077886 0.0 0.0 0.0 0.0 -0.0058755027
-0.0032457763 5.3966207e-05 -0.00051240023 -0.00070348615 2.8224265e-05 0.0 0.0 0.0
0.005182786 0.002751723 -4.5745663e-05 0.0011863837 0.00014097834 3.9523617e-05 -0.00018662875 -0.00011079933
3.6617308e-05 -0.0017988717 -0.0010736551 1.4782556e-05 4.077793e-05 0.0002637245 0.0 0.010030974
00000000: 30e2 8d3b 62ce 123b 430f 5ab8 bed7 423b
00000010: a5b5 093b 207c 94b7 dd69 773a c6d3 833a
00000020: 18fa 8eb8 8639 5939 e0a1 dab9 1274 c238
00000030: 1ffc a239 fe23 a539 0000 0000 0000 0000
00000040: 0000 0000 0000 0000 8272 faba 8bf5 6dba
00000050: 0308 08b8 8c5d e53b 45ac 503b 42d3 26b8
00000060: c2a3 563c 89d2 e83b e655 bdb8 ba3d 99bb
00000070: 9160 3ebb c618 0d38 3c4d a2bb b78d 41bb
00000080: b0de d337 0000 0000 0000 0000 0000 0000
00000090: 26ea 503b ffe0 c43a 3329 0fb8 0000 0000
000000a0: 0000 0000 0000 0000 0000 0000 0000 0000
000000b0: 0000 0000 0000 0000 0000 0000 0000 0000
000000c0: 0000 0000 0000 0000 0000 0000 0000 0000
000000d0: 0000 0000 0000 0000 3aaf 1c3c a2ac 8f3b
000000e0: fce7 8eb8 001c 49b7 23b2 71ba 50ff 3f37
000000f0: 1e6f 9239 e2bb 8e39 0000 0000 a002 0239
00000100: 91eb a838 5d4a 3db8 0000 0000 0000 0000
00000110: 0000 0000 0000 0000 0000 0000 0000 0000
00000120: 0000 0000 0000 0000 0000 0000 e8f3 873b
00000130: 8e78 0a3b d60a 4cb8 0000 0000 0000 0000
00000140: 0000 0000 561d 4137 f4ff 32b6 0000 0000
00000150: f758 9bbb cc17 22bb dc3f 24b8 7398 c43b
00000160: 17aa 3f3b ea7e 84b8 eb76 a23b 5ab0 003b
00000170: 903d bf37 035f ccbb 368d 53bb 102f 5237
00000180: 605b 583b 180b 1dbb 5f83 803a c2d8 18bb
00000190: ca14 65ba e228 d637 0000 0000 0000 0000
000001a0: 0000 0000 15c5 e8ba d239 83ba 2008 dd35
000001b0: f69c 4ebb bbe6 c4ba 5392 1b38 968d 92bb
000001c0: c473 17bb 1c02 b537 27f6 27bb 6389 2cba
000001d0: a677 0db7 0000 0000 0000 0000 0000 0000
000001e0: 943e bc39 ee76 9438 e859 3537 b016 f7b9
000001f0: 028b 89ba 6a4d 0739 de26 5339 847a 5439
00000200: 0000 0000 d533 c0ba c2a0 ecb9 fc80 5137
00000210: 498d d8bb 0795 35bb 30bd deb6 0000 0000
00000220: 0000 0000 0000 0000 3abc 53ba 3b5d 9c39
00000230: 2141 bfb7 3e1c ea38 1009 d438 205c 56b6
00000240: 0000 0000 0000 0000 0000 0000 0000 0000
00000250: 0000 0000 0000 0000 cb35 75ba b4c8 97b9
00000260: d6f2 1838 0000 0000 0000 0000 0000 0000
00000270: 0000 0000 0000 0000 0000 0000 0000 0000
00000280: 0000 0000 0000 0000 0000 0000 0000 0000
00000290: 0000 0000 0000 0000 0000 0000 0000 0000
000002a0: 0000 0000 0000 0000 0000 0000 57b2 5ebb
000002b0: bf5d 9bba 82a3 acb7 0215 a43b 76c0 3b3b
000002c0: 0c29 feb7 0000 0000 0000 0000 0000 0000
000002d0: c068 9bb7 73c1 dab9 3b4c 4338 30f9 7abb
000002e0: a4e8 4cbb cc70 f438 53ac d0ba 68de ddba
000002f0: c833 5cb7 22c3 ceba a9f1 46ba ba8a 2138
00000300: 1c3d 2839 2e99 49b9 aa7b 0038 0000 0000
00000310: 0000 0000 0000 0000 2016 0a3b 0007 333a
00000320: 68da c036 0000 0000 0000 0000 0000 0000
00000330: 0000 0000 0000 0000 0000 0000 79a3 5ebb
00000340: 5dd8 17bb 526e 3c38 c4eb eaba ba65 b2b9
00000350: dac3 b3b7 0000 0000 0000 0000 0000 0000
00000360: 92ec 04b7 408e 943a e8bf 3fb8 02ab 9cbb
00000370: 2a7b 29bb ee39 1c38 0000 0000 0000 0000
00000380: 0000 0000 fb67 2139 1a13 3339 0000 0000
00000390: 0000 0000 0000 0000 0000 0000 4a87 c0bb
000003a0: 17b7 54bb c659 6238 9952 06ba 286a 38ba
000003b0: 26c3 ec37 0000 0000 0000 0000 0000 0000
000003c0: 5cd4 a93b 4056 343b 08df 3fb8 6e80 9b3a
000003d0: 96d3 1339 29c6 2538 c6b1 43b9 f05c e8b8
000003e0: 8995 1938 1ec8 ebba e3b9 8cba 9802 7837
000003f0: f808 2b38 8144 8a39 0000 0000 f458 243c

exp_avg_sq f4 [96, 3]
0.00059154304 0.00010348408 2.3961834e-07 0.0006495985 9.2399394e-05 2.6939625e-07 0.0002922965 5.6635825e-05
9.115088e-08 7.083365e-05 1.8140587e-05 2.854592e-08 1.1131873e-06 1.2807305e-06 0.0 0.0
0.0 0.0 7.7562196e-05 1.12712005e-05 3.348662e-08 0.0020189434 0.00033242538 7.6599093e-07
0.0036201144 0.0010143954 1.820915e-06 0.0012042227 0.00019628649 5.0688175e-07 0.0028456324 0.00038879135
1.159363e-06 0.0 0.0 0.0 0.0004924141 6.8438756e-05 1.4814484e-07 0.0
0.0 0.0 0.0 0.0 0.0 0.0 0.0 0.0
0.0 0.0 0.0 0.0 0.0 0.0 0.004331971 0.00056125707
1.658248e-06 0.00021799504 3.5417368e-05 1.1898016e-07 1.186557e-06 1.3850371e-06 0.0 8.472038e-05
5.26119e-06 3.5231466e-08 0.0 0.0 0.0 0.0 0.0 0.0
0.0 0.0 0.0 0.0012102091 0.00021446306 4.6554058e-07 0.0 0.0
0.0 3.7563574e-08 1.0015354e-07 0.0 0.0016570438 0.0002718929 9.355681e-07 0.0006014835
8.2439175e-05 1.8093318e-07 0.0014378554 0.00025973673 6.253354e-07 0.0040546125 0.0005129684 1.6932016e-06
0.013821803 0.0003806838 5.614685e-06 0.00034523182 6.449793e-05 1.7526352e-07 0.0 0.0
0.0 0.0004490489 6.356856e-05 1.6337279e-07 0.0005702607 9.4780364e-05 2.0077958e-07 0.0005619905
0.000109457906 1.664641e-07 0.00012084057 2.3557253e-05 2.7759203e-08 0.0 0.0 0.0
6.4551496e-05 1.6848526e-05 1.0189625e-08 0.0008887969 0.0002662684 2.603947e-07 4.5224633e-07 5.3431586e-07
0.0 0.00017069944 1.6815078e-05 3.760718e-08 0.002005043 0.00046712547 8.9510826e-07 0.0
0.0 0.0 8.002736e-05 2.2145203e-05 3.0261248e-08 3.068875e-05 2.3399998e-06 1.14130945e-08
0.0 0.0 0.0 0.0 0.0 0.0 3.177475e-05 7.870905e-06
1.9355541e-08 0.0 0.0 0.0 0.0 0.0 0.0 0.0
0.0 0.0 0.0 0.0 0.0 0.0 0.0 0.0
0.0 0.0 0.0 0.00042478443 8.9160974e-05 9.4568996e-08 0.0021646577 0.00024304578
9.1724274e-07 0.0 0.0 0.0 0.0001516608 3.0137295e-05 5.473755e-08 0.0027498284
0.00020284424 1.3959373e-06 2.8058656e-05 1.9365685e-05 1.1333982e-09 0.00013164159 1.5395282e-05 3.1919996e-08
5.4117754e-05 2.3948884e-05 4.6532485e-09 0.0 0.0 0.0 0.0007031547 0.00016448615
2.4056342e-07 0.0 0.0 0.0 0.0 0.0 0.0 0.0009848995
0.00012633392 3.8672437e-07 8.591309e-05 2.2530434e-05 2.8093929e-08 0.0 0.0 0.0
0.00012705641 3.6055822e-05 4.5118316e-08 0.00021434757 8.939732e-05 4.1911054e-08 0.0 0.0
0.0 2.2388144e-07 3.0386198e-07 0.0 0.0 0.0 0.0 0.002065102
0.0002836659 1.0030682e-06 8.8895045e-05 2.8162609e-05 2.5997892e-08 0.0 0.0 0.0
0.0029703819 0.00046849114 1.1347676e-06 3.4119897e-05 9.171088e-06 9.185809e-09 3.720459e-05 1.7512895e-05
3.621484e-09 0.0002468386 5.961507e-05 7.48455e-08 1.8735724e-06 9.757835e-07 0.0 0.0050420524
00000000: c811 1b3a 9805 d938 e5a4 8034 d149 2a3a
00000010: 8cc6 c138 8aa1 9034 5f3f 9939 418c 6d38
00000020: babe c333 878c 9438 9d2c 9837 2435 f532
00000030: d368 9535 91e5 ab35 0000 0000 0000 0000
00000040: 0000 0000 0000 0000 e3a8 a238 7019 3d37
00000050: eed2 0f33 4050 043b 6149 ae39 7f9e 4d35
00000060: 713f 6d3b 76f5 843a 2a66 f435 02d7 9d3a
00000070: 41d2 4d39 a610 0835 ca7d 3a3b b1d6 cb39
00000080: 699b 9b35 0000 0000 0000 0000 0000 0000
00000090: 5a15 013a c786 8f38 be11 1f34 0000 0000
000000a0: 0000 0000 0000 0000 0000 0000 0000 0000
000000b0: 0000 0000 0000 0000 0000 0000 0000 0000
000000c0: 0000 0000 0000 0000 0000 0000 0000 0000
000000d0: 0000 0000 0000 0000 35f3 8d3b 5321 133a
000000e0: f890 de35 9995 6439 1c8d 1438 0982 ff33
000000f0: ca41 9f35 83e5 b935 0000 0000 e8ab b138
00000100: 4789 b036 6851 1733 0000 0000 0000 0000
00000110: 0000 0000 0000 0000 0000 0000 0000 0000
00000120: 0000 0000 0000 0000 0000 0000 e19f 9e3a
00000130: 7de1 6039 69ef f934 0000 0000 0000 0000
00000140: 0000 0000 9655 2133 fe13 d733 0000 0000
00000150: 2a31 d93a d98c 8e39 c023 7b35 e0ac 1d3a
00000160: 32e3 ac38 8946 4234 6c76 bc3a 462d 8839
00000170: b9dc 2735 8edc 843b ba78 063a f741 e335
00000180: d874 623c 8496 c739 c765 bc36 3b00 b539
00000190: 1043 8738 1230 3c34 0000 0000 0000 0000
000001a0: 0000 0000 536e eb39 1c50 8538 926b 2f34
000001b0: 8c7d 153a d2c4 c638 df95 5734 8b52 133a
000001c0: c48c e538 4ebd 3234 c96b fd38 d19c c537
000001d0: 2273 ee32 0000 0000 0000 0000 0000 0000
000001e0: d25f 8738 ef55 8d37 720e 2f32 26fe 683a
000001f0: f199 8b39 60cc 8b34 43cc f234 e86d 0f35
00000200: 0000 0000 c8fd 3239 1b0e 8d37 8885 2133
00000210: 0a67 033b 85e8 f439 5f47 7035 0000 0000
00000220: 0000 0000 0000 0000 5dd4 a738 76c4 b937
00000230: 98f8 0133 cbb7 0038 e408 1d36 5213 4432
00000240: 0000 0000 0000 0000 0000 0000 0000 0000
00000250: 0000 0000 0000 0000 e145 0538 480d 0437
00000260: 4943 a632 0000 0000 0000 0000 0000 0000
00000270: 0000 0000 0000 0000 0000 0000 0000 0000
00000280: 0000 0000 0000 0000 0000 0000 0000 0000
00000290: 0000 0000 0000 0000 0000 0000 0000 0000
000002a0: 0000 0000 0000 0000 0000 0000 9ab5 de39
000002b0: effb ba38 db15 cb33 eedc 0d3b 1bda 7e39
000002c0: 7138 7635 0000 0000 0000 0000 0000 0000
000002d0: 2307 1f39 59cf fc37 9318 6b33 7736 343b
000002e0: 96b2 5439 0a5c bb35 815f eb37 7e73 a237
000002f0: e7c5 9b30 4509 0a39 1e25 8137 6818 0933
00000300: 7ffc 6238 d6e5 c837 68e2 9f31 0000 0000
00000310: 0000 0000 0000 0000 ea53 383a ea79 2c39
00000320: c926 8134 0000 0000 0000 0000 0000 0000
00000330: 0000 0000 0000 0000 0000 0000 be17 813a
00000340: 8178 0439 fe9e cf34 3d2c b438 bdff bc37
00000350: 3453 f132 0000 0000 0000 0000 0000 0000
00000360: 723a 0539 a53a 1738 1dc8 4133 7dc2 6039
00000370: d27a bb38 b101 3433 0000 0000 0000 0000
00000380: 0000 0000 1064 7034 7922 a334 0000 0000
00000390: 0000 0000 0000 0000 0000 0000 aa56 073b
000003a0: feb8 9439 29a1 8635 2a6d ba38 be3e ec37
000003b0: f851 df32 0000 0000 0000 0000 0000 0000
000003c0: bdaa 423b d19f f539 514e 9835 f61b 0f38
000003d0: 86dd 1937 9dcf 1d32 200c 1c38 a8e8 9237
000003e0: d2dd 7831 1e6a 8139 320b 7a38 c0ba a033
000003f0: 7577 fb35 aaf7 8235 0000 0000 cd37 a53b

exp_avg f4 [96]
0.00070996763 0.0006439634 0.00044770446 -0.00010888862 3.36175e-05 0.0 -9.395196e-05 0.0009948249
0.00048882444 -0.0009524432 -0.001151854 0.0 0.0003225347 0.0 0.0 0.0
0.0 0.0 0.001384451 -0.00036940386 2.4345385e-05 -4.1922805e-05 0.0 0.0
0.0 0.00081864244 0.0 1.8736517e-07 -0.0007018166 0.00054113124 0.000734594 -0.000878133
-0.001299396 -0.00029939637 0.0 -0.00037100856 -0.0005895598 -0.00078135735 -0.00018677599 0.0
9.517401e-05 -0.0008301669 2.0235122e-05 -0.00018411798 -0.0006937675 0.0 7.070947e-05 4.221203e-05
0.0 0.0 -1.4421705e-05 0.0 0.0 0.0 0.0 0.0
0.0 -0.00022391934 0.0009487143 0.0 4.4567758e-05 -0.0010827661 -0.00022425335 -0.00029370253
-1.9486652e-06 0.0 0.00043559063 0.0 0.0 -0.0006934142 3.1053205e-05 0.0
0.0002912284 -0.00013372254 0.0 2.6042131e-05 0.0 -0.0010227498 -0.00024984393 0.0
0.0012734635 5.3492808e-05 4.962608e-05 -0.00042910213 -1.7048627e-05 0.0015337279 -2.420057e-05 0.0
-9.283547e-06 0.0025224697 0.0001348148 -0.0002634182 -4.740102e-05 0.00056112785 -0.0020121082 0.00013299206
00000000: 1f1d 3a3a a7cf 283a e0b9 ea39 225b e4b8
00000010: 8400 0d38 0000 0000 1308 c5b8 c964 823a
00000020: 7424 003a 62ad 79ba cff9 96ba 0000 0000
00000030: e019 a939 0000 0000 0000 0000 0000 0000
00000040: 0000 0000 0000 0000 7876 b53a 8cac c1b9
00000050: 5139 cc37 45d6 2fb8 0000 0000 0000 0000
00000060: 0000 0000 2a9a 563a 0000 0000 8c2e 4934
00000070: 1dfa 37ba b4da 0d3a c591 403a 8232 66ba
00000080: 7f50 aaba 4df8 9cb9 0000 0000 ed83 c2b9
00000090: b08c 1aba 01d4 4cba 4cd9 43b9 0000 0000
000000a0: 2898 c738 8f9f 59ba 98be a937 cb0f 41b9
000000b0: f3dd 35ba 0000 0000 dc49 9438 d20c 3138
000000c0: 0000 0000 0000 0000 c0f4 71b7 0000 0000
000000d0: 0000 0000 0000 0000 0000 0000 0000 0000
000000e0: 0000 0000 e4cb 6ab9 24b3 783a 0000 0000
000000f0: 44ee 3a38 9aeb 8dba 8d25 6bb9 16fc 99b9
00000100: d0c5 02b6 0000 0000 fc5f e439 0000 0000
00000110: 0000 0000 3dc6 35ba 203f 0238 0000 0000
00000120: 04b0 9839 df37 0cb9 0000 0000 0d75 da37
00000130: 0000 0000 ca0d 86ba 7cfd 82b9 0000 0000
00000140: 58ea a63a 775d 6038 9925 5038 1df9 e0b9
00000150: a603 8fb7 5e07 c93a 5402 cbb7 0000 0000
00000160: 88c0 1bb7 0550 253b 135d 0d39 641b 8ab9
00000170: 75d0 46b8 a718 133a 93dd 03bb c973 0b39

exp_avg_sq f4 [96]
2.2038255e-06 2.3423756e-06 1.2684399e-06 3.2739987e-07 1.3982058e-08 0.0 3.2001967e-07 6.7384944e-06
1.1163516e-05 4.4694757e-06 9.637769e-06 0.0 1.7646068e-06 0.0 0.0 0.0
0.0 0.0 1.43747975e-05 9.271253e-07 1.56383e-08 3.179128e-07 0.0 0.0
0.0 4.3464006e-06 0.0 1.0631369e-09 5.1527495e-06 2.1064457e-06 4.643037e-06 1.3502131e-05
4.8336773e-05 1.0801657e-06 0.0 1.5374113e-06 2.0831567e-06 2.3798077e-06 4.2032235e-07 0.0
2.407496e-07 5.154022e-06 6.030234e-09 6.1448264e-07 6.2276476e-06 0.0 3.078783e-07 1.1357459e-07
0.0 0.0 1.3473436e-07 0.0 0.0 0.0 0.0 0.0
0.0 1.5883753e-06 7.0859473e-06 0.0 6.4775514e-07 1.0153553e-05 2.1065412e-07 5.094662e-07
2.5037698e-07 0.0 2.3844316e-06 0.0 0.0 3.2484343e-06 3.518491e-07 0.0
6.731609e-07 9.4710043e-07 0.0 3.3454857e-09 0.0 6.91117e-06 4.8796335e-07 0.0
1.0655768e-05 1.5139331e-07 1.8707571e-07 9.706956e-07 3.4380633e-08 1.6485772e-05 5.0766054e-09 0.0
2.9018308e-09 5.5871773e-05 3.7581242e-07 1.2927459e-06 1.6188045e-08 3.1811521e-06 1.4736223e-05 1.9582299e-07
00000000: 6fe5 1336 b531 1d36 433f aa35 7fc5 af34
00000010: be35 7032 0000 0000 2bcf ab34 3a1b e236
00000020: f04a 3b37 81f8 9536 e7b1 2137 0000 0000
00000030: 6ed7 ec35 0000 0000 0000 0000 0000 0000
00000040: 0000 0000 0000 0000 492b 7137 91df 7835
00000050: fc54 8632 9aad aa34 0000 0000 0000 0000
00000060: 0000 0000 4cd7 9136 0000 0000 ce1d 9230
00000070: c8e5 ac36 765c 0d36 62cb 9b36 3687 6237
00000080: 37bd 4a38 36fa 9035 0000 0000 0d59 ce35
00000090: 5ccc 0b36 c9b4 1f36 aaa8 e134 0000 0000
000000a0: 6040 8134 b6f0 ac36 8032 cf31 edf2 2435
000000b0: 16f7 d036 0000 0000 794a a534 4be6 f333
000000c0: 0000 0000 0000 0000 80ab 1034 0000 0000
000000d0: 0000 0000 0000 0000 0000 0000 0000 0000
000000e0: 0000 0000 2930 d535 d3c3 ed36 0000 0000
000000f0: 65e1 2d35 2e59 2a37 2a30 6234 40c2 0835
00000100: 8d6b 8634 0000 0000 3904 2036 0000 0000
00000110: 0000 0000 adff 5936 c6e5 bc34 0000 0000
00000120: 44b3 3435 3f3c 7e35 0000 0000 68e6 6531
00000130: 0000 0000 80e6 e736 96fc 0235 0000 0000
00000140: 2dc6 3237 ad8e 2234 fbde 4834 d948 8235
00000150: e8a9 1333 ed4a 8a37 4b6e ae31 0000 0000
00000160: 8c69 4731 dc57 6a38 44c3 c934 6982 ad35
00000170: e30d 8b32 c77b 5536 993b 7737 6a43 5234

exp_avg f4 [48, 96]
-0.0031095208 -0.010820112 -0.004495806 -0.0027917423 3.2532073e-05 0.0 -0.0017684537 -0.005334385
5.038832e-05 -0.0033898132 -0.002552579 0.0 -0.010304518 0.0 0.0 0.0
0.0 0.0 -0.0016943652 -0.009006891 2.5456056e-05 0.00056865177 0.0 0.0
0.0 -0.0052287737 0.0 -7.6116357e-06 -0.009251126 -0.002606826 -0.001876482 -0.0017672651
-0.00019917116 -0.0058904043 0.0 -0.0060566575 -0.012137819 -0.0050048097 -0.0059954245 0.0
-0.007996297 -0.0011471042 3.2071785e-05 -0.009460956 -0.00023651554 0.0 -0.010701426 -0.006086501
0.0 0.0 -0.0029618775 0.0 0.0 0.0 0.0 0.0
0.0 -0.0072130626 -0.00127838 0.0 -0.0014075177 0.00012557406 -6.861137e-05 -0.004906608
-2.1182495e-07 0.0 -0.0021112517 0.0 0.0 -0.0052070497 -0.0032303245 0.0
-0.0073781195 8.6160726e-05 0.0 1.1089807e-05 0.0 -0.0024405874 -0.0072902767 0.0
-0.006909511 -0.0030585004 -1.0985345e-05 -0.0053477027 1.0478135e-05 -0.0027431648 2.4436025e-05 0.0
-3.817199e-06 0.00022344363 -0.005665837 -0.00048456702 -2.3526107e-05 -0.0025157803 -0.00015039626 -0.0052543143
0.0 0.0 0.0 0.0 0.0 0.0 0.0 0.0
0.0 0.0 0.0 0.0 0.0 0.0 0.0 0.0
0.0 0.0 0.0 0.0 0.0 0.0 0.0 0.0
0.0 0.0 0.0 0.0 0.0 0.0 0.0 0.0
0.0 0.0 0.0 0.0 0.0 0.0 0.0 0.0
0.0 0.0 0.0 0.0 0.0 0.0 0.0 0.0
0.0 0.0 0.0 0.0 0.0 0.0 0.0 0.0
0.0 0.0 0.0 0.0 0.0 0.0 0.0 0.0
0.0 0.0 0.0 0.0 0.0 0.0 0.0 0.0
0.0 0.0 0.0 0.0 0.0 0.0 0.0 0.0
0.0 0.0 0.0 0.0 0.0 0.0 0.0 0.0
0.0 0.0 0.0 0.0 0.0 0.0 0.0 0.0
-0.00093348406 -0.0026786523 -0.0011880129 -0.0008378107 1.4998852e-05 0.0 -0.0004274713 -0.0014849786
-0.00021219539 -0.0010862589 -0.0008629218 0.0 -0.0027800426 0.0 0.0 0.0
0.0 0.0 -0.00019657184 -0.0023303856 2.1728854e-05 9.185709e-05 0.0 0.0
0.0 -0.0010616566 0.0 -2.4319033e-05 -0.0025617408 -0.00046026695 -0.00074271805 -0.00061838015
7.981693e-06 -0.001297248 0.0 -0.0016644453 -0.0033437985 -0.0014390645 -0.0016889849 0.0
-0.002224995 -0.00041691895 2.756554e-05 -0.002434903 -8.903851e-06 0.0 -0.0028687608 -0.0015335814
0.0 0.0 -0.00075217336 0.0 0.0 0.0 0.0 0.0
0.0 -0.0018106165 -0.00025398206 0.0 -0.00038195407 0.000181337 -0.00039511948 -0.0014403602
00000000: 1ac9 4bbb d746 31bc 8e51 93bb aaf5 36bb
00000010: 0c73 0838 0000 0000 76cb e7ba 11cc aebb
00000020: 0c58 5338 a127 5ebb 2b49 27bb 0000 0000
00000030: 48d4 28bc 0000 0000 0000 0000 0000 0000
00000040: 0000 0000 0000 0000 7615 deba a491 13bc
00000050: 778a d537 9311 153a 0000 0000 0000 0000
00000060: 0000 0000 2256 abbb 0000 0000 7467 ffb6
00000070: 0992 17bc 48d7 2abb 4af4 f5ba 94a3 e7ba
00000080: 9ad8 50b9 4b04 c1bb 0000 0000 ed76 c6bb
00000090: b4dd 46bc 63ff a3bb 4475 c4bb 0000 0000
000000a0: e702 03bc 6e5a 96ba d184 0638 2002 1bbc
000000b0: 2801 78b9 0000 0000 0955 2fbc 4571 c7bb
000000c0: 0000 0000 0000 0000 0f1c 42bb 0000 0000
000000d0: 0000 0000 0000 0000 0000 0000 0000 0000
000000e0: 0000 0000 8e5b ecbb 518f a7ba 0000 0000
000000f0: 757c b8ba 88ac 0339 73e3 8fb8 9cc7 a0bb
00000100: 0072 63b4 0000 0000 ed5c 0abb 0000 0000
00000110: 0000 0000 e69f aabb dab3 53bb 0000 0000
00000120: 27c4 f1bb 30b1 b438 0000 0000 5c0e 3a37
00000130: 0000 0000 43f2 1fbb 46e3 eebb 0000 0000
00000140: 2e69 e2bb 1f71 48bb b34d 38b7 c83b afbb
00000150: 3fcb 2f37 abc6 33bb f7fb cc37 0000 0000
00000160: 7d15 80b6 314c 6a39 7ca8 b9bb 7c0d feb9
00000170: ee59 c5b7 cadf 24bb b0b3 1db9 622c acbb
00000180: 0000 0000 0000 0000 0000 0000 0000 0000
00000190: 0000 0000 0000 0000 0000 0000 0000 0000
000001a0: 0000 0000 0000 0000 0000 0000 0000 0000
000001b0: 0000 0000 0000 0000 0000 0000 0000 0000
000001c0: 0000 0000 0000 0000 0000 0000 0000 0000
000001d0: 0000 0000 0000 0000 0000 0000 0000 0000
000001e0: 0000 0000 0000 0000 0000 0000 0000 0000
000001f0: 0000 0000 0000 0000 0000 0000 0000 0000
00000200: 0000 0000 0000 0000 0000 0000 0000 0000
00000210: 0000 0000 0000 0000 0000 0000 0000 0000
00000220: 0000 0000 0000 0000 0000 0000 0000 0000
00000230: 0000 0000 0000 0000 0000 0000 0000 0000
00000240: 0000 0000 0000 0000 0000 0000 0000 0000
00000250: 0000 0000 0000 0000 0000 0000 0000 0000
00000260: 0000 0000 0000 0000 0000 0000 0000 0000
00000270: 0000 0000 0000 0000 0000 0000 0000 0000
00000280: 0000 0000 0000 0000 0000 0000 0000 0000
00000290: 0000 0000 0000 0000 0000 0000 0000 0000
000002a0: 0000 0000 0000 0000 0000 0000 0000 0000
000002b0: 0000 0000 0000 0000 0000 0000 0000 0000
000002c0: 0000 0000 0000 0000 0000 0000 0000 0000
000002d0: 0000 0000 0000 0000 0000 0000 0000 0000
000002e0: 0000 0000 0000 0000 0000 0000 0000 0000
000002f0: 0000 0000 0000 0000 0000 0000 0000 0000
00000300: 0eb5 74ba 548c 2fbb 19b7 9bba 86a0 5bba
00000310: 94a3 7b37 0000 0000 3a1e e0b9 9da3 c2ba
00000320: c480 5eb9 cd60 8eba b435 62ba 0000 0000
00000330: 6031 36bb 0000 0000 0000 0000 0000 0000
00000340: 0000 0000 0000 0000 da1e 4eb9 62b9 18bb
00000350: 5c46 b637 66a3 c038 0000 0000 0000 0000
00000360: 0000 0000 4927 8bba 0000 0000 ba00 ccb7
00000370: e1e2 27bb fc4f f1b9 f7b2 42ba ca1a 22ba
00000380: 1ce9 0537 6b08 aaba 0000 0000 8429 daba
00000390: a123 5bbb fe9e bcba ee60 ddba 0000 0000
000003a0: 39d1 11bb ea95 dab9 8c3c e737 e592 1fbb
000003b0: c061 15b7 0000 0000 d201 3cbb 7402 c9ba
000003c0: 0000 0000 0000 0000 802d 45ba 0000 0000
000003d0: 0000 0000 0000 0000 0000 0000 0000 0000
000003e0: 0000 0000 3552 edba e528 85b9 0000 0000
000003f0: 0241 c8b9 4825 3e39 0a28 cfb9 78ca bcba
