Secondary_Models/Mdl_Medium_Network_Stp0.3_lr1e-05_v1.2.pt (torch_old, 95278 bytes, 27 tensors)

fc1.bias f4 [3]
-0.13278747 0.064619064 -0.051087704
00000000: 70f9 07be 0057 843d 5741 51bd

fc1.weight_g f4 [3, 1]
0.64140606 0.6528019 0.40296316
00000000: 3033 243f 061e 273f 3051 ce3e

fc1.weight_v f4 [3, 3]
-0.5397683 0.20013392 -0.28283983 -0.37338996 -0.14383024 0.5157937 0.1462712 0.2671902
-0.23549967
00000000: 412e 0abf e8ef 4c3e 62d0 90be f82c bfbe
00000010: 3c48 13be 0e0b 043f 1ec8 153e 27cd 883e
00000020: d326 71be

fc2.bias f4 [12]
0.3686227 0.53547573 -0.34092888 -0.4266564 -0.16706201 0.01531019 0.48360518 -0.6049417
-0.24558872 -0.03124759 -0.5141458 0.54143643
00000000: 1dbc bc3e f014 093f 3b8e aebe b572 dabe
00000010: 4e12 2bbe 97d7 7a3c 199b f73e 76dd 1abf
00000020: 9c7b 7bbe f2fa ffbc 0f9f 03bf 949b 0a3f

fc2.weight_g f4 [12, 1]
0.49323753 0.54130715 0.6004951 0.39627978 0.2993371 0.4431816 0.5514087 0.298929
0.6170842 0.26748353 0.62554604 0.6011299
00000000: a189 fc3e 1b93 0a3f 0cba 193f 2fe5 ca3e
00000010: b642 993e b3e8 e23e 1f29 0d3f 390d 993e
00000020: 3bf9 1d3f 9af3 883e c923 203f a6e3 193f

fc2.weight_v f4 [12, 3]
-0.35013646 -0.26223063 -0.20882985 0.17525287 0.56560415 0.07848124 0.51062995 -0.09552424
0.13204701 -0.22197536 -0.064663716 0.28407714 -0.10438347 0.17450392 -0.2196706 -0.33744302
0.016659638 0.19856098 0.48340923 0.32323822 0.15963916 -0.1503675 -0.17256024 0.23920919
-0.52898353 0.30578768 -0.08638993 -0.08184927 -0.06967807 0.25309405 0.53443235 0.04118625
0.23684707 0.24057934 -0.4732941 -0.1553492
00000000: 1645 b3be 1843 86be 7ed7 55be 7d75 333e
00000010: 6fcb 103f c6ba a03d a5b8 023f 36a2 c3bd
00000020: 5537 073e 824d 63be 696e 84bd 8f72 913e
00000030: 00c7 d5bd 28b1 323e 54f1 60be 55c5 acbe
00000040: cb79 883c 9253 4b3e 6a81 f73e 7b7f a53e
00000050: 7378 233e f0f9 19be a2b3 30be 41f3 743e
00000060: 776b 07bf 3490 9c3e 34ed b0bd 97a0 a7bd
00000070: 60b3 8ebd 8b95 813e 8fd0 083f eab2 283d
00000080: 0a88 723e 6e5a 763e 9b53 f2be dc13 1fbe

fc3.bias f4 [2]
-0.12674756 -0.20966102
00000000: 1dca 01be 61b1 56be

fc3.weight_g f4 [2, 1]
0.48947755 0.64101624
00000000: cd9c fa3e a419 243f

fc3.weight_v f4 [2, 12]
0.077046834 -0.07910025 0.109773 -0.026397092 0.20283104 0.26967362 -0.013109134 -0.11613602
-0.21170707 -0.2289357 -0.033750795 0.17067923 -0.0654409 0.12407401 0.045763824 -0.30955577
0.15340322 -0.01159304 0.1815894 0.08220483 0.16361822 -0.26717854 -0.23167728 0.15862499
00000000: bbca 9d3d 50ff a1bd abd0 e03d b73e d8bc
00000010: f1b2 4f3e a912 8a3e b1c7 56bc b9d8 edbd
00000020: bdc9 58be 1f6e 6abe 463e 0abd 89c6 2e3e
00000030: e105 86bd 841a fe3d d972 3b3d 187e 9ebe
00000040: bc15 1d3e bcf0 3dbc 92f2 393e 025b a83d
00000050: 898b 273e a0cb 88be cf3c 6dbe 976e 223e

exp_avg f4 [3]
0.0 0.0 0.00093808136
00000000: 0000 0000 0000 0000 93e9 753a

exp_avg_sq f4 [3]
0.0 0.0 5.2514075e-05
00000000: 0000 0000 0000 0000 8f42 5c38

exp_avg f4 [3, 1]
0.0 0.0 0.02832675
00000000: 0000 0000 0000 0000 800d e83c

exp_avg_sq f4 [3, 1]
0.0 0.0 0.004229017
00000000: 0000 0000 0000 0000 9193 8a3b

exp_avg f4 [3, 3]
0.0 0.0 0.0 0.0 0.0 0.0 0.021341372 0.008183909
0.022546988
00000000: 0000 0000 0000 0000 0000 0000 0000 0000
00000010: 0000 0000 0000 0000 1ad4 ae3c cd15 063c
00000020: 76b4 b83c

exp_avg_sq f4 [3, 3]
0.0 0.0 0.0 0.0 0.0 0.0 0.0076671266 0.00035926275
0.0017279944
00000000: 0000 0000 0000 0000 0000 0000 0000 0000
00000010: 0000 0000 0000 0000 853c fb3b 6e5b bc39
00000020: df7d e23a

exp_avg f4 [12]
-3.3283406e-05 0.005643652 -0.007162177 0.00015830388 0.0 -0.016961938 0.0018259085 0.008662455
0.0 0.012872694 0.0013712712 0.0018178407
00000000: c999 0bb8 62ee b83b b2b0 eabb 60fe 2539
00000010: 0000 0000 c3f3 8abc 5353 ef3a f8ec 0d3c
00000020: 0000 0000 fee7 523c 3abc b33a 9d44 ee3a

exp_avg_sq f4 [12]
4.1196813e-07 0.00018876251 0.0001098316 0.00020487257 0.0 0.00079195335 0.0001298589 0.00024638348
0.0 0.00051132153 9.4519164e-05 0.0001012228
00000000: 782c dd34 8dee 4539 6455 e638 10d3 5639
00000010: 0000 0000 179b 4f3a bc2a 0839 082d 8139
00000020: 0000 0000 350a 063a 9738 c638 9447 d438

exp_avg f4 [12, 1]
2.446758e-05 0.0030593511 -0.008877534 0.009722692 0.0 -0.042865302 0.00047546093 0.027250195
0.0 0.06941724 0.005831171 -0.0007564599
00000000: ba3f cd37 657f 483b 1473 11bc ed4b 1f3c
00000010: 0000 0000 8793 2fbd 4947 f939 cd3b df3c
00000020: 0000 0000 a02a 8e3d 6813 bf3b 2a4d 46ba

exp_avg_sq f4 [12, 1]
1.6935856e-07 7.387933e-05 0.00012525967 0.0015361261 0.0 0.003857295 0.00015339439 0.0026967716
0.0 0.008753908 0.00020922029 5.241504e-05
00000000: edd8 3534 aaef 9a38 2358 0339 d757 c93a
00000010: 0000 0000 acca 7c3b 7ed8 2039 52bc 303b
00000020: 0000 0000 8d6c 0f3c 2562 5b39 38d8 5b38

exp_avg f4 [12, 3]
1.7983857e-05 1.3468669e-05 -4.7061778e-05 -0.0008134571 -0.0026254628 0.020733314 0.009473556 -0.0017728189
-0.03793163 0.0063748485 0.001856591 0.0054026963 0.0 0.0 0.0 -0.041740537
0.0020636313 -0.07112634 -0.0003485204 -0.000233041 0.0015271235 0.011174371 0.012823886 0.016270772
0.0 0.0 0.0 0.020090679 0.017101629 0.01119774 -0.0056769904 -0.00043720132
0.012883251 0.00035742 -0.00070292584 0.0026988883
00000000: 0adc 9637 7ef7 6137 3364 45b8 2f3e 55ba
00000010: f50f 2cbb e9d8 a93c f936 1b3c ee5d e8ba
00000020: 325e 1bbd 1be4 d03b db58 f33a 1a09 b13b
00000030: 0000 0000 0000 0000 0000 0000 20f8 2abd
00000040: fd3d 073b b0aa 91bd 9eb9 b6b9 785c 74b9
00000050: c329 c83a b514 373c 471b 523c 484a 853c
00000060: 0000 0000 0000 0000 0000 0000 3595 a43c
00000070: b718 8c3c ba76 373c 0c06 babb 2b38 e5b9
00000080: 4514 533c 1a64 bb39 8e44 38ba d5df 303b

exp_avg_sq f4 [12, 3]
9.1143455e-08 5.119289e-08 6.318063e-07 5.1566035e-06 5.8480942e-05 0.0027607034 0.00013884822 5.20884e-06
0.002438347 0.00067058887 6.4081636e-05 0.0005462605 0.0 0.0 0.0 0.0035948262
1.3839206e-05 0.011412354 8.7886554e-05 3.8431343e-05 0.0014119453 0.00042950688 0.00057522795 0.000778894
0.0 0.0 0.0 0.0006731628 0.00048001303 0.00018639027 0.00019571526 1.3395131e-06
0.001056475 1.1550544e-05 4.3832024e-05 0.0007093848
00000000: a5ba c333 2edf 5b33 6699 2935 e306 ad36
00000010: 6f49 7538 ebec 343b c997 1139 98c7 ae36
00000020: adcc 1f3b 75ca 2f3a 9163 8638 ec32 0f3a
00000030: 0000 0000 0000 0000 0000 0000 2d97 6b3b
00000040: f02e 6837 e2fa 3a3c bc4f b838 5731 2138
00000050: 0611 b93a 702f e139 e5ca 163a b12e 4c3a
00000060: 0000 0000 0000 0000 0000 0000 3177 303a
00000070: 42aa fb39 c271 4339 ea38 4d39 52c9 b335
00000080: 6b79 8a3a 35c9 4137 47d8 3738 02f6 393a

exp_avg f4 [2]
-0.06773808 0.005154781
00000000: 43ba 8abd 70e9 a83b

exp_avg_sq f4 [2]
0.012893244 0.0025496723
00000000: 2f3e 533c 6718 273b

exp_avg f4 [2, 1]
0.015821286 0.0066583995
00000000: a49b 813c b42e da3b

exp_avg_sq f4 [2, 1]
0.0017902321 0.00026681833
00000000: 39a6 ea3a c0e3 8b39

exp_avg f4 [2, 12]
-0.002047502 -0.053732127 -0.02789057 -0.069120735 -0.005610491 -0.07898915 -0.0758295 -0.025415484
0.0058560334 -0.06912119 -0.046088733 -0.003023888 0.00088090205 0.00056346424 -0.004070498 -0.0025729132
-0.0018286717 -0.002661222 -0.0013701047 -0.006085269 -0.0019504823 -0.0001520617 -0.0030805657 -0.00037770855
00000000: 622f 06bb 3816 5cbd c47a e4bc 2c8f 8dbd
00000010: 36d8 b7bb 10c5 a1bd 7f4c 9bbd 2234 d0bc
00000020: f8e3 bf3b 698f 8dbd 8ac7 3cbd 6c2c 46bb
00000030: 56ec 663a 72b5 133a d061 85bb 529e 28bb
00000040: 0ab0 efba e567 2ebb 1695 b3ba f066 c7bb
00000050: 53a7 ffba c072 1fb9 51e3 49bb 2f07 c6b9

exp_avg_sq f4 [2, 12]
2.6116082e-05 0.0076569594 0.0014172349 0.009832771 0.00022117396 0.014799312 0.014830315 0.001547896
0.00024197837 0.010421534 0.0042176084 0.00019546904 3.7690425e-06 0.0023145073 8.5729705e-05 0.0007347639
2.0382573e-05 0.0015255217 0.0037426786 0.00037588153 2.3153607e-05 0.0018701169 0.00022275712 5.448554e-05
00000000: dc13 db37 3be7 fa3b 83c2 b93a a119 213c
00000010: efea 6739 d078 723c d9fa 723c c5e2 ca3a
00000020: 93bb 7d39 15bf 2a3c dd33 8a3b d2f6 4c39
00000030: a8ef 7c36 fdae 173b c9c9 b338 2c9d 403a
00000040: 3efb aa37 04f4 c73a ba47 753b f711 c539
00000050: fe39 c237 b61e f53a e993 6939 6787 6438
