Secondary_Models/Mdl_Medium_Network_Stp0.3_lr1e-05_v1.3.pt (torch_old, 18110 bytes, 27 tensors)

fc1.bias f4 [30]
0	0x3eda3a16	0.4262244
1	0x3f02ba1f	0.5106525
2	0x3eaafec6	0.33397502
3	0x3e92bcbe	0.28659624
4	0xbeeb3e84	-0.45946133
5	0xbce327ae	-0.027728882
6	0xbe881f9f	-0.26586625
7	0xbeee9dd5	-0.4660479
8	0x3e467ce0	0.19383574
9	0xbca54792	-0.020175729
10	0x3e28cfc2	0.16485503
11	0x3e975abb	0.2956141
12	0x3e690354	0.22755176
13	0x3e71a914	0.23599654
14	0xbe8328af	-0.25616977
15	0xbde794b4	-0.1130766
16	0xbe0ff7c6	-0.14059362
17	0x3e11bfb8	0.14233291
18	0x3eee79de	0.46577352
19	0xbe82fcd8	-0.2558353
20	0xbe4b6abb	-0.19864933
21	0x3d7b8840	0.061409235
22	0xbed4ea94	-0.4158522
23	0x3e985ac1	0.2975674
24	0xbe490bf6	-0.19633469
25	0x3f136181	0.57570654
26	0xbe9ddfb3	-0.3083473
27	0x3e8788c6	0.26471537
28	0x3e6a5658	0.228845
29	0xbeb47ffb	-0.3525389

fc1.weight_g f4 [30, 1]
0	0x3f2d0867	0.67590946
1	0x3f22a1b5	0.63527995
2	0x3ed96022	0.42456156
3	0x3f10f10a	0.56617796
4	0x3ed4f27d	0.41591254
5	0x3efc398e	0.4926266
6	0x3f2d07f1	0.6759024
7	0x3f6a8ff3	0.916259
8	0x3f4a75c6	0.7908596
9	0x3f0b0322	0.54301655
10	0x3efe9e01	0.49729922
11	0x3ee5c5e7	0.4487755
12	0x3f1ecd6c	0.620322
13	0x3f0c0ad0	0.54704
14	0x3f04c7ad	0.5186718
15	0x3f0ec1fa	0.55764735
16	0x3f39083e	0.722782
17	0x3f286a50	0.6578722
18	0x3ece51de	0.40296835
19	0x3f22f097	0.6364836
20	0x3f4b6afc	0.7946012
21	0x3f15bf25	0.5849479
22	0x3f275d1d	0.65376455
23	0x3f22eb07	0.63639873
24	0x3e9affdf	0.3027334
25	0x3ef8b4a1	0.4857531
26	0x3f280528	0.6563287
27	0x3f21aec7	0.63157314
28	0x3f55ea8d	0.8356102
29	0x3f071095	0.5275968

fc1.weight_v f4 [30, 3]
0	0x3e6dd134	0.23224336
1	0x3f059619	0.52182156
2	0x3ed8e1f4	0.4235989
3	0x3d4f97ab	0.05068175
4	0xbe71cd44	-0.23613459
5	0xbf104cf9	-0.5636745
6	0xbdd04421	-0.101692446
7	0x3e577677	0.21041285
8	0x3e5a79ea	0.21335569
9	0xbf064d20	-0.52461433
10	0xbe3e3f12	-0.18578747
11	0xbdd508c4	-0.104020625
12	0x3e2a5a29	0.16635956
13	0x3e6615c6	0.22469243
14	0xbe93d2d9	-0.28871801
15	0x3e0520b0	0.1300075
16	0x3e324f14	0.17412978
17	0x3ed83527	0.42228052
18	0xbf1a5aee	-0.60295
19	0x3eb3cbc9	0.35116413
20	0x3e45e3de	0.19325206
21	0xbf0c14d0	-0.5471926
22	0xbf049b28	-0.5179925
23	0x3f05767e	0.5213393
24	0x3f081f47	0.53172725
25	0xbf1249fc	-0.5714414
26	0xbd8bc532	-0.068247214
27	0x3e794c3b	0.24345486
28	0xbe99ac2a	-0.30014163
29	0x3ec83bad	0.3910803
30	0x3e4b21dc	0.19837135
31	0xbd9375c0	-0.072001934
32	0xbeea67d8	-0.45782351
33	0x3e37cb49	0.17948641
34	0xbe98bd93	-0.29832134
35	0x3e7b60e8	0.24548686
36	0xbe1f62a4	-0.15564972
37	0xbf05f0a9	-0.52320343
38	0x3e96df0c	0.29467046
39	0xbec6bead	-0.3881735
40	0x3deb28c8	0.11482388
41	0xbebc645c	-0.36795318
42	0x3eb2f1d6	0.3495013
43	0x3d4a21ca	0.04934863
44	0x3ece1d7b	0.40256867
45	0x3efcc6b4	0.49370348
46	0x3e010fca	0.1260368
47	0xbe727c5b	-0.2368025
48	0xbc0119f5	-0.007879724
49	0x3f081689	0.53159386
50	0x3efb27d6	0.4905383
51	0xbecb90b5	-0.3975884
52	0x3ecbb41b	0.39785847
53	0xbef49d8d	-0.47776452
54	0x3e3aacc0	0.18229961
55	0xbe96beb0	-0.29442358
56	0x3def715a	0.11691542
57	0x3f0f342d	0.5593899
58	0xbe900ed9	-0.28136328
59	0x3d3fadbb	0.04679654
60	0xbf106c28	-0.56415033
61	0x3ec89c5c	0.39181793
62	0xbf09730b	-0.53691167
63	0xbdfb2b34	-0.122641
64	0xbe83b8cd	-0.2572693
65	0x3f02c504	0.5108187
66	0x3ee51ac3	0.4474698
67	0xbeeecb73	-0.46639594
68	0x3e523416	0.20527682
69	0xbe6b3c3e	-0.229722
70	0x3f0483ea	0.51763785
71	0x3e410eed	0.1885335
72	0x3db8392c	0.0899528
73	0xbe709237	-0.23493277
74	0x3e56a835	0.20962603
75	0x3eac71a2	0.33680445
76	0xbdf01418	-0.117225826
77	0x3eb29fd4	0.34887564
78	0xbea25423	-0.31704816
79	0xbe756ff6	-0.23968491
80	0x3f05b58e	0.52230155
81	0xbc84d280	-0.016213655
82	0xbf08c857	-0.53430694
83	0x3eac3754	0.33635962
84	0x3ee69ede	0.4504308
85	0x3f0477dc	0.5174539
86	0x3efeedc9	0.4979079
87	0x3e88634c	0.26638258
88	0x3ee95b21	0.45577338
89	0x3debe6ac	0.115186065

fc2.bias f4 [30]
0	0x3ded5c04	0.11589816
1	0xbb95843b	-0.0045628822
2	0x3c8ad9c3	0.01694954
3	0xbd0f957f	-0.03505468
4	0x3df5a9d7	0.11995285
5	0x3c54ca80	0.012987733
6	0xbd8b1982	-0.067919746
7	0x3e08b5ac	0.13350552
8	0xbe0c88c8	-0.13724053
9	0xbde1fcb4	-0.110345274
10	0x3ae39be3	0.0017365183
11	0x3c461e8d	0.012092245
12	0x3e147670	0.14498305
13	0xbb2374e7	-0.0024941505
14	0xbe004dc6	-0.12529668
15	0x3cf9e7b0	0.030505985
16	0x3e44b2bf	0.19208811
17	0x3e37070a	0.17873779
18	0x3d680fbe	0.056655638
19	0xbd8caf2e	-0.068693504
20	0x3d253d64	0.04034175
21	0xbdebb5a6	-0.11509256
22	0xbe326aae	-0.17423508
23	0x3e177f5d	0.14794679
24	0x3e2aebba	0.16691485
25	0xbe0c61f7	-0.13709246
26	0xbd3c2eda	-0.04594312
27	0xbe3450ee	-0.17608997
28	0x3e2b6bab	0.16740291
29	0x3d8b58cf	0.06804048

fc2.weight_g f4 [30, 1]
0	0x3f147e28	0.58005
1	0x3f26aa00	0.6510315
2	0x3f0be954	0.54652905
3	0x3f165104	0.5871737
4	0x3f1a060d	0.6016548
5	0x3ef0a66e	0.47001976
6	0x3f1edc5e	0.62055004
7	0x3f216152	0.63039124
8	0x3f0ab084	0.5417559
9	0x3f20c5b2	0.6280166
10	0x3f2355f5	0.63803035
11	0x3f1d0d28	0.613482
12	0x3f2b1627	0.66830677
13	0x3f118a89	0.5685201
14	0x3f070542	0.527424
15	0x3f0e7968	0.55654
16	0x3f19a765	0.6002105
17	0x3efa465d	0.48881808
18	0x3f0d3931	0.5516539
19	0x3f0918b5	0.53553325
20	0x3f0668fd	0.5250395
21	0x3f0fc24a	0.56155837
22	0x3f36b48d	0.7136925
23	0x3ecb6e53	0.39732608
24	0x3f1a7199	0.60329586
25	0x3f13c6f2	0.5772544
26	0x3f1a976c	0.603873
27	0x3f153c70	0.58295345
28	0x3f16eec1	0.5895806
29	0x3f1bb576	0.6082376

fc2.weight_v f4 [30, 30]
0	0xbe2130d4	-0.15741283
1	0xbd5a5bd0	-0.053310215
2	0x3e012cbc	0.12614721
3	0xbd7b0730	-0.06128615
4	0xbe03a879	-0.12857236
5	0xbda98449	-0.082771845
6	0x3d643fdc	0.055724964
7	0x3df3d688	0.11906153
8	0xbe253187	-0.16132174
9	0x3dcc32c0	0.09970617
10	0x3cbac6f0	0.022799939
11	0xbd0be088	-0.034149677
12	0x3dcc3784	0.09971526
13	0xbe30088d	-0.17190762
14	0xbd273ce0	-0.04082954
15	0xbd8337e4	-0.06407145
16	0xbdc9a72b	-0.09846338
17	0xbda6227c	-0.08112046
18	0x3d9777c0	0.073958874
19	0x3d8bd51c	0.06827757
20	0x3d4885f8	0.048955888
21	0xbe20ab78	-0.1569041
22	0xbe2e7a70	-0.17038894
23	0xbe1eaa2e	-0.15494606
24	0x3d5d3698	0.054007143
25	0xbe0ecfb7	-0.13946424
26	0x3d5f34a0	0.054493546
27	0x3be8bdc0	0.007102698
28	0x3cd13db8	0.025542125
29	0xbe3a4051	-0.18188597
30	0x3e1a4dc8	0.15068734
31	0x3d92c3ef	0.071662776
32	0x3e522918	0.20523489
33	0xbd4a2af0	-0.049357355
34	0x3dfe4662	0.12415768
35	0xbd3f01f4	-0.046632722
36	0xbdc74f69	-0.09731943
37	0x8002aa70	-2.44812e-40
38	0xbd8dd84f	-0.06926023
39	0xbe4e67e0	-0.20156813
40	0xbe046f88	-0.12933171
41	0xbdc1edf2	-0.094692126
42	0xbcf3a031	-0.029739471
43	0x3c97697f	0.018482922
44	0x3d3092fc	0.043108925
45	0xbda31f44	-0.07964948
46	0xbdc74b4b	-0.09731158
47	0x3dd293c0	0.10282087
48	0x3d9afd03	0.075677894
49	0x3d6f0e27	0.058363106
50	0x3d048759	0.03235564
51	0x3cbe1700	0.023204327
52	0x3dedba88	0.11607844
53	0x3e603b35	0.21897586
54	0x3c873e23	0.016509121
55	0xbe0ebe5d	-0.13939805
56	0xbdc53f6e	-0.09631239
57	0x3c737360	0.0148590505
58	0xbd069213	-0.03285415
59	0x3dc26b09	0.094930716
60	0xbd73934b	-0.05946664
61	0xbd5e1e86	-0.05422833
62	0xbd9eb9b5	-0.077502646
63	0xbdc0b227	-0.0940898
64	0x3da5427e	0.08069323
65	0x3d901961	0.07036091
66	0xbde7d613	-0.11320128
67	0x3e409fa3	0.18810897
68	0xbdd3bc1d	-0.10338614
69	0x3da0a692	0.07844271
70	0xbe4f3dd0	-0.20238423
71	0x3dcca5ab	0.09992536
72	0x3d6f44ea	0.05841533
73	0x3dbeb1e4	0.09311274
74	0x3d8439cb	0.06456336
75	0x3df40024	0.11914089
76	0x3e369471	0.17830063
77	0x3c84b210	0.016198188
78	0x3e0dfd0c	0.13866061
79	0x3e0adf31	0.13561703
80	0xbdb927a0	-0.09040761
81	0x3d3a1d3a	0.04543803
82	0x3d9c3010	0.07626355
83	0x3e2c5252	0.16828278
84	0x3d139693	0.03603227
85	0x3c18a5d1	0.009316877
86	0x3db84b02	0.089986816
87	0x3dd0855b	0.101816855
88	0xbe02230b	-0.1270868
89	0xbdb2a717	-0.08723276
90	0x3e0ca0d4	0.13733226
91	0x3d5b7a51	0.053583447
92	0x3e486024	0.19567925
93	0x3e1c82a5	0.15284212
94	0x3a3d90a5	0.00072313315
95	0x3dac5366	0.084143445
96	0x3c150a52	0.009096699
97	0x3ddeec02	0.10884859
98	0x3dc2ccff	0.09511756
99	0x3db8cb3d	0.090231396
100	0x3d72c005	0.059265155
101	0x3de6534b	0.112463556
102	0xbce61c9c	-0.028089814
103	0x39c3c195	0.00037337528
104	0x3e271f1f	0.16320466
105	0xbe2d4657	-0.16921364
106	0xbd7e6da3	-0.062116276
107	0x3d4400dc	0.047852382
108	0x3d93f032	0.07223548
109	0xbc35eda4	-0.011104021
110	0x3d601489	0.054707084
111	0xbd3e1525	-0.046406884
112	0xbe00cf90	-0.12579179
113	0x3e5fa099	0.21838607
114	0xbd8331af	-0.06405961
115	0xbcfd5c13	-0.030927693
116	0x3e04c4eb	0.12965743
117	0x3de9e3ff	0.1142044
118	0xbd1fbb86	-0.038997196
119	0xbd8490db	-0.064729415
120	0xbd5e2fb6	-0.05424472
121	0xbe379c7a	-0.17930785
122	0xbe07f3b1	-0.13276555
123	0xbd00da40	-0.03145814
124	0xbdbcb499	-0.09214134
125	0x3dca7274	0.098851115
126	0xbdf030f2	-0.117280856
127	0x3dde81eb	0.10864624
128	0x3e242c41	0.16032507
129	0xbe12e146	-0.14343747
130	0xbe0100cf	-0.12597965
131	0xbdbbee1e	-0.091762766
132	0xbd461fcd	-0.04837017
133	0xbe2c18f2	-0.16806391
134	0xbdd5f8c2	-0.104478374
135	0xbe227a72	-0.15867022
136	0xbd074cd2	-0.033032246
137	0x3dca1efa	0.098691896
138	0xbe25608c	-0.16150111
139	0xbde69a91	-0.1125995
140	0x3da4bc72	0.080437556
141	0x3dd2b872	0.102890864
142	0xbd9178e8	-0.07103139
143	0x3da8f240	0.082493305
144	0x3e0b21f4	0.13587171
145	0x3deac96f	0.11464202
146	0xbcd149f7	-0.025547964
147	0x3d8f295e	0.06990312
148	0x3d9add58	0.07561749
149	0xbaf85140	-0.0018945113
150	0xbc82d628	-0.015971258
151	0x3d043684	0.032278553
152	0x3dfb1960	0.12260699
153	0xbd1bcaa0	-0.038035035
154	0xbd299098	-0.04139766
155	0xbcc83830	-0.024440855
156	0x3c474dd0	0.012164548
157	0xbd4aec6c	-0.049541876
158	0xbc9a8788	-0.018863454
159	0xbdbb356a	-0.09141047
160	0xbdba9ef1	-0.09112347
161	0xbca267c8	-0.019824877
162	0xbd8301f1	-0.06396855
163	0xbbc5fa40	-0.006041795
164	0xbbcf89e0	-0.0063335747
165	0xbe1523ac	-0.14564389
166	0xbe232788	-0.15933049
167	0x3e08ddf4	0.13365918
168	0x3e1b1526	0.15144786
169	0xbda5f09e	-0.08102535
170	0xbe07366f	-0.13204359
171	0xbd3a097c	-0.0454192
172	0xbdae60c8	-0.08514553
173	0x3df408e0	0.11915755
174	0xbe161082	-0.14654735
175	0x3d8fb500	0.07016945
176	0xbda52325	-0.08063344
177	0xbd07bb68	-0.03313771
178	0xbc2be940	-0.010492623
179	0x3db2e744	0.08735517
180	0x3e1a6a99	0.15079726
181	0x3cd6400e	0.02615359
182	0x3e0b3114	0.1359294
183	0xbd65d4a6	-0.056111
184	0xbe348d3d	-0.17632003
185	0xbe14084a	-0.14456287
186	0x3de246fb	0.11048695
187	0xbe015214	-0.12628967
188	0x3df328a8	0.11872989
189	0x3b3dbdf4	0.0028952332
190	0x3ddd45de	0.10804342
191	0xbdee789c	-0.11644098
192	0x3cc74955	0.02432696
193	0xbe0b46df	-0.13601254
194	0xbddc9e94	-0.10772434
195	0x3c305723	0.0107629625
196	0x3d42cf68	0.04756108
197	0xbdc44f84	-0.09585479
198	0xbe0b2e61	-0.13591911
199	0x3dc66f38	0.09689182
200	0xbe3afcc9	-0.18260492
201	0x3dc7ee4a	0.09762247
202	0xbddaa762	-0.10676457
203	0xbe2cc886	-0.16873369
204	0xbdacbcf7	-0.0843448
205	0x3e299ddd	0.16564126
206	0x3e3dc4bb	0.18532078
207	0xbe01a867	-0.12661897
208	0x3e0f7dae	0.14012787
209	0xbc92351e	-0.017847594
210	0x3e040c16	0.12895235
211	0xbe2df82f	-0.16989206
212	0x3dbee556	0.09321086
213	0xbdf75fc5	-0.120788135
214	0xbb91ac68	-0.0044456013
215	0x3bc80e1e	0.0061051985
216	0x3d178fcb	0.037002366
217	0x3d6591ce	0.056047253
218	0xbd977b46	-0.073965594
219	0xbe0e7651	-0.13912322
220	0xbc10ed25	-0.008845602
221	0x3e0e88f7	0.13919435
222	0xbdbe1278	-0.092808664
223	0xbe258234	-0.1616295
224	0x3d1cab82	0.0382495
225	0x3dda640a	0.10663612
226	0x3dc7c09a	0.09753533
227	0x3dd08ae3	0.101827405
228	0x3e31ebb1	0.17375065
229	0x3e32e23c	0.17469114
230	0x3cb987f0	0.022647828
231	0xbdc3ecd0	-0.09566653
232	0x3dd2a33a	0.10285039
233	0x3d2a0d4e	0.041516595
234	0xbe0b02c2	-0.13575271
235	0x3e1a76d9	0.150844
236	0x3d61f7ae	0.055167846
237	0x3c8bef68	0.017081931
238	0xbdec8d7b	-0.11550423
239	0x3e1ee386	0.15516481
240	0xbdaa73d6	-0.08322875
241	0x3e2601ee	0.16211674
242	0xbdd7e3da	-0.10541506
243	0x3d7ddbf0	0.061977327
244	0xbe1b8b08	-0.15189755
245	0xbde8dd70	-0.11370361
246	0x3b9e3560	0.00482814
247	0x3d31b4ac	0.043385193
248	0xbe38dd35	-0.18053134
249	0xbd358e8c	-0.044325396
250	0x3e36fdac	0.17870206
251	0xbcef2668	-0.029193118
252	0xbd734b26	-0.05939784
253	0xbe04884a	-0.12942615
254	0x3d4797b0	0.048728645
255	0x3d57ccc0	0.0526855

fc3.bias f4 [2]
0	0x3e11ceb6	0.1423901
1	0x3e07d89f	0.13266228

fc3.weight_g f4 [2, 1]
0	0x3f1547ca	0.58312666
1	0x3f0fd8bf	0.56190103

fc3.weight_v f4 [2, 30]
0	0xbdcf5cc9	-0.10125119
1	0xbe31a147	-0.17346679
2	0xbb8753fa	-0.004129884
3	0xbdee5b0a	-0.11638458
4	0x3d056b47	0.03257301
5	0xbd86a859	-0.065750785
6	0xbda7d915	-0.08195702
7	0x3d8bccef	0.06826197
8	0xbd96b83b	-0.07359358
9	0x3d80274a	0.06257494
10	0x3dab31ea	0.0835913
11	0xbd9cd42d	-0.07657657
12	0xbe1c07ce	-0.15237352
13	0x3d402dbb	0.046918612
14	0xbd3a38a2	-0.045464166
15	0xbdbb6a1f	-0.091511
16	0xbe1f2f84	-0.1554547
17	0xbd7db5a7	-0.061940815
18	0x3dcae9c2	0.09907867
19	0xbe40c787	-0.18826114
20	0x3dd457b2	0.10368289
21	0xbe1c688d	-0.15274258
22	0xbd5f69d8	-0.0545443
23	0xbdb21767	-0.0869587
24	0xbd94336a	-0.07236369
25	0x3e20de90	0.15709901
26	0x3e1f847b	0.15577881
27	0x3d112004	0.035430923
28	0x3e3e5d61	0.18590309
29	0x3dd7081e	0.10499595
30	0x3d968385	0.07349304
31	0x3d33deab	0.043913525
32	0x3e1ba42f	0.1519935
33	0xbe2fe786	-0.17178163
34	0x3d0d41b9	0.034486506
35	0xbd9dd14c	-0.07705936
36	0xbdc759de	-0.09733938
37	0x3e165315	0.14680131
38	0x3e094d3f	0.13408373
39	0xbd05fe67	-0.03271332
40	0x3ce4302c	0.027855001
41	0xbe05036e	-0.1298959
42	0x3e22538f	0.15852188
43	0x3db9e16e	0.090762004
44	0xbe315e34	-0.17321092
45	0x3da89d7c	0.08233163
46	0x3d2e6ffa	0.042587258
47	0xbd13b9bf	-0.036065813
48	0x3c1664be	0.009179292
49	0xbd93cf81	-0.072173126
50	0xbdfb49d0	-0.12269938
51	0x3e048adb	0.12943594
52	0xbc6b57b4	-0.014364172
53	0xbe10971a	-0.1412014
54	0xbc8a4c84	-0.016882189
55	0xbddc5c41	-0.107597835
56	0x3d586b94	0.05283697
57	0xbe098357	-0.13429008
58	0xbdc8874a	-0.09791429
59	0xbe3a66a3	-0.18203215

exp_avg f4 [30]
0	0xbac06bb4	-0.0014680536
1	0xba1351ac	-0.0005619775
2	0xbb4d5e42	-0.00313367
3	0x00000000	0.0
4	0xba7c2db2	-0.0009619846
5	0x3acf37e6	0.0015809506
6	0x382b67bb	4.0866184e-05
7	0x00000000	0.0
8	0x3a1e8daa	0.0006048331
9	0x3aae04b2	0.0013276546
10	0xba551ab1	-0.00081292825
11	0x3a97d798	0.0011584638
12	0x00000000	0.0
13	0x00000000	0.0
14	0xba5af020	-0.00083518215
15	0x3a5d051a	0.0008431241
16	0x3a84346f	0.0010086427
17	0xb7a95421	-2.0185546e-05
18	0xb910f316	-0.00013823467
19	0x3886b2ae	6.4228996e-05
20	0x382bff39	4.100727e-05
21	0x00000000	0.0
22	0xb853d73e	-5.050678e-05
23	0xbb1de5df	-0.0024093313
24	0xb8ccecd1	-9.7715885e-05
25	0x39b443a7	0.0003438268
26	0x00000000	0.0
27	0x00000000	0.0
28	0xba102bba	-0.000549968
29	0xb9e434e2	-0.0004352695

exp_avg_sq f4 [30]
0	0x38182cd7	3.6281384e-05
1	0x387dc5d0	6.0504128e-05
2	0x3911dcf1	0.00013910585
3	0x00000000	0.0
4	0x381558f8	3.5607227e-05
5	0x38fe9c12	0.00012140734
6	0x32ab2340	1.992305e-08
7	0x00000000	0.0
8	0x37c04295	2.2919188e-05
9	0x379ba945	1.8556262e-05
10	0x38138ec3	3.518049e-05
11	0x37b86a09	2.1983886e-05
12	0x00000000	0.0
13	0x00000000	0.0
14	0x37ed3d31	2.8281096e-05
15	0x37b2bbaa	2.1306641e-05
16	0x37bca97c	2.2490269e-05
17	0x33bd825c	8.8247106e-08
18	0x378dc6d4	1.6901096e-05
19	0x38661a92	5.486102e-05
20	0x328be684	1.6286556e-08
21	0x00000000	0.0
22	0x370ba6a6	8.3238465e-06
23	0x38c826ca	9.543968e-05
24	0x3608d578	2.0389834e-06
25	0x38137322	3.5154757e-05
26	0x00000000	0.0
27	0x00000000	0.0
28	0x37afadd9	2.094258e-05
29	0x3755bb82	1.2739447e-05

exp_avg f4 [30, 1]
0	0xbc1bae13	-0.009501952
1	0xbaad5658	-0.0013224585
2	0xbbbfe8e7	-0.0058566215
3	0x00000000	0.0
4	0xbc82621f	-0.015915928
5	0xbb330e0d	-0.0027321607
6	0x381668f7	3.5860543e-05
7	0x00000000	0.0
8	0xbb06a063	-0.0020542375
9	0x3ac8b176	0.0015311677
10	0xbb556cf6	-0.0032566166
11	0xbaeddf24	-0.0018148166
12	0x00000000	0.0
13	0x00000000	0.0
14	0x3b4a3c56	0.0030858717
15	0x3c1c786e	0.009550197
16	0x3b37e65c	0.002806089
17	0x38b1267c	8.447186e-05
18	0xbb9a94ad	-0.0047174306
19	0xbc9242fc	-0.017854206
20	0x386033cb	5.3453998e-05
21	0x00000000	0.0
22	0x3b8ab33a	0.0042327913
23	0xbbfbc7ca	-0.007683729
24	0x38810a98	6.1531726e-05
25	0x3c619027	0.013767279
26	0x00000000	0.0
27	0x00000000	0.0
28	0xbb80f5fa	-0.0039355727
29	0xba9ce821	-0.0011971035

exp_avg_sq f4 [30, 1]
0	0x3ba05940	0.004893452
1	0x37695c5d	1.3909387e-05
2	0x3944b095	0.00018757799
3	0x00000000	0.0
4	0x3b41f600	0.002959609
5	0x3bdad3e5	0.006678092
6	0x32f690de	2.8704047e-08
7	0x00000000	0.0
8	0x3a4a604a	0.00077200367
9	0x395c34a3	0.00021000444
10	0x3a71431d	0.0009203421
11	0x389e5e50	7.551594e-05
12	0x00000000	0.0
13	0x00000000	0.0
14	0x3b5d7767	0.0033793093
15	0x3b8ea617	0.0043532955
16	0x3a23e318	0.0006251796
17	0x33bd09cd	8.802781e-08
18	0x39be3f2b	0.00036286688
19	0x3bfcef47	0.007718954
20	0x33012b28	3.0074403e-08
21	0x00000000	0.0
22	0x39c36772	0.0003727037
23	0x399eb03d	0.00030267416
24	0x3762cd76	1.3518487e-05
25	0x3b56156b	0.0032666575
26	0x00000000	0.0
27	0x00000000	0.0
28	0x3b3192ab	0.0027095478
29	0x3b42c679	0.002972035

exp_avg f4 [30, 3]
0	0xbbdc1881	-0.0067167883
1	0xbb1f59e9	-0.0024315065
2	0x3bdaca03	0.0066769137
3	0x3b997284	0.004682841
4	0x3b7951af	0.0038043072
5	0xba998ec0	-0.0011715516
6	0xbceddefa	-0.029036988
7	0xbcbd4516	-0.023104232
8	0x3c126fde	0.008937804
9	0x00000000	0.0
10	0x00000000	0.0
11	0x00000000	0.0
12	0xbc88e7c4	-0.016712077
13	0xbb422988	-0.0029626805
14	0xbc438243	-0.011932912
15	0xbc2a584c	-0.010397028
16	0x3bf742af	0.007545791
17	0x38b67360	8.6999265e-05
18	0x395c2483	0.00020994437
19	0x39bf85f0	0.0003653015
20	0xb715e448	-8.934243e-06
21	0x00000000	0.0
22	0x00000000	0.0
23	0x00000000	0.0
24	0x3ba25e24	0.00495507
25	0x3b98fbe5	0.0046687
26	0xb9fcea08	-0.00048239552
27	0x3c86ed12	0.016470466
28	0x3c31cedc	0.010852542
29	0xbafc4db5	-0.0019249233
30	0xbb9c6af8	-0.004773494
31	0xbb6550d0	-0.0034990795
32	0xbac6d28c	-0.0015168949
33	0x3c2c7389	0.010525593
34	0x3bd073ff	0.006361484
35	0x380cd568	3.357735e-05
36	0x00000000	0.0
37	0x00000000	0.0
38	0x00000000	0.0
39	0x00000000	0.0
40	0x00000000	0.0
41	0x00000000	0.0
42	0x3ac2c2d0	0.0014859084
43	0xbb189165	-0.0023280021
44	0xba83d6b8	-0.0010058498
45	0x3a67d9cc	0.0008844405
46	0x3af40f92	0.0018620363
47	0x3b39ddc4	0.0028360942
48	0x3bb5a7f6	0.005543704
49	0x3b48324e	0.0030547562
50	0xbb532afc	-0.0032221666
51	0xb92f00f2	-0.00016689653
52	0xb8e308be	-0.00010825832
53	0x384c7c7e	4.8753333e-05
54	0xbc7cc856	-0.015428623
55	0xbc16eb69	-0.0092114
56	0x3a5fc306	0.00085358357
57	0xbbf92146	-0.0076028435
58	0xbc77dc9e	-0.015128283
59	0xb8cdca1c	-9.8128075e-05
60	0x3960355e	0.00021382186
61	0x39b6e9a8	0.00034887833
62	0x37fbb813	3.0007248e-05
63	0x00000000	0.0
64	0x00000000	0.0
65	0x00000000	0.0
66	0x3bb39a90	0.005481072
67	0x3ba1995a	0.004931611
68	0xba435d0b	-0.0007452524
69	0xbc73e634	-0.014886428
70	0xbc06f7b8	-0.008237772
71	0x3b929b8c	0.004474109
72	0xbb92d8cd	-0.004481411
73	0xbb00ca4e	-0.0019651833
74	0xb9938401	-0.00028136375
75	0x3c50197b	0.0127013875
76	0x3c33d006	0.01097489
77	0xbc0c8871	-0.008577452
78	0x00000000	0.0
79	0x00000000	0.0
80	0x00000000	0.0
81	0x00000000	0.0
82	0x00000000	0.0
83	0x00000000	0.0
84	0xbb754050	-0.0037422366
85	0x3900ad20	0.00012271525
86	0x3b557653	0.0032571747
87	0x3b3ee859	0.002913019
88	0xbaf6f968	-0.0018842639
89	0x3a3c2c92	0.00071782724

exp_avg_sq f4 [30, 3]
0	0x3ba25fc3	0.0049552633
1	0x37e0294f	2.6722117e-05
2	0x3ac90013	0.0015335105
3	0x3c6049bb	0.013689454
4	0x3a09aaa4	0.00052515627
5	0x377cd79e	1.5070573e-05
6	0x3d819b40	0.0632844
7	0x3c858d14	0.016302623
8	0x392ad476	0.00016291611
9	0x00000000	0.0
10	0x00000000	0.0
11	0x00000000	0.0
12	0x3bb3f321	0.0054916297
13	0x39286cbe	0.00016062238
14	0x3ae2a9b3	0.0017293006
15	0x3ccd278e	0.025043275
16	0x3b83e4bb	0.0040250695
17	0x3bb24ade	0.005441054
18	0x35091684	5.106924e-07
19	0x35cbf9c9	1.5197376e-06
20	0x30f28f75	1.764859e-09
21	0x00000000	0.0
22	0x00000000	0.0
23	0x00000000	0.0
24	0x3b74b213	0.0037337586
25	0x3b51ae5b	0.0031994793
26	0x374d9acd	1.22549945e-05
27	0x3b82149e	0.003969743
28	0x3adad2dd	0.0016694922
29	0x38bb0283	8.917323e-05
30	0x3bc13d7c	0.005897222
31	0x3ad8d4d5	0.0016542921
32	0x3a4d3e7f	0.0007829442
33	0x3bcbec77	0.006223257
34	0x3b055f51	0.0020351002
35	0x37b3019f	2.1339218e-05
36	0x00000000	0.0
37	0x00000000	0.0
38	0x00000000	0.0
39	0x00000000	0.0
40	0x00000000	0.0
41	0x00000000	0.0
42	0x3afb75b2	0.0019184856
43	0x3a80cde0	0.000982698
44	0x3ae25f85	0.0017270899
45	0x390cfb94	0.0001344516
46	0x39b7b3cd	0.00035038442
47	0x3a5337e9	0.00080573425
48	0x3baa39c9	0.005194877
49	0x39879502	0.00025860226
50	0x398dd76d	0.0002705412
51	0x36ae371d	5.19202e-06
52	0x36b86cd9	5.496299e-06
53	0x32fe8489	2.9629762e-08
54	0x3b6cd8a7	0.0036139877
55	0x3aa24a5b	0.0012381779
56	0x38201933	3.817044e-05
57	0x3aaf15d8	0.001335795
58	0x3ba88d1d	0.005143775
59	0x381244ee	3.487331e-05
60	0x34fc8294	4.7033666e-07
61	0x359e439f	1.1791598e-06
62	0x32249dc2	9.581926e-09
63	0x00000000	0.0
64	0x00000000	0.0
65	0x00000000	0.0
66	0x3a7612e1	0.00093869684
67	0x3a444f1d	0.00074885954
68	0x37e80131	2.765711e-05
69	0x3cebf8b3	0.028805112
70	0x3bc066c8	0.0058716275
71	0x382e11c6	4.1501386e-05
72	0x39d97f79	0.0004148444
73	0x38262cdb	3.961926e-05
74	0x36864e7d	4.0026484e-06
75	0x3b259542	0.0025265967
76	0x3a8f6b42	0.0010942
77	0x3abced96	0.0014414068
78	0x00000000	0.0
79	0x00000000	0.0
80	0x00000000	0.0
81	0x00000000	0.0
82	0x00000000	0.0
83	0x00000000	0.0
84	0x3add90c4	0.0016904105
85	0x3936b8c6	0.00017425706
86	0x3a64f765	0.00087343744
87	0x3a6aca72	0.00089565583
88	0x3965afbf	0.00021904612
89	0x38fdd13d	0.00012102954

exp_avg f4 [30]
0	0x00000000	0.0
1	0xbb68e97f	-0.0035539565
2	0x3a49492b	0.00076784444
3	0xbb2d33a4	-0.0026428485
4	0x00000004	6e-45
5	0x00000000	0.0
6	0xbad27624	-0.0016056937
7	0x3addf068	0.0016932609
8	0x00000000	0.0
9	0x00000000	0.0
10	0x3aa4127e	0.0012517718
11	0xbae041c2	-0.0017109441
12	0x00000000	0.0
13	0x3a7777ac	0.0009440135
14	0xbac940bc	-0.0015354375
15	0x00000000	0.0
16	0x3a9d2a34	0.0011990727
17	0xba8479da	-0.0010107115
18	0x3aafd6cd	0.0013415456
19	0xbb411a12	-0.0029465002
20	0x00000000	0.0
21	0xbaabe31f	-0.0013113952
22	0xba9edc25	-0.0012120052
23	0xbafa31f0	-0.0019088369
24	0x00000000	0.0
25	0xb6d6c01b	-6.400061e-06
26	0x3b19344a	0.0023377114
27	0xb98811eb	-0.0002595329
28	0x3ad1b21a	0.0015998513
29	0x38c7504f	9.504018e-05

exp_avg_sq f4 [30]
0	0x00000000	0.0
1	0x399ee985	0.00030310094
2	0x37b9e746	2.2161414e-05
3	0x39958766	0.00028520374
4	0x2aa5a765	2.942604e-13
5	0x00000000	0.0
6	0x3916f599	0.00014396607
7	0x38e03e33	0.00010692738
8	0x00000000	0.0
9	0x00000000	0.0
10	0x391b03e1	0.00014783397
11	0x39089084	0.00013023807
12	0x00000000	0.0
13	0x3847c876	4.763199e-05
14	0x38815a09	6.16797e-05
15	0x00000000	0.0
16	0x395e072b	0.0002117424
17	0x38aadbc5	8.147167e-05
18	0x395c9295	0.00021035441
19	0x39ad20d1	0.00033021581
20	0x00000000	0.0
21	0x3a0fb537	0.000548202
22	0x37e77c4a	2.7595222e-05
23	0x392e38fa	0.00016615159
24	0x00000000	0.0
25	0x362c15dc	2.564272e-06
26	0x3a07aa2e	0.00051752
27	0x384b52cd	4.8476086e-05
28	0x3a4a145a	0.0007708721
29	0x362999da	2.5272516e-06

exp_avg f4 [30, 1]
0	0x00000000	0.0
1	0xbc137a2e	-0.009001298
2	0x3b1c6602	0.0023864512
3	0xbb0e7b93	-0.0021741136
4	0x80000004	-6e-45
5	0x00000000	0.0
6	0x3acb8e4c	0.0015530079
7	0x3a0e5e20	0.0005430896
8	0x00000000	0.0
9	0x00000000	0.0
10	0xbbed1624	-0.0072353054
11	0x3ac66938	0.0015137559
12	0x00000000	0.0
13	0xbb2f48fc	-0.0026746383
14	0xbc185cf1	-0.009299503
15	0x00000000	0.0
16	0xbb016e24	-0.0019749487
17	0x3b900a7a	0.00439578
18	0xbbcb8e09	-0.0062120003
19	0xbbe9bd7a	-0.007133183
20	0x00000000	0.0
21	0x3cf386f7	0.029727442
22	0xbb2c9c37	-0.0026338228
23	0x3af619d8	0.0018776013
24	0x00000000	0.0
25	0xb885d952	-6.382413e-05
26	0xbb0231f9	-0.0019866212
27	0xbc7dad6c	-0.0154832415
28	0xbc9266cb	-0.017871281
29	0xb97a520d	-0.00023872424

exp_avg_sq f4 [30, 1]
0	0x00000000	0.0
1	0x39fd6d78	0.0004833748
2	0x383d749f	4.5169723e-05
3	0x38fe608e	0.000121296485
4	0x28234e0b	9.0652405e-15
5	0x00000000	0.0
6	0x3b08c7bf	0.002087101
7	0x3baccbe8	0.005273331
8	0x00000000	0.0
9	0x00000000	0.0
10	0x3b3cb6e3	0.0028795532
11	0x3ac0ec07	0.0014718779
12	0x00000000	0.0
13	0x3a9c5bc9	0.001192921
14	0x3bb7967a	0.005602655
15	0x00000000	0.0
16	0x391b71b3	0.00014824308
17	0x3a8a31d0	0.001054341
18	0x3a841df6	0.001007973
19	0x3998e811	0.00029164602
20	0x00000000	0.0
21	0x3cece53a	0.028917897
22	0x384b00dd	4.8399776e-05
23	0x3b5b66f3	0.003347811
24	0x00000000	0.0
25	0x355fd88b	8.3389085e-07
26	0x3b6bc4ed	0.0035975531
27	0x3b0ee805	0.0021805775
28	0x3b8eeb15	0.00436152
29	0x3538e03f	6.887166e-07

exp_avg f4 [30, 30]
0	0x00000000	0.0
1	0x00000000	0.0
2	0x00000000	0.0
3	0x00000000	0.0
4	0x00000000	0.0
5	0x00000000	0.0
6	0x00000000	0.0
7	0x00000000	0.0
8	0x00000000	0.0
9	0x00000000	0.0
10	0x00000000	0.0
11	0x00000000	0.0
12	0x00000000	0.0
13	0x00000000	0.0
14	0x00000000	0.0
15	0x00000000	0.0
16	0x00000000	0.0
17	0x00000000	0.0
18	0x00000000	0.0
19	0x00000000	0.0
20	0x00000000	0.0
21	0x00000000	0.0
22	0x00000000	0.0
23	0x00000000	0.0
24	0x00000000	0.0
25	0x00000000	0.0
26	0x00000000	0.0
27	0x00000000	0.0
28	0x00000000	0.0
29	0x00000000	0.0
30	0xbc5658fe	-0.013082741
31	0x3ab41196	0.0013738151
32	0xbb077f67	-0.0020675303
33	0xba737bb6	-0.0009288149
34	0xbba6e384	-0.00509304
35	0xbbb466e7	-0.005505431
36	0xbaed8c46	-0.001812347
37	0x800010ea	-6.068e-42
38	0x3bbf9512	0.005846628
39	0x3b112bc5	0.0022151333
40	0xbbb1e4eb	-0.0054289005
41	0x3b562d7d	0.0032680922
42	0xba12bbc5	-0.0005597438
43	0x39b66f81	0.00034796822
44	0xbb0d35b6	-0.0021546907
45	0xbc398ef1	-0.011325584
46	0xbc56d907	-0.013113267
47	0x3af97af1	0.0019033832
48	0x3bb6f2d5	0.005583147
49	0x3b2d7a28	0.0026470516
50	0x3a2de51f	0.0006633568
51	0x39e501b8	0.00043679564
52	0x3c300eca	0.0107457135
53	0xbbf9db74	-0.007625038
54	0x39a2f744	0.00031083275
55	0xbba00222	-0.0048830668
56	0xbaed863f	-0.0018121673
57	0x3992b073	0.00027978755
58	0xbc980866	-0.018558692
59	0xbc36f1b0	-0.011166021
60	0x3c17af0c	0.009258043
61	0x39e2b29c	0.00043239153
62	0x38cf1c1e	9.8757664e-05
63	0x39befa5d	0.0003642616
64	0x3babb6d1	0.0052402993
65	0x3b83dc41	0.004024059
66	0x3a009d94	0.00049062935
67	0xba3ee977	-0.0007282714
68	0x3c169540	0.009190857
69	0x3b44f229	0.0030051565
70	0x3ba6db68	0.005092073
71	0x3ae65d24	0.0017575365
72	0xb96d209f	-0.00022614234
73	0xb9bcfea2	-0.0003604787
74	0x3bf9a905	0.0076190257
75	0x3c4283ca	0.011872241
76	0x3b3b13dd	0.0028545775
77	0x3997ffe5	0.0002899162
78	0x3b06963e	0.0020536329
79	0x3c291a69	0.010321238
80	0x3a039835	0.0005019934
81	0xb9387170	-0.00017589866
82	0x3bcd9f24	0.0062750746
83	0xba4a1282	-0.00077084464
84	0x3953a47a	0.000201838
85	0x3be4ac68	0.0069785602
86	0xb9b6a646	-0.00034837628
87	0xb9cea9b0	-0.0003941781
88	0x3c6fa45a	0.014626587
89	0x3c1ad4be	0.009450136
90	0xbaec0888	-0.0018007914
91	0xbace5e11	-0.0015744587
92	0xbb311e5f	-0.002702616
93	0x3a23a446	0.0006242435
94	0xba8bb808	-0.0010659704
95	0x3ae288fc	0.0017283256
96	0xb7f23ba5	-2.8876422e-05
97	0x39e915da	0.00044457504
98	0x3bffd3ca	0.0078072296
99	0x3bce243b	0.00629094
100	0xb9951c60	-0.00028440636
101	0x3b9a9180	0.004717052
102	0xb8f0a972	-0.000114756534
103	0x35cde424	1.5340088e-06
104	0x3ba81646	0.0051296083
105	0x3a52a9c0	0.0008036159
106	0xbb28608f	-0.002569232
107	0xb9b6d654	-0.00034873432
108	0x3b702cf6	0.0036647893
109	0x3bf3742c	0.0074296203
110	0x380581d0	3.183057e-05
111	0xb946c5ad	-0.00018956391
112	0x3c05023e	0.00811821
113	0xbbd3eb87	-0.006467286
114	0xba18ef6f	-0.0005834018
115	0x3b533808	0.0032229442
116	0x3a0ad204	0.0005295577
117	0x39f48d95	0.00046644793
118	0xb903e600	-0.00012578815
119	0xba8be198	-0.001067209
120	0x00000004	6e-45
121	0x80000004	-6e-45
122	0x00000004	6e-45
123	0x80000004	-6e-45
124	0x00000004	6e-45
125	0x00000004	6e-45
126	0x00000004	6e-45
127	0x00000004	6e-45
128	0x00000004	6e-45
129	0x80000004	-6e-45
130	0x00000004	6e-45
131	0x80000004	-6e-45
132	0x80000004	-6e-45
133	0x80000004	-6e-45
134	0x00000004	6e-45
135	0x00000004	6e-45
136	0x00000004	6e-45
137	0x00000004	6e-45
138	0x80000004	-6e-45
139	0x80000004	-6e-45
140	0x00000004	6e-45
141	0x00000004	6e-45
142	0x80000004	-6e-45
143	0x00000004	6e-45
144	0x00000004	6e-45
145	0x00000004	6e-45
146	0x80000004	-6e-45
147	0x00000004	6e-45
148	0x00000004	6e-45
149	0x00000004	6e-45
150	0x00000000	0.0
151	0x00000000	0.0
152	0x00000000	0.0
153	0x00000000	0.0
154	0x00000000	0.0
155	0x00000000	0.0
156	0x00000000	0.0
157	0x00000000	0.0
158	0x00000000	0.0
159	0x00000000	0.0
160	0x00000000	0.0
161	0x00000000	0.0
162	0x00000000	0.0
163	0x00000000	0.0
164	0x00000000	0.0
165	0x00000000	0.0
166	0x00000000	0.0
167	0x00000000	0.0
168	0x00000000	0.0
169	0x00000000	0.0
170	0x00000000	0.0
171	0x00000000	0.0
172	0x00000000	0.0
173	0x00000000	0.0
174	0x00000000	0.0
175	0x00000000	0.0
176	0x00000000	0.0
177	0x00000000	0.0
178	0x00000000	0.0
179	0x00000000	0.0
180	0x3a011388	0.000492387
181	0xba98c342	-0.0011654871
182	0xbb2838aa	-0.002566854
183	0x39061a1a	0.0001278896
184	0x3a8e8178	0.0010872325
185	0x3b175d16	0.0023096255
186	0xb9960666	-0.00028614997
187	0x3997206a	0.00028825115
188	0x3bd303b8	0.0064396523
189	0x3b93c18a	0.0045091556
190	0x39eb6820	0.00044900272
191	0x3b62b13e	0.0034590508
192	0xb867c958	-5.5262208e-05
193	0x39a2c640	0.00031046756
194	0x3ba45b5e	0.0050157746
195	0x3b815734	0.003947163
196	0xba1e093c	-0.00060285977
197	0xb89a5ac0	-7.360196e-05
198	0x3b477978	0.0030437391
199	0x3be8e9b8	0.0071079396
200	0x39a6d578	0.00031821034
201	0xb9699090	-0.00022274465
202	0x3bec02b3	0.00720247
203	0xbb8d25e6	-0.0043074964
204	0x38270980	3.982475e-05
205	0x3b648752	0.0034870696
206	0xb9ddd8d0	-0.00042313943
207	0x3997855e	0.0002890033
208	0x3b571e38	0.0032824408
209	0x3aef5790	0.0018260349
210	0x3b5cb6f2	0.003367838
211	0x3aadce58	0.0013260348
212	0x3b00cc54	0.001965304
213	0x38f789c0	0.00011803536
214	0x3b027bc4	0.0019910196
215	0x391d34a0	0.00014992291
216	0x37b55d80	2.162042e-05
217	0xb8644140	-5.4420205e-05
218	0xbb0cb0ec	-0.0021467758
219	0xbb2a1912	-0.0025954884
220	0x3ab67d18	0.0013922779
221	0xbb0da2dc	-0.0021611964
222	0x38bde1b0	9.05426e-05
223	0x3925d970	0.00015816628
224	0xba5cfe30	-0.0008430211
225	0x3b013fc4	0.0019721845
226	0x3b07146e	0.0020611542
227	0x39b5c230	0.0003466769
228	0xbaca7bfe	-0.001544833
229	0xbb03386c	-0.0020022644
230	0x3917d48c	0.00014479662
231	0x38c3c580	9.335112e-05
232	0xbb6cafba	-0.0036115483
233	0x3b8f6cfe	0.0043770066
234	0x39e6ec98	0.00044045295
235	0xba02a618	-0.00049838563
236	0xb860a1a0	-5.3556287e-05
237	0xb7875da0	-1.6136852e-05
238	0x3b5ed0b0	0.00339989
239	0x3b2265d8	0.0024779942
240	0x00000000	0.0
241	0x00000000	0.0
242	0x00000000	0.0
243	0x00000000	0.0
244	0x00000000	0.0
245	0x00000000	0.0
246	0x00000000	0.0
247	0x00000000	0.0
248	0x00000000	0.0
249	0x00000000	0.0
250	0x00000000	0.0
251	0x00000000	0.0
252	0x00000000	0.0
253	0x00000000	0.0
254	0x00000000	0.0
255	0x00000000	0.0

exp_avg_sq f4 [30, 30]
0	0x00000000	0.0
1	0x00000000	0.0
2	0x00000000	0.0
3	0x00000000	0.0
4	0x00000000	0.0
5	0x00000000	0.0
6	0x00000000	0.0
7	0x00000000	0.0
8	0x00000000	0.0
9	0x00000000	0.0
10	0x00000000	0.0
11	0x00000000	0.0
12	0x00000000	0.0
13	0x00000000	0.0
14	0x00000000	0.0
15	0x00000000	0.0
16	0x00000000	0.0
17	0x00000000	0.0
18	0x00000000	0.0
19	0x00000000	0.0
20	0x00000000	0.0
21	0x00000000	0.0
22	0x00000000	0.0
23	0x00000000	0.0
24	0x00000000	0.0
25	0x00000000	0.0
26	0x00000000	0.0
27	0x00000000	0.0
28	0x00000000	0.0
29	0x00000000	0.0
30	0x3cd690ee	0.026192155
31	0x373f39eb	1.1397972e-05
32	0x382bf366	4.099626e-05
33	0x36bacccf	5.567075e-06
34	0x3bda1a18	0.0066559426
35	0x3bc57459	0.0060258326
36	0x37b095ea	2.1050644e-05
37	0x2d5d9e63	1.25975645e-11
38	0x3bd09155	0.006364981
39	0x3a9bb15f	0.0011878422
40	0x3b58f685	0.0033105921
41	0x3999e75f	0.0002935482
42	0x360f7b9e	2.1380615e-06
43	0x35706583	8.9554686e-07
44	0x3c4e0926	0.012575423
45	0x3d048b30	0.032359302
46	0x3c111a37	0.008856348
47	0x37cc783f	2.4374689e-05
48	0x39a5adab	0.00031600645
49	0x3c82bac0	0.01595819
50	0x364659b6	2.9556518e-06
51	0x35b58190	1.3523259e-06
52	0x3b31b786	0.0027117445
53	0x39c1e043	0.00036978917
54	0x35449730	7.3235697e-07
55	0x3c2e8b44	0.010653321
56	0x37aa3e51	2.0294598e-05
57	0x352339e2	6.080646e-07
58	0x3d6ae988	0.05735162
59	0x3cbbf15c	0.022942238
60	0x3a94fb05	0.0011366314
61	0x362d753c	2.5847248e-06
62	0x37c87afb	2.3899125e-05
63	0x358d7dc7	1.0541925e-06
64	0x39860ea3	0.00025569377
65	0x395241d4	0.00020051684
66	0x35d1e9e8	1.5639789e-06
67	0x368d9431	4.219379e-06
68	0x39de380c	0.00042384898
69	0x3859955a	5.1875926e-05
70	0x3934bdc3	0.0001723683
71	0x37ceb1db	2.4639934e-05
72	0x34d9ca5b	4.0566633e-07
73	0x358a905b	1.0323814e-06
74	0x39fcb3cd	0.00048199148
75	0x3a973cb1	0.0011538473
76	0x3991030e	0.0002765883
77	0x35a0e549	1.198766e-06
78	0x38010629	3.0761734e-05
79	0x3a2ba5f0	0.0006547859
80	0x359be297	1.1614346e-06
81	0x34839b8f	2.4513835e-07
82	0x393df9a5	0.00018117444
83	0x386ae472	5.6002704e-05
84	0x35aef9ee	1.3036749e-06
85	0x39d77402	0.00041094428
86	0x35816771	9.641354e-07
87	0x35a5b844	1.2347086e-06
88	0x3b186771	0.0023255015
89	0x3a7ed10f	0.0009720483
90	0x3c6ea581	0.014565826
91	0x3832ff21	4.2676114e-05
92	0x388b21b3	6.6343135e-05
93	0x372a1cf5	1.0139532e-05
94	0x3b856492	0.004070827
95	0x3b4a8cc4	0.0030906657
96	0x341e5058	1.4744126e-07
97	0x36ae7b8f	5.199988e-06
98	0x3c07ee28	0.008296527
99	0x3ab118ca	0.0013511416
100	0x3b0cd149	0.0021487048
101	0x3a3aff47	0.0007133376
102	0x34ce8600	3.8467988e-07
103	0x30a7401c	1.216907e-09
104	0x3c0788e5	0.008272384
105	0x3caf7764	0.021419235
106	0x3b70570f	0.0036672985
107	0x3672bfaf	3.6172385e-06
108	0x3a840e9e	0.0010075157
109	0x3c6da7f8	0.014505379
110	0x35cd691e	1.5304283e-06
111	0x35856d5b	9.941099e-07
112	0x3b9f60a5	0.004863816
113	0x39960e34	0.00028620812
114	0x3867bc63	5.525014e-05
115	0x3bfd9f0f	0.0077399085
116	0x36f60bdb	7.3327515e-06
117	0x36bfbad4	5.7139932e-06
118	0x3d06e2e6	0.03293123
119	0x3c589d68	0.013221122
120	0x2d3fe216	1.0907294e-11
121	0x266eb128	8.281293e-16
122	0x2b37ad49	6.525514e-13
123	0x23f21983	2.6248497e-17
124	0x2bd8444b	1.5366678e-12
125	0x2bebd102	1.6755766e-12
126	0x2afd3701	4.4979995e-13
127	0x25affe1f	3.052986e-16
128	0x263ef913	6.625705e-16
129	0x2618fce6	5.3078335e-16
130	0x28d54310	2.3676834e-14
131	0x257b9222	2.1820291e-16
132	0x248d58a4	6.1299166e-17
133	0x2651c90a	7.27839e-16
134	0x2b54ede2	7.564766e-13
135	0x2c334726	2.5476925e-12
136	0x2d11c21a	8.285395e-12
137	0x2c0dd446	2.015514e-12
138	0x2641c638	6.7228963e-16
139	0x25bcf6cf	3.2780045e-16
140	0x2bb8d7e5	1.3133909e-12
141	0x259deec9	2.7396966e-16
142	0x25174863	1.3121688e-16
143	0x2cbbd966	5.3389957e-12
144	0x260955e1	4.764781e-16
145	0x2a70b17f	2.1377863e-13
146	0x23a0f65a	1.7451569e-17
147	0x25128d8d	1.271144e-16
148	0x2d8258a2	1.481865e-11
149	0x2d0547a0	7.576079e-12
150	0x00000000	0.0
151	0x00000000	0.0
152	0x00000000	0.0
153	0x00000000	0.0
154	0x00000000	0.0
155	0x00000000	0.0
156	0x00000000	0.0
157	0x00000000	0.0
158	0x00000000	0.0
159	0x00000000	0.0
160	0x00000000	0.0
161	0x00000000	0.0
162	0x00000000	0.0
163	0x00000000	0.0
164	0x00000000	0.0
165	0x00000000	0.0
166	0x00000000	0.0
167	0x00000000	0.0
168	0x00000000	0.0
169	0x00000000	0.0
170	0x00000000	0.0
171	0x00000000	0.0
172	0x00000000	0.0
173	0x00000000	0.0
174	0x00000000	0.0
175	0x00000000	0.0
176	0x00000000	0.0
177	0x00000000	0.0
178	0x00000000	0.0
179	0x00000000	0.0
180	0x3b9ff1de	0.0048811277
181	0x379847bd	1.8153218e-05
182	0x385ef85f	5.3160238e-05
183	0x376eba84	1.4229332e-05
184	0x3b3a7830	0.0028452985
185	0x3b0f3734	0.0021852972
186	0x38674a3b	5.5143824e-05
187	0x38970b0a	7.202297e-05
188	0x3b3b3dc3	0.0028570748
189	0x3a20d7af	0.0006135655
190	0x3a15352c	0.0005691822
191	0x3a2581c0	0.0006313585
192	0x3633d903	2.6799396e-06
193	0x38af301e	8.353613e-05
194	0x3b99174f	0.004671968
195	0x3c0d8aab	0.008639018
196	0x3aa61f7f	0.0012674181
197	0x3835354f	4.320341e-05
198	0x3a632a56	0.00086656713
199	0x3bab8821	0.0052347337
200	0x391e2d40	0.00015084911
201	0x38348a88	4.304436e-05
202	0x3b29b72c	0.0025896532
203	0x39eae004	0.00044798863
204	0x389813f7	7.2516435e-05
205	0x3b0bc9e6	0.0021330058
206	0x39229726	0.00015505831
207	0x3897d4f7	7.239909e-05
208	0x3c405b93	0.011740583
209	0x3bb9e7a8	0.0056733675
210	0x3b74cc0a	0.0037353062
211	0x3a1b9224	0.00059345574
212	0x38d8546e	0.00010315409
213	0x39830553	0.00024990234
214	0x3ada95bc	0.0016676704
215	0x3aa1f202	0.0012355449
216	0x37c84152	2.3872275e-05
217	0x3862a1a6	5.4033146e-05
218	0x3b91793f	0.0044395025
219	0x3ad96cf1	0.0016588253
220	0x3a765373	0.000939659
221	0x390a2949	0.00013176085
222	0x391adf78	0.00014769833
223	0x39ea6344	0.00044705917
224	0x3b3d2671	0.0028862024
225	0x3bbd76d9	0.00578199
226	0x3a439085	0.0007460195
227	0x393d4113	0.00018048687
228	0x392dd7d5	0.0001657897
229	0x3b368e85	0.0027855944
230	0x37230b03	9.718121e-06
231	0x392488d8	0.00015691237
232	0x3a7546c0	0.0009356551
233	0x3903ff78	0.00012588303
234	0x39d40015	0.00040435852
235	0x3aa1a92d	0.0012333744
236	0x385b9a64	5.2357456e-05
237	0x36ab75d8	5.109916e-06
238	0x3c8808c7	0.016605748
239	0x3b317343	0.0027076758
240	0x00000000	0.0
241	0x00000000	0.0
242	0x00000000	0.0
243	0x00000000	0.0
244	0x00000000	0.0
245	0x00000000	0.0
246	0x00000000	0.0
247	0x00000000	0.0
248	0x00000000	0.0
249	0x00000000	0.0
250	0x00000000	0.0
251	0x00000000	0.0
252	0x00000000	0.0
253	0x00000000	0.0
254	0x00000000	0.0
255	0x00000000	0.0

exp_avg f4 [2]
0	0x3c5a30c4	0.013317291
1	0x3bb81e58	0.0056188516

exp_avg_sq f4 [2]
0	0x3cb92de5	0.022604892
1	0x3a7c2e3f	0.00096199283

exp_avg f4 [2, 1]
0	0xbd053901	-0.032525066
1	0xbc3176b2	-0.010831522

exp_avg_sq f4 [2, 1]
0	0x3bb2c497	0.0054555642
1	0x3a92b681	0.0011193306

exp_avg f4 [2, 30]
0	0xbbb509ec	-0.0055248644
1	0x3cc8dccc	0.024519347
2	0xbcdb50b4	-0.02677188
3	0x3b519ab0	0.003198307
4	0x3ae90ae9	0.0017779741
5	0xbb6b25e3	-0.0035880737
6	0xbd2e9ebb	-0.042631846
7	0xbda72fa0	-0.081633806
8	0xbb839842	-0.0040159533
9	0x3b5fcafd	0.003414809
10	0xbd779568	-0.06044522
11	0xbd450250	-0.04809791
12	0xbc083721	-0.008313925
13	0xbdbd0f99	-0.09231491
14	0xbda17d0e	-0.078851804
15	0xbba3a046	-0.0049934713
16	0xbaebf4fe	-0.001800209
17	0xbd3d52c3	-0.046221506
18	0xbcf1d982	-0.029522661
19	0x3c0d3c26	0.008620298
20	0x3bb962ce	0.0056575304
21	0xbdae9b1f	-0.08525681
22	0x3ce1067c	0.027468912
23	0xbd24dc48	-0.04024914
24	0xbb816564	-0.0039488543
25	0x3c0f6c71	0.008753882
26	0xbb90f3c6	-0.0044235913
27	0xbdc4d90c	-0.09611711
28	0xbd161169	-0.036637697
29	0x3bc27b8a	0.005935137
30	0x3aac15f5	0.0013129102
31	0x3afd0db1	0.0019306449
32	0x3c2e8440	0.010651648
33	0xbb2d5313	-0.0026447221
34	0x3a2184f8	0.00061614765
35	0xbab46f83	-0.0013766143
36	0x3c9ed610	0.019389182
37	0x3d3d0f5a	0.04615722
38	0x3b1cf931	0.002395224
39	0xba19375e	-0.0005844737
40	0x3cf44fba	0.029823173
41	0x3c87f5f1	0.016596766
42	0x3b3994fb	0.002831756
43	0x3d0a9ed6	0.033842884
44	0x3d34f9c3	0.044183504
45	0x3ac0c791	0.0014707913
46	0x3b326ac4	0.0027224282
47	0x3c96d0d2	0.01841012
48	0x3c446968	0.011988021
49	0xb9e4f8c4	-0.00043672894
50	0xbb0fa575	-0.0021918688
51	0x3d2a9be0	0.04165256
52	0x39b2f7ae	0.0003413534
53	0x3c83a67f	0.016070602
54	0xb99e2bae	-0.00030168652
55	0xbaad412b	-0.0013218274
56	0x3c6a14f6	0.014287224
57	0x3d1e425f	0.038637515
58	0x3c6a99bc	0.01431888
59	0xbb1b5e99	-0.0023707508

exp_avg_sq f4 [2, 30]
0	0x392985b3	0.00016166903
1	0x3b7f2c4d	0.0038936317
2	0x3c87028d	0.016480708
3	0x3ac87969	0.0015294972
4	0x379d7c1e	1.8773655e-05
5	0x38936dbc	7.029946e-05
6	0x3dde7408	0.10861975
7	0x3ee899fb	0.45429978
8	0x38b6fffb	8.726116e-05
9	0x38861d87	6.395118e-05
10	0x3e35c778	0.17751873
11	0x3db5db65	0.08879737
12	0x39bc4004	0.0003590585
13	0x3e367374	0.1781748
14	0x3eff4e2c	0.49864328
15	0x390b534a	0.000132871
16	0x3b58c8b4	0.0033078613
17	0x3d9d5d33	0.07683792
18	0x3d19f3c6	0.037585996
19	0x3a053153	0.0005080897
20	0x393185a3	0.00016929819
21	0x3ea80337	0.32814953
22	0x3bad0d2b	0.0052811108
23	0x3d9b060c	0.07569513
24	0x38b12b0f	8.448038e-05
25	0x39cc4b11	0.0003896584
26	0x3d7464de	0.059666507
27	0x3ea86720	0.32891178
28	0x3d6cf5d2	0.05785162
29	0x3948b6db	0.00019141605
30	0x378a1965	1.6462707e-05
31	0x3a9a507c	0.0011773254
32	0x3a83caa5	0.00100549
33	0x389193ed	6.941692e-05
34	0x3673d5a3	3.6334175e-06
35	0x3797cffa	1.809745e-05
36	0x3b7ac392	0.0038263542
37	0x3ca3ac88	0.01997973
38	0x3865a082	5.474734e-05
39	0x365b7527	3.2701735e-06
40	0x3bd03bac	0.0063547697
41	0x3b303b4f	0.002689082
42	0x38a07397	7.650925e-05
43	0x3bbacfd0	0.0057010427
44	0x3c9b7ad2	0.018979464
45	0x37ad466f	2.0656005e-05
46	0x38ddf488	0.00010583649
47	0x3b13e61a	0.002256757
48	0x3aa29c00	0.0012406111
49	0x3947e4af	0.0001906331
50	0x38404f12	4.5850007e-05
51	0x3c7863de	0.015160529
52	0x3a63374b	0.0008667602
53	0x3b09d904	0.0021033892
54	0x356ad43a	8.7480623e-07
55	0x3817cda5	3.6192727e-05
56	0x3b64ce80	0.0034913123
57	0x3c233c04	0.009963039
58	0x3a93f3a7	0.0011287824
59	0x38dc9c9b	0.000105195875
