Secondary_Models/Mdl_Medium_Network_Stp0.1_lr1e-05_v2.4.pt (torch_old, 136045 bytes, 33 tensors)

fc1.bias f4 [96]
000000 3b 42 c4 be d0 12 41 bd a2 05 e9 be de 45 ab 3e
       -0.3833178 -0.04713708 -0.4551211 0.33451742
000010 06 95 fc 3e d0 d5 22 3d ec 77 bf bd cb 23 13 bf
       0.49332446 0.03975469 -0.09349045 -0.5747649
000020 c2 38 d5 3e 58 12 00 3e c9 6b 35 3e 35 ce b9 3e
       0.41644865 0.12506998 0.17716898 0.36290136
000030 dc fc 02 3e 7f 67 a8 be 5e 0f d8 3e fa af a5 be
       0.1279177 -0.3289146 0.42199224 -0.32360822
000040 9e 81 ca be a0 17 c3 3c 62 10 4f be 62 5d 03 3f
       -0.39552015 0.023814976 -0.20221093 0.51314366
000050 38 59 32 3e f2 70 6a be 9b 6f eb be ac 37 fc bd
       0.17416847 -0.22894648 -0.45983586 -0.12315306
000060 90 c8 ac 3e 29 c9 12 bf bc c2 88 be 25 96 19 3c
       0.33746767 -0.57338196 -0.2671107 0.009374176
000070 06 30 a3 3e 57 46 df 3e 3e ed 07 3f 1b af bb 3e
       0.31872576 0.43608353 0.5309638 0.36657032
000080 59 fc 97 be ba 87 6c 3e 63 e1 f7 3e d8 4d ca be
       -0.29684713 0.2309865 0.48414144 -0.39512515
000090 5b f2 11 3f a3 33 ba be 5f 16 f0 be 36 1e 38 be
       0.5701043 -0.3636752 -0.46892068 -0.17980275
0000a0 6e 29 d3 3d 40 55 0e 3f 9b b1 0e 3f 56 62 e8 be
       0.103106365 0.5559883 0.55739754 -0.45387524
0000b0 8f a1 70 3e cf 16 ed 3e b6 e2 ca 3c 96 b0 50 3e
       0.2349913 0.46306464 0.024766307 0.20379862
0000c0 f2 4b c1 be c8 db 00 be 56 13 ac bd 68 b4 ab be
       -0.37753254 -0.1258384 -0.084021255 -0.33536077
0000d0 50 08 f2 3d 36 c0 cd be 08 98 55 3e aa 57 9c be
       0.11817992 -0.40185708 0.20858777 -0.30535632
0000e0 5c bf 43 3e 99 b8 86 3e 4d 1a 18 3d 93 87 6e 3e
       0.19115967 0.26312712 0.037134457 0.23293905
0000f0 e1 e1 e7 3e 1b ba f6 3d c2 a1 28 3e ba 9b 01 bf
       0.4528952 0.120472156 0.16467956 -0.50628245
000100 f4 c2 1c 3e d7 03 ac be fb 15 0a bf 37 43 a6 3d
       0.15308744 -0.3359668 -0.5393979 0.08118289
000110 00 9f b2 3d 56 b2 70 be c6 c2 f1 3e b1 41 9d 3e
       0.08721733 -0.2350553 0.47218913 0.3071418
000120 d6 9e 80 3e 4c 0b 97 bc ce 89 e7 bd fe f5 f3 be
       0.25121182 -0.018438004 -0.11305581 -0.47648615
000130 16 ea 01 bf f3 d7 73 3d 7f 65 11 bf 3a 91 c4 bd
       -0.5074781 0.059532117 -0.56795496 -0.09598012
000140 05 f1 83 be 19 9b 06 3e 2f 81 d3 3c 62 52 d9 3e
       -0.2576982 0.13145103 0.025818435 0.42445666
000150 d0 d5 24 3e 41 8a b9 be 4e 90 89 be 04 59 cd be
       0.16097188 -0.36238292 -0.26867908 -0.40106976
000160 49 8d 76 bc 25 31 bb be 7e d0 f3 be 1f af 48 be
       -0.015048333 -0.36560932 -0.47620004 -0.19598053
000170 3f a2 e3 be f8 c4 96 3d c6 54 cd be 70 9f 46 bd
       -0.4445972 0.073617876 -0.4010374 -0.048491895

fc1.weight_g f4 [96, 1]
000000 a9 01 34 3f 1c ec dc 3e df 5d 4d 3f b9 a2 31 3f
       0.70315033 0.43148887 0.8022136 0.6938892
000010 a3 4f 2f 3f 0f 83 34 3f 8c 7b 0e 3f cd e5 f0 3e
       0.6848089 0.7051248 0.5565727 0.47050324
000020 3e 40 29 3f e7 8c 54 3e 35 0f 21 3f 48 2f 33 3f
       0.6611365 0.20756875 0.6291383 0.6999402
000030 31 b7 0d 3f 36 35 2a 3f 9c 02 0d 3f 5e 2f 89 3e
       0.5535765 0.66487443 0.55082107 0.2679395
000040 5e f2 29 3f 43 b1 01 3f fb e8 1a 3f 31 f1 13 3f
       0.6638545 0.50661105 0.6051175 0.57789904
000050 03 cd ba 3e 49 3c 12 3f 05 d2 57 3f 25 7e 51 3f
       0.36484537 0.5712324 0.8430484 0.81833106
000060 2f 04 26 3f 1c 55 e8 3e af 97 20 3f 51 06 f0 3e
       0.64850134 0.45377433 0.6273145 0.4687982
000070 9b 92 4d 3f 84 d6 d9 3e be 7f d9 3e ae e0 07 3f
       0.8030183 0.42546475 0.42480272 0.5307721
000080 e2 09 d5 3e c7 f7 45 3f e2 d0 ca 3e dc 36 27 3f
       0.41609102 0.77331203 0.3961249 0.65318084
000090 24 92 93 3e 79 cd 0f 3f 89 19 33 3f 3a 86 1e 3f
       0.28822434 0.561729 0.6996084 0.61923563
0000a0 17 81 05 3f 80 10 1d 3f f2 77 e1 3e fb b9 45 3f
       0.521501 0.613533 0.44036824 0.7723691
0000b0 67 04 33 3f 25 64 08 3f 54 e5 07 3f a2 fb e5 3e
       0.6992859 0.5327781 0.530843 0.44918543
0000c0 d6 09 bb 3e af d1 38 3f 1d 82 d1 3e 54 88 fc 3e
       0.36530942 0.7219495 0.4091958 0.4932276
0000d0 48 f1 20 3f a6 33 18 3f d0 61 31 3f b9 8a 1d 3f
       0.62868166 0.5945381 0.69289875 0.615398
0000e0 a5 8f d4 3e 81 88 2f 3e 0b 13 15 3f 01 04 35 3f
       0.41515842 0.17141916 0.5823218 0.70709234
0000f0 4c d3 42 3f f1 4d 58 3e 20 c9 40 3f f1 34 1e 3f
       0.76103663 0.21123482 0.7530689 0.6179953
000100 39 89 0c 3f 4a 94 67 3e 91 88 19 3f b9 eb 4b 3f
       0.54896885 0.22615162 0.5997401 0.7965656
000110 1f 0b 3a 3f 07 fe 26 3f b7 a6 33 3f 45 77 65 3e
       0.7267322 0.65231365 0.7017626 0.22408779
000120 ce 27 15 3f f5 b2 f0 3e 3a b2 fa 3e 75 57 10 3f
       0.5826386 0.47011533 0.489641 0.5638345
000130 fe 28 1f 3f 1b c7 20 3f 86 d8 c4 3e a5 b5 5f 3f
       0.62171924 0.6280381 0.38446444 0.8738654
000140 93 b5 05 3f f6 b7 41 3f 33 89 39 3f 99 56 ed 3e
       0.52230185 0.7567133 0.72474974 0.4635513
000150 ee a0 20 3f 48 b2 61 3d a3 d2 21 3f 8f d9 ed 3e
       0.6274556 0.055101663 0.6321203 0.46455047
000160 00 86 d4 3e ad c0 ab 3e c6 22 84 3e 21 c7 0a 3f
       0.41508484 0.33545437 0.2580778 0.54210097
000170 8c 9b 30 3f 92 37 fb 3e 87 85 37 3f 8d 63 25 3f
       0.68987346 0.49065834 0.7168812 0.6460503

fc1.weight_v f4 [96, 3]
000000 25 db a9 be 2f c0 0e 3f 11 b4 70 3e fc 3c b7 bd
       -0.33175007 0.55762 0.2350619 -0.08947179
000010 5c a3 e5 bd 2e 5b d0 be ca a1 01 bf 1d 60 e9 be
       -0.11212799 -0.40694565 -0.50637496 -0.4558114
000020 48 d7 d8 be 74 3a ce 3e 54 07 0b bf fd f0 dc 3d
       -0.42351747 0.4027897 -0.54308057 0.10788152
000030 2d d1 ed 3e af eb f2 be 08 49 24 3e 50 09 88 bd
       0.4644865 -0.47445437 0.16043484 -0.06642401
000040 01 31 cd be 85 8b 13 bf 56 d3 be be 96 54 c6 be
       -0.4007645 -0.57634765 -0.37270612 -0.3873641
000050 2c ba 13 3e 68 2d 47 be 38 55 01 be 84 99 d1 be
       0.14426488 -0.19450915 -0.12630165 -0.40937436
000060 59 7e 08 bf da 81 b0 be 60 c0 3c 3e 1c 73 04 be
       -0.5331779 -0.3447407 0.1843276 -0.12934536
000070 e2 8a 13 be e0 2d 99 3d 18 c0 12 3f af 5d 25 3e
       -0.14408448 0.07479453 0.5732436 0.16149019
000080 12 20 6a 3e a5 63 05 bf ed 28 e9 3e 77 66 58 3d
       0.22863796 -0.5210517 0.45539036 0.052832093
000090 af 23 de 3e 8b 11 ae be a0 9a 01 3d 58 13 65 3e
       0.433866 -0.3399776 0.031641603 0.2237066
0000a0 ae eb 0d 3f 9c 37 9a be a7 e1 f7 be 04 3f 36 3e
       0.55437744 -0.30120552 -0.48414347 0.17797476
0000b0 59 dd 54 3e 32 79 65 3b 73 66 87 3e 67 87 25 bd
       0.20787562 0.0035014865 0.2644535 -0.040412333
0000c0 c1 1d 8f 3d cc 3c 0c 3f 59 5e be 3e fe 8e 53 be
       0.06988097 0.5478027 0.37181357 -0.20660016
0000d0 22 c5 d1 be 86 e3 5b be 2c f7 42 be 2e 91 e6 be
       -0.40970713 -0.21473512 -0.19039601 -0.45032638
0000e0 c4 8c b6 3e 8d 0a b8 be 26 f5 d4 be c0 7c 36 be
       0.3565427 -0.3594555 -0.41593283 -0.17821026
0000f0 3e c7 68 3e d5 c6 88 3d 6c c0 8d be c3 b0 06 bf
       0.22732255 0.06678549 -0.2768587 -0.52613467
000100 22 72 32 be e6 98 0d be a7 16 05 bf 94 ed d2 be
       -0.1742635 -0.13827857 -0.5198769 -0.41196883
000110 28 34 05 3f 37 43 0e bf 12 47 31 be 92 41 13 3f
       0.5203271 -0.5557131 -0.17312267 0.5752193
000120 c2 00 ec 3d 24 92 f3 3e a9 ed d6 3e bd cf 8d be
       0.11523582 0.47572434 0.41978195 -0.27697554
000130 79 9b b5 be d0 36 6e bd ed 0a eb 3e 33 89 c4 3d
       -0.3547018 -0.058157742 0.45906773 0.09596481
000140 de aa d4 be 9b c2 9f 3e f2 46 9c 3e ff 30 2d be
       -0.4153661 0.3120316 0.30522877 -0.16913222
000150 81 ec 43 be 52 c3 0e 3f 59 d0 03 3f 83 ad b7 3e
       -0.19133188 0.55766785 0.5148979 0.35874566
000160 57 5e 5e 3e 36 d7 6e 3d da 9c 2a be c8 75 a5 be
       0.21715675 0.05831071 -0.16661397 -0.32316422
000170 6c f5 60 be 62 1b 3c 3d 4c e7 bf bb 0e 9b 06 bf
       -0.21968621 0.04592455 -0.00585643 -0.52580345
000180 ab e3 55 3e 10 e9 5b be 9e ed 94 be 28 72 82 3e
       0.2088763 -0.21475625 -0.29087538 0.2547772
000190 31 b7 eb 3e fa ae 11 bf 0a 77 35 bb b6 33 9e 3e
       0.460382 -0.5690762 -0.002768936 0.30898827
0001a0 98 fb 76 3e d8 9f f8 bd c4 3b 00 bf 88 6f cd 3e
       0.24119413 -0.12139863 -0.50091195 0.40124154
0001b0 f5 04 83 3d b5 ed 63 3e 42 00 37 be df 44 6c 3e
       0.0639743 0.22258647 -0.17871192 0.23073147
0001c0 45 91 9f be 0a 44 d3 be 9f 82 cb 3e d0 94 04 bf
       -0.3116552 -0.41262847 0.39748093 -0.5178957
0001d0 97 e1 5c 3e 02 be 22 be 66 46 95 be 30 ce 05 3f
       0.2157043 -0.15892795 -0.29155272 0.5226774
0001e0 84 69 39 3e de 77 28 be 7d 90 ea be 33 58 da be
       0.18106657 -0.16451976 -0.4581336 -0.42645416
0001f0 29 1b be 3e f1 f0 63 3e 93 a2 0d be b3 2e 6c 3d
       0.37130097 0.2225988 -0.13831548 0.057661723
000200 6a 13 ce 3e ef 03 b3 3e 7e 3a ef 3e bc d6 ff 3e
       0.40249187 0.3496394 0.46724313 0.49968517
000210 74 67 e4 3e b3 fa 00 3f dd 0e 40 3e bf 21 9e 3e
       0.44610178 0.50382537 0.1875567 0.3088512
000220 d7 31 b9 3e f1 f1 6e 3e 00 df 8b 3e 0d c1 e4 3e
       0.36170837 0.23334481 0.27318573 0.44678536
000230 cc fa d6 bd b3 b3 95 3c 76 f1 d9 be 72 c0 09 3e
       -0.104970545 0.018274164 -0.42567033 0.13452318
000240 fa c1 42 be 48 37 88 3e f4 f1 0c 3e 29 2f 68 3e
       -0.19019309 0.26604676 0.13764173 0.2267424
000250 f9 68 f8 be fb 82 f5 3e 62 6c 66 3d a3 3c b3 3d
       -0.48517588 0.47951493 0.056255706 0.087518
000260 9e 6c c8 be 20 f3 49 bd 60 8e c0 be 6e 6c a1 be
       -0.39145368 -0.049304128 -0.37608624 -0.31528038
000270 22 58 62 be 88 c2 04 be 3c f7 12 bf be 92 8a 3e
       -0.22103932 -0.12964833 -0.574085 0.2706508
000280 ea 3f 85 3e 46 96 ec be 7e c1 e8 3e 80 12 b4 3e
       0.26025325 -0.462084 0.45460123 0.35170364
000290 79 e5 c3 be 0b 65 0b 3f 8c 62 96 3e 27 59 9d bc
       -0.3826101 0.54451054 0.2937206 -0.01920755
0002a0 bc 0b 80 3e 4a 28 a4 be 90 9b 60 bd e7 40 21 3e
       0.25008953 -0.32061988 -0.054835856 0.15747415
0002b0 aa ac 8c bd dc 0c b7 bc 06 78 38 3e d6 ee a6 bd
       -0.068688706 -0.022344999 0.18014535 -0.08151023
0002c0 b2 da 0c 3f ee 40 43 be a9 c3 b9 3e f5 32 0e bf
       0.550212 -0.19067737 0.3628209 -0.55546504
0002d0 bf 97 aa bc 16 3a 09 3f 47 c5 07 bf 86 a1 35 3e
       -0.020824311 0.5360426 -0.53035396 0.17737398
0002e0 f3 4c c6 3d 41 1f 58 bc 87 05 ec be 34 80 12 3f
       0.09682646 -0.013191045 -0.46097967 0.5722687
0002f0 0f 16 10 3e 07 7d 0b bf 14 00 65 3e dc 9d 3f 3e
       0.14070915 -0.5448765 0.22363311 0.18712562
000300 14 56 c5 be ca 94 c0 be 10 14 da 3d 7a 1c 1d be
       -0.38542235 -0.37613517 0.10648358 -0.15342894
000310 e8 1e fd bd f0 65 e3 3d 44 76 c7 3e f6 c0 b8 3e
       -0.123594105 0.111034274 0.38957417 0.36084718
000320 58 04 92 be b3 d7 0c 3f 1a 70 89 3e 3d fd 01 3f
       -0.2851894 0.5501663 0.2684334 0.50777036
000330 4c 80 05 bf 40 21 0c bd 44 47 01 bf b0 6b e4 3d
       -0.5214889 -0.034211397 -0.5049937 0.11153352
000340 83 4d 9a 3e 87 6e 11 bf 45 0f d5 3e f3 3a 89 3d
       0.30137262 -0.56809276 0.41613212 0.06700697
000350 56 31 10 bf 40 e6 97 bd 70 52 f1 3c 11 e8 68 be
       -0.5632528 -0.074169636 0.029458255 -0.22744776
000360 03 0c fa 3e 5d 0f 09 3e c3 9c 92 be df 1f a0 3e
       0.4883729 0.13384767 -0.28635225 0.31274316
000370 c0 fb b4 3e 70 e1 fd 3b 14 e5 d1 3e bd 08 a5 3c
       0.3534832 0.0077478215 0.40995085 0.020145768
000380 49 0b 88 3e 30 11 fd 3d 55 c1 64 be c7 64 01 bf
       0.2657111 0.12356794 -0.22339375 -0.505444
000390 ac ca c5 bd 16 c1 10 bf e6 7f 75 be 78 66 e9 be
       -0.09657797 -0.56544626 -0.2397457 -0.4558599
0003a0 48 71 cd 3e 5c be 1c be 2e 32 8a 3e 62 19 36 3e
       0.4012549 -0.15306991 0.2699141 0.1778312
0003b0 4e e5 52 be c5 ad f1 3e c1 5a 08 3f e7 54 01 bf
       -0.20595285 0.47202888 0.5326348 -0.50520176
0003c0 73 fa 02 3f d7 d0 ab 3d 1f 7d 96 bd 0f f1 02 3f
       0.51163405 0.083894424 -0.07348084 0.51149076
0003d0 17 8d ff 3e 44 21 82 be 36 8e dd 3e 6a be f5 3e
       0.4991233 -0.25416005 0.4327256 0.47996837
0003e0 63 d6 ab be e1 62 80 be 5d 61 17 3e 1c d3 b7 3e
       -0.33562002 -0.2507544 0.14783235 0.3590325
0003f0 07 53 be 3e a6 a2 f9 be da aa ff 3d 00 e1 e6 3b
       0.3717272 -0.48756903 0.12483759 0.007045865

fc2.bias f4 [48]
000000 3a 65 99 bc 30 d3 81 3d 10 eb 94 3c 82 82 67 3c
       -0.018725026 0.06339109 0.018178493 0.014130237
000010 00 f5 60 bd 55 66 9f bd 14 91 87 bd 68 5d 61 3c
       -0.05492115 -0.0778319 -0.06619468 0.01375518
000020 72 75 dc bc a3 e2 1e bc 45 24 6e bd c9 05 43 bd
       -0.026911471 -0.009697589 -0.058140058 -0.04761294
000030 1c 03 08 3d 8e e4 69 bd cc 56 59 bd 1b 63 a8 bd
       0.03320609 -0.057102732 -0.05306129 -0.08222028
000040 b4 f3 ec bc b4 c6 a1 bd ad 48 86 bd 80 c3 56 3c
       -0.0289248 -0.07899228 -0.065568306 0.013108134
000050 ef 92 6a 3d 75 60 ff bc 56 f2 0d bd a5 8c 5e bd
       0.057269033 -0.031173924 -0.034654938 -0.054333348
000060 f4 e5 ed bc 2e b4 3e bd 04 eb 14 3d a1 bf 6c bd
       -0.029040314 -0.04655855 0.03635694 -0.05779994
000070 48 e1 47 bd 5a 14 b8 bd cf 64 4d bd a8 58 32 3d
       -0.04879883 -0.08988257 -0.050144967 0.04354158
000080 45 21 95 bd 84 6c a9 bd 4c 57 46 bc 09 61 94 bc
       -0.07281736 -0.08272651 -0.012105774 -0.018112676
000090 d4 1d 4e 3d 70 8a 48 3d 48 ec 02 bc 39 ea ba 3d
       0.050321415 0.04896015 -0.007990904 0.09126706
0000a0 c2 d5 a8 3b 0c 75 13 bd 87 2c 9d bc 24 42 a3 3a
       0.005152435 -0.036000296 -0.019186271 0.0012455625
0000b0 d7 32 a4 bb 1c 74 6f 3d 63 7c 56 bd 68 21 a7 bd
       -0.0050109434 0.05846034 -0.05236472 -0.081606686

fc2.weight_g f4 [48, 1]
000000 8f 9d 12 3f 7d c3 21 3f d7 a7 11 3f 5c b4 f9 3e
       0.57271665 0.63188916 0.5689673 0.48770416
000010 30 d7 0a 3f 22 a2 0d 3f 56 be 17 3f 74 e0 22 3f
       0.542346 0.5532552 0.59274805 0.6362374
000020 e6 09 03 3f 1a f7 0a 3f 3a 66 16 3f 01 fe 12 3f
       0.5118698 0.542833 0.58749735 0.5741883
000030 c3 18 12 3f 22 b6 1f 3f 1f ae 12 3f ef 24 0c 3f
       0.57069033 0.6238729 0.5729694 0.54743856
000040 3c 9f 1a 3f 04 23 12 3f 3b 50 1b 3f bb cf 10 3f
       0.6039922 0.5708468 0.60669297 0.5656697
000050 39 6f 12 3f 4c 74 13 3f a0 37 12 3f b4 6b 13 3f
       0.5720096 0.5759933 0.57116127 0.57586217
000060 8f 41 15 3f c0 e8 0d 3f 6e ab 1c 3f 37 fc 15 3f
       0.5830316 0.55433273 0.6119908 0.58587974
000070 73 ec 12 3f 37 87 14 3f c6 eb 0c 3f d0 a9 15 3f
       0.5739204 0.5801882 0.5504726 0.5846224
000080 bd 3d 17 3f b9 89 17 3f 8a ff 1b 3f 03 a3 1b 3f
       0.5907858 0.59194523 0.60936797 0.6079561
000090 8f b3 14 3f 35 e4 0d 3f 6d 62 11 3f 17 8b 15 3f
       0.58086485 0.5542634 0.5679081 0.5841536
0000a0 ca 4c 1a 3f d1 13 17 3f d6 a4 1a 3f f9 62 0a 3f
       0.6027342 0.5901461 0.6040777 0.5405727
0000b0 72 0b 16 3f 74 24 0f 3f 67 72 14 3f 28 72 06 3f
       0.58611214 0.55915 0.57987064 0.5251794

fc2.weight_v f4 [48, 96]
000000 8a 3b c2 bd b7 25 71 bd 0e 73 8f 3d 80 56 e9 3c
       -0.094840124 -0.05887386 0.07004367 0.02848363
000010 8e 6a b7 bd 50 c3 10 bd b2 18 46 bd ac a3 76 bc
       -0.089558706 -0.035342515 -0.048363395 -0.015053671
000020 2f bf b5 bd af 05 40 3c 0f 01 0a 3d 3e 95 95 3d
       -0.08874356 0.011720105 0.033692416 0.07303856
000030 05 10 9d 3d 38 10 8d 3d 5b 8f ed 3c 39 7a 65 3d
       0.07669071 0.06887859 0.028999021 0.056024764
000040 de 8b 86 bd 14 f5 4f 3d 52 47 67 3d 1e 36 bf 3b
       -0.06569646 0.050770834 0.0564645 0.0058353087
000050 e8 c8 36 bd 0b 35 08 3d 9b 91 79 3b bc 51 9c bd
       -0.044625193 0.03325371 0.0038081172 -0.07632777
000060 70 dd 68 3d 99 b5 30 3d 87 e8 33 3d ee 26 c9 3c
       0.056851804 0.043141935 0.043922927 0.024554696
000070 20 9b 90 3d cd 83 8e bd ce 9a b2 3d 3f 3e 46 3d
       0.07060838 -0.06958733 0.08720933 0.048399206
000080 eb 2f be 3d 5d 23 9c 3d d9 c0 0a bd fd e9 7b 3d
       0.092864834 0.076239325 -0.03387532 0.061502445
000090 d9 ca a3 bc 1a 31 93 3d 79 f5 b7 bd 96 00 d2 3d
       -0.019994186 0.071871 -0.08982367 0.10254018
0000a0 1a 1c 44 bd 88 38 13 bd d6 cd a6 bd b0 60 a8 3d
       -0.047878362 -0.035942584 -0.08144729 0.08221567
0000b0 76 de be 3d 22 08 b0 bb a0 53 96 3c c6 e5 40 3d
       0.09319775 -0.0053720633 0.018350422 0.04709413
0000c0 43 ef a8 3d bc 90 81 bd 14 c1 b6 bd 22 de 92 3d
       0.082487606 -0.06326434 -0.089235455 0.07171275
0000d0 1e 12 e2 bc 84 87 3a bd d3 22 38 3c 5e 39 32 3d
       -0.02759653 -0.045539394 0.0112387715 0.04351174
0000e0 53 9a 1b bd 5e 4b 8d 3d be 10 c2 3d eb df 7f bd
       -0.037988972 0.06899141 0.094758496 -0.062469404
0000f0 49 59 bf bc b8 10 93 bd db 09 94 3b a2 1c 49 bd
       -0.023358004 -0.07180923 0.0045177764 -0.049099572
000100 21 47 90 3c b8 0d be bd f7 34 a0 3c 15 05 94 bc
       0.017612042 -0.092799604 0.019556506 -0.01806883
000110 44 e4 60 bd 52 82 aa 3d 0d a3 c0 bc d4 fd a3 3d
       -0.05490519 0.08325638 -0.023515249 0.08007398
000120 b1 a4 bc bb f1 be b1 ba 68 e1 c9 3d 83 44 9d 3d
       -0.0057569374 -0.0013560933 0.09857446 0.07679083
000130 a0 ef 82 3c 0a fc 97 bc 08 66 47 bd d9 1a a4 3d
       0.015983403 -0.018552799 -0.04868129 0.08012933
000140 95 c1 9c bd 76 64 54 bd 46 50 94 bd 87 71 b4 bd
       -0.0765411 -0.05185362 -0.072418734 -0.08810716
000150 ee 2c 15 3d 56 52 6f 3d 34 5a dc 3b f1 17 34 3c
       0.0364198 0.05842813 0.0067246202 0.010992036
000160 4f 57 04 3d 77 81 7c bd c5 cf 7b bd ae 11 ae 3d
       0.032309826 -0.061646905 -0.06147744 0.08499466
000170 40 19 82 bd 14 db 8b 3d 3a 92 07 3d a0 9d e7 bb
       -0.06352472 0.06828895 0.033098437 -0.007068351
000180 a6 8c 79 3d 2d c7 b2 bd f2 b9 a1 bd cd 98 8a 3d
       0.06092515 -0.08729396 -0.078967944 0.06767426
000190 78 2d a2 bd 39 76 a7 3d df b8 34 bd 44 9b 51 3d
       -0.07918829 0.08176846 -0.04412162 0.051173463
0001a0 c7 12 4f bd 28 69 e3 3c 5e f1 be 3d 2f 17 8c 3d
       -0.050555017 0.027760103 0.09323381 0.068403594
0001b0 34 d9 72 bd 90 82 56 bd 58 5c 83 bd 53 af 6a bd
       -0.059289172 -0.052370608 -0.064140975 -0.05729611
0001c0 32 48 4e bd 93 89 60 3c 65 f3 85 3d 4a 0c a3 3d
       -0.05036182 0.013704675 0.065405644 0.07961328
0001d0 ac ab f6 3c 6a 0f 44 bd a8 4c 53 bd 0e bc 0c 3d
       0.030111156 -0.047866262 -0.051586777 0.03435903
0001e0 61 1b 43 3d 58 7e 56 3d 3e d1 94 3d da d2 9a 3d
       0.047633532 0.052366585 0.07266472 0.07559748
0001f0 ef d6 d4 3b 1f 3f 46 3d bc a6 52 bd fd f9 aa bd
       0.0064953486 0.04840004 -0.05142854 -0.08348463
000200 1b b4 8b 3d 49 23 90 3d b3 d0 6f bc c3 2a 84 3d
       0.06821462 0.0703798 -0.01463716 0.06453469
000210 7d 58 bb bd 39 bb 68 3d 5c 5c 00 bd ec bd 9a bd
       -0.09147737 0.056819174 -0.03133808 -0.07555756
000220 0a df 76 3d db 9f a5 3d bf d7 7d 3d 6c d6 b4 3d
       0.0602713 0.08087131 0.06197333 0.0882996
000230 c1 b0 c3 3d a2 d3 23 3a 0d 26 9b bd c6 e9 6f bd
       0.095551975 0.0006249492 -0.07575617 -0.058572553
000240 a0 17 8b bd 2a 99 53 3c fd 26 97 3d 5e b4 75 3d
       -0.067916155 0.012914935 0.07380483 0.059986465
000250 4c 2b 71 bd 40 98 da bc 0e b7 c3 3d e2 72 cb bd
       -0.05887918 -0.026683927 0.09556399 -0.099340215
000260 07 48 17 3d 52 0c 14 bd 0f 58 09 bd 51 94 8e 3d
       0.036933925 -0.036144562 -0.033531245 0.06961883
000270 f5 cf 9f 3d dd 4d a2 bc d0 0c 95 bd 85 33 a1 bd
       0.078033365 -0.019812519 -0.072778344 -0.07871155
000280 7c 45 2e 3c 8e 88 c3 bd 1b 47 91 bd 9d a1 83 bb
       0.010636684 -0.0954753 -0.070936404 -0.0040170685
000290 cf 1b c5 3d f3 40 68 bd 2b dd 7e bd 32 fe 2f 3c
       0.09624445 -0.056702565 -0.06222264 0.010741757
0002a0 6b c4 a7 bb 67 f6 65 bd 48 65 95 3d d8 c6 05 bc
       -0.0051198504 -0.05614319 0.072947085 -0.008165084
0002b0 29 60 2f 3b 42 31 c6 bd a5 24 99 bd 87 97 cb 3d
       0.0026760197 -0.09677364 -0.074776925 0.09941011
0002c0 d1 db 6b 3d 6a a4 82 3d 51 fb b5 bd 6c bb 84 3d
       0.05758268 0.06379016 -0.088858254 0.064810604
0002d0 9f ad c7 3b 26 58 a7 bd 07 b0 a8 bd 89 c1 b9 3d
       0.0060936953 -0.0817111 -0.082366996 0.09070117
0002e0 73 31 a7 bd b8 58 81 3d d2 68 b0 3d 63 87 e5 bc
       -0.081637286 0.0631575 0.08613743 -0.028018659
0002f0 e5 2c b1 bd cd 92 08 3d 9d 1c 6a bd 08 23 b3 bd
       -0.08651141 0.033343125 -0.057156194 -0.08746916
000300 99 1d 18 3d 2a 82 a2 bd ba cd 4a 3d 1d 56 02 3d
       0.0371376 -0.07934983 0.049512602 0.031820405
000310 ac df 43 bd 83 08 05 3b 07 ca 4c bd dc 0a b2 3d
       -0.047820732 0.0020299263 -0.049997356 0.086934775
000320 9a 57 2d 3d 03 d6 71 3d 13 ad de bb 37 b6 b9 3d
       0.04231987 0.059041988 -0.0067955344 0.09067958
000330 e3 bd 2a bd 96 02 21 3c 4e d9 74 3c e9 5d e5 3c
       -0.041684996 0.009827277 0.014944388 0.027998881
000340 2c 4d 75 bd 41 17 99 3c 3c 37 b4 b9 20 4b 7a bd
       -0.05988805 0.018687846 -0.00034373428 -0.0611068
000350 7c 5e 98 3d 9b c6 b6 bc 60 3c ed bc 94 6d 13 3d
       0.074398965 -0.0223115 -0.028959453 0.035993174
000360 2e d0 8e bd 1c b4 ab 3d e2 f2 99 3d 86 74 de 3b
       -0.06973301 0.083839625 0.07517029 0.006788793
000370 e9 a8 60 bd bc b2 db bb ea ff 55 3d d6 1e a6 bc
       -0.054848585 -0.0067046564 0.05224601 -0.020278376
000380 67 04 67 3d 54 b7 79 3d 22 82 bb 3a 36 a5 8f 3d
       0.056400683 0.06096585 0.001430575 0.07013933
000390 1c 3e 06 3d 29 e1 b5 3d f2 94 ce bd 60 81 c2 bd
       0.032774076 0.088808365 -0.10087003 -0.094973326
0003a0 62 b4 53 3d 59 ab 88 3b 93 9c 8c 3d 59 79 28 bc
       0.0516857 0.004170817 0.06865802 -0.010282838
0003b0 0c 16 5a bd c0 fa 8a 3d af 92 50 bc 47 b9 c1 3c
       -0.05324368 0.06786108 -0.012730285 0.023647917
0003c0 88 1d b3 bd d2 3d c5 3d f7 61 bd 3b 4f 6e 64 bd
       -0.08745867 0.09630932 0.0057795006 -0.05576926
0003d0 02 44 a3 bd 91 a8 b2 bc 19 9b 84 bd 3d 4a 31 bd
       -0.07971956 -0.021808894 -0.06474895 -0.04328369
0003e0 56 18 f8 bc 71 77 81 3d 1b 52 5b 3d d7 ba 5a 3d
       -0.030285042 0.0632161 0.0535451 0.05340084
0003f0 56 a9 99 3c e3 00 a6 3d 24 f9 5a bd db 9f cd 3b
       0.018757503 0.08105638 -0.053460255 0.00627516

fc3.bias f4 [24]
000000 b1 cd 48 bc cf 18 f4 3d 4c bb cd bc 00 32 ec ba
       -0.012256072 0.11918794 -0.025113724 -0.0018020272
000010 92 82 b0 bd f0 ab a9 bd b2 a5 04 be 47 a8 ee 3c
       -0.08618654 -0.082847476 -0.12953833 0.029132975
000020 24 d2 e8 bd 5a e4 a3 3d ae f5 40 bd 3e ec e1 3d
       -0.11368206 0.08002539 -0.0471093 0.11031388
000030 f7 1e 89 bd 58 34 00 be c2 29 09 3e 2e fc 0e bc
       -0.06695359 -0.12519968 0.13394836 -0.0087271165
000040 be 37 b3 3d ff ad 42 3a 1b e8 d0 bd 95 f2 df bd
       0.08750866 0.000742644 -0.102005206 -0.10934941
000050 30 37 1d 3d 32 79 68 bd a7 8a 0f be e9 bc 41 bd
       0.03838271 -0.056756206 -0.14017735 -0.0472993

fc3.weight_g f4 [24, 1]
000000 0d 9b 0f 3f fe 79 11 3f 61 a9 20 3f 35 c7 13 3f
       0.56095964 0.5682677 0.6275845 0.5772584
000010 5b 3a 1b 3f 95 1e 13 3f 43 54 0a 3f b1 96 09 3f
       0.6063592 0.5746854 0.54034823 0.5374556
000020 b4 82 13 3f 7d 24 0b 3f df ef 16 3f 54 80 15 3f
       0.5762131 0.5435255 0.58959764 0.5839894
000030 5b 66 15 3f af 5d 15 3f 85 e3 04 3f 1e c0 10 3f
       0.5835931 0.58346075 0.5190967 0.5654315
000040 3c a8 1f 3f 8f 23 07 3f 63 41 24 3f 42 fa 1b 3f
       0.6236608 0.52788633 0.6416227 0.6092874
000050 54 4b 0f 3f 4c d4 10 3f 78 15 19 3f d2 e8 13 3f
       0.55974317 0.5657394 0.59798384 0.5777713

fc3.weight_v f4 [24, 48]
000000 11 7b 47 3d d7 ad 03 3e b2 38 9b bd e5 e4 a3 3d
       0.04870135 0.12859283 -0.07579173 0.080026425
000010 f0 34 83 3d 29 96 56 3b 1a 58 5d 3d d4 43 9a 3d
       0.064065814 0.003274331 0.0540391 0.075324684
000020 4d c7 4d 3d 1f f1 bf 3c 95 0b 5a bd f6 80 1b bd
       0.050238896 0.023430405 -0.0532337 -0.037964784
000030 a6 7c 4e 00 3a 24 79 3d 7d 41 04 be 62 bb ac bd
       7.207884e-39 0.060825564 -0.12915607 -0.08434178
000040 06 11 ac bc e9 b5 0a be 8b 8f a9 bb 2d 6b 0c bd
       -0.021004211 -0.13545956 -0.0051745824 -0.0342819
000050 a9 b0 ac bd 3f 67 26 3d 27 d7 f5 bd 20 5e 1e 3a
       -0.08432133 0.040625807 -0.12003928 0.00060412474
000060 11 f7 9e af d1 d1 f3 3c 7c 92 0e 3d 5d a9 9d 3d
       -2.8915584e-10 0.029763134 0.034807667 0.07698319
000070 f1 fc 0c 3c 08 b4 d8 bd d3 14 e8 bd 80 04 ef 3d
       0.008605228 -0.10581213 -0.11332097 0.1167078
000080 c4 e9 05 be a1 df 5f 3d ea 9f 6b bc 95 be 5e 3c
       -0.13077456 0.05465663 -0.014381388 0.013595243
000090 2c 3c 95 bd 43 05 d7 bd 9a a7 5e bd 4f 8f 57 3d
       -0.072868675 -0.104990505 -0.054359056 0.052626904
0000a0 7c 9c a2 bc a2 46 85 bd 73 11 90 bd b9 17 04 3e
       -0.019850008 -0.06507613 -0.07034578 0.12899674
0000b0 5f 75 18 3e 4d 7c c2 bd 14 26 a9 3d 39 d2 44 bd
       0.14888524 -0.09496365 0.08259216 -0.048052046
0000c0 2c de c6 bd d2 72 1d 3e bc 88 0d 3e 16 c3 f3 3b
       -0.09710345 0.15375832 0.13821691 0.0074390275
0000d0 58 8f ca bd 93 ee 59 3d 3a fe 0c 3d c3 f7 3d 3d
       -0.09890622 0.053206038 0.034422137 0.046378862
0000e0 d2 0a 16 bd 5c e8 f3 3b 06 54 9e 3c dd cd b0 bd
       -0.036631413 0.007443471 0.019327175 -0.08633015
0000f0 e9 24 00 bd da d9 ee bd 2f 0c d1 bd 89 9a 3e bd
       -0.0312852 -0.11662646 -0.10207402 -0.046534095
000100 75 1c bc bd f4 23 07 3d 92 27 e1 bd 78 c0 f0 3d
       -0.09185115 0.032993272 -0.109938756 0.117554605
000110 ac 1a e9 3d 33 b4 11 be 58 84 10 3e b7 3f 02 bd
       0.113820404 -0.14228897 0.14112985 -0.031799044
000120 52 a5 9b bd ce a9 84 3c c6 0b 85 3b 41 34 fb bd
       -0.07599892 0.01619425 0.0040602414 -0.12265826
000130 c0 82 07 bc dc 03 49 3c 08 2d 4a 3d ac a2 8f 3d
       -0.008270919 0.012268987 0.04935935 0.07013449
000140 06 fe d2 3d 05 93 14 3d 17 74 fa bd 37 9b ba bd
       0.103023574 0.03627302 -0.12229174 -0.09111636
000150 76 a6 4a 3d 47 9e c4 bd b0 6a bd 3b 8a 13 be 3c
       0.049475156 -0.096005015 0.0057805404 0.023202676
000160 06 4b 3a bc 6d ea 47 3d f3 60 06 3e ea 04 42 bd
       -0.011370426 0.04880755 0.1312292 -0.047367968
000170 83 85 99 bd 04 ea 93 3d 88 cb cd 3d 47 1c ea bd
       -0.074961685 0.07222369 0.10048586 -0.11431175
000180 a3 22 fe 3d 3b 49 21 3d c0 c0 fb bd fd 60 8c 3d
       0.1240895 0.03937648 -0.122926235 0.068544365
000190 20 de 92 3a 40 7d eb 01 24 cc 07 3e 22 fa d3 3d
       0.0011205114 8.650509e-38 0.13261467 0.103504434
0001a0 3b 86 b6 bd 19 4f fa bd 82 20 81 bd 41 e9 01 3e
       -0.08912321 -0.12222118 -0.063050285 0.12686636
0001b0 b2 75 06 bd 2e 1c a6 bc 07 fb a3 3d c3 2d f1 bd
       -0.032827087 -0.020277109 0.08006864 -0.117763065
0001c0 9b 63 aa 3d a8 df e1 bd a6 ce da 3c 1a d0 9b bd
       0.083197795 -0.11028987 0.026709866 -0.076080516
0001d0 7b af 0b 3e be d8 d7 3d 32 d0 5c 3d 5e af 81 3d
       0.13641159 0.10539387 0.053909488 0.06332277
0001e0 ad 44 d3 3d fc e1 3b bd b3 24 c4 3d 5e 85 c3 bd
       0.10315833 -0.045869812 0.09577312 -0.09546922
0001f0 84 50 88 3d c2 39 5c 3d 3d 82 04 3d d0 21 91 bd
       0.06655982 0.05376602 0.032350767 -0.07086527
000200 a9 e1 26 3d 7b 3a 9b bd 61 93 5d 3b 29 ae ed bd
       0.04074255 -0.07579514 0.0033809769 -0.11605484
000210 12 21 91 3d f7 ce cb 3d fa e9 d5 3b 42 36 20 3d
       0.07086386 0.09951585 0.0065281363 0.039114244
000220 09 58 dc bd 40 dd ec 3d 4e 72 ed 3b 7d cb f0 3d
       -0.10758979 0.115656376 0.007246292 0.11757562
000230 80 ec de 3d 37 95 fc bd c5 14 f4 bd 51 25 48 bd
       0.108849525 -0.12333148 -0.11918024 -0.048863713
000240 72 de 11 3e b4 71 b1 bc 3e 1d 9e 3d 04 e0 22 bd
       0.14245012 -0.021660663 0.07720421 -0.03976442
000250 4a 83 a1 bd 30 9a 08 bc f8 11 bf 3c 9a ce 00 be
       -0.078863695 -0.008337542 0.023323998 -0.12578812
000260 84 53 d5 bd 74 e5 cf 3d 68 ad 93 bc 00 a7 0f 3a
       -0.1041632 0.101511866 -0.018027022 0.0005479902
000270 50 df 01 3c 50 2c dc bd 40 be 2d bd 74 ba e0 bd
       0.007926777 -0.107506394 -0.042417765 -0.10973063
000280 26 a7 84 bd cb b5 09 be 00 92 a0 bb 47 0f 0f be
       -0.064771935 -0.13448255 -0.004900217 -0.13970672
000290 e0 7b d8 3d f0 bd f8 3d 00 00 d3 38 9e 89 6e bd
       0.10570502 0.12145603 0.00010061264 -0.05823671
0002a0 78 fd b8 bd 3a 3b 25 bd 00 20 8a b7 d6 2d a8 bd
       -0.0903272 -0.040339686 -1.6465783e-05 -0.082118675
0002b0 e4 8c b3 bd 9a 00 71 bd b4 bf fd bc 70 d9 c6 3c
       -0.08767107 -0.058838464 -0.0309752 0.024273604
0002c0 ba 16 2a bd 3e 79 04 3e 90 78 f8 3d 5c 16 ba bd
       -0.04152558 0.12936875 0.121323705 -0.09086296
0002d0 40 a5 0a bb cc 7f f6 3d 2a ef 31 bd be ed 4c bd
       -0.0021155626 0.12036094 -0.043440975 -0.050031416
0002e0 88 dd 94 3c 2c 31 0f 3e 90 25 92 3d f6 dc cc 3d
       0.01817204 0.13983601 0.07136071 0.100030825
0002f0 2a 23 d4 3d 86 1b 89 bd 5c 9c c3 3d 28 8d fd 3d
       0.103582695 -0.06694703 0.095513076 0.12380439
000300 04 d2 c0 3d 08 ca 71 bd 02 a6 07 3e b0 d1 46 bc
       0.09415057 -0.059030563 0.1324692 -0.012134954
000310 78 b5 4f 3d 70 da 8d bd a2 9d 5d bd 97 50 09 be
       0.05071017 -0.06926429 -0.05410541 -0.13409649
000320 8c 13 6e 3d 2a ad 13 be fe 98 f6 bd 0c eb 14 3d
       0.05812411 -0.14421526 -0.120409 0.03635697
000330 0e 1f 84 3d 50 cd b5 3d 20 22 eb bb 5e 73 c5 bd
       0.06451236 0.08877051 -0.007175699 -0.09641145
000340 26 c5 90 3d 50 ba d4 3c aa af 0c 3e 03 6c 13 be
       0.07068853 0.025967747 0.13738886 -0.14396672
000350 fa 7d 3a bd c8 d0 70 3d 48 8c f7 3d 00 05 ed bb
       -0.045530297 0.05879286 0.120873034 -0.007233262
000360 fe b0 7f bd 3e e5 ec bd 1c 94 09 3e ec c0 bb bc
       -0.062424652 -0.11567162 0.13435405 -0.02291914
000370 84 c3 08 3e 10 2b 5e bc e0 1d 96 3c c0 a2 bf 3b
       0.13355833 -0.013560072 0.018324792 0.0058482587
000380 48 72 de 3d b0 36 f3 bd a6 1d 9d bd 08 1a c7 3c
       0.10861641 -0.11875665 -0.076716706 0.024304405
000390 2a 91 a0 bd 2e 47 aa 3d ae 63 07 be c4 8c ba 3d
       -0.07840188 0.08314358 -0.13221619 0.0910888
0003a0 36 6f 12 3e 8e 9e 01 be 86 9b ae 3d ec 4e d8 bc
       0.14300236 -0.1265814 0.085257575 -0.02640482
0003b0 8e a5 ca 3d c0 1d 8c 3b f8 af 45 3d 68 f5 af bc
       0.09894858 0.0042760074 0.04826352 -0.021479324
0003c0 4d 1b 13 be bc f8 33 3d 60 cf e6 3c 58 90 c6 3d
       -0.14365883 0.043938383 0.028175056 0.096955
0003d0 cc 77 d1 bd 70 3c 30 bd 80 01 de bd 82 21 3b bd
       -0.102279276 -0.043026388 -0.1084013 -0.045686252
0003e0 38 2c 91 bc 10 f9 24 3d 98 9d 66 3d f0 08 dd bd
       -0.01772128 0.040276587 0.056302637 -0.1079272
0003f0 bc ed 02 3e 50 6f 28 3d 80 29 18 3d 3a 54 34 bd
       0.12786001 0.04112178 0.037148952 -0.044025637

fc4.weight f4 [2, 24]
000000 bc 43 f4 bd 29 ae dc bd 64 66 47 3a 74 61 d3 3d
       -0.11926982 -0.10775406 0.0007606505 0.10321322
000010 5e ae 49 be 40 1a 55 3d 84 98 60 3d 93 74 8f 3c
       -0.19695422 0.052026987 0.05483295 0.017511642
000020 2e 72 01 3e a0 3d d7 3d 10 71 94 3d 0e f3 97 bd
       0.12641212 0.10509801 0.072481275 -0.07419406
000030 ff 19 32 3e 62 1c 22 3e 2c 24 d0 3d 13 25 51 3d
       0.17392729 0.1583114 0.10163149 0.051060747
000040 db 05 aa 3c c3 95 eb 3c 8f 97 f6 bd 36 68 9d bd
       0.020754745 0.028757935 -0.12040626 -0.07685892
000050 90 25 0a bd ba eb 36 3e 10 99 65 3c b1 39 a8 bd
       -0.03372723 0.1786336 0.014013544 -0.08214129
000060 8c 57 29 3e d5 d9 c3 bd 41 91 55 3e 60 ba 93 bd
       0.16537303 -0.095630325 0.20856191 -0.072132826
000070 34 12 2b be 7c 79 12 be 3c da a8 bd c5 55 2a be
       -0.16706163 -0.14304155 -0.0824475 -0.16634281
000080 78 19 a1 bd 72 71 25 3e 00 ed 80 3d 0e ee 0f be
       -0.07866186 0.16156557 0.06295204 -0.14055654
000090 49 53 2d 3d 47 94 ee bd 01 c4 0d 3d 64 fc 33 bd
       0.042315755 -0.116493754 0.034610752 -0.04394187
0000a0 5f ab 3c 3d d7 19 9a 3d 16 0d 0d 3e 00 1e 48 bd
       0.04606187 0.0752446 0.13774523 -0.048856735
0000b0 a8 f3 ac 3c c8 e7 31 3e e0 77 11 be ff 9c 44 3e
       0.021112278 0.17373574 -0.14205885 0.19200514

fc4.bias f4 [2]
000000 5b 5e 50 be 57 c9 8a bd
       -0.20348494 -0.06776684

exp_avg f4 [96]
000000 86 8f 1a b8 00 00 00 00 00 00 00 00 c8 fb f7 39
       -3.6850128e-05 0.0 0.0 0.00047299103
000010 4d ba 86 3a 00 00 00 00 00 00 00 00 00 00 00 00
       0.0010278911 0.0 0.0 0.0
000020 00 00 00 00 00 00 00 00 ca 6b 03 3a c8 38 40 b7
       0.0 0.0 0.0005013315 -1.1457312e-05
000030 00 1e 3b 3a ad e3 7d b9 72 7b 0a b6 69 e5 07 39
       0.0007137954 -0.00024212776 -2.0635457e-06 0.00012960065
000040 4d 0d a3 37 00 00 00 00 00 00 00 00 00 00 00 00
       1.9437308e-05 0.0 0.0 0.0
000050 63 66 d9 b9 00 00 00 00 00 00 00 00 00 00 00 00
       -0.0004146575 0.0 0.0 0.0
000060 6b d1 81 3a 00 00 00 00 76 fe 81 39 06 21 f4 b9
       0.000990433 0.0 0.00024794386 -0.0004656391
000070 5d d5 8d b9 fe 98 f8 b9 00 00 00 00 f0 0a c6 38
       -0.00027052584 -0.00047416234 0.0 9.443413e-05
000080 2b 86 b0 b9 c4 ca d5 b9 07 6c 66 b9 00 00 00 00
       -0.000336693 -0.00040777598 -0.00021974753 0.0
000090 f0 be 73 35 c8 f3 ff b9 b7 be c2 39 00 00 00 00
       9.0802405e-07 -0.0004881902 0.00037144657 0.0
0000a0 a1 2f 19 39 9a c3 07 b5 b0 6f 6a 36 1b 12 29 3a
       0.0001460896 -5.0576057e-07 3.4933728e-06 0.00064495363
0000b0 9e da 03 ba b9 33 87 39 9c 22 a9 39 c9 74 1f 37
       -0.000502983 0.00025787743 0.00032259978 9.50433e-06
0000c0 3a da 9b 38 d4 2d fb b8 12 36 4b ba 00 00 00 00
       7.431624e-05 -0.00011977149 -0.00077518926 0.0
0000d0 00 00 00 00 de 34 58 3a f1 5f 3b 3a c4 48 f3 38
       0.0 0.0008247624 0.000714778 0.000116006966
0000e0 47 98 00 3a 7d 07 05 ba e0 a3 21 ba 11 31 91 ba
       0.00049055036 -0.0005074663 -0.0006166082 -0.0011077245
0000f0 ad 7d ca b9 34 68 07 ba ca 11 05 37 00 00 00 00
       -0.00038622078 -0.0005165369 7.93156e-06 0.0
000100 00 00 00 00 00 00 00 00 78 9f 30 b9 8e 2a 09 b9
       0.0 0.0 -0.00016844075 -0.00013081191
000110 00 00 00 00 c4 89 1f b9 98 a3 76 36 67 39 6e b7
       0.0 -0.00015214743 3.675208e-06 -1.41992705e-05
000120 06 80 db 37 85 03 8b ba b0 36 63 39 62 ab 10 b9
       2.616645e-05 -0.0010605907 0.0002166878 -0.00013796755
000130 00 00 00 00 79 9e bf 36 07 dc 95 3a 30 24 26 39
       0.0 5.710692e-06 0.0011433371 0.00015844475
000140 ee 32 79 39 96 13 c1 b9 2f ce 32 ba 90 3f b1 b7
       0.00023765463 -0.0003682642 -0.0006820885 -2.1129643e-05
000150 ec 5e b3 39 00 00 00 00 7b f0 53 38 00 00 00 00
       0.00034212263 0.0 5.0530285e-05 0.0
000160 ab c3 67 b8 00 00 00 00 4c 3c 82 b6 6f 1a b8 b9
       -5.525692e-05 0.0 -3.8813214e-06 -0.0003511491
000170 3d 1d 01 39 00 00 00 00 07 ec 8b 3a 00 00 00 00
       0.00012313291 0.0 0.00106752 0.0

exp_avg_sq f4 [96]
000000 1e 6b 15 33 00 00 00 00 00 00 00 00 4a a1 b2 34
       3.478919e-08 0.0 0.0 3.3272437e-07
000010 33 1d 93 35 00 00 00 00 00 00 00 00 00 00 00 00
       1.0960852e-06 0.0 0.0 0.0
000020 00 00 00 00 00 00 00 00 a2 65 e2 34 05 e6 dc 2f
       0.0 0.0 4.2169728e-07 4.0181206e-10
000030 4d 1b 07 35 3b 8b 8a 34 1e c5 22 2d 0a 53 45 33
       5.0331147e-07 2.5805807e-07 9.252403e-12 4.594316e-08
000040 24 a1 a3 33 00 00 00 00 00 00 00 00 00 00 00 00
       7.61959e-08 0.0 0.0 0.0
000050 b4 37 48 34 00 00 00 00 00 00 00 00 00 00 00 00
       1.8646716e-07 0.0 0.0 0.0
000060 63 5b e0 35 00 00 00 00 11 76 e6 33 9c bc 9e 34
       1.6715898e-06 0.0 1.0731686e-07 2.9567025e-07
000070 e4 cb 7e 34 26 db c7 34 00 00 00 00 32 1b 4e 34
       2.3729768e-07 3.722609e-07 0.0 1.9195139e-07
000080 7f f9 48 34 5d d8 b1 34 4d e7 b2 33 00 00 00 00
       1.8717218e-07 3.3126244e-07 8.330844e-08 0.0
000090 3a f4 5d 33 ca 3d d4 34 84 18 68 34 00 00 00 00
       5.1677695e-08 3.9533035e-07 2.1615602e-07 0.0
0000a0 1b b1 2d 33 1a 7f 8d 30 4f 4d e9 2f ed d5 42 35
       4.0440778e-08 1.0295225e-09 4.2437384e-10 7.2581935e-07
0000b0 c2 0a b1 34 0c 2c 92 34 58 9f 0a 34 a5 a0 3a 30
       3.2976646e-07 2.7226667e-07 1.291022e-07 6.7894695e-10
0000c0 81 99 2b 32 97 03 0e 33 65 0c 5e 35 00 00 00 00
       9.988413e-09 3.3065216e-08 8.271948e-07 0.0
0000d0 00 00 00 00 7f fb 65 35 92 84 35 35 c4 ea e5 33
       0.0 8.567512e-07 6.762067e-07 1.0706347e-07
0000e0 83 f4 9a 34 92 08 b5 34 ec c9 2c 35 e4 ae 17 35
       2.886264e-07 3.3720113e-07 6.436883e-07 5.6506383e-07
0000f0 03 36 e4 34 dd a8 ee 34 d9 68 d2 32 00 00 00 00
       4.2507608e-07 4.445382e-07 2.4494897e-08 0.0
000100 00 00 00 00 00 00 00 00 07 79 1e 34 65 3b 7a 34
       0.0 0.0 1.4758926e-07 2.3304672e-07
000110 00 00 00 00 a1 96 9d 33 d1 29 56 32 5a ec 51 30
       0.0 7.3382814e-08 1.2465947e-08 7.6369633e-10
000120 11 cb 0c 34 18 b6 ee 35 89 a0 64 34 c6 c3 9c 34
       1.3112391e-07 1.7785378e-06 2.1292557e-07 2.9199708e-07
000130 00 00 00 00 20 9a 89 30 30 d0 ab 35 35 11 15 34
       0.0 1.0011867e-09 1.2801083e-06 1.3882966e-07
000140 59 30 c7 34 9f ae 47 34 25 eb 22 35 aa 0d 89 2f
       3.7101816e-07 1.8596846e-07 6.0691883e-07 2.4929864e-10
000150 cd 9e 50 34 00 00 00 00 3e 00 84 34 00 00 00 00
       1.9429281e-07 0.0 2.4587092e-07 0.0
000160 16 cf a9 33 00 00 00 00 49 26 9d 30 7a 9e 59 34
       7.9073445e-08 0.0 1.1434135e-09 2.0267353e-07
000170 0b d7 d7 33 00 00 00 00 93 ab ce 35 00 00 00 00
       1.0050834e-07 0.0 1.5398131e-06 0.0

exp_avg f4 [96, 1]
000000 08 31 ba 38 00 00 00 00 00 00 00 00 8a 4c 3a ba
       8.878304e-05 0.0 0.0 -0.0007106742
000010 b5 a2 61 3a 00 00 00 00 00 00 00 00 00 00 00 00
       0.0008607314 0.0 0.0 0.0
000020 00 00 00 00 00 00 00 00 53 36 fd 3a 50 9f 22 b8
       0.0 0.0 0.0019318558 -3.877218e-05
000030 ef 5d 7f 3a c6 f4 09 ba 05 59 25 35 07 73 1b 3a
       0.0009741475 -0.00052626093 6.159683e-07 0.0005929921
000040 d7 30 32 ba 00 00 00 00 00 00 00 00 00 00 00 00
       -0.0006797439 0.0 0.0 0.0
000050 4a 58 f3 ba 00 00 00 00 00 00 00 00 00 00 00 00
       -0.0018565741 0.0 0.0 0.0
000060 2d 72 69 3a 00 00 00 00 44 44 79 39 aa 7f a5 ba
       0.0008905258 0.0 0.00023771921 -0.0012626548
000070 ee e7 7b ba 89 9f 9e ba 00 00 00 00 7d 91 6d 38
       -0.00096094504 -0.0012101989 0.0 5.66407e-05
000080 a0 f4 e9 37 4a 78 02 bb 40 61 ea b9 00 00 00 00
       2.7889677e-05 -0.0019908124 -0.00044704415 0.0
000090 8f 48 25 b9 15 8a 24 ba ca f4 90 ba 00 00 00 00
       -0.00015762656 -0.00062766793 -0.0011059281 0.0
0000a0 28 ee 6d 39 f9 52 dd b7 30 c2 56 b7 d0 e6 97 3a
       0.00022690801 -2.638389e-05 -1.2800607e-05 0.0011589173
0000b0 e8 60 0f bb f9 17 f9 b9 cf 33 0a 3b 26 24 fd b5
       -0.002187783 -0.00047510842 0.002108801 -1.886049e-06
0000c0 57 ec 07 39 f5 75 b4 b9 59 65 8d ba 00 00 00 00
       0.00012962647 -0.0003442016 -0.001078765 0.0
0000d0 00 00 00 00 ac 10 16 3b ac 47 f7 3a 3c 78 42 3a
       0.0 0.002289812 0.0018865964 0.0007418429
0000e0 21 3a 6f 39 ce 13 98 ba 30 db 6f b9 6a aa 60 ba
       0.00022814471 -0.0011602582 -0.0002287447 -0.00085703155
0000f0 77 da 18 bb ce 82 58 bb bc f6 91 38 00 00 00 00
       -0.0023323575 -0.003303695 6.960097e-05 0.0
000100 00 00 00 00 00 00 00 00 5a 68 bc ba dc d2 80 3a
       0.0 0.0 -0.0014374361 0.0009828466
000110 00 00 00 00 5e ed 99 b9 e7 a6 38 39 1d 2f ea 37
       0.0 -0.00029359286 0.00017609783 2.7916913e-05
000120 40 50 aa ba e2 6b e4 ba 98 67 8e 3a 12 8d f7 b9
       -0.0012993887 -0.0017427171 0.0010864614 -0.00047216617
000130 00 00 00 00 8a 9d 2b 37 2a 8a 6d 3b e2 51 3e ba
       0.0 1.0229074e-05 0.0036245682 -0.00072601263
000140 f8 99 24 ba 69 06 7c ba 1c 58 f5 ba c5 7a 12 34
       -0.00062790466 -0.00096139923 -0.0018718275 1.3641973e-07
000150 90 7c 1b 3a 00 00 00 00 71 5e e5 ba 00 00 00 00
       0.0005931342 0.0 -0.0017499459 0.0
000160 4d 6d 25 3a 00 00 00 00 0a 29 e8 b7 f8 39 d3 ba
       0.00063105376 0.0 -2.7675665e-05 -0.0016115298
000170 26 a0 3b 3a 00 00 00 00 c0 4e a4 3a 00 00 00 00
       0.0007157348 0.0 0.0012535676 0.0

exp_avg_sq f4 [96, 1]
000000 7a 99 bd 33 00 00 00 00 00 00 00 00 00 65 a4 36
       8.8289156e-08 0.0 0.0 4.899339e-06
000010 4c e2 2c 38 00 00 00 00 00 00 00 00 00 00 00 00
       4.121875e-05 0.0 0.0 0.0
000020 00 00 00 00 00 00 00 00 28 fd c0 38 29 b7 c5 30
       0.0 0.0 9.2024275e-05 1.4385694e-09
000030 ba 8b 05 38 d2 84 02 38 7f 53 d5 2b 00 ff 30 36
       3.18398e-05 3.1118114e-05 1.5157735e-12 2.6374473e-06
000040 19 18 a6 36 00 00 00 00 00 00 00 00 00 00 00 00
       4.949991e-06 0.0 0.0 0.0
000050 d5 76 b2 37 00 00 00 00 00 00 00 00 00 00 00 00
       2.1274589e-05 0.0 0.0 0.0
000060 9d 9f 97 38 00 00 00 00 b8 74 3b 37 be 9f 27 38
       7.2299714e-05 0.0 1.1173244e-05 3.9964674e-05
000070 07 ef db 35 51 0f 98 38 00 00 00 00 a6 22 7d 34
       1.6386338e-06 7.250778e-05 0.0 2.3575066e-07
000080 c9 f6 55 36 0d 65 05 38 1b 02 1a 36 00 00 00 00
       3.1883121e-06 3.1803782e-05 2.2949014e-06 0.0
000090 7c f6 9a 36 ba f9 bb 36 02 e5 82 36 00 00 00 00
       4.618252e-06 5.6021063e-06 3.900962e-06 0.0
0000a0 1b 55 0e 35 b1 ec 80 30 52 1a f7 2f 67 e6 96 38
       5.3022967e-07 9.380497e-10 4.494774e-10 7.195473e-05
0000b0 69 bd 81 38 7e 70 33 38 4e 78 b8 37 b4 96 2d 2e
       6.18648e-05 4.2781692e-05 2.199053e-05 3.9469497e-11
0000c0 87 3b bf 32 93 27 9f 34 8e 18 25 37 00 00 00 00
       2.2262396e-08 2.9644852e-07 9.8404835e-06 0.0
0000d0 00 00 00 00 f9 d7 8b 38 e5 eb a7 38 8d 42 0c 38
       0.0 6.6682645e-05 8.007119e-05 3.344058e-05
0000e0 cf e1 d0 36 9c c7 2a 38 19 34 07 37 29 14 91 34
       6.2251706e-06 4.071706e-05 8.058757e-06 2.7023023e-07
0000f0 19 e5 51 37 6b 1a 03 39 a7 50 86 32 00 00 00 00
       1.2510712e-05 0.00012502975 1.563633e-08 0.0
000100 00 00 00 00 00 00 00 00 fe 16 09 38 6a b5 1e 38
       0.0 0.0 3.268476e-05 3.783909e-05
000110 00 00 00 00 a3 b1 32 36 f1 75 99 35 83 b3 8d 30
       0.0 2.6627465e-06 1.1433714e-06 1.031012e-09
000120 a5 56 ce 37 42 4d 8d 39 c6 60 36 38 96 59 90 35
       2.459746e-05 0.00026951177 4.348231e-05 1.0754909e-06
000130 00 00 00 00 64 5d db 30 78 db 24 39 75 34 80 37
       0.0 1.596089e-09 0.00015722017 1.5283216e-05
000140 7f 1b bd 38 dd ac db 37 8c 3b a7 38 24 3d 53 2e
       9.017344e-05 2.618733e-05 7.974272e-05 4.803015e-11
000150 b4 a9 b8 36 00 00 00 00 5a 7d d6 37 00 00 00 00
       5.5033834e-06 0.0 2.556916e-05 0.0
000160 7d 24 0a 37 00 00 00 00 d8 fc fb 31 3c 98 53 38
       8.233937e-06 0.0 7.3338065e-09 5.04481e-05
000170 ba 69 73 37 00 00 00 00 19 c1 09 39 00 00 00 00
       1.4508545e-05 0.0 0.00013137273 0.0

exp_avg f4 [96, 3]
000000 c5 12 90 b9 48 99 fb b8 bc 3d d9 b8 00 00 00 00
       -0.00027479805 -0.000119971635 -0.00010358865 0.0
000010 00 00 00 00 00 00 00 00 00 00 00 00 00 00 00 00
       0.0 0.0 0.0 0.0
000020 00 00 00 00 8e 6c bf 3a b6 1f 91 3a 2d af fc 38
       0.0 0.0014604495 0.0011072073 0.000120489254
000030 62 76 64 3b 32 50 58 3b c7 42 ae b9 00 00 00 00
       0.00348606 0.0033006785 -0.0003323762 0.0
000040 00 00 00 00 00 00 00 00 00 00 00 00 00 00 00 00
       0.0 0.0 0.0 0.0
000050 00 00 00 00 00 00 00 00 00 00 00 00 00 00 00 00
       0.0 0.0 0.0 0.0
000060 00 00 00 00 00 00 00 00 00 00 00 00 00 00 00 00
       0.0 0.0 0.0 0.0
000070 00 00 00 00 00 00 00 00 0d 3a 4f b9 c7 0b d6 3a
       0.0 0.0 -0.00019762684 0.0016330414
000080 1e 91 2c ba 02 7f bf b8 6e dc db b8 82 0e 48 36
       -0.00065829034 -9.131247e-05 -0.00010483792 2.9810767e-06
000090 38 14 2c 3b 4c ef 5a 3b 8e ff ec b8 b6 79 08 39
       0.0026257169 0.0033406792 -0.00011300958 0.00013015312
0000a0 03 5f 53 b9 c9 ca 8f b9 4a 42 00 b7 c0 55 ac b7
       -0.00020157923 -0.00027426172 -7.644829e-06 -2.0543928e-05
0000b0 7a c7 74 b4 c6 97 b7 38 c3 13 59 37 c4 30 c2 38
       -2.279684e-07 8.75439e-05 1.2938809e-05 9.259724e-05
0000c0 b7 00 c0 39 21 a0 93 b9 a6 5e b5 39 00 00 00 00
       0.00036621626 -0.0002815733 0.0003459353 0.0
0000d0 00 00 00 00 00 00 00 00 00 00 00 00 00 00 00 00
       0.0 0.0 0.0 0.0
0000e0 00 00 00 00 00 00 00 00 00 00 00 00 00 00 00 00
       0.0 0.0 0.0 0.0
0000f0 aa a2 92 ba b1 2c 0c bb 34 f7 bb ba 00 00 00 00
       -0.0011187394 -0.0021388943 -0.001434064 0.0
000100 00 00 00 00 00 00 00 00 00 00 00 00 00 00 00 00
       0.0 0.0 0.0 0.0
000110 00 00 00 00 00 00 00 00 00 00 00 00 00 00 00 00
       0.0 0.0 0.0 0.0
000120 75 be e8 3a d9 09 37 39 a5 ad 33 ba 00 00 00 00
       0.0017756956 0.00017455909 -0.0006854183 0.0
000130 00 00 00 00 00 00 00 00 c6 62 10 39 54 22 15 b9
       0.0 0.0 0.00013769706 -0.00014222536
000140 ac 64 fa 38 bc 0e 19 ba d2 94 cb 39 38 4b c5 b9
       0.000119396806 -0.00058386824 0.00038830057 -0.0003763081
000150 72 63 a6 3a 8a 82 19 b9 4c 23 25 3a e0 6a 65 38
       0.0012694432 -0.00014639847 0.000629951 5.469739e-05
000160 3a 77 1c b9 8d 9a 65 39 00 00 00 00 00 00 00 00
       -0.00014921735 0.00021896716 0.0 0.0
000170 00 00 00 00 0e d3 e6 b9 82 4d e8 ba 1a 4e 9b b7
       0.0 -0.00044026267 -0.0017723294 -1.8513809e-05
000180 22 e1 83 ba 9c 42 8d ba c0 a8 99 38 e9 b7 3b ba
       -0.0010061602 -0.0010777297 7.327041e-05 -0.00071608886
000190 96 8b bb ba 6b b7 c1 ba 4b 5a 24 ba 86 69 57 b9
       -0.0014308568 -0.0014779394 -0.0006269558 -0.00020543308
0001a0 fe 29 86 39 00 00 00 00 00 00 00 00 00 00 00 00
       0.00025589758 0.0 0.0 0.0
0001b0 9b 22 58 3a 90 fd b3 b9 c7 92 0a b9 08 34 4d 39
       0.0008244903 -0.0003433046 -0.00013215384 0.00019569707
0001c0 ac 12 f9 39 38 8c 82 b9 fc c0 c1 3a 42 99 aa 3a
       0.00047506893 -0.00024900003 0.0014782245 0.0013015645
0001d0 a1 0e d2 39 00 00 00 00 00 00 00 00 00 00 00 00
       0.0004006522 0.0 0.0 0.0
0001e0 90 dd 0e 39 c2 60 a7 b9 3a ca 30 39 71 c4 f0 b6
       0.00013624714 -0.00031924812 0.00016860003 -7.175426e-06
0001f0 55 78 6c b7 40 ba 23 37 c4 9a 41 b5 88 d7 b7 b8
       -1.4094713e-05 9.758922e-06 -7.2123316e-07 -8.766266e-05
000200 d0 54 4e 37 08 1b 22 3a f4 c1 c5 39 79 ea 4d ba
       1.2298304e-05 0.00061838375 0.00037719274 -0.00078550685
000210 4c db b6 b9 9c 74 8b 38 4b 99 2a 3a fd cc dd b9
       -0.00034877134 6.649757e-05 0.0006507828 -0.00042305133
000220 8d d7 73 39 a6 fb 50 39 ca 29 1d 3a 8f 43 8f b9
       0.00023254585 0.00019930172 0.0005995302 -0.0002732542
000230 64 54 d0 39 d7 76 23 39 fd ff 01 37 6c f7 5d 36
       0.00039735727 0.00015589163 7.748601e-06 3.3075585e-06
000240 67 05 81 3a ef c2 3f 3a 66 aa 64 b8 25 72 2f 3a
       0.0009843529 0.0007315119 -5.4518132e-05 0.0006692729
000250 aa 9c 25 3a fa 17 a9 39 03 a9 2c bb b3 be 2e bb
       0.0006317595 0.00032252056 -0.0026345856 -0.0026663959
000260 80 71 7f ba 00 00 00 00 00 00 00 00 00 00 00 00
       -0.0009744391 0.0 0.0 0.0
000270 00 00 00 00 00 00 00 00 00 00 00 00 42 5d c5 3a
       0.0 0.0 0.0 0.00150577
000280 4a 39 c8 3a 94 65 e4 3a 79 f3 9d 3a 7e e4 0f ba
       0.0015275863 0.0017425292 0.001205071 -0.0005489065
000290 65 19 73 3a ec 0c e8 b9 11 3d 57 3a 5f 66 4b 37
       0.00092734984 -0.00044260116 0.0008210699 1.2123578e-05
0002a0 ec 50 bb 3a 5b 3b 92 3a b0 2d a1 b6 18 b8 76 ba
       0.0014291084 0.0011156605 -4.8034926e-06 -0.00094115874
0002b0 9f 78 0b bb 78 69 ba b8 1d 17 b9 ba 6a 08 86 ba
       -0.0021281613 -8.888816e-05 -0.0014121268 -0.0010225896
0002c0 48 f0 a2 39 fd 73 88 bc 60 da 27 bc 6d 4a 7e ba
       0.0003107807 -0.01665687 -0.010244936 -0.00097004214
0002d0 bc 59 c9 ba 4b 1e e1 ba 43 99 db ba f7 14 4f 3a
       -0.0015361826 -0.0017175166 -0.001675405 0.00078995473
0002e0 d6 18 c2 ba 32 f6 76 b9 f2 a8 c8 39 0c df a3 39
       -0.0014808427 -0.00023552103 0.00038272847 0.00031255966
0002f0 ae db 91 b7 00 00 00 00 00 00 00 00 00 00 00 00
       -1.7387643e-05 0.0 0.0 0.0
000300 00 00 00 00 00 00 00 00 00 00 00 00 00 00 00 00
       0.0 0.0 0.0 0.0
000310 00 00 00 00 00 00 00 00 80 27 36 39 5d 92 48 ba
       0.0 0.0 0.00017371587 -0.00076512044
000320 fa 80 3f ba e4 63 cc b9 83 46 ec 3a 10 2b 0b ba
       -0.0007305291 -0.00038984336 0.0018026385 -0.0005308846
000330 00 00 00 00 00 00 00 00 00 00 00 00 9f dc a7 b9
       0.0 0.0 0.0 -0.00032017098
000340 21 ed d9 b9 18 8a 94 b9 ad 0d 44 39 5c 40 24 39
       -0.0004156614 -0.00028331648 0.00018697111 0.00015664235
000350 42 70 24 39 68 0e 42 b8 15 02 98 38 02 93 cd 37
       0.00015682078 -4.626662e-05 7.2483126e-05 2.450636e-05
000360 fb b5 28 b9 0d 2e 47 ba 12 02 25 ba 4c bf a2 ba
       -0.00016089522 -0.00075981097 -0.0006294559 -0.001241663
000370 fb 81 8f 3a 14 46 2c 39 a8 35 57 39 4b b9 26 3b
       0.0010948771 0.00016429304 0.00020523986 0.0025440033
000380 04 af 05 ba 42 86 6b 3b 0f 82 2a 3b c8 fd 8d b9
       -0.0005099627 0.0035938178 0.0026017462 -0.00027082697
000390 00 00 00 00 00 00 00 00 00 00 00 00 db c0 38 38
       0.0 0.0 0.0 4.404863e-05
0003a0 8e e5 55 38 a3 3a 28 36 e8 9e cb 3a 05 ec a3 b9
       5.0996947e-05 2.5068082e-06 0.0015535029 -0.0003126563
0003b0 0c 82 e7 3a 4e cb 52 3a 18 c3 9b ba ba 6f 03 ba
       0.0017662658 0.0008041159 -0.0011883704 -0.0005013902
0003c0 d3 5b ca b7 c8 2e dd 38 f0 e5 46 b8 61 92 ee b9
       -2.4123035e-05 0.00010546815 -4.7421025e-05 -0.00045503958
0003d0 42 20 a5 39 82 d1 9b b9 4f e9 81 ba 81 1b b2 39
       0.00031495286 -0.0002972 -0.000991145 0.00033971298
0003e0 da 9c 4f ba ae 28 00 b9 1d 65 59 b9 22 7e e4 b3
       -0.0007919796 -0.00012222186 -0.000207324 -1.0640021e-07
0003f0 52 1a c9 39 c8 53 82 39 96 c0 33 b9 00 00 00 00
       0.00038357318 0.00024857954 -0.00017142514 0.0
