Secondary_Models/Mdl_Small_Network_Stp0.3_lr1e-05_v1.0.pt (torch_old, 167294 bytes, 27 tensors)

fc1.bias f4 [3]
-0.03419316 -0.32136276 0.013938166
00000000: 200e 0cbd a989 a4be e85c 643c

fc1.weight_g f4 [3, 1]
0.511594 0.55747294 0.45956123
00000000: d3f7 023f 8cb6 0e3f 9c4b eb3e

fc1.weight_v f4 [3, 3]
-0.3578763 -0.3304522 0.15637875 0.32921854 0.18348193 0.38851532 0.12712248 0.24163343
0.37064287
00000000: 903b b7be 0831 a9be c021 203e 558f a83e
00000010: b0e2 3b3e 7beb c63e 652c 023e c16e 773e
00000020: e7c4 bd3e

fc2.bias f4 [12]
-0.4188739 -0.15324998 0.46735743 -0.29282472 0.26787817 -0.35616332 -0.15318364 -0.33514863
-0.10654932 -0.35416847 0.07770234 -0.30738962
00000000: a476 d6be 90ed 1cbe 7949 ef3e 1fed 95be
00000010: 5427 893e 0a5b b6be 2cdc 1cbe 9a98 abbe
00000020: 8836 dabd 9255 b5be 6822 9f3d 2c62 9dbe

fc2.weight_g f4 [12, 1]
0.6710564 0.51700497 0.34511206 0.68986607 0.6054752 0.5143912 0.62118536 0.61534923
0.8419384 0.57343096 0.80912656 0.28277674
00000000: 5aca 2b3f 705a 043f 87b2 b03e 109b 303f
00000010: 6c00 1b3f 24af 033f 0106 1f3f 8787 1d3f
00000020: 4689 573f 5fcc 123f eb22 4f3f 1dc8 903e

fc2.weight_v f4 [12, 3]
-0.48193058 -0.06832727 0.47289532 -0.3477187 0.41334516 0.033139553 -0.35428864 0.1569544
-0.14128134 0.09203144 0.5896276 0.3301076 0.38778478 0.28603178 -0.17719156 0.20645285
-0.10956125 0.4283526 -0.5620391 -0.07496245 0.26885164 -0.51491576 0.31634587 0.014166948
0.4815079 -0.54628015 -0.42259717 -0.2832448 -0.48035735 -0.13361248 -0.5745249 -0.4323943
0.37100148 -0.06564444 -0.23294154 0.14625913
00000000: 9bbf f6be 2bef 8bbd 561f f23e 2f08 b2be
00000010: faa1 d33e 57bd 073d 5265 b5be a7b8 203e
00000020: 0eac 10be fb7a bc3d d6f1 163f dd03 a93e
00000030: ba8b c63e c272 923e b471 35be 6068 533e
00000040: a661 e0bd 0851 db3e cbe1 0fbf ea85 99bd
00000050: eca6 893e 85d1 03bf 16f8 a13e 7d1c 683c
00000060: 3488 f63e 04d9 0bbf a85e d8be 7605 91be
00000070: 66f1 f5be b6d1 08be 1014 13bf c962 ddbe
00000080: e8f3 bd3e 9870 86bd 3a88 6ebe f4c4 153e

fc3.bias f4 [2]
-0.030661581 0.15690462
00000000: ff2d fbbc 9bab 203e

fc3.weight_g f4 [2, 1]
0.532969 0.55293137
00000000: a870 083f e98c 0d3f

fc3.weight_v f4 [2, 12]
-0.2052338 -0.13848442 0.09209057 -0.026498402 0.06707603 0.069723815 -0.20634933 0.18318382
-0.24640727 0.24803558 -0.10143608 -0.32500672 0.11243434 0.19982396 0.13532442 -0.1655312
-0.23419857 -0.1089472 0.11073194 -0.09118748 0.030384023 -0.1343457 0.003882528 0.20720673
00000000: cf28 52be dcce 0dbe fb99 bc3d 2d13 d9bc
00000010: 285f 893d 5ccb 8e3d 3d4d 53be 8a94 3b3e
00000020: 3052 7cbe 0afd 7d3e b8bd cfbd 4867 a6be
00000030: fa43 e63d a79e 4c3e 7c92 0a3e 0381 29be
00000040: c0d1 6fbe b61f dfbd 6dc7 e23d 80c0 babd
00000050: eae7 f83c eb91 09be 0372 7e3b 002e 543e

exp_avg f4 [3]
0.0 0.0028083664 -0.010678833
00000000: 0000 0000 920c 383b 46f6 2ebc

exp_avg_sq f4 [3]
0.0 2.9099998e-05 0.00021064586
00000000: 0000 0000 c51b f437 d1e0 5c39

exp_avg f4 [3, 1]
0.0 0.015216883 -0.05047614
00000000: 0000 0000 3c50 793c 12c0 4ebd

exp_avg_sq f4 [3, 1]
0.0 0.0041108774 0.010972221
00000000: 0000 0000 8ab4 863b d5c4 333c

exp_avg f4 [3, 3]
0.0 0.0 0.0 0.0015309441 0.016018625 -0.008865215 -0.050583784 -0.038826454
0.042652484
00000000: 0000 0000 0000 0000 0000 0000 f6a9 c83a
00000010: 7e39 833c 683f 11bc f130 4fbd 7d08 1fbd
00000020: 5fb4 2e3d

exp_avg_sq f4 [3, 3]
0.0 0.0 0.0 0.002554275 0.0005089849 0.002132021 0.032179542 0.0029757684
0.006934666
00000000: 0000 0000 0000 0000 0000 0000 a065 273b
00000010: 666d 053a 60b9 0b3b b2ce 033d 1c05 433b
00000020: 323c e33b

exp_avg f4 [12]
-0.013568511 -0.009095117 0.006705948 -0.0022377209 0.0040706526 0.0038663363 -0.013461916 0.012455342
0.0 0.0 0.0 0.0
00000000: 764e 5ebc b003 15bc 92bd db3b baa6 12bb
00000010: 1c63 853b 5c62 7d3b 5e8f 5cbc 7e11 4c3c
00000020: 0000 0000 0000 0000 0000 0000 0000 0000

exp_avg_sq f4 [12]
0.0003863818 0.00021444334 0.000101760175 3.1717293e-05 9.2773866e-05 5.3837248e-05 0.00038048145 0.00031401627
0.0 0.0 0.0 0.0
00000000: 4a93 ca39 32dc 6039 1468 d538 2f08 0538
00000010: 978f c238 4ecf 6138 5b7b c739 8da2 a439
00000020: 0000 0000 0000 0000 0000 0000 0000 0000

exp_avg f4 [12, 1]
-0.017704336 -0.020217571 0.0027498389 -0.007264116 0.0020848562 0.0064394833 -0.008708987 0.018632837
0.0 0.0 0.0 0.0
00000000: af08 91bc 529f a5bc a436 343b d207 eebb
00000010: 15a2 083b 4d02 d33b 24b0 0ebc e4a3 983c
00000020: 0000 0000 0000 0000 0000 0000 0000 0000

exp_avg_sq f4 [12, 1]
0.0012371996 0.005071704 0.000116039766 0.0015210193 0.0005154746 0.0001723877 0.0002300391 0.0030261504
0.0 0.0 0.0 0.0
00000000: 8829 a23a 8930 a63b 605a f338 f05c c73a
00000010: ea20 073a f9c2 3439 a736 7139 6152 463b
00000020: 0000 0000 0000 0000 0000 0000 0000 0000

exp_avg f4 [12, 3]
-0.012431998 -0.039043095 -0.018312663 -0.0124107115 -0.008874912 -0.019540561 0.001976505 0.01501235
0.01172367 0.0009917206 -0.00038148754 0.00040482145 -0.0018571387 0.011229006 0.014063843 -0.0028718405
0.012252694 0.0045175916 -0.007720959 -0.038153235 -0.02678256 0.016156789 0.025047328 0.027873525
0.0 0.0 0.0 0.0 0.0 0.0 0.0 0.0
0.0 0.0 0.0 0.0
00000000: 94af 4bbc a7eb 1fbd 7004 96bc 4c56 4bbc
00000010: 1468 11bc 8713 a0bc 4088 013b 5cf6 753c
00000020: a314 403c 9ffc 813a 6402 c8b9 373e d439
00000030: 3c6b f3ba ddf9 373c 086c 663c 7d35 3cbb
00000040: 86bf 483c 4e08 943b 1900 fdbb 9146 1cbd
00000050: 1967 dbbc 3e5b 843c 0e30 cd3c 0557 e43c
00000060: 0000 0000 0000 0000 0000 0000 0000 0000
00000070: 0000 0000 0000 0000 0000 0000 0000 0000
00000080: 0000 0000 0000 0000 0000 0000 0000 0000

exp_avg_sq f4 [12, 3]
0.00060938235 0.013713683 0.0017575739 0.0019062792 0.0011007271 0.0020235581 6.074684e-05 0.0018531675
0.00090100867 2.9958259e-05 1.4803176e-06 3.4922234e-06 0.00040730755 0.0034341381 0.0025382224 3.4188863e-05
0.002730601 0.00026139425 0.00017906715 0.013185537 0.003520586 0.0022752343 0.0055941287 0.0034871942
0.0 0.0 0.0 0.0 0.0 0.0 0.0 0.0
0.0 0.0 0.0 0.0
00000000: f5be 1f3a 5baf 603c 655e e63a 1edc f93a
00000010: 4646 903a ac9d 043b 6cca 7e38 fce5 f23a
00000020: ab31 6c3a df4e fb37 53af c635 f15b 6a36
00000030: e58b d539 470f 613b 4e58 263b 0366 0f38
00000040: e2f3 323b be0b 8939 f9c3 3b39 2708 583c
00000050: a2b9 663b 191c 153b f44e b73b 6989 643b
00000060: 0000 0000 0000 0000 0000 0000 0000 0000
00000070: 0000 0000 0000 0000 0000 0000 0000 0000
00000080: 0000 0000 0000 0000 0000 0000 0000 0000

exp_avg f4 [2]
0.08152771 0.002199538
00000000: 00f8 a63d 2026 103b

exp_avg_sq f4 [2]
0.012827924 0.000798402
00000000: 372c 523c da4b 513a

exp_avg f4 [2, 1]
-0.011635218 -0.001975795
00000000: a4a1 3ebc 577c 01bb

exp_avg_sq f4 [2, 1]
0.0007382656 0.0012620186
00000000: 2a88 413a 516a a53a

exp_avg f4 [2, 12]
0.024756398 0.067853265 0.04139506 0.14384614 0.053245205 0.022184288 0.011674016 0.043758374
-0.0038768211 0.0039024388 -0.0015960563 -0.0051133907 -0.003533736 0.0040814397 0.0035814121 0.0025003306
0.003870263 -0.0047477707 -0.0019365099 0.0017505004 0.00013420387 -0.00059304136 1.7215323e-05 0.0009146128
00000000: eecd ca3c a7f6 8a3d de8d 293d 674c 133e
00000010: a517 5a3d d3bb b53c 5f44 3f3c fb3b 333d
00000020: 4412 7ebb 0fc0 7f3b c332 d1ba 3b8e a7bb
00000030: 4196 67bb 99bd 853b 20b6 6a3b 96dc 233b
00000040: 3da4 7d3b 3093 9bbb 7dd2 fdba 0c71 e53a
00000050: 14b9 0c39 5576 1bba a069 9037 a0c2 6f3a

exp_avg_sq f4 [2, 12]
0.0045835413 0.0422519 0.0063511846 0.15919785 0.019953176 0.0029107826 0.00055236876 0.024879899
8.183744e-05 8.2919476e-05 1.3987286e-05 0.00014216761 0.0012545093 0.008912587 0.0015267017 0.018444728
0.0011851691 0.000121853795 0.0003623992 0.0025171353 6.2907047e-06 0.00011416267 1.7505486e-07 0.000269431
00000000: 8831 963b 5410 2d3d 991d d03b c304 233e
00000010: d874 a33c d4c2 3e3b d7cc 103a eed0 cb3c
00000020: 24a0 ab38 0ee5 ad38 f0aa 6a37 d412 1539
00000030: 596e a43a 1906 123c 9c1b c83a 6619 973c
00000040: ad57 9b3a c28b ff38 6600 be39 86f6 243b
00000050: be14 d336 9e6a ef38 b7f6 3b34 6b42 8d39
