Secondary_Models/Mdl_Stp0.3_lr1e-05_v1.1.pt (torch_old, 424147 bytes, 33 tensors)

fc1.bias f4 [96]
000000 00 82 0b 3d 39 f9 29 3f 4b cf 2d 3d a4 de 43 3d
       0.034059525 0.6639591 0.042434018 0.04781975
000010 27 a9 ba be 1a 1e f6 3e 88 51 9a 3e 65 a2 4f be
       -0.36457178 0.4806984 0.30140328 -0.20276792
000020 15 22 69 3e 1c 08 44 3e b9 56 86 3e da 12 f1 3e
       0.22766908 0.19143718 0.2623804 0.47084695
000030 6c f2 a8 3e c5 e8 ef be 78 15 cb be 6a 40 07 bf
       0.32997453 -0.46857277 -0.39664817 -0.52832663
000040 00 21 ef 3c 15 26 d0 be da 5b 0c 3f a9 c4 8e be
       0.02919054 -0.40654054 0.54827654 -0.27884415
000050 ea 35 9c be 5d 86 d6 3e c2 6d ea 3e a4 7f 14 3e
       -0.30509883 0.41899386 0.45786864 0.14501816
000060 7e 30 8f 3e c1 8b d3 be ac f0 0c bf 5a 2a 19 bf
       0.27966684 -0.4131756 -0.55054736 -0.5983025
000070 20 b3 3f bd 00 77 56 3b 7e f1 8c bd 06 7b bb 3e
       -0.046801686 0.0032724738 -0.068819985 0.36617297
000080 86 80 98 3e 2f 18 07 3f 1c e1 a2 3e 68 7e 30 3f
       0.29785556 0.52771276 0.3181237 0.6894288
000090 1c a8 08 bf 12 b7 03 3f 91 1b ef be 8a c0 e5 3e
       -0.53381515 0.5145122 -0.4670072 0.44873458
0000a0 e9 af 22 3e 50 dd b7 3e 6f c0 84 3e 40 c3 2d 3d
       0.15887417 0.35911036 0.25928065 0.042422533
0000b0 43 98 8f be 44 9e a5 3e a4 4e 74 bd 1a 96 58 bc
       -0.28045854 0.3234731 -0.05964531 -0.013219381
0000c0 82 08 f7 be d7 ba 57 bd 18 e5 d8 3e c1 be 35 3e
       -0.48248678 -0.05266842 0.42362285 0.17748548
0000d0 96 da a8 be f0 0d 95 bd 72 fe 03 3f 46 49 a8 be
       -0.32979268 -0.07278049 0.5156013 -0.32868403
0000e0 5e 73 00 bf 39 35 3d 3e fb 85 ac bd 70 4d 30 3e
       -0.50176036 0.18477334 -0.08423992 0.1721704
0000f0 9f 81 96 be bc 4d 75 be 9d a0 ab 3b b2 c4 81 3e
       -0.29395768 -0.23955435 0.0052376525 0.2534538
000100 d7 1d 55 be 60 c2 c4 3e ed ec 0b 3f 58 ad c0 3e
       -0.20812164 0.38429546 0.54658395 0.3763225
000110 bb 1d 2e 3e 6a 82 0b 3e ca 0e 04 3f e9 53 89 bd
       0.17003529 0.13623968 0.51585066 -0.06705458
000120 37 ed 9f be 4f 8d e0 3e 36 eb 69 3e cf a7 d5 be
       -0.31235668 0.4385781 0.22843632 -0.4172959
000130 ad 5b 20 bf 16 a1 01 bf 98 c5 dc bd 36 89 d1 3d
       -0.62639886 -0.5063642 -0.107798755 0.10231249
000140 25 b9 88 be c0 83 96 be 05 e1 60 3e 52 57 5e bd
       -0.26703754 -0.29397392 0.21960838 -0.054282494
000150 de e7 a8 3e 8f 15 22 3f ee 03 ee be 9a 7b 12 bf
       0.329894 0.63314146 -0.46487373 -0.5721985
000160 64 1f fd 3e b4 4e 64 be bd 16 ed 3e 40 07 17 3e
       0.49438012 -0.22295648 0.4630641 0.1474886
000170 8c 53 41 3c 42 71 42 3e 41 0b ec be 62 95 0b 3f
       0.011799704 0.18988517 -0.46102336 0.54524815

fc1.weight_g f4 [96, 1]
000000 f2 a5 16 3f bc 9a 16 3f 3e 53 1b 3f 70 b1 33 3f
       0.5884696 0.58829856 0.6067389 0.70192623
000010 24 2d 0f 3f 24 b6 3b 3f 4a 7f c5 3e 99 5b 36 3f
       0.55928254 0.733248 0.38573676 0.71233517
000020 f0 ad 74 3f 93 a5 dd 3e 81 c8 1b 3f b1 25 6a 3e
       0.9557791 0.43290386 0.6085282 0.2286594
000030 d5 33 17 3f 87 8d 2c 3f 53 0e 94 3e 09 66 1e 3f
       0.59063464 0.67403454 0.2891718 0.61874443
000040 37 5d 3b 3f 52 08 0a 3f 71 e4 df 3e 38 45 1f 3f
       0.7318911 0.53918946 0.43728974 0.62214994
000050 8d 35 08 3f 91 35 3b 3f 95 03 dc 3e ef ed 2e 3f
       0.5320671 0.7312861 0.42971483 0.6833181
000060 36 a2 0a 3f 40 9b eb 3e 0f b8 7e 3e 69 ec d8 3e
       0.54153764 0.46016884 0.248749 0.42367867
000070 91 e9 39 3f c8 08 17 3f 83 ae 9b 3e 87 49 5b 3f
       0.7262202 0.58997774 0.3040658 0.8565907
000080 c3 c2 5b 3e b2 cb d1 3e 77 b5 8e 3e b8 4f d6 3e
       0.21461014 0.4097572 0.27872822 0.41857696
000090 8d e5 fb 3e c1 fc f4 3e ef 11 00 3f 3d 24 cb 3e
       0.4919857 0.47849086 0.50027364 0.39676085
0000a0 9c 9c 04 3f be e2 2e 3f 9f 88 23 3f dd 0a b4 3e
       0.51801467 0.6831473 0.6388034 0.35164538
0000b0 90 0d 0f 3f 3b bb 0a 3f c4 b6 3f 3f 77 24 31 3f
       0.5588007 0.5419194 0.74888253 0.69196266
0000c0 78 d7 aa 3e e6 18 70 3e 8a 14 23 3f df d6 3d 3f
       0.33367515 0.23446998 0.63703215 0.7415599
0000d0 55 58 18 3f eb 28 30 3f 9d fb 41 3f ba 77 1e 3f
       0.59509784 0.68812436 0.75774556 0.6190144
0000e0 dc fe a6 3e 33 0e e0 3e 3e a4 01 3f a5 22 e9 3e
       0.32616317 0.43760833 0.5064124 0.45534244
0000f0 9e 4e 26 3f 35 32 ff 3e 47 ff 47 3f 92 6d 35 3f
       0.6496371 0.49842992 0.781239 0.70870316
000100 cc 8c 61 3f 66 21 1e 3f 82 db f1 3e 05 96 08 3f
       0.88105464 0.6176971 0.47237784 0.5335391
000110 b5 71 be 3e 87 6c d0 3e 0c 1d 03 3f cf e5 28 3f
       0.37196127 0.407078 0.51216197 0.6597566
000120 94 61 de 3e 42 94 b7 3e 49 9d f2 3e 00 81 dd 3e
       0.4343382 0.358553 0.47385624 0.43262482
000130 bf c5 05 3f 8f 19 c5 3e 31 de 39 3f 82 4d be 3e
       0.5225486 0.38496062 0.7260466 0.3716851
000140 e1 bb b1 3e bc 89 36 3f 5d 05 1c 3f de 02 e2 3e
       0.34713653 0.71303916 0.60945684 0.44142812
000150 b7 39 36 3f 79 96 12 3f b3 d2 38 3f b2 bf 66 3e
       0.71181816 0.57260853 0.721965 0.22534063
000160 0b 91 14 3f 66 81 c9 3e cf 8e c0 3e b7 71 13 3f
       0.5803382 0.39356536 0.37608954 0.5759539
000170 24 07 de 3e 1a 17 f2 3e 9b f2 ca 3e 88 c0 a4 3e
       0.43364823 0.4728325 0.39638218 0.3217814

fc1.weight_v f4 [96, 3]
000000 93 40 54 3e 65 25 ec be d7 b3 64 3e 53 c8 c2 3c
       0.20727758 -0.4612228 0.22334228 0.023777163
000010 5a 51 6b bd d2 e6 0d bf 9d 0b ec 3e 14 96 a8 3d
       -0.05745063 -0.5543033 0.4610261 0.0823175
000020 d4 a8 c7 be 22 2a 06 bd 7f d4 f4 3e c0 1f f1 be
       -0.38995993 -0.032755025 0.47818372 -0.47094536
000030 f6 25 d0 3e 8b f8 9a be 43 54 67 3e 4d a5 03 3f
       0.40653962 -0.30267748 0.22590737 0.51424104
000040 bb d9 02 bf 21 cb 8c 3d 59 5f 8e be 47 19 60 3e
       -0.5111348 0.06874681 -0.2780712 0.21884643
000050 6c 6e 6e 92 21 55 d8 be 47 16 07 3f dc 53 81 3e
       -7.5235664e-28 -0.42252448 0.5276837 0.25259292
000060 5b 48 11 3f de 11 08 bf c9 32 0e bf c4 04 b3 3e
       0.5675103 -0.53152263 -0.5554624 0.34964573
000070 56 45 78 3e 55 76 90 3d d1 0d c6 be 8e f9 ba 3e
       0.242452 0.0705382 -0.38682416 0.3651852
000080 5b ce ef 3d d4 fd 17 3e bf 1b 21 be 50 b9 1b 3c
       0.11709281 0.14842921 -0.1573324 0.009504631
000090 e2 eb 13 3f 62 96 ee bd 0b d1 1a bd a1 67 3a 3d
       0.57781804 -0.11649777 -0.037797015 0.045508984
0000a0 91 9b ee be 91 ee 00 3f 1c 16 ea bd 80 28 bc 3b
       -0.46603063 0.50364023 -0.11429998 0.0057421327
0000b0 aa f7 87 be 44 42 bd bd 2f 50 f7 be 94 3e c0 be
       -0.2655614 -0.09241155 -0.48303363 -0.37547743
0000c0 87 a3 ff be 50 11 80 bd 58 0e 08 bf 87 6f e2 be
       -0.4992945 -0.06253302 -0.53146887 -0.44225714
0000d0 00 fd 48 3e 00 a3 73 3e 0e 70 d0 be 28 bf ae bd
       0.19627762 0.23792648 -0.4071049 -0.08532554
0000e0 64 2c 0a be 6a d0 d2 bd ae 81 82 3e c0 d7 f2 be
       -0.13493496 -0.10293658 0.25489563 -0.4743023
0000f0 40 6a bd be c0 f4 7e 3d c6 2d c1 3e 1b 94 78 be
       -0.36995125 0.06224513 0.37730235 -0.24275248
000100 7f 59 e4 3e ca 43 f2 3e fc d7 46 3d 62 93 71 3e
       0.4459953 0.47317344 0.048545823 0.23591378
000110 65 fc b0 be 86 f7 f2 3e 01 31 ae be 0c 3e b4 be
       -0.34567562 0.4745447 -0.34021762 -0.35203588
000120 4b 17 f2 3e 39 c1 25 3e 48 52 2b be 90 f7 29 3e
       0.47283396 0.1618699 -0.16730607 0.16598344
000130 5a 9d c1 be 9e ca 96 bd 89 a4 d9 3d c1 bc 3f be
       -0.37815362 -0.07362865 0.10627086 -0.18724348
000140 b2 80 bf bd 93 ed b6 3e 17 78 69 be 77 9e 11 3d
       -0.093507186 0.3572813 -0.22799717 0.035551514
000150 73 c3 04 bf 07 e7 f8 be 6e 45 18 be 03 54 af be
       -0.5186073 -0.4861376 -0.14870235 -0.34243783
000160 48 d8 26 be 84 66 e7 be 06 fe 07 3d d3 41 83 3e
       -0.16293442 -0.451954 0.03320124 0.25636157
000170 b6 80 14 3e 1a 1f 13 bf fa 18 11 3f af 81 86 3d
       0.14502224 -0.5746933 0.56678736 0.06567704
000180 8c 46 33 be 00 6f 17 3d c0 aa f2 bd f3 d0 a7 be
       -0.1750738 0.036971092 -0.11848974 -0.32776603
000190 7e df 09 3e d6 6b 5c be 3a 53 4c be 38 5f a3 bd
       0.13464162 -0.21525511 -0.19953623 -0.07977146
0001a0 3c c6 35 3e 75 95 7d 3d 8d 81 57 be bf 10 fb be
       0.17751402 0.06191011 -0.21045513 -0.49036214
0001b0 b2 92 52 3e 49 bb 2c be 86 0d ce 3e cf 6c a6 3d
       0.20563772 -0.16868319 0.40244693 0.08126222
0001c0 f2 72 a8 3e 3c 64 ab be 35 76 dd be 60 70 9b bc
       0.32900196 -0.3347491 -0.43254247 -0.018974483
0001d0 f8 53 80 3e 22 1b b6 3e 17 d7 03 3d 17 b3 33 3e
       0.25064063 0.35567576 0.032187548 0.17548786
0001e0 ea af 51 3d c2 df 16 be 82 c4 ed 3e 1d 01 a9 be
       0.051193155 -0.14733794 0.46438986 -0.33008662
0001f0 6e de ed be d2 dc c0 3e 1c 96 f1 be 32 8f 47 3e
       -0.46458763 0.37668473 -0.47184837 0.19488218
000200 07 b9 c9 be 64 bf 9d be e7 9c 3e 3e 8e c3 27 bd
       -0.39398977 -0.30810082 0.18614541 -0.04095798
000210 2e e3 0c bf 90 1c 87 bd 38 40 91 bd a4 8c 37 be
       -0.5503415 -0.06597245 -0.07092327 -0.17924744
000220 58 39 dc be 16 a6 8d 3e b6 33 ce 3e 45 20 00 bf
       -0.430125 0.27665776 0.40273827 -0.5004924
000230 46 c6 b2 be 2f 53 12 bf d3 89 94 3e 1e 57 a2 be
       -0.34916896 -0.5715818 0.29011402 -0.3170709
000240 9b c1 47 3e 69 f2 7c be 20 69 bb 3d ee f7 3f 3d
       0.19507448 -0.24701847 0.091509104 0.046867304
000250 f9 fa 18 be 2d 7d e6 3c de ca cc be 60 7f 84 bd
       -0.14939488 0.02813586 -0.39998525 -0.06469607
000260 68 ae fb 3e dd 83 03 be 9e e3 06 3f 15 b7 f7 be
       0.491565 -0.1284327 0.52691066 -0.48381868
000270 28 5b a6 3e 49 71 20 3e 7b 6f f4 3e c0 ae 6e bc
       0.32491422 0.15668215 0.47741303 -0.014568031
000280 c1 d0 fa be dc 50 f7 be 17 a9 9a be 83 7d 0e 3f
       -0.48987392 -0.48303878 -0.3020713 0.55660266
000290 2e 3e 9c 3e a1 e2 0a bf ac 45 dd bd c6 3c 8e 3e
       0.3051619 -0.5425206 -0.108043045 0.2778074
0002a0 4d 12 24 be 23 ef 79 3e 58 2d 26 3e cb e2 71 3e
       -0.16022606 0.2440763 0.16228235 0.23621671
0002b0 f4 17 2a 3e f5 49 a1 3e f2 87 18 3d 43 08 c2 3e
       0.166107 0.31501737 0.037239023 0.37896928
0002c0 ae 68 a5 be c0 60 04 3c f4 40 e5 be b0 a6 a8 bd
       -0.32306427 0.008079708 -0.44776118 -0.08234918
0002d0 9f 0a 89 3e 47 9d f2 3e 64 28 aa 3e dc 4d 53 be
       0.26765916 0.47385618 0.3323394 -0.2063517
0002e0 6f f3 a2 be 0a 8f a5 be a0 70 cc 3e e9 22 0b 3f
       -0.3182635 -0.32335693 0.39929676 0.54350144
0002f0 40 f5 ce 3e 94 5f 0c be ea 92 0d bf 72 ca d7 be
       0.40421486 -0.13708335 -0.553023 -0.4214664
000300 e3 c9 12 3f f6 d7 d3 be ee e2 04 3f 49 d8 99 3e
       0.57339305 -0.41375703 0.5190877 0.30047825
000310 d3 b0 bd 3e 7f f4 d0 3e d3 65 6e bd a4 fe 99 3e
       0.3704897 0.40811536 -0.058202576 0.30077088
000320 2b 33 bc 3e 1b 9e d4 bb 1e 0f dd 3e e0 20 9c be
       0.36757788 -0.006488574 0.43175596 -0.30493832
000330 50 91 8f 3c ec a9 bc 3e 26 12 ce bc a9 a9 82 be
       0.017525345 0.3684839 -0.025155138 -0.25520065
000340 5e 22 79 3e ee 27 70 01 4a 1d 24 be 68 14 ef be
       0.24329516 4.4109686e-38 -0.16026798 -0.46695256
000350 de 93 0b be e8 7e 73 bc 95 bd 15 3f 36 49 92 3e
       -0.13630626 -0.0148618 0.58492404 0.2857148
000360 75 d5 cb 3e 4e 40 2c be 10 5f 81 3d 4c 18 8b 3e
       0.39811292 -0.16821405 0.0631696 0.27166975
000370 7d 67 4a be 1c 08 07 3e b1 e8 a6 3e 9d cc 52 bd
       -0.1976604 0.13186687 0.32599404 -0.051464666
000380 3c 53 aa 3e 50 fe 7b 3d bf 36 97 be 05 6b 3d 3e
       0.33266628 0.06152183 -0.29533955 0.18497856
000390 a5 4d 35 3e 95 9c 71 be 6f 51 d9 3e cb 77 8a 3e
       0.177054 -0.23594888 0.4244494 0.2704452
0003a0 52 72 83 be 76 1e fd bd 12 62 f1 be 85 12 98 3e
       -0.25673157 -0.123593256 -0.47145134 0.2970163
0003b0 d6 03 ea 3e 78 99 85 3e 0c ce 04 3e 0a 3b 5f 3e
       0.45706052 0.2609365 0.12969226 0.21799865
0003c0 96 b2 59 3e 4a ac 31 be 07 f8 59 3e 89 83 05 bf
       0.21259531 -0.1735088 0.21286021 -0.5215383
0003d0 44 a4 45 3e 6c 7f e4 3e 7d f8 26 be 3d 5d 23 3e
       0.19300944 0.44628465 -0.16305728 0.15953536
0003e0 88 c8 f5 be a2 c0 91 be 63 6c 7f 3e af fa 4e be
       -0.48004556 -0.2846728 0.2494369 -0.20212816
0003f0 93 73 07 3f e4 68 f8 3e ab 2a 99 bd 60 9f b8 3d
       0.5291073 0.48517525 -0.074788414 0.09014773

fc2.bias f4 [48]
000000 ec 39 9c bd 14 2b af 3b f3 58 80 3d a8 66 6c 3d
       -0.07628235 0.0053457115 0.06266966 0.057715088
000010 bb d6 2d 3e 95 ea c2 bd 43 22 c8 3d 29 86 88 3c
       0.16976444 -0.09517399 0.0977216 0.016665535
000020 12 a6 a3 bd ba b3 7c 3c bb a3 3b 3d 0f 57 3e 3c
       -0.0799066 0.0154237095 0.045810442 0.011617436
000030 14 9f 46 3d 4e 94 22 be 88 69 09 3e 5d ff a0 3d
       0.048491552 -0.15876886 0.13419163 0.07861207
000040 ba fa aa 3d 44 5d 1e 3e a0 ba 00 3c cd 0c b9 bd
       0.083486035 0.15465266 0.007856995 -0.09035645
000050 c1 fc 21 3c 78 5b ce 3d b7 d9 1f bc 70 81 c6 3d
       0.009886921 0.1007604 -0.009756497 0.09692657
000060 c0 a3 f2 3a 0d eb 88 bd 50 02 8d 3c 2c 9b df 3b
       0.0018511936 -0.066854574 0.017213017 0.006823918
000070 5e de 44 bd ed b1 02 3e aa d4 91 bd 37 7e fb 3d
       -0.04806363 0.12763186 -0.071206406 0.12279933
000080 2b d9 80 bd 4c 1f 0f be da b0 21 be 8b 1e 01 3e
       -0.062914215 -0.13976783 -0.1579012 0.12609307
000090 80 51 e8 3c 86 f0 bd bd 92 c8 c6 3d 48 60 7f bd
       0.028359175 -0.09274392 0.097062245 -0.06234768
0000a0 78 b2 61 3d 05 1f 58 3d ce 78 e2 3c 60 10 e8 ba
       0.05510184 0.052763958 0.027645495 -0.0017705075
0000b0 9d ca 5b bd d8 0d 35 bd ee 70 93 bd 2a d1 f8 bb
       -0.053660024 -0.044202656 -0.07199274 -0.0075932937

fc2.weight_g f4 [48, 1]
000000 4d d4 12 3f 9d d3 10 3f 03 22 09 3f e4 3f 13 3f
       0.57355195 0.56572896 0.5356752 0.57519364
000010 13 b6 23 3f 71 61 12 3f ba 52 18 3f df 3d 09 3f
       0.639497 0.57179934 0.5950123 0.5361003
000020 9a bd 11 3f 3f 1a 1d 3f 1b ab 22 3f 6b 45 1c 3f
       0.56929934 0.61368173 0.63542336 0.61043423
000030 f1 06 20 3f 16 9e 16 3f d4 5f 15 3f 09 3a 16 3f
       0.6251059 0.5883497 0.5834935 0.58682305
000040 b4 c5 05 3f 28 32 24 3f 25 87 11 3f 9b 5a 19 3f
       0.52254796 0.6413903 0.5684684 0.5990388
000050 11 3f 0a 3f 2e 06 23 3f f0 86 0b 3f 34 0d 16 3f
       0.5400248 0.63681304 0.54502773 0.58613896
000060 1b d6 12 3f 8d 46 20 3f 4f 5d 0f 3f 42 11 21 3f
       0.5735795 0.6260765 0.5600175 0.6291696
000070 44 4f 10 3f 62 62 14 3f 97 52 07 3f 54 8a 21 3f
       0.5637095 0.5796262 0.528604 0.63101697
000080 96 9f 09 3f 7b 06 19 3f 60 e5 13 3f ee 46 19 3f
       0.53759134 0.59775513 0.57771873 0.59873855
000090 49 67 12 3f 68 12 13 3f 94 47 1f 3f 7e 21 0c 3f
       0.5718885 0.5744996 0.62218595 0.54738605
0000a0 ef 27 11 3f 0f f6 10 3f b4 75 12 3f 91 53 26 3f
       0.5670156 0.56625456 0.5721085 0.6497126
0000b0 3b ec 1c 3f 2b b1 1a 3f 8a 67 0c 3f 45 8d 0e 3f
       0.6129796 0.60426587 0.5484549 0.5568431

fc2.weight_v f4 [48, 96]
000000 f2 6e 19 bd f0 89 41 3d de f1 5d bd 9e c8 8f bd
       -0.03745932 0.047250688 -0.05418574 -0.070206866
000010 bd ed ce bd 0e 5b a0 3d 74 0b 9c 3c 8c 30 59 bd
       -0.10103939 0.07829867 0.01904843 -0.053024814
000020 77 6a c8 bd 84 a1 86 3c 7d 2b 85 bd b0 ae 34 3d
       -0.097859316 0.016434439 -0.06502435 0.044111907
000030 a4 5f e1 bc 02 6e 99 bd e4 2f e2 bc 88 a4 0f 3d
       -0.027511425 -0.074916855 -0.027610727 0.03506902
000040 a9 c1 a7 bd 88 bc 32 3c 6a 46 c7 bd 8a 48 c5 3d
       -0.081912346 0.010909207 -0.09730227 0.09632976
000050 a2 69 04 bd 84 31 bc bd b4 54 c9 bd f0 cd 8c bd
       -0.0323273 -0.09189132 -0.09830609 -0.06875217
000060 50 44 a1 3d 74 8d a4 bc ad c8 9a bd 6a 0c 97 bd
       0.07874358 -0.020086981 -0.07557807 -0.07375415
000070 38 1c 3a 3d dc 00 c3 3d f0 b8 61 3d 2c 6c 1b bd
       0.045437068 0.09521648 0.05510801 -0.037944958
000080 3e 52 46 bd c4 d0 53 3d 2c 53 cc bd 38 f5 7f bc
       -0.048418276 0.051712766 -0.09976801 -0.01562243
000090 78 26 c4 3d f2 8f 16 bd f8 ef 4d 3d 1f 95 86 bd
       0.0957765 -0.03675837 0.05027768 -0.06571411
0000a0 70 6b ed 3c ac 60 9b bc 14 c1 03 3d 40 7f 28 bb
       0.028981894 -0.018966995 0.032166556 -0.0025710613
0000b0 36 7a 82 3d dc 8e b6 3c 36 fe 60 bd 98 72 f5 bc
       0.06370966 0.022284918 -0.054929934 -0.02996187
0000c0 ac 96 48 3d a8 dc 9c bc 4e f4 01 bd 68 4a df 3c
       0.048971817 -0.019148186 -0.031727128 0.02725716
0000d0 2c db a5 3d e8 75 56 3d a0 58 82 3d 92 3d be 3d
       0.08098444 0.052358538 0.0636456 0.09289087
0000e0 80 7d 6a 3a 0a 56 a1 3d f1 c9 c2 bd 18 7b 6c 3c
       0.00089450926 0.07877739 -0.095111735 0.014433645
0000f0 e4 66 40 3d 50 af eb 3c 38 3d 55 3c a4 a4 27 3d
       0.046973124 0.028770119 0.013015084 0.040928498
000100 90 d8 86 bc a7 f6 22 bd 56 66 a5 3d 29 f3 98 bd
       -0.016460687 -0.039786007 0.0807616 -0.07468254
000110 eb 29 86 bd 00 00 5a 36 54 d9 76 3d 20 a8 15 3d
       -0.06550964 3.2484531e-06 0.060265854 0.03653729
000120 7c 71 e6 bc c0 2d f0 3b fc 1e 92 bd cc dc 73 3d
       -0.028130285 0.0073296726 -0.07134816 0.05953674
000130 cc ee 14 bd 54 e2 88 3d d2 18 b1 3d a8 6e af 3d
       -0.036360547 0.06683794 0.08647312 0.08566028
000140 cc db a0 3d 6a a8 21 bd 1a 38 94 3d 84 5b ae 3c
       0.07854423 -0.039467253 0.07237263 0.021283872
000150 60 d7 d3 3b b8 2d ba 3d 70 ce 2e bc 39 dd 70 bd
       0.0064648837 0.090907514 -0.010669336 -0.058804724
000160 a0 f0 8b 3d 62 18 02 bd f8 1c 0b bc 00 cd 0f 3b
       0.06833005 -0.031761535 -0.008490793 0.0021942258
000170 3e f5 b6 bd cc e4 2f 3d 70 75 d9 3b 42 ce a3 3d
       -0.08933495 0.042942807 0.006636314 0.07998325
000180 92 99 e0 3c c4 60 9b bc e8 9a 2d 3c 0e ad a3 bd
       0.027416978 -0.01896704 0.010596015 -0.07991992
000190 e4 b5 8c bd f2 b7 8a bd 21 17 9b 3d e3 52 21 bd
       -0.068706304 -0.06773366 0.07572771 -0.039385688
0001a0 0c 91 37 bc d2 f9 23 3d 02 1d b7 bb 12 47 42 bd
       -0.011204015 0.04003317 -0.005588175 -0.04743106
0001b0 64 69 ba 3d 5b d0 8c bc e1 43 b2 3d f4 5b b2 bd
       0.09102133 -0.017189195 0.08704353 -0.08708945
0001c0 7c fb 89 3d 54 86 8d 3d 0f 44 db 3c a2 91 57 bd
       0.0673742 0.06910387 0.026765851 -0.05262912
0001d0 f8 19 04 3d e4 dc be 3b 1e f7 d6 3c e5 a3 3e 3c
       0.03225133 0.005824672 0.026240882 0.011635755
0001e0 22 79 06 bd 9e 2e a9 bd 23 f2 c6 3c ec 52 a3 3d
       -0.032830365 -0.08260845 0.024285382 0.079748005
0001f0 6b d1 5d 3c fc 14 bf bd ee d2 35 3d ab 7a 9a bd
       0.013538699 -0.09330174 0.04439061 -0.07542928
000200 e3 90 b2 3d 97 90 b6 bd bb 53 46 3b 24 b1 82 3c
       0.08719041 -0.08914297 0.003026231 0.015953608
000210 bf 8e ad bd b6 8b aa bc 30 74 6f 3d c4 f9 a0 bc
       -0.08474492 -0.020818572 0.058460414 -0.019650348
000220 ba 7a 1e bd b9 3f a1 3d d0 8a 99 3d 59 d6 b0 bd
       -0.03869126 0.07873482 0.074971795 -0.086346336
000230 1c 81 9f bd f3 71 34 bd 7d 89 55 bd 3a c8 7d bc
       -0.077882975 -0.044053983 -0.052133072 -0.015489632
000240 88 22 07 3b e4 a6 8b bd 69 3b 13 3d dc f6 2a 3d
       0.0020619947 -0.06818941 0.03594533 0.04173933
000250 7c fb a1 bd b4 32 fd 3c b0 6e 95 bd 37 9c 81 3d
       -0.07909295 0.030907966 -0.072965026 0.06328624
000260 20 87 2e 3d 8a 1c b9 3d 09 72 e7 3b 81 b5 cc bd
       0.042609334 0.090386465 0.0070631546 -0.099955566
000270 e9 7f 54 bd f9 ae 7c bd fa 1d 7a bd 41 ea b2 bd
       -0.051879797 -0.061690304 -0.061063744 -0.08736087
000280 7e 0d 70 3d 3e be 01 3d 12 7a 52 3d 89 e2 b2 3c
       0.058606617 0.03167557 0.051385947 0.021836536
000290 62 04 84 3b 64 e4 4f 3d bf 73 65 3d 7c 2c b5 3d
       0.004028843 0.05075492 0.056018587 0.08846375
0002a0 5f 11 c8 3d 8d c0 02 bd c9 4c 29 bd a2 44 a5 bc
       0.09768938 -0.031921912 -0.041332994 -0.020174328
0002b0 bf fe 8e bd 7a ab df 3b e3 b6 37 bd 3c f4 9e 3d
       -0.06982183 0.0068258615 -0.04485215 0.07761428
0002c0 28 a7 61 3d c8 fa 80 3d 46 8a 62 3d bc ef 93 3d
       0.055091053 0.06297833 0.05530765 0.0722346
0002d0 75 db 5c bd 30 81 ef bb 0b ce cb 3c 37 9a b1 bd
       -0.053920228 -0.0073091015 0.024878522 -0.08671992
0002e0 bc 2c 5e bd 90 ba 84 bc a6 36 ad bb aa ec 5a bd
       -0.05424188 -0.016202241 -0.0052860556 -0.053448357
0002f0 49 6f b1 bd 71 38 bf 3d 60 81 d2 bd 9e 55 76 bd
       -0.08663804 0.09336937 -0.102785826 -0.060140245
000300 97 8c 11 ba ac 85 25 bc 53 c0 0f 3b e3 30 fa bc
       -0.00055522606 -0.010102671 0.0021934703 -0.03054089
000310 25 89 83 bd bb 69 bc ba 75 f3 2a 3d 98 ed 3a 3d
       -0.064226426 -0.0014374772 0.041736085 0.045636743
000320 a7 75 a9 3d 28 58 1d 3c 94 de f3 bb 35 b3 13 3d
       0.082743935 0.009603538 -0.007442305 0.036059577
000330 be d4 54 bd a4 13 03 bd 85 b2 e1 3c 0e ff 9f bd
       -0.0519607 -0.032001153 0.027550945 -0.0781232
000340 26 7c 29 80 04 8d 75 3d 0d a3 08 80 3c 37 81 3d
       -3.809791e-39 0.059948936 -7.93176e-40 0.06309363
000350 e4 fa d9 3c 3b b0 40 3d 11 63 97 3c 04 86 05 bc
       0.026608892 0.047043066 0.018479856 -0.008149628
000360 b1 29 af bc 47 6a 29 bb c4 1f 47 3d d1 6c 85 3d
       -0.021382185 -0.00258507 0.04861428 0.06514896
000370 15 ac 43 bd 2f a3 3a 3c 81 51 a4 3d 50 ba 26 bc
       -0.047771532 0.011391445 0.08023358 -0.010176256
000380 78 3b 14 80 c1 5d 83 bd 93 f7 84 b0 28 bf a1 ba
       -1.858043e-39 -0.064143665 -9.674629e-10 -0.0012340294
000390 63 c3 8b bd 3a c9 9d 3d 34 ce 1a 3d 19 8b 98 bd
       -0.068243764 0.077043965 0.037794307 -0.07448406
0003a0 95 0d c6 bc e6 8f 94 bc 69 87 7d 3d 73 e2 53 bc
       -0.024176398 -0.018135022 0.061896715 -0.012932408
0003b0 2f a9 c4 3c ae d3 82 bc 65 71 18 3b d7 b1 96 bd
       0.024006454 -0.015970077 0.0023260948 -0.07358139
0003c0 c0 61 82 3d 08 91 0f b6 07 5f 99 bc 7a f4 9c 3d
       0.063663006 -2.139308e-06 -0.01872207 0.07663818
0003d0 13 5c 90 bc f0 e1 96 3d b8 d6 47 bc b4 48 23 bd
       -0.01762203 0.07367313 -0.012197189 -0.039864257
0003e0 b7 45 4a 3d 97 cb cb bb 43 42 de bc 9c 9d 67 3d
       0.04938289 -0.006219338 -0.027131205 0.056546792
0003f0 15 b8 1a bd 6e 30 00 bd f4 1e 00 3d 48 b5 06 3b
       -0.03777321 -0.031296186 0.03127952 0.002055483

fc3.bias f4 [24]
000000 4d 52 da bb f0 85 f4 3c f9 9d 93 3d c1 f1 3c bd
       -0.006662643 0.029849023 0.07207865 -0.046128992
000010 8f f8 9e bd 46 68 bc 3d b9 f0 c1 bc 28 c6 23 3e
       -0.077622525 0.09199576 -0.023674356 0.1599356
000020 9e 55 04 bd 13 67 fb bd ed e9 1e bc 8c ca 93 bd
       -0.032308213 -0.12275519 -0.009699327 -0.07216367
000030 00 b7 25 3d 48 72 8d 3c 93 1f d1 bd ea d0 4e bd
       0.040457726 0.017266408 -0.102111004 -0.050492205
000040 8d c4 98 bd f5 cb fc bd 18 fe 23 3d 8e c2 62 3d
       -0.07459364 -0.12343589 0.040037245 0.055361323
000050 29 aa 65 bd ba d5 12 3d 37 58 d4 bd 9e 35 40 bb
       -0.05607048 0.035848357 -0.10368388 -0.0029328833

fc3.weight_g f4 [24, 1]
000000 c7 8c 13 3f 73 78 23 3f d4 e7 2f 3f 30 bb 24 3f
       0.57636684 0.63855666 0.68713117 0.64348125
000010 e1 5b 16 3f 7c b1 12 3f c7 c1 29 3f e1 63 1c 3f
       0.58733946 0.5730207 0.66311306 0.61089903
000020 34 ae 12 3f 9c bb 18 3f 5c 44 1f 3f 41 e3 25 3f
       0.5729706 0.5966127 0.62213683 0.64799887
000030 24 12 25 3f 33 97 25 3f fa e8 11 3f 23 80 17 3f
       0.64480805 0.64683837 0.5699612 0.59179896
000040 d8 91 1b 3f 81 a1 1c 3f ce fe 19 3f bc 22 20 3f
       0.60769415 0.61183935 0.60154426 0.62553
000050 71 6d 19 3f d1 90 17 3f 0f 46 21 3f 54 3a 1f 3f
       0.5993262 0.5920535 0.62997526 0.62198377

fc3.weight_v f4 [24, 48]
000000 a4 3f 88 3c cb 87 c3 3c 45 44 f0 bc ab c6 50 3d
       0.016631909 0.023868462 -0.029329428 0.050970715
000010 b3 5e 86 3d e0 fd 01 3d 37 e1 c7 3d 0c e1 21 3d
       0.06561031 0.031736255 0.09759753 0.039521262
000020 2b ca 93 bd b1 26 35 3d 84 fa 0b be 13 b0 7f 3d
       -0.07216295 0.044226352 -0.13669783 0.062423777
000030 29 5f b0 80 d1 d3 bf 3d 20 0a d7 bc 6f f4 08 3d
       -1.6197184e-38 0.09366573 -0.026249945 0.033436235
000040 18 2d 94 80 35 37 2d 3d c1 04 0e 00 df b2 bd bd
       -1.360783e-38 0.042288978 1.287402e-39 -0.092626326
000050 a3 02 aa 3c ee 2a 72 3d 71 22 c2 3c 56 0f 25 3d
       0.02075321 0.059122972 0.023698064 0.04029783
000060 91 ba 84 80 22 56 d8 3d 85 92 ca 00 a7 40 de bc
       -1.2189213e-38 0.105633035 1.8603332e-38 -0.027130438
000070 bc 71 aa bc 7b fb 9f bd 90 01 84 3d c4 d2 fd 3b
       -0.020806186 -0.07811638 0.064456105 0.0077460725
000080 b1 89 aa 3d fb 60 09 3d 81 f2 0a be 70 43 31 3d
       0.08327044 0.033539753 -0.1356907 0.043277204
000090 ff c1 36 ac 23 a9 9a bd 0b 90 7d 3b 88 4f cd b1
       -2.5971445e-12 -0.075517915 0.0038690593 -5.975327e-09
0000a0 23 e6 91 bb 34 68 27 3d 23 4c 18 be 34 88 96 bd
       -0.0044524833 0.04087086 -0.14872794 -0.073501974
0000b0 97 83 07 3e 64 7d cc bd 15 0b 8f 3d c8 96 5a bd
       0.13233791 -0.09984854 0.069845356 -0.053366452
0000c0 5e d2 a0 bd 60 4e e0 bd b8 80 1c bd 54 fa cb 3d
       -0.07852624 -0.10952449 -0.038208693 0.09959856
0000d0 00 ec bf 3a de 36 b1 3d 10 d2 80 3c c4 15 6a 3d
       0.0014642477 0.08653043 0.015725166 0.057149664
0000e0 15 3f 09 be 64 8d eb bc 44 f8 02 be 7c 0e c3 bd
       -0.1340297 -0.028753944 -0.12790018 -0.09524247
0000f0 4c f6 e9 bd 88 aa 84 3c 89 d9 11 be 80 73 c8 3a
       -0.114239305 0.016194597 -0.1424314 0.0015293211
000100 d8 23 e4 3c 70 49 25 bd 12 f8 0e bd bc 5b ff 3d
       0.027849123 -0.04035324 -0.034904547 0.12468669
000110 1c 38 2a bd 40 74 a7 3d 48 fa e7 3c ca 1a 08 3e
       -0.041557416 0.0817647 0.028317586 0.13291469
000120 3b b0 07 be 6a db a7 bd 16 7e 22 bd 98 a8 e5 3d
       -0.1325082 -0.08196147 -0.039671026 0.11213797
000130 20 a0 31 3d 16 3a d8 bd 82 ea c0 3d c2 96 b5 3d
       0.043365598 -0.10557954 0.09419729 0.088666454
000140 58 e5 c6 3d 6e 16 b1 3d 7f 15 05 be 28 db 83 3c
       0.097117126 0.08646856 -0.12996481 0.016095713
000150 0f 51 dd bd 14 ba f5 3d 38 ef 15 bd c3 a2 12 be
       -0.10806476 0.11998382 -0.03660509 -0.14319901
000160 fb a9 05 be a6 f3 0a be 4c e9 be bd 9b 1f ab bd
       -0.13053124 -0.13569507 -0.093218416 -0.08355638
000170 a4 6d 0b 3e d8 c9 db 3d 53 d9 9e bd 36 52 9e 3d
       0.13616043 0.10731858 -0.07756295 0.07730524
000180 6a 37 cf 3b 8e 86 cc bd f9 db d6 bc b1 b1 f8 3d
       0.0063237445 -0.09986602 -0.026227938 0.12143267
000190 5b 02 a1 bc f8 d6 d2 3c 9b 89 bf bc ed 2d a0 3d
       -0.019654443 0.02573727 -0.023381045 0.0782126
0001a0 19 d4 92 bd d4 ac b5 bd 73 fc ea 3c a3 95 e7 3d
       -0.07169361 -0.08870855 0.02868483 0.11307838
0001b0 5e 84 ca bd ca 14 dc 3d d5 b0 86 3d d7 ea b2 bd
       -0.09888528 0.10746153 0.06576697 -0.087361984
0001c0 7a eb d9 3c e6 7a 42 3e 10 1a 03 3e 00 a7 41 bd
       0.026601542 0.18992195 0.12802911 -0.047278404
0001d0 57 42 0b 3e ee e2 0f 3e 20 f5 64 3c 1c b9 99 3d
       0.13599525 0.1405141 0.013974458 0.0750601
0001e0 62 68 a9 bd bf be 85 bd 60 18 a2 bd 2e cb d5 bd
       -0.082718626 -0.065305226 -0.079148054 -0.10439144
0001f0 31 09 ed 3d 93 43 64 bd 93 92 eb bd 27 02 ab bd
       0.11574019 -0.055728506 -0.11502566 -0.0835002
000200 60 2c be 3d e3 ba 16 be c0 a8 f7 bd 43 59 0a bd
       0.092858076 -0.14719729 -0.120927334 -0.033776533
000210 29 d6 07 3e c5 da fa 3d da 0a 1b 3e 40 d3 f4 3d
       0.1326529 0.12248758 0.15140858 0.11954355
000220 27 15 d6 3d 6b d8 92 3d 88 36 6c bd 71 44 f0 3d
       0.10453253 0.07170185 -0.057669193 0.11731804
000230 ea c0 e9 bd c9 3d 90 bd 68 66 e8 bd 35 86 5f bd
       -0.114137486 -0.070430346 -0.113476574 -0.05457135
000240 91 52 b4 3d ee a9 c4 bc 9e 2e b2 3c 7a db 0a 00
       0.08804811 -0.02400681 0.021750744 9.97088e-40
000250 59 2e f0 bd fb b4 a3 3d c3 14 d1 3d 8a 22 f6 3d
       -0.1172759 0.07993504 0.10209038 0.120183066
000260 56 f5 e3 bc a7 8c b9 3d 9a 79 09 be 68 03 85 3d
       -0.027826946 0.090600304 -0.13425294 0.0649479
000270 df a4 a5 3d d5 ed 04 3e e1 85 0d be a3 70 f3 3d
       0.08088087 0.1298135 -0.13820602 0.11886718
000280 ec da d3 3d 27 5b ea bd 53 ad 80 3c 74 83 dd 3d
       0.103444904 -0.11443167 0.015707647 0.10816088
000290 08 05 91 3d 92 c2 a6 bd 0a 8f 03 80 61 5b 10 bd
       0.07081038 -0.0814258 -3.26819e-40 -0.035243396
0002a0 3d 0b 08 80 61 95 3b 3d 21 27 84 bd 83 11 dc 3d
       -7.38716e-40 0.045796756 -0.06452776 0.107455276
0002b0 34 e0 05 00 d3 2b 16 be d7 5f bf bc cd 40 38 bc
       5.39606e-40 -0.14665155 -0.02336113 -0.011245918
0002c0 37 69 41 3d 3a 84 70 3d 06 c3 67 bd 7c 81 98 3c
       0.04721948 0.05871985 -0.056582473 0.01861643
0002d0 54 c9 b2 3c 1d e8 ab 3d 43 3d 4f 3d e4 a9 97 3d
       0.021824516 0.083938815 0.050595533 0.07405451
0002e0 70 59 ab 3d 4c 5e 15 3d d5 0a 9d bc 19 9d 15 3e
       0.08366668 0.03646688 -0.019170204 0.14610709
0002f0 04 9a 24 3d ff 98 55 3d 04 8c bf 0f dc 6b d3 3c
       0.040185943 0.05214786 1.8887986e-29 0.025808267
000300 c7 71 b0 3d 13 f9 cc bd 13 c6 a0 bd 17 29 c4 bd
       0.08615451 -0.10008445 -0.0785028 -0.0957815
000310 af 8e ce 3c 03 23 91 bd d4 b5 f6 bd fd d9 83 3d
       0.025214521 -0.07086756 -0.120464 0.06438062
000320 3e 46 4e bc c8 45 82 3d 6e db 64 bd 85 e4 0d be
       -0.012589989 0.06360966 -0.055873327 -0.13856705
000330 d4 02 b5 3d f5 a5 9c bd d2 71 d3 bd 12 38 fa 3d
       0.0883843 -0.07648841 -0.10324444 0.12217726
000340 41 fc 2c 3d 5e 8e 1f 3d e7 6f 71 3d 9b 59 86 bd
       0.042232756 0.03895413 0.05894461 -0.0656006
000350 6b 2a c9 bd 9f 3e 85 bd 4a 1d 39 3c 0e da 68 bd
       -0.09822544 -0.06506085 0.011298487 -0.05684858
000360 30 6b 94 3c 2b 01 97 3d a4 8e 48 bc 2c 7c 18 3e
       0.018117517 0.0737327 -0.012241039 0.14891118
000370 e4 e0 d7 3d 1f c6 48 3d dd 33 e5 bd bd 2a fb bd
       0.10540941 0.049017068 -0.11191533 -0.12264011
000380 f9 c5 e4 bd b6 ca a6 bc 8d 06 53 3d ec ca ac bd
       -0.11170573 -0.020360332 0.05151992 -0.08437142
000390 96 85 c5 bc b9 8d cf 3c 98 2c 19 bd 72 d7 b3 bd
       -0.02411155 0.025336133 -0.037396044 -0.08781327
0003a0 09 cd dd bd 57 3c 8c bd c8 f5 20 3d 02 70 0a 3e
       -0.10830123 -0.068474464 0.039296895 0.1351929
0003b0 6a 17 0f bd 6f e6 be bd 70 6f ec bd f4 27 67 bd
       -0.03493444 -0.093212955 -0.115446925 -0.056434587
0003c0 ed 67 84 bc c5 88 bb bc 7a 0c 04 3e c5 12 28 3c
       -0.016162837 -0.022892365 0.12895384 0.010258381
0003d0 6d 03 bf 3d 69 73 e7 bd be c0 04 3d 35 91 00 be
       0.09326825 -0.113013096 0.032410376 -0.12555392
0003e0 67 31 b3 bd 08 33 f6 bc 3e b8 9b bd 47 c7 6f 3d
       -0.08749657 -0.03005363 -0.07603501 0.058539655
0003f0 b7 28 01 bd d9 7d 9e 3d 1d 9b 93 bc 13 bf 51 bd
       -0.03153297 0.07738847 -0.0180183 -0.051207613

fc4.weight f4 [2, 24]
000000 14 b8 4b 3d 3e 55 2f 3e f9 14 0f be 27 50 65 3e
       0.049736097 0.17122361 -0.13972844 0.22393857
000010 d9 d8 f1 bb a7 a6 41 3d 5e cb 9a 3d c5 78 57 be
       -0.0073805866 0.047278073 0.075583205 -0.21042164
000020 10 c2 c0 3d 82 db 14 3e 63 7a e8 3d 69 0c 1d be
       0.094120145 0.1453686 0.113514684 -0.15336765
000030 19 53 a6 3d 48 37 e0 3d 63 05 63 3e ea 5c 49 be
       0.08121318 0.10948044 0.22170024 -0.1966435
000040 75 5b 1b be b3 a4 49 3e 66 0e 0b be a5 2d 04 3e
       -0.15171607 0.19691734 -0.13579711 0.12908037
000050 cc 24 68 3e 4a a3 6e be 58 15 d0 bd 28 2a 42 be
       0.22670287 -0.23304477 -0.10160321 -0.18961394
000060 e1 aa 8a 3e 00 8d c0 3d e3 c5 15 be 40 34 1f be
       0.27083495 0.094018936 -0.14626269 -0.15547276
000070 32 e6 1f 3d f7 e4 24 3e 0a cb 1e be 07 18 1a 3e
       0.03903789 0.16102968 -0.15507141 0.15048228
000080 13 5c 11 be e4 ff 47 3e 6f cd 18 be f3 0f 86 bd
       -0.1419528 0.19531208 -0.14922117 -0.06546011
000090 39 a4 d1 3d 34 09 33 3e 04 a7 ab bd 32 a8 11 be
       0.10236401 0.1748398 -0.08381465 -0.14224318
0000a0 55 5b 33 be c6 91 93 bd 82 75 f5 bc c7 7a 82 3d
       -0.17515309 -0.072055385 -0.029963259 0.06371074
0000b0 b9 12 2d 3e 04 3b 1c 3e b0 0f 24 be e5 73 4a 3d
       0.16901673 0.15256888 -0.1602161 0.049426932

fc4.bias f4 [2]
000000 bb b7 84 3d cc c3 e6 3d
       0.06480356 0.11267814

exp_avg f4 [96]
000000 60 d4 e0 ba 84 bf e3 bb 67 da a3 b9 57 5e 4c 3a
       -0.0017153136 -0.0069503207 -0.00031252505 0.000779604
000010 5f 59 31 b9 33 5e 4d ba f4 8b c9 35 38 f5 f1 b7
       -0.00016913329 -0.0007834166 1.5016399e-06 -2.8843628e-05
000020 62 b1 9f 3a 66 2e c0 ba 92 b2 88 36 ee 46 75 ba
       0.0012183602 -0.0014662265 4.073904e-06 -0.00093565776
000030 6d bd 82 3a ed c9 a9 b8 00 00 00 00 00 00 00 00
       0.0009974666 -8.0961596e-05 0.0 0.0
000040 00 00 00 00 00 00 00 00 00 00 00 00 09 10 93 3a
       0.0 0.0 0.0 0.0011219989
000050 00 00 00 00 dd 97 c8 ba 3a 73 e7 39 32 a0 94 ba
       0.0 -0.0015304048 0.00044145604 -0.0011339246
000060 cc 82 e6 ba 40 17 bd b9 21 24 4e 3a f7 54 de 3a
       -0.0017586588 -0.00036066212 0.000786366 0.0016962577
000070 00 00 00 00 00 00 00 00 16 04 5c 3a 8a 21 90 36
       0.0 0.0 0.0008392943 4.295439e-06
000080 00 00 00 00 d8 5e 97 35 00 00 00 00 8b cc 84 bb
       0.0 1.127798e-06 0.0 -0.0040527037
000090 8f dc 66 3b 89 c1 ea b9 00 00 00 00 53 f1 0b 39
       0.0035226678 -0.00044776153 0.0 0.00013345973
0000a0 57 05 be ba 00 00 00 00 85 91 fd 33 af ba 29 34
       -0.0014497441 0.0 1.18077004e-07 1.5807267e-07
0000b0 00 00 00 00 00 00 00 00 b2 4f 42 ba 15 a6 d5 35
       0.0 0.0 -0.0007412388 1.5918073e-06
0000c0 66 13 d6 3a e2 16 9f b9 00 00 00 00 a4 5a 37 ba
       0.0016332685 -0.00030343892 0.0 -0.00069944025
0000d0 c8 d4 2b 3b 00 00 00 00 c8 3b c1 ba 00 00 00 00
       0.0026219357 0.0 -0.0014742548 0.0
0000e0 36 b6 86 b7 00 09 9c b9 63 6e f6 3a 00 00 00 00
       -1.6058893e-05 -0.00029761344 0.0018801208 0.0
0000f0 ec c1 c9 3a 00 00 00 00 4c 8e df 37 00 00 00 00
       0.0015392876 0.0 2.6649934e-05 0.0
000100 db 84 5f 3a 4a e7 19 b9 57 f6 5a bb 00 b4 11 bb
       0.0008526572 -0.00014677379 -0.003341099 -0.0022232533
000110 9e 25 06 bb e8 ff 6c b6 00 00 00 00 d4 74 44 39
       -0.00204692 -3.5315697e-06 0.0 0.00018735538
000120 d5 20 35 3b 69 fe 80 ba a9 54 fb 39 88 14 75 b9
       0.0027637978 -0.0009841445 0.00047937527 -0.00023372669
000130 4f c4 5b 3b 13 ef 36 3a 69 27 21 34 a1 51 3b ba
       0.0033533757 0.0006978374 1.5008631e-07 -0.00071456475
000140 47 13 1c 3b 00 00 00 00 d4 f3 7e 36 02 e8 cb 36
       0.00238152 0.0 3.7990876e-06 6.0768807e-06
000150 e0 80 86 39 58 ac cb ba 00 00 00 00 44 92 07 3b
       0.0002565449 -0.0015539033 0.0 0.0020686546
000160 00 00 00 00 00 00 00 00 54 39 cd b3 f5 32 84 ba
       0.0 0.0 -9.556484e-08 -0.0010085987
000170 0c 6f 96 b6 6b 38 2e 3a 1a 17 6d ba 1e 62 1f bb
       -4.483276e-06 0.000664598 -0.0009044275 -0.0024319957

exp_avg_sq f4 [96]
000000 6e d2 05 38 5e fc 57 39 18 89 15 36 4d ee fd 35
       3.190565e-05 0.00020598012 2.228253e-06 1.8919324e-06
000010 31 6b c1 34 dd b8 fc 35 1b e0 3b 31 7f 65 58 33
       3.6027043e-07 1.8829265e-06 2.733947e-09 5.038373e-08
000020 36 b0 6e 36 1b e1 bf 36 87 e9 cf 32 ba c5 a1 36
       3.5567332e-06 5.7184493e-06 2.4204168e-08 4.8211923e-06
000030 d0 48 82 36 89 82 c4 33 00 00 00 00 00 00 00 00
       3.8827784e-06 9.1507054e-08 0.0 0.0
000040 00 00 00 00 00 00 00 00 00 00 00 00 11 7d a3 36
       0.0 0.0 0.0 4.872338e-06
000050 00 00 00 00 80 6e 96 37 1f e8 7c 35 c3 da 80 36
       0.0 1.7932849e-05 9.4215096e-07 3.8401645e-06
000060 41 80 37 37 2a 8b 0c 36 52 7f 77 37 99 30 57 37
       1.0937511e-05 2.094263e-06 1.4751991e-05 1.2826314e-05
000070 00 00 00 00 00 00 00 00 0e 15 1a 36 c5 4a 97 32
       0.0 0.0 2.2960044e-06 1.7612715e-08
000080 00 00 00 00 39 4b d0 30 00 00 00 00 90 75 16 39
       0.0 1.5155371e-09 0.0 0.0001434891
000090 fb 75 58 38 d9 43 aa 36 00 00 00 00 1d 46 bf 34
       5.160829e-05 5.0742933e-06 0.0 3.5627536e-07
0000a0 b8 2a ee 37 00 00 00 00 90 26 bc 2e a3 9e 75 2f
       2.8391703e-05 0.0 8.5561e-11 2.2338979e-10
0000b0 00 00 00 00 00 00 00 00 b9 dd b8 35 b5 f0 b9 2f
       0.0 0.0 1.3773598e-06 3.3822337e-10
0000c0 60 19 3c 37 46 69 1d 37 00 00 00 00 9c 31 f7 36
       1.1211581e-05 9.38244e-06 0.0 7.366949e-06
0000d0 7c 2c ed 37 00 00 00 00 cf 79 9d 37 00 00 00 00
       2.8273316e-05 0.0 1.877258e-05 0.0
0000e0 62 53 97 32 23 d1 05 35 3d 60 5f 37 00 00 00 00
       1.7616632e-08 4.9850695e-07 1.3314243e-05 0.0
0000f0 a0 b3 44 37 00 00 00 00 22 02 8a 34 00 00 00 00
       1.1724333e-05 0.0 2.5706055e-07 0.0
000100 5e 1a 5a 36 47 40 fe 35 5f c2 4a 38 03 d9 aa 37
       3.249988e-06 1.8943182e-06 4.8341575e-05 2.0366633e-05
000110 c9 aa a9 37 2b 68 54 32 00 00 00 00 05 0f 51 35
       2.0225898e-05 1.2363709e-08 0.0 7.7880424e-07
000120 88 f0 df 37 8b e9 ad 36 34 1a 07 36 5d cf 35 36
       2.6695678e-05 5.1829898e-06 2.013182e-06 2.7091803e-06
000130 52 7c 52 38 e0 a0 d7 35 93 9c a0 2f ff 32 df 35
       5.0183684e-05 1.6065569e-06 2.9215083e-10 1.6629637e-06
000140 e0 23 f0 37 00 00 00 00 c0 13 ce 31 e4 95 a7 31
       2.8626935e-05 0.0 5.9976344e-09 4.8773803e-09
000150 15 5d 53 34 28 40 4a 38 00 00 00 00 a0 2c 9f 37
       1.968477e-07 4.8220303e-05 0.0 1.8975057e-05
000160 00 00 00 00 00 00 00 00 b6 99 b1 30 df 2a 0a 36
       0.0 0.0 1.2922132e-09 2.0588557e-06
000170 09 bd 92 31 a7 a4 87 36 0a 57 8d 37 84 0d d0 37
       4.27065e-09 4.0424816e-06 1.684904e-05 2.4801826e-05

exp_avg f4 [96, 1]
000000 1b 45 f2 ba fb 81 7d 3b d1 da 40 bb 7a 74 37 3b
       -0.001848373 0.003868221 -0.00294273 0.002799301
000010 b3 b4 ea ba 9a c7 59 bb ca 7f 82 36 bc d4 49 b8
       -0.0017906636 -0.0033230544 3.8891785e-06 -4.812026e-05
000020 7e 61 9a 3b eb 97 96 bc 28 83 d6 35 d8 d5 5f bb
       0.004711329 -0.018382987 1.5982414e-06 -0.003415456
000030 c4 06 18 3c 91 ea 9c b8 00 00 00 00 00 00 00 00
       0.009278957 -7.482351e-05 0.0 0.0
000040 00 00 00 00 00 00 00 00 00 00 00 00 94 61 85 3a
       0.0 0.0 0.0 0.0010176175
000050 00 00 00 00 bd 7f 08 ba 83 a2 f5 3a fb 26 bd bb
       0.0 -0.0005207023 0.0018740449 -0.005772469
000060 18 62 a5 bc eb 31 cb b9 e1 77 5b 3a db ba 38 3c
       -0.020188376 -0.0003875637 0.00083720504 0.011275019
000070 00 00 00 00 00 00 00 00 9c ad b4 3b 10 45 61 b6
       0.0 0.0 0.00551386 -3.3567812e-06
000080 00 00 00 00 3c ec 11 b5 00 00 00 00 2f 2f 62 3b
       0.0 -5.4360476e-07 0.0 0.0034512987
000090 04 bc 39 3c 7f 44 ed ba 00 00 00 00 e0 ff e3 39
       0.01133633 -0.0018102078 0.0 0.00043487456
0000a0 f6 c8 d7 ba 00 00 00 00 00 5a d2 31 34 0d 85 b5
       -0.0016463089 0.0 6.122036e-09 -9.913115e-07
0000b0 00 00 00 00 00 00 00 00 2c 0d ed ba 69 12 1a 35
       0.0 0.0 -0.001808559 5.739626e-07
0000c0 7b 0e a2 3b 69 49 fc b9 00 00 00 00 c5 6e b2 ba
       0.004945574 -0.0004811988 0.0 -0.0013613334
0000d0 ad 01 9e 3c 00 00 00 00 2c 2e 2d ba 00 00 00 00
       0.019287908 0.0 -0.00066063064 0.0
0000e0 ae 4d 23 b8 67 1a 4f bb c4 54 0e 3c 00 00 00 00
       -3.8934573e-05 -0.003160143 0.008687202 0.0
0000f0 0e d8 5a 3c 00 00 00 00 08 a7 ee 38 00 00 00 00
       0.0133571755 0.0 0.00011379836 0.0
000100 a4 aa 90 3b d8 bd 0f 39 b8 7b e7 bb 3a b3 0f bc
       0.004414873 0.00013708265 -0.007064309 -0.008770758
000110 7a eb 39 bc 34 ca fe b5 00 00 00 00 65 9e b7 3a
       -0.011347646 -1.8983324e-06 0.0 0.0014008997
000120 ac f1 b9 3c 0c c1 ad bb de 7e 86 3b b8 a5 d7 b9
       0.022698246 -0.005302554 0.004104479 -0.00041131466
000130 41 07 d0 3b 5b 51 3b 3b ad 91 70 b5 b6 55 09 bc
       0.006348521 0.0028582427 -8.9618953e-07 -0.0083822515
000140 a1 05 2a 3c 00 00 00 00 66 bb c4 35 09 d9 d4 36
       0.010377319 0.0 1.4657678e-06 6.3433586e-06
000150 78 f5 4d 3b 00 5f 77 3a 00 00 00 00 d8 da b2 3c
       0.0031426828 0.00094364583 0.0 0.021832868
000160 00 00 00 00 00 00 00 00 e7 bf 11 35 ae 3d dd bb
       0.0 0.0 5.4295964e-07 -0.0067517376
000170 26 0e 89 b5 40 60 52 3b da 13 9a ba 9f a0 74 bc
       -1.0211413e-06 0.0032100827 -0.0011755184 -0.014930873

exp_avg_sq f4 [96, 1]
000000 50 32 c5 39 75 ed 03 38 e8 14 dd 39 9c b7 1b 38
       0.00037612254 3.1453983e-05 0.0004216798 3.712588e-05
000010 12 3a d9 37 f6 e9 b7 38 a9 47 40 31 60 63 8d 33
       2.5895457e-05 8.7696986e-05 2.7980411e-09 6.5839004e-08
000020 dd ba f6 38 9b 4f e7 3a 1a 7d cd 32 33 b1 9d 39
       0.00011765 0.0017647626 2.392203e-08 0.00030077397
000030 ae 22 72 3a d7 30 ea 33 00 00 00 00 00 00 00 00
       0.0009236735 1.0905358e-07 0.0 0.0
000040 00 00 00 00 00 00 00 00 00 00 00 00 8d 13 0a 37
       0.0 0.0 0.0 8.229993e-06
000050 00 00 00 00 f4 5e af 36 8e 1d 03 38 86 be 96 39
       0.0 5.2264604e-06 3.126036e-05 0.0002875218
000060 54 2d 54 3b be 01 07 38 a8 1d c3 39 a4 ed d9 3a
       0.003237565 3.218813e-05 0.00037215394 0.0016626609
000070 00 00 00 00 00 00 00 00 dd 23 16 39 c6 60 bf 32
       0.0 0.0 0.00014318475 2.2279334e-08
000080 00 00 00 00 88 4e 62 30 00 00 00 00 aa 93 0e 39
       0.0 8.232992e-10 0.0 0.00013597184
000090 b3 30 c5 3a 30 e9 85 39 00 00 00 00 78 44 b8 38
       0.0015044421 0.00025541475 0.0 8.786557e-05
0000a0 61 fe e9 37 00 00 00 00 d2 44 f2 2b 75 83 43 2f
       2.7894219e-05 0.0 1.7214236e-12 1.778185e-10
0000b0 00 00 00 00 00 00 00 00 27 21 08 38 6d 75 dd 2e
       0.0 0.0 3.2455802e-05 1.00707755e-10
0000c0 ff 63 d0 39 82 65 8f 38 00 00 00 00 d9 87 3f 38
       0.00039747354 6.837679e-05 0.0 4.5664467e-05
0000d0 30 e6 60 3b 00 00 00 00 c8 32 c2 36 00 00 00 00
       0.003431689 0.0 5.7875623e-06 0.0
0000e0 5e dd 95 33 45 44 9d 38 53 a6 07 3a 00 00 00 00
       6.9786196e-08 7.4990596e-05 0.00051746255 0.0
0000f0 66 be e2 3a 00 00 00 00 df d5 3a 38 00 00 00 00
       0.0017299175 0.0 4.454504e-05 0.0
000100 3b 2b 77 39 6f 90 89 39 dc 60 a8 39 25 e5 14 3a
       0.0002357186 0.00026238288 0.00032115623 0.0005679897
000110 37 f0 8d 3a 10 34 49 32 00 00 00 00 d5 1d 18 38
       0.0010829036 1.17115775e-08 0.0 3.6267407e-05
000120 60 af 98 3b 85 0b 05 3a 75 80 86 39 00 fc 35 37
       0.004659578 0.0005075264 0.0002565418 1.0847114e-05
000130 b8 8f 2b 3a 41 88 c9 38 ac cf 40 2f be 6c c2 39
       0.0006544548 9.609806e-05 1.7536078e-10 0.00037083583
000140 6e 1f e3 3a 00 00 00 00 77 3a cc 30 8c e7 39 32
       0.0017328092 0.0 1.485957e-09 1.0821065e-08
000150 a4 fc 5b 38 2c 95 ad 38 00 00 00 00 b1 89 b3 3b
       5.244896e-05 8.277068e-05 0.0 0.0054790606
000160 00 00 00 00 00 00 00 00 66 e4 41 30 1d a7 20 39
       0.0 0.0 7.0537565e-10 0.00015321044
000170 c6 8d d0 30 79 8f e5 39 4a 26 79 39 c9 44 05 3b
       1.5174286e-09 0.0004378518 0.00023760754 0.0020335189

exp_avg f4 [96, 3]
000000 66 45 67 bc 59 4c e0 bb 6b 85 88 ba 95 d9 b0 bd
       -0.014115667 -0.006845039 -0.0010415738 -0.086352505
000010 7b f8 21 bd 96 b2 d1 39 12 b6 bf ba 8f 5b df ba
       -0.03954361 0.00039996643 -0.0014626405 -0.0017040836
000020 d0 e1 08 bb a5 9c 20 3c b1 ac 43 3b f2 0f 1a 3b
       -0.0020886548 0.009802972 0.002985757 0.002350804
000030 8e 88 47 bb 84 83 65 bb 79 17 4e 3a 9a 2a ef bb
       -0.0030446383 -0.0035021016 0.0007861774 -0.0072987797
000040 83 a6 f0 bb 00 44 47 b7 10 fa 9c 36 f0 45 c7 36
       -0.0073440685 -1.1877157e-05 4.6782734e-06 5.938804e-06
000050 1e c2 13 0a 7c b4 82 b9 3b d1 58 b9 55 8d 79 37
       7.114302e-33 -0.00024930004 -0.0002067731 1.4874463e-05
000060 64 18 5a 3c d9 67 33 3c 9e b0 4c 3b 8a e2 09 bb
       0.013311479 0.010950052 0.0031233202 -0.0021039569
000070 96 e3 17 3b 84 36 21 3b d0 a7 7d 37 a0 39 87 37
       0.0023176423 0.0024599144 1.5119047e-05 1.6120088e-05
000080 80 f0 cd b4 66 5b 07 bc aa 01 00 bc 84 ec b8 b9
       -3.8359212e-07 -0.008261537 -0.007812897 -0.00035271433
000090 d7 fb b0 3a 1a d4 cf 3b fa 39 90 3a b4 83 37 ba
       0.0013502788 0.006342423 0.0011003606 -0.00070005213
0000a0 00 60 c6 b8 55 ed cb b7 00 00 00 00 00 00 00 00
       -9.459257e-05 -2.4310002e-05 0.0 0.0
0000b0 00 00 00 00 00 00 00 00 00 00 00 00 00 00 00 00
       0.0 0.0 0.0 0.0
0000c0 00 00 00 00 00 00 00 00 00 00 00 00 00 00 00 00
       0.0 0.0 0.0 0.0
0000d0 00 00 00 00 00 00 00 00 00 00 00 00 00 00 00 00
       0.0 0.0 0.0 0.0
0000e0 00 00 00 00 0c 30 9a 3c 3a 5f 21 3c e4 77 9e 3a
       0.0 0.018821739 0.009849364 0.0012090174
0000f0 00 00 00 00 00 00 00 00 00 00 00 00 78 1c b5 bc
       0.0 0.0 0.0 -0.022108302
000100 24 8f 47 bc 6c 36 10 39 16 17 a6 3b 76 b2 cc 3a
       -0.0121801235 0.00013753184 0.00506867 0.001561715
000110 6f 14 e9 3a 44 89 13 bc 69 97 13 bc 51 db 60 bb
       0.0017782579 -0.009004895 -0.009008267 -0.003431041
000120 8c cd cf ba 4c d7 46 bb 71 f4 f2 bb 03 cc 2b bb
       -0.0015854104 -0.003034073 -0.0074143936 -0.002621413
000130 9c bf 8b ba 2c 19 e2 b9 43 5f 0a 3b 72 42 0b 3a
       -0.0010661962 -0.00043124834 0.002111391 0.00053123303
000140 1c e1 af 3a ec af 1d 3c 24 b2 76 3c 53 4d 39 b9
       0.0013418528 0.009624463 0.0150571205 -0.0001767178
000150 00 00 00 00 00 00 00 00 00 00 00 00 00 00 00 00
       0.0 0.0 0.0 0.0
000160 00 00 00 00 00 00 00 00 46 ff 24 3c c5 7c a1 38
       0.0 0.0 0.010070628 7.7003184e-05
000170 fd 28 20 bb 5c 4d 8e 37 10 f4 8f 37 fc cc 9a 34
       -0.0024438493 1.6963742e-05 1.7160579e-05 2.883388e-07
000180 00 00 00 00 00 00 00 00 00 00 00 00 00 f0 9e 36
       0.0 0.0 0.0 4.7367066e-06
000190 bb f2 39 37 0c c1 95 b4 00 00 00 00 00 00 00 00
       1.1083374e-05 -2.7893873e-07 0.0 0.0
0001a0 00 00 00 00 2d 83 cd bc f5 f4 05 bc 04 87 b4 39
       0.0 -0.025086964 -0.008176078 0.0003443287
0001b0 2f e2 0b 3d ac 21 b8 3c 00 9e 03 bc 16 a1 75 bb
       0.034151252 0.022476994 -0.008033276 -0.0037480048
0001c0 8e c5 39 ba 77 7a d2 ba 00 00 00 00 00 00 00 00
       -0.0007086628 -0.0016058226 0.0 0.0
0001d0 00 00 00 00 84 94 fb 37 b4 c9 22 b9 16 ab 08 b8
       0.0 2.999069e-05 -0.00015524664 -3.2584263e-05
0001e0 7d e0 1c bc d9 66 46 bb a8 c8 c3 38 00 00 00 00
       -0.009575007 -0.0030273704 9.3357e-05 0.0
0001f0 00 00 00 00 00 00 00 00 bd 93 fd 34 88 78 9a 35
       0.0 0.0 4.7232416e-07 1.1508973e-06
000200 79 a1 7e 31 51 49 b7 35 41 f9 15 36 a5 d4 e9 b3
       3.7053651e-09 1.36559e-06 2.2347815e-06 -1.0888588e-07
000210 00 00 00 00 00 00 00 00 00 00 00 00 00 00 00 00
       0.0 0.0 0.0 0.0
000220 00 00 00 00 00 00 00 00 b5 11 03 bc e4 42 b7 bb
       0.0 0.0 -0.007999827 -0.005592691
000230 8c 8a 9e ba ea 2c fb 36 5c e3 7b 37 2d 34 84 34
       -0.0012095734 7.4856116e-06 1.5013702e-05 2.462488e-07
000240 bc f3 8a 3c 21 36 57 3c 81 ab 39 ba ca 1b 25 3b
       0.016961925 0.013135464 -0.0007082746 0.0025193566
000250 94 a0 31 3a 8c e9 1f ba 00 00 00 00 00 00 00 00
       0.0006775942 -0.000610017 0.0 0.0
000260 00 00 00 00 57 03 f1 bb d4 9f 3f bb b8 5d a1 ba
       0.0 -0.0073551345 -0.0029239552 -0.0012311256
000270 49 82 8b 3c e2 bd f4 3b 00 16 66 bc 00 00 00 00
       0.017029898 0.007468925 -0.014043331 0.0
000280 00 00 00 00 00 00 00 00 6a 57 c3 bc ed 40 56 bc
       0.0 0.0 -0.023845393 -0.013077003
000290 4e 56 81 39 00 00 00 00 00 00 00 00 00 00 00 00
       0.000246691 0.0 0.0 0.0
0002a0 0e ae 19 b9 c2 d1 e2 b8 f6 15 96 37 d6 e1 12 bb
       -0.00014656057 -0.0001081559 1.789162e-05 -0.002241244
0002b0 c4 95 8a ba 96 a5 12 3b 28 39 a6 3c 2b a5 69 3b
       -0.0010573198 0.002237653 0.020290926 0.0035651426
0002c0 18 c3 d5 3b 00 00 00 00 00 00 00 00 00 00 00 00
       0.006523501 0.0 0.0 0.0
0002d0 b9 27 3b 3c a4 4e 04 bb be 30 cf bb 00 00 00 00
       0.011423045 -0.0020188475 -0.006322949 0.0
0002e0 00 00 00 00 00 00 00 00 0c 2f 15 38 be 4a 20 38
       0.0 0.0 3.5568184e-05 3.821658e-05
0002f0 3a 89 b5 b8 00 00 00 00 00 00 00 00 00 00 00 00
       -8.656313e-05 0.0 0.0 0.0
000300 6a dc e4 3b ea 9f e0 3b 57 90 13 bb 64 a4 1e 39
       0.006984283 0.0068550007 -0.0022516453 0.00015129294
000310 fd 3f 77 39 fc bc aa b9 1f be 26 bd b4 00 4a bc
       0.00023579593 -0.0003256573 -0.040708657 -0.012329269
000320 20 78 6e 3b 84 c3 cf bc 77 ba 99 bb 97 e1 c7 bb
       0.0036387518 -0.025361784 -0.004691418 -0.0060998905
000330 c4 4b b5 bc 9b 6a 73 3a 50 a7 ea ba fa 50 82 b8
       -0.022130854 0.00092856 -0.0017902646 -6.213966e-05
000340 2c be 88 b8 c3 00 00 00 00 00 00 00 00 00 00 00
       -6.5204076e-05 2.73e-43 0.0 0.0
000350 00 00 00 00 c9 71 3d 3b 4d 3e a4 39 e6 c2 00 ba
       0.0 0.0028906933 0.00031326935 -0.00049118546
000360 7c 64 27 3c ca bb bf 3c 85 35 08 bb b4 77 ce bb
       0.010216828 0.023404974 -0.0020783853 -0.006300891
000370 14 85 fc bb 21 f7 ba 3a 0e f2 5c 3b a2 f4 7f 3b
       -0.007706294 0.0014264324 0.0033713612 0.0039055725
000380 8c f5 30 bb 09 72 34 ba 92 8c ef b8 ea 70 41 38
       -0.0027001826 -0.00068834476 -0.00011422591 4.6119945e-05
000390 3d 4a 0f 3d f8 eb a2 3c 2a 12 68 bb 70 e8 a0 3b
       0.03498291 0.01988791 -0.0035411217 0.004910521
0003a0 b1 24 97 3b 83 e7 98 3a 0b dc fe 35 80 0c 0f 36
       0.0046125283 0.0011665676 1.8988516e-06 2.1315936e-06
0003b0 ff b0 19 35 59 80 4e bb 7b cb f4 ba 67 f7 9f 3b
       5.7254505e-07 -0.0031509607 -0.0018676365 0.0048817876
0003c0 92 96 9c 3c fc f4 8b 3c e2 67 a9 bb 00 00 00 00
       0.019114766 0.017084591 -0.0051698545 0.0
0003d0 00 00 00 00 00 00 00 00 36 48 e5 37 13 45 08 38
       0.0 0.0 2.7332553e-05 3.2489257e-05
0003e0 e8 c6 cb 35 a8 b0 4e 38 1a 51 76 38 0b 4d 4e 36
       1.5182568e-06 4.927875e-05 5.8726502e-05 3.0741237e-06
0003f0 bd f9 23 3a 1d 8c 23 ba 88 7c c6 39 c6 78 38 bc
       0.00062551704 -0.0006238835 0.00037858286 -0.011259263
