Secondary_Models/Mdl_Medium_Network_Stp0.1_lr1e-06_v1.4.pt (torch_old, 5163 bytes, 8 tensors)

fc1.weight f4 [18, 3]
0	0xbe823bf5	-0.2543637
1	0xbedba4d8	-0.42899203
2	0x3d9a7e70	0.07543647
3	0xbe310adc	-0.17289299
4	0x3d878f50	0.066191316
5	0xbeab25f2	-0.33427387
6	0xbeeca785	-0.46221557
7	0x3ebae488	0.3650248
8	0x3e8151c2	0.2525769
9	0x3f07a0fa	0.52980006
10	0x3ebf1d12	0.37326866
11	0x3f05ef5e	0.5231837
12	0x3d2785f0	0.040899217
13	0xbe7e4b14	-0.24833328
14	0xbe73a620	-0.2379384
15	0xbf0bdff6	-0.5463861
16	0x3e91f69a	0.28508455
17	0xbe8ac659	-0.27104452
18	0xbdb37950	-0.08763373
19	0x3eb0ddc4	0.34544194
20	0xbeca451c	-0.3950585
21	0xbe917397	-0.284085
22	0x3ece6248	0.40309358
23	0xbeb9e4f6	-0.36307496
24	0x3dc2fa10	0.09520352
25	0xbf05a218	-0.5220046
26	0xbf086f72	-0.5329505
27	0xbe753604	-0.23946387
28	0x3f0349cc	0.5128448
29	0xbf11b75d	-0.56920415
30	0x3e1e0a70	0.15433669
31	0x3e150ed8	0.14556444
32	0x3d25c890	0.040474474
33	0x3d4a94c0	0.049458265
34	0xbe8642b7	-0.26222774
35	0x3eb1dcee	0.34738868
36	0xbeea0abd	-0.45711318
37	0x3f0a6700	0.54063416
38	0xbdbb197c	-0.0913572
39	0xbe626844	-0.22110087
40	0xbeb2feba	-0.34959966
41	0xbe2e89d2	-0.17044762
42	0xbe31351e	-0.17305419
43	0x3eb75ecc	0.35814512
44	0xbe8f9469	-0.28042915
45	0xbe960b50	-0.29305506
46	0xbe927568	-0.286052
47	0x3e718590	0.23586106
48	0x3ef68fc8	0.4815657
49	0x3e426a4c	0.18985862
50	0xbed1615c	-0.40894592
51	0xbec35dda	-0.3815754
52	0x3eee9918	0.46601176
53	0x3bd73a80	0.006568253

fc1.bias f4 [18]
0	0x3e80f222	0.25184733
1	0x3dba11d8	0.09085435
2	0xbf097caf	-0.5370588
3	0x3b008b00	0.00196141
4	0xbd8a0608	-0.067394316
5	0xbd276220	-0.040865064
6	0x3e8588c8	0.26080918
7	0x3f052516	0.52009714
8	0x3f0e474c	0.5557754
9	0x3e38bc40	0.18040562
10	0xbeb190d6	-0.34680814
11	0x3edf3d08	0.4360125
12	0x3e94a94c	0.29035413
13	0xbdb98d20	-0.090601206
14	0x3cd21f60	0.025649726
15	0x3e67c618	0.2263416
16	0xbeaac992	-0.3335691
17	0xbe953d6f	-0.29148433

fc2.weight f4 [18, 18]
0	0xbc949db8	-0.018141612
1	0x3e164c8d	0.1467764
2	0xbe37383e	-0.17892548
3	0xbdae7442	-0.08518268
4	0xbc160df0	-0.009158596
5	0x3d140b84	0.036143795
6	0x3dc22d92	0.09481348
7	0x3e37e5eb	0.179588
8	0xbe06819e	-0.13135383
9	0xbc99aa20	-0.01875788
10	0xbda8f238	-0.082493246
11	0xbe1e241e	-0.15443465
12	0xbe5cc574	-0.21559697
13	0x3e06ef21	0.13177158
14	0xbc9fa9b8	-0.019490108
15	0x3e084861	0.1330886
16	0x3dbe505a	0.092926696
17	0xbcd59340	-0.02607119
18	0x3dbdf07a	0.09274383
19	0xbe496d0e	-0.19670507
20	0xbdfc6bbc	-0.12325236
21	0x3dbee522	0.09321047
22	0x3c83fce8	0.016111806
23	0x3e5d699b	0.21622317
24	0xbe077232	-0.13227156
25	0x3da96eee	0.08273111
26	0xbe25d3fd	-0.16194148
27	0x3e414871	0.1887529
28	0xbd9522d2	-0.07282032
29	0x3e689563	0.22713237
30	0xbd646730	-0.05576247
31	0x3db5e7b2	0.08882083
32	0xbe0dcf62	-0.13848642
33	0x3e4f7867	0.20260774
34	0xbe57c68c	-0.21071833
35	0xbc254a90	-0.010088578
36	0x3ceef808	0.029171005
37	0x3e4616ff	0.1934471
38	0x3e021399	0.12702788
39	0xbd6c3ff0	-0.057678163
40	0xbe0f121f	-0.13971756
41	0x3e26c849	0.1628734
42	0x3e4fa10f	0.20276283
43	0x3db0e9a2	0.08638312
44	0x3d94e86e	0.07270895
45	0xbcdf3b00	-0.027249813
46	0xbbac0c00	-0.005250454
47	0xbcaf13d8	-0.021371767
48	0xbd96f30c	-0.07370576
49	0xbd3e2d48	-0.046429902
50	0x3da28fce	0.07937585
51	0x3d9034d2	0.07041325
52	0x3cd55838	0.026043043
53	0x3d84abc2	0.06478073
54	0xbd8edfb0	-0.06976259
55	0x3d81f24a	0.06345041
56	0xbe6540f5	-0.2238806
57	0x3d0857ec	0.033286974
58	0xbcd3dc38	-0.025861844
59	0xbd64c964	-0.055856124
60	0xbdc2736c	-0.09494671
61	0xbdfad535	-0.12247697
62	0xbd475b1c	-0.048670873
63	0x3ddb0332	0.10693969
64	0xbd9ff1cc	-0.07809791
65	0xbe3c715c	-0.18402618
66	0x3d45bb64	0.048274413
67	0xbd87d5b6	-0.06632559
68	0xbbffd6e0	-0.0078075975
69	0x3daf3fee	0.085571155
70	0xbd17c994	-0.037057474
71	0xbe0bc8f9	-0.13650884
72	0xbd908310	-0.07056248
73	0xbe5ed582	-0.21761134
74	0xbe2f0eeb	-0.17095535
75	0xbd8f94b8	-0.07010788
76	0x3da7a436	0.081856176
77	0xbcc3c1b8	-0.023896083
78	0x3d83951a	0.06424923
79	0x3e6fe3f1	0.23426796
80	0x3e1f695d	0.15567537
81	0x3e0da835	0.13833697
82	0x3d782c24	0.06058897
83	0xbcbb5118	-0.022865817
84	0xbdadec5e	-0.08492349
85	0x3d8b236e	0.06793867
86	0xbe29d62c	-0.16585606
87	0x3e0b3c5d	0.13597246
88	0xbe1a00aa	-0.15039316
89	0x3da3d086	0.07998757
90	0xbdf8ae41	-0.12142611
91	0xbe53ed76	-0.20696053
92	0x3d163834	0.036674693
93	0xbdbb2a78	-0.0913896
94	0xbe570303	-0.20997243
95	0xbe46ed40	-0.19426441
96	0xbdab96c6	-0.08378367
97	0x3d11f6b4	0.035635665
98	0xbb9fbc00	-0.0048747063
99	0x3d1a1a84	0.037622944
100	0xbdc607ae	-0.096694335
101	0xba88df80	-0.0010442585
102	0x3dbd6512	0.09247793
103	0x3e05ec13	0.13078336
104	0x3db7ee72	0.08981027
105	0x3e339317	0.17536579
106	0x3e4694bf	0.1939268
107	0xbe6d356b	-0.23164909
108	0x3cdb6728	0.026782587
109	0x3e0f7109	0.14007963
110	0x3e5cc9d3	0.21561365
111	0xbe4d7276	-0.20063195
112	0xbe253522	-0.1613355
113	0xbe5dcef7	-0.21660982
114	0xbd67e77c	-0.056617245
115	0xbe68c394	-0.22730857
116	0x3e48958d	0.19588299
117	0xbd9f4578	-0.07776922
118	0x3e446301	0.19178392
119	0x3d2fcaf4	0.04291816
120	0xbde12cb0	-0.109948516
121	0xbe022128	-0.1270796
122	0xbd861f9e	-0.06548999
123	0xbdbb3846	-0.09141593
124	0x3e309f6f	0.17248319
125	0x3e3d2aef	0.18473409
126	0xbe300d40	-0.17192554
127	0x3d86bb7e	0.0657873
128	0xbe3ef6f8	-0.18648899
129	0xbe1e381c	-0.15451092
130	0xbe478cce	-0.19487306
131	0xbd902b5a	-0.07039519
132	0x3e2961dd	0.16541238
133	0x3b294c80	0.002583295
134	0xbdddd776	-0.108321115
135	0xbdd540aa	-0.10412724
136	0x3d6d12bc	0.057879195
137	0x3cb295f8	0.021800026
138	0xbe57592d	-0.21030112
139	0x3e298a0b	0.16556565
140	0xbd82e7fc	-0.06391904
141	0xbd763954	-0.060113266
142	0x3e062419	0.13099708
143	0xbe3acb22	-0.18241552
144	0x3c739e10	0.014869228
145	0x3c53ccb0	0.012927219
146	0xbd0a6a10	-0.033792555
147	0xbe6415eb	-0.22273986
148	0xbd375318	-0.04475698
149	0x3e5847bf	0.21121119
150	0xbd62f2c0	-0.055407286
151	0x3e3bb175	0.18329413
152	0xbdb26efe	-0.08712576
153	0xbe639c8f	-0.22227691
154	0x3da2eeea	0.079557255
155	0x3e0a2eb3	0.13494377
156	0xbe51a575	-0.20473273
157	0xbe08d60a	-0.133629
158	0xbe46f59a	-0.19429627
159	0x3df6a0d6	0.12042396
160	0xba520c00	-0.00080126524
161	0xbcd21c60	-0.025648296
162	0x3e669127	0.22516309
163	0xbc986418	-0.018602416
164	0x3da187ee	0.07887255
165	0xbd9ab822	-0.07554652
166	0xbe202eda	-0.15642872
167	0xbe18a189	-0.14905371
168	0x3e59e1c5	0.2127753
169	0xbdb4ee2a	-0.08834489
170	0x3e139ced	0.14415331
171	0xbe6a48fb	-0.22879402
172	0x3e1845e5	0.14870413
173	0x3d8436ea	0.064557865
174	0x3df7899e	0.12086795
175	0x3dd71f76	0.105040476
176	0x3e560653	0.2090085
177	0x3e1819c9	0.14853586
178	0x3e327d4d	0.17430611
179	0xbd07e43c	-0.033176646
180	0x3d30ccf4	0.04316421
181	0x3e4b6bf9	0.19865407
182	0xbe2ab698	-0.16671216
183	0x3d87ce76	0.06631176
184	0x3de684ea	0.1125582
185	0xbcc0ba40	-0.02352631
186	0xbdfef77b	-0.12449547
187	0x3c0d7b30	0.008635327
188	0xbdfa0b7d	-0.122092225
189	0x3e5d1343	0.21589379
190	0xbe2ea686	-0.17055711
191	0xbe0c250c	-0.13686007
192	0xbe3a37d6	-0.18185362
193	0x3e3c2fcb	0.18377607
194	0x3e66500f	0.22491477
195	0x3e08b9df	0.13352154
196	0x3df08252	0.117436066
197	0xbe52da12	-0.20591
198	0x3e5742a7	0.2102152
199	0xbe3f93e0	-0.18708754
200	0x3dbe1092	0.09280504
201	0x3df06fca	0.11740072
202	0x3e25db39	0.16196908
203	0xbdea0033	-0.11425819
204	0xbd8b357a	-0.06797309
205	0xbd9b07c0	-0.075698376
206	0x3ca41e88	0.02003409
207	0xbe375395	-0.17902978
208	0xbd9b0848	-0.07569939
209	0xbdf3b601	-0.11899949
210	0xbe017e16	-0.12645754
211	0x3accd500	0.0015627444
212	0xbbbaa700	-0.0056961775
213	0xbdd08236	-0.10181086
214	0x3e3c54e3	0.18391757
215	0xbdffd607	-0.12491994
216	0x3d5ca944	0.05387236
217	0x3d0c1e3c	0.03420852
218	0x3e054d4b	0.13017766
219	0xbe69fc90	-0.22850251
220	0x3ce48e18	0.027899787
221	0xbca59828	-0.020214155
222	0x3e54e6d5	0.2079118
223	0x3de39a42	0.11113407
224	0x3de4a14e	0.11163579
225	0xbe204148	-0.15649903
226	0x3d3d6374	0.046237424
227	0x3cc95298	0.024575517
228	0xbe051787	-0.12997256
229	0x3e622611	0.22084834
230	0x3d8f5312	0.06998266
231	0x3d6a58d4	0.05721362
232	0xbdacd22c	-0.084385246
233	0xbe4e1ebb	-0.2012891
234	0x3d2a5da4	0.04159321
235	0x3e482637	0.19545828
236	0x3d34d864	0.04415168
237	0xbe56150c	-0.20906466
238	0x3d8f4cc2	0.06997062
239	0x3e5af61f	0.2138295
240	0x3e530a5f	0.20609425
241	0xbe1e707a	-0.15472594
242	0x3dbace82	0.091214195
243	0x3e33585f	0.1751418
244	0x3e65978b	0.2242109
245	0x3e09bdc3	0.13451295
246	0xbbf20080	-0.0073853135
247	0x3d61d634	0.05513592
248	0xbdf0ae3c	-0.117519826
249	0xbe1a36cc	-0.15059966
250	0xbe060c06	-0.13090524
251	0x3dd73eaa	0.10509999
252	0xbc368560	-0.0111401975
253	0x3e24ab43	0.16080956
254	0x3e57f6e5	0.21090277
255	0x3d5297dc	0.051414356

fc2.bias f4 [18]
0	0x3c8188b8	0.015812263
1	0xbe2c4188	-0.16821873
2	0xbc3deda0	-0.011592299
3	0x3d07bc9c	0.033138856
4	0xbe6561c2	-0.22400573
5	0x3c91bd28	0.017790392
6	0xbe47d9ff	-0.19516753
7	0xbd901200	-0.07034683
8	0xbd0682b0	-0.032839477
9	0x3db86b66	0.090048596
10	0xbe1f242c	-0.15541142
11	0xbe145dd4	-0.14488918
12	0x3debe2b6	0.11517851
13	0x3e697703	0.22799306
14	0x3e40b967	0.18820725
15	0xbe42e790	-0.19033647
16	0x3dd12d82	0.10213758
17	0x3e4cda3f	0.2000513

fc3.weight f4 [18, 18]
0	0x3e2153ad	0.15754576
1	0x3e3f7beb	0.18699615
2	0xbe19bc76	-0.15013298
3	0x3b71f680	0.0036920607
4	0xbe31b360	-0.17353582
5	0x3d1e06e4	0.03858079
6	0x3dd9d4ee	0.10636316
7	0xbde6c497	-0.11267965
8	0xbe3fe3a1	-0.18739177
9	0x3d915e76	0.07098095
10	0xbe6585f4	-0.2241438
11	0x3e258daf	0.16167329
12	0x3e43650b	0.19081514
13	0x3c37dc30	0.01122193
14	0x3e5bf8d3	0.21481638
15	0xbe293179	-0.16522779
16	0xbd1e0dcc	-0.038587376
17	0x3e58ad53	0.21159868
18	0xbd058374	-0.032596067
19	0xbe0a8829	-0.13528503
20	0x3da83fee	0.082153186
21	0xbe3e2f23	-0.18572669
22	0x3e6a9c1d	0.22911115
23	0xbd9079d0	-0.07054484
24	0x3e026d4f	0.1273701
25	0x3e6ef78b	0.23336618
26	0xbe5780e8	-0.21045268
27	0xbdc9418e	-0.09826957
28	0x3e1967d5	0.14981015
29	0x3da638a2	0.081162706
30	0x3dd29856	0.10282962
31	0xbdc27d3e	-0.09496544
32	0xbd318dec	-0.043348238
33	0x3e4c0e7f	0.19927405
34	0x3dc0739a	0.09397049
35	0x3b5e3cc0	0.0033910722
36	0xbe5b8a90	-0.21439576
37	0x3dbeba2e	0.09312855
38	0xbd4617f4	-0.048362687
39	0xbd224d3c	-0.039624438
40	0xbe012974	-0.1261347
41	0xbe3638a5	-0.17795046
42	0xbd2e82b8	-0.042605132
43	0x3dede0f6	0.116151735
44	0xbe483b38	-0.1955384
45	0xbe043eb0	-0.12914538
46	0x3cc19118	0.023628756
47	0xbe128ce6	-0.14311561
48	0xbe5e34db	-0.2169985
49	0x3ddb6696	0.10712926
50	0x3de00b7a	0.10939689
51	0x3d312aec	0.043253824
52	0xbe326352	-0.174207
53	0xbdcd3b72	-0.10021104
54	0x3da2fac2	0.079579845
55	0xbe67403d	-0.22583099
56	0xbe33151b	-0.1748852
57	0x3d250244	0.040285364
58	0x3e63bc8d	0.22239895
59	0x3e55b199	0.2086853
60	0x3d199f24	0.037505284
61	0x3e145b0b	0.14487855
62	0xbd9d2754	-0.07673517
63	0x3cdd7d78	0.027037367
64	0x3e07b3d3	0.13252191
65	0xbe6df4bc	-0.2323789
66	0x3d709024	0.058731213
67	0xbde26200	-0.11053848
68	0x3e58722b	0.21137302
69	0x3cbbe558	0.022936508
70	0xbac30c00	-0.0014880896
71	0x3e1155e9	0.14192928
72	0x3e1292ff	0.14313887
73	0xbe2f7a84	-0.1713658
74	0x3e01c5d5	0.12673123
75	0xbd6244fc	-0.05524157
76	0xbe0937d8	-0.13400209
77	0xbdd76356	-0.10516994
78	0xbe1a9b1e	-0.15098235
79	0xbe36d78e	-0.17855665
80	0x3e5ce6d9	0.21572436
81	0xbe2a4408	-0.16627514
82	0xbe0a7d3a	-0.13524333
83	0xbe5744f9	-0.21022405
84	0xbe2480d2	-0.16064766
85	0x3de029aa	0.10945447
86	0x3df1623e	0.11786316
87	0xbda54a4e	-0.08070813
88	0x3e6d1105	0.23151024
89	0x3e05f33f	0.13081072
90	0x3e3d4335	0.18482669
91	0xbd4c956c	-0.049947187
92	0xbdd063c6	-0.1017528
93	0xbe0785f8	-0.13234699
94	0xbd939afe	-0.07207297
95	0x3e6fbac3	0.23411088
96	0xbdc2e596	-0.09516446
97	0x3dc6c0b6	0.097047254
98	0x3d004014	0.03131111
99	0xbcd0bc88	-0.025480524
100	0x3b8511c0	0.004060954
101	0xbd62de48	-0.055387765
102	0x3e1c005f	0.15234517
103	0xbd7ed5d0	-0.062215626
104	0xbe6d93f3	-0.2320097
105	0xbd645108	-0.05574134
106	0x3ced9878	0.029003367
107	0xbd213d44	-0.039365068
108	0xbd87be06	-0.06628041
109	0xbc522e90	-0.012828484
110	0xbe3a1061	-0.1817031
111	0x3dbf9312	0.09354223
112	0xbe0ebca8	-0.13939154
113	0x3db2522a	0.08707078
114	0x3e40b47b	0.18818848
115	0xbded5283	-0.115880035
116	0xbe30d19c	-0.1726746
117	0x3e5c2061	0.21496727
118	0x3e0f2063	0.13977198
119	0xbe16ec8b	-0.14738671
120	0xbe4c1c6c	-0.19932717
121	0xbdeab4a5	-0.114602365
122	0x3e7053d3	0.23469476
123	0x3d41019c	0.047120675
124	0xbe11153c	-0.14168257
125	0xbe347c4d	-0.17625542
126	0x3e4f2b15	0.20231278
127	0x3e52fd01	0.20604326
128	0xbd5fb4ac	-0.05461566
129	0xbd4590e8	-0.048233896
130	0xbd91e71e	-0.0712416
131	0xbd6068e4	-0.05478753
132	0xbd2e9fd8	-0.042632908
133	0x3e5f474f	0.21804546
134	0xbe4e676e	-0.20156643
135	0xbe08b6d7	-0.13350998
136	0x3d292b04	0.04130079
137	0x3dc3e18e	0.095645055
138	0xbc756290	-0.014977112
139	0xbca82f18	-0.020530269
140	0x3d6da4bc	0.05801843
141	0xbe708703	-0.23489003
142	0xbe1100fc	-0.14160532
143	0x3d9899b2	0.0745119
144	0x3d17858c	0.036992595
145	0xbcd94498	-0.026521966
146	0x3d9e36aa	0.0772527
147	0x3e1973ff	0.14985655
148	0x3e6cfce1	0.2314334
149	0xbe57e20a	-0.21082321
150	0xbe07c6c0	-0.13259411
151	0xbe5ed85e	-0.21762225
152	0x3d68d8ec	0.056847498
153	0xbe545fa7	-0.20739613
154	0xbe22d0e0	-0.15899992
155	0xbe496bcc	-0.19670027
156	0x3dfcd15e	0.12344621
157	0x3d8de7da	0.06928988
158	0xbdd3093a	-0.10304494
159	0x3d1f1b6c	0.03884451
160	0x3cd68998	0.026188657
161	0x3d59f1ec	0.05320923
162	0xbd4a9d9c	-0.049466714
163	0x3e229bc3	0.15879731
164	0xbe02bcd4	-0.12767345
165	0x3e6627a7	0.22476064
166	0xbaa3bd80	-0.0012492388
167	0x3d6927ac	0.0569226
168	0x3cd4c718	0.025973842
169	0xbe4e2fdd	-0.20135446
170	0x3d9d1626	0.0767024
171	0xbe548a0a	-0.20755783
172	0x3e39ea67	0.18155824
173	0xbdafdbf4	-0.085868746
174	0xbe23ecae	-0.16008255
175	0xbe0e2e45	-0.13884838
176	0x3e181923	0.14853339
177	0x3e1b02bd	0.15137763
178	0x3e4fc36b	0.2028939
179	0xbdfca813	-0.12336745
180	0xbcd9d8b0	-0.026592582
181	0x3b9ac8e0	0.004723653
182	0xbe18695d	-0.14883943
183	0x3d9513fa	0.07279201
184	0xbe029e80	-0.12755775
185	0x3e2d1c11	0.16905238
186	0xbdda027e	-0.106450066
187	0xbe34b6f6	-0.17647919
188	0x3e68cdeb	0.22734801
189	0xbe48ca04	-0.19608313
190	0x3e4d306b	0.20038001
191	0x3e1cb0fd	0.1530189
192	0x3d9dadbe	0.07699154
193	0xbd9b377c	-0.07578942
194	0x3d4280b4	0.047486022
195	0xbdb0cedc	-0.08633205
196	0xbe177732	-0.14791563
197	0xbe206673	-0.15664081
198	0x3e5ff079	0.21869077
199	0xbe4a5210	-0.19757867
200	0xbd97e5b0	-0.07416856
201	0x3d2da714	0.042395666
202	0xbe2f834e	-0.17139933
203	0x3e0ff0bb	0.14056675
204	0xbe0adde8	-0.13561213
205	0x3e07253f	0.13197802
206	0x3c7f9b30	0.015600964
207	0x3e57f501	0.21089555
208	0xbcb7a758	-0.022418663
209	0x3dd61dde	0.104549155
210	0x3e4257d5	0.18978818
211	0x3e662ceb	0.22478072
212	0xbd7df098	-0.061997026
213	0x3e6e7109	0.23285307
214	0xbe305438	-0.17219627
215	0xbde8a1a0	-0.113589525
216	0xbda92a20	-0.08259988
217	0x3e2e1e4d	0.17003746
218	0x3e1bc365	0.15211256
219	0x3e0a8e95	0.13530953
220	0x3e679ca1	0.22618343
221	0x3d11c4ac	0.03558795
222	0xbdeaf78e	-0.114729986
223	0x3e382b79	0.17985334
224	0xbe5222e7	-0.20521127
225	0x3e4d3e63	0.2004333
226	0xbcf7f390	-0.030267507
227	0x3e0e2d8b	0.13884561
228	0xbbd83880	-0.006598532
229	0xbdfb8013	-0.122802876
230	0x3dabd6aa	0.08390553
231	0xbd8f4ad8	-0.06996697
232	0xbce0db38	-0.027448282
233	0xbe1f41ee	-0.15552494
234	0x3da9d7fa	0.082931474
235	0x3cfd2c08	0.030904785
236	0xbe6f6d0e	-0.23381445
237	0xbd8e14b0	-0.069375396
238	0xbe168a4e	-0.14701197
239	0x3e10aee1	0.14129211
240	0x3d51e9c4	0.051248327
241	0x3d5c69d4	0.053811863
242	0xbdf8f201	-0.121555336
243	0x3c297650	0.010343149
244	0xbe51634e	-0.20448038
245	0xbe072e3e	-0.13201234
246	0x3cdb99d8	0.026806757
247	0xbe4a52df	-0.19758175
248	0xbc1a9830	-0.009435698
249	0x3e673e71	0.22582413
250	0x3e621533	0.220784
251	0xbd8b6784	-0.068068534
252	0x3e2631eb	0.1622998
253	0x3e1d0a85	0.15336044
254	0x3e385a23	0.18003134
255	0x3e181a31	0.14853741

fc3.bias f4 [18]
0	0x3e173053	0.14764528
1	0xbced9418	-0.02900128
2	0xbe2c028c	-0.16797847
3	0x3e2619ef	0.1622083
4	0x3de31022	0.110870615
5	0x3d2d726c	0.04234545
6	0xbe0c7620	-0.13716936
7	0x3e3e0ef7	0.18560396
8	0x3d8f8a82	0.0700884
9	0x3d71426c	0.058901235
10	0xbe3ab3fa	-0.18232718
11	0x3d41603c	0.047210917
12	0xbdb0630e	-0.08612643
13	0x3e4eb9af	0.2018802
14	0x3d188f04	0.037245765
15	0xbe6b73ab	-0.22993343
16	0x3d23c524	0.03998293
17	0x3d7ba834	0.061439708

fc4.weight f4 [2, 18]
0	0xbdad36b2	-0.08457698
1	0xbdde8dc2	-0.10866882
2	0x3d53ea1c	0.051736936
3	0x3c9cb7c8	0.019130602
4	0xbc205990	-0.009786978
5	0x3df466b2	0.1193365
6	0x3e3f191f	0.18661927
7	0x3dea88ae	0.11451851
8	0xbe61159c	-0.219809
9	0xbe5cae61	-0.21550895
10	0xbdc8e47a	-0.098092034
11	0x3d845832	0.064621344
12	0x3d61cfb4	0.05512972
13	0x3e6c6c93	0.23088293
14	0xbd4b7f10	-0.049681723
15	0x3e241cd7	0.16026627
16	0x3ddb7972	0.10716523
17	0x3db91e6a	0.09039004
18	0x3da21c36	0.07915537
19	0xbe460473	-0.19337635
20	0x3d926736	0.07148592
21	0xbd8fcf88	-0.07022005
22	0x3cc63c18	0.024198577
23	0x3cb1c2a8	0.021699265
24	0x3df9b01a	0.12191792
25	0xbe50ebbb	-0.20402424
26	0xbd440c88	-0.047863513
27	0x3de0d6e2	0.10978486
28	0x3e47456b	0.19460075
29	0x3c5d5c20	0.013510734
30	0xbde19762	-0.11015202
31	0x3d15a42c	0.03653352
32	0x3e660c15	0.22465546
33	0xbe05610a	-0.13025299
34	0x3e688a49	0.22709002
35	0xbe6ac05d	-0.22924943

fc4.bias f4 [2]
0	0xb9746400	-0.00023306906
1	0x3d6294fc	0.055317864
