Secondary_Models/Three_Layer_30_Run_v1.0.pt (torch_old, 514171 bytes, 33 tensors)

fc1.bias f4 [96]
0.57650864 0.16413873 0.5499296 0.101078495 0.117288135 0.11406614 0.36870265 0.72955793
-0.4362435 -0.094385535 0.077618 0.07635915 -0.62696517 0.23619631 0.30493265 0.30870354
0.30544028 -0.24547127 0.2232337 0.29534182 -0.4293699 -0.48429686 0.15201843 0.2413966
0.46894857 0.5424448 0.08930252 -0.24588919 -0.571571 0.19406591 0.45838434 0.4315042
-0.38753536 -0.4680287 0.033150077 0.5040334 -0.4808929 0.06487968 -0.40131167 0.48702586
0.08829385 -0.26748934 0.67197335 0.14479707 0.4782977 -0.3496764 -0.41288185 -0.25443423
-0.5778227 -0.5680888 0.22996747 -0.25051305 -0.11547239 0.42882615 0.07959935 0.21285476
0.566143 0.012242218 0.31948572 -0.57382566 -0.36231884 0.257447 0.25767356 0.531353
-0.30002666 -0.43628985 0.5752679 -0.11168789 0.26572976 0.12675267 -0.26685306 0.07258314
-0.22343239 -0.03814119 -0.13370125 -0.17267223 -0.047286365 0.1689639 -0.55723435 -0.12832397
-0.022629708 0.6624525 -0.37260735 -0.58735526 -0.17451733 -0.5301925 0.15629275 -0.051758528
-0.15044725 0.3962948 -0.13807583 0.12586069 0.19644526 -0.029387176 0.62130815 0.14207359
00000000: 1296 133f fc13 283e 30c8 0c3f 3e02 cf3d
00000010: c334 f03d 829b e93d 98c6 bc3e 4fc4 3a3f
00000020: 4f5b dfbe 344d c1bd 30f6 9e3d 3062 9c3d
00000030: ca80 20bf 72dd 713e 2220 9c3e 640e 9e3e
00000040: ab62 9c3e d25c 7bbe 6097 643e 0b37 973e
00000050: 5fd6 dbbe c2f5 f7be b8aa 1b3e ac30 773e
00000060: 071a f03e aadd 0a3f 3de4 b63d 60ca 7bbe
00000070: 7a52 12bf 37b9 463e 5ab1 ea3e 1eee dc3e
00000080: 096b c6be 75a1 efbe 60c8 073d 5508 013f
00000090: 9837 f6be a3df 843d b978 cdbe 745b f93e
000000a0: 68d3 b43d 5df4 88be 7206 2c3f af45 143e
000000b0: 70e3 f43e c908 b3be 4065 d3be 3445 82be
000000c0: 30ec 13bf 456e 11bf 987c 6b3e 3f43 80be
000000d0: ca7c ecbd 1a8f db3e fc04 a33d 99f6 593e
000000e0: bfee 103f 9593 483c a293 a33e 3de6 12bf
000000f0: db81 b9be 18d0 833e caed 833e c006 083f
00000100: 189d 99be 6261 dfbe c244 133f 9fbc e4bd
00000110: bb0d 883e 74cb 013e f7a0 88be 78a6 943d
00000120: 76cb 64be f039 1cbd fbe8 08be fdd0 30be
00000130: 59af 41bd df04 2d3e e9a6 0ebf 5c67 03be
00000140: f061 b9bc 7d96 293f 64c6 bebe ea5c 16bf
00000150: acb4 32be b2ba 07bf 350b 203e c000 54bd
00000160: d80e 1abe 27e7 ca3e c063 0dbe a0e1 003e
00000170: f228 493e 60bd f0bc 0d0e 1f3f bd7b 113e

fc1.weight_g f4 [96, 1]
0.510841 0.64911526 0.57229424 0.6380071 0.66382164 0.3124238 0.68225616 0.277171
0.61281174 0.58131194 0.63650495 0.7468698 0.7967624 0.76615715 0.7973421 0.34063187
0.52729976 0.7925565 0.3850177 0.9255274 0.442438 0.6556087 0.7186902 0.7194916
0.41472736 0.67226404 0.52133846 0.6564992 0.7057666 0.6730802 0.5587612 0.58365375
0.25516596 0.6818724 0.6627327 0.4892411 0.73028666 0.5376455 0.2567899 0.42192551
0.37821046 0.6960938 0.34815276 0.7271007 0.30473414 0.50709677 0.78195035 0.53649956
0.6025032 0.68918914 0.5474403 0.6535146 0.61422354 0.6114817 0.7483207 0.7061384
0.7066172 0.31530815 0.7231694 0.7151214 0.65636635 0.7512392 0.530631 0.63108563
0.5243431 0.7834514 0.34020582 0.5181695 0.6277254 0.6249292 0.53156185 0.42787084
0.75427717 0.6187304 0.14468193 0.2514185 0.49671736 0.5999769 0.570802 0.59319234
0.6383986 0.7844608 0.3103177 0.70577455 0.39438495 0.6635332 0.72789377 0.13326995
0.6047191 0.70167375 0.7777674 0.44288337 0.17154048 0.4533481 0.49245787 0.6477969
00000000: 7ac6 023f 6b2c 263f e081 123f 6f54 233f
00000010: 37f0 293f 03f6 9f3e 57a8 2e3f 5be9 8d3e
00000020: 3be1 1c3f dcd0 143f fdf1 223f dc32 3f3f
00000030: 9ff8 4b3f e022 443f 9d1e 4c3f 4d67 ae3e
00000040: 1efd 063f fce4 4a3f 0a21 c53e 5def 6c3f
00000050: 3c87 e23e f9d5 273f 15fc 373f 9a30 383f
00000060: 2557 d43e 7f19 2c3f 7076 053f 5510 283f
00000070: 1fad 343f fc4e 2c3f f90a 0f3f 556a 153f
00000080: 1da5 823e 318f 2e3f daa8 293f cf7d fa3e
00000090: 11f4 3a3f 23a3 093f f779 833e 9f06 d83e
000000a0: cda4 c13e 3433 323f 1441 b23e 4523 3a3f
000000b0: 1d06 9c3e 18d1 013f e62d 483f 0958 093f
000000c0: a63d 1a3f b36e 303f 0c25 0c3f bc4c 273f
000000d0: c13d 1d3f 118a 1c3f f291 3f3f 7cc5 343f
000000e0: dde4 343f 1270 a13e a121 393f 3212 373f
000000f0: a007 283f 3651 403f 6fd7 073f d48e 213f
00000100: 593b 063f 4590 483f 752f ae3e c2a6 043f
00000110: 9db2 203f 5cfb 1f3f 7014 083f e311 db3e
00000120: 4f18 413f 1e65 1e3f 8027 143e edb9 803e
00000130: bd51 fe3e 1698 193f 1420 123f 74db 173f
00000140: 176e 233f 6cd2 483f f6e1 9e3e a4ad 343f
00000150: d3ec c93e 50dd 293f 3f57 3a3f eb77 083e
00000160: dfce 1a3f e4a0 333f c41b 473f 9cc1 e23e
00000170: 4fa8 2f3e 3e1d e83e 7023 fc3e 05d6 253f

fc1.weight_v f4 [96, 3]
-0.28703517 -0.3905826 -0.16129038 -0.13484865 0.4429978 0.41350564 -0.56556547 -0.010637045
0.08685166 0.5047494 -0.38828152 -0.10310028 0.40839544 -0.42385912 -0.31441197 0.118378066
-0.21256587 0.19011794 0.5015333 -0.4410278 -0.1508763 0.058758967 -0.14039926 0.21733426
0.13602486 -0.17783718 -0.44715965 -0.3570088 -0.1792539 -0.42229885 -0.4298275 -0.35682112
0.30506653 -0.4578576 -0.26183158 -0.5287959 0.53475296 -0.42368242 0.39731783 -0.3142384
0.21498002 0.41948274 -0.23007247 -0.50456595 -0.5729174 -0.09719297 -0.07725364 0.3171994
0.29408464 0.40700606 0.17950979 0.5591086 -0.5187095 -0.19795167 -0.29831538 0.047325432
-0.23876107 -0.5298578 0.5287221 1.9475623e-37 -0.21342179 -0.3874591 -0.008830845 0.01634276
-0.42706293 -0.4971649 -0.22804233 -0.4241253 -0.5335073 -0.29561839 -0.42296284 -0.5013785
0.12202739 -0.27656588 -0.21197902 0.32511005 -0.133872 0.5611645 -0.020816954 -0.268013
0.42975774 -0.09532052 -0.56591433 -0.31881994 0.50049883 -0.49232322 -0.10985761 0.29616904
-0.39464036 -0.41736394 0.075383164 -0.47795135 -0.09017819 0.35102013 -0.1091496 -0.45227903
0.06207344 0.24178535 -0.059057802 0.22283365 -0.40879914 -0.46754798 -0.4921127 -0.25029927
-0.3665924 0.2193046 -0.39929345 0.1946408 0.49654692 -0.47205344 -0.24353285 0.01723339
0.18660206 0.44958904 0.025690965 0.091348745 0.21226706 -0.0870865 -0.40252346 -0.09171653
-0.27062303 0.07239193 -0.25409788 -0.50364184 0.32564434 0.29401648 0.06345225 -0.23977426
-0.25050977 0.49593183 0.2492811 -0.45712197 -0.25821522 -0.16180384 -0.0027042031 0.17046136
0.2719038 -0.3531083 -0.39716226 -0.41065478 -0.5339206 -0.19130003 -0.49899805 -0.04729718
-0.21139808 0.47655421 0.21179222 -0.4909825 -0.39182574 0.28353214 -0.018833969 0.3488935
-0.4073661 0.53028196 0.14198291 -0.36061665 0.16589867 -0.10668303 -0.55362135 0.24307698
0.115472615 -0.54095733 0.53074175 -0.5145242 0.07899794 0.16182677 -0.29481155 0.52219605
0.2817372 -0.5356762 -0.2994761 0.19642201 -0.1321709 0.21924606 -0.5089756 -0.500965
0.11380625 0.50045764 0.22771671 0.4602511 -0.15949023 0.2233507 -0.55598533 0.53017646
0.1354726 0.5184769 -0.004020095 -0.5074516 -0.15506774 0.45455325 0.21433982 0.36543825
0.3722528 -0.22830774 -0.29773143 -0.43014243 0.38681749 -0.50758135 -0.1427309 0.259325
-0.21768665 0.37884587 0.28074008 -0.21623655 0.18241265 0.2551924 -0.54145044 -0.17641672
-0.57209665 0.179218 0.45442402 0.26188156 -0.03938641 -0.13429984 -0.21073726 -0.3473137
-0.45102254 -0.19452122 -0.5724284 -0.3804494 -0.08678222 0.48016083 0.10254336 0.06487016
-0.058466993 -0.20736106 0.10014273 -0.1027243 -0.041325342 0.4331489 -0.19700508 0.22732702
0.43339187 -0.32969302 0.092533715 -0.0707397 0.5498602 0.4887367 0.23646618 0.2740592
0.50972265 0.023027971 0.39100355 0.49082342 -0.3869709 0.4642933 0.15728758 0.18638438
-0.16840671 0.38903153 0.33140022 0.4782973 -0.18649891 -0.044101 -0.34469223 -0.21760476
00000000: 46f6 92be 71fa c7be 4e29 25be c415 0abe
00000010: 9cd0 e23e 03b7 d33e e6c8 10bf 0047 2ebc
00000020: 48df b13d 4237 013f d6cc c6be 3d26 d3bd
00000030: 3519 d13e 1004 d9be 9bfa a0be 3370 f23d
00000040: deaa 59be 47ae 423e 7d64 003f 65ce e1be
00000050: 517f 1abe 3ead 703d d3c4 0fbe df8c 5e3e
00000060: 1a4a 0b3e f31a 36be 1cf2 e4be dcc9 b6be
00000070: 568e 37be 8e37 d8be 5a12 dcbe 42b1 b6be
00000080: ae31 9c3e 506c eabe ca0e 86be 2b5f 07bf
00000090: 92e5 083f e7ec d8be 3e6d cb3e dbe3 a0be
000000a0: b923 5c3e 71c6 d63e 1e98 6bbe 3c2b 01bf
000000b0: b7aa 12bf 1c0d c7bd 2837 9ebd f667 a23e
000000c0: 4392 963e 1963 d03e 6ad1 373e be21 0f3f
000000d0: 25ca 04bf d8b3 4abe cbbc 98be 50d8 413d
000000e0: c87d 74be c3a4 07bf 555a 073f 528b 8402
000000f0: 3e8b 5abe 0a61 c6be 40af 10bc 40e1 853c
00000100: fea7 dabe 668c febe ee83 69be f426 d9be
00000110: ef93 08bf 4b5b 97be 968e d8be 575a 00bf
00000120: 7fe9 f93d 0b9a 8dbe 0711 59be d374 a63e
00000130: be15 09be 7aa8 0f3f 5188 aabc 0039 89be
00000140: 3509 dc3e 6837 c3bd c3df 10bf 5e3c a3be
00000150: b120 003f ca11 fcbe 07fd e0bd 78a3 973e
00000160: 4d0e cabe bab0 d5be 7d62 9a3d 0ab6 f4be
00000170: 58af b8bd e9b8 b33e d389 dfbd 1e91 e7be
00000180: b840 7e3d 9496 773e 98e6 71bd 812e 643e
00000190: 1f4e d1be 7362 efbe 32f6 fbbe 3a27 80be
000001a0: 00b2 bbbe 6391 603e 3170 ccbe eb4f 473e
000001b0: 663b fe3e fdb0 f1be ad60 79be 0a2d 8d3c
000001c0: 9c14 3f3e 8930 e63e dc75 d23c 0d15 bb3d
000001d0: 895c 593e 685a b2bd 8e17 cebe e0d5 bbbd
000001e0: 1a8f 8abe 3842 943d 1e19 82be acee 00bf
000001f0: dbba a63e 5489 963e 41f3 813d 6287 75be
00000200: d142 80be c7ea fd3e 8b43 7f3e e40b eabe
00000210: c934 84be e8af 25be 0039 31bb 6c8d 2e3e
00000220: fa36 8b3e 9cca b4be da58 cbbe 5841 d2be
00000230: 05af 08bf 28e4 43be ac7c ffbe b0ba 41bd
00000240: bd78 58be eafe f33e 0fe0 583e 0f62 fbbe
00000250: 629d c8be 202b 913e b249 9abc 2ba2 b23e
00000260: 4a92 d0be 8fc0 073f f863 113e bfa2 b8be
00000270: 57e1 293e a27c dabd 21ba 0dbf 2ce9 783e
00000280: e87c ec3d 2e7c 0abf b1de 073f dcb7 03bf
00000290: acc9 a13d ebb5 253e 8af1 96be a4ae 053f
000002a0: dc3f 903e 1322 09bf ee54 99be da22 493e
000002b0: cf57 07be 0a82 603e 3a4c 02bf 3e3f 00bf
000002c0: 4013 e93d fe1d 003f 922e 693e 08a6 eb3e
000002d0: 6851 23be 0cb6 643e 0e55 0ebf a5b9 073f
000002e0: 54b9 0a3e e7ba 043f 00bb 83bb 59e8 01bf
000002f0: 14ca 1ebe 34bb e83e e67b 5b3e b91a bb3e
00000300: eb97 be3e 81c9 69be 4170 98be a13b dcbe
00000310: f10c c63e daf0 01bf 0d28 12be 3fc6 843e
00000320: 40e9 5ebe 16f8 c13e 2abd 8f3e 1d6d 5dbe
00000330: 62ca 3a3e 94a8 823e 7f9c 0abf 96a6 34be
00000340: ed74 12bf ec84 373e 44aa e83e 5715 863e
00000350: a553 21bd e685 09be 82cb 57be 1ad3 b1be
00000360: 6dec e6be 9230 47be ab8a 12bf 44ca c2be
00000370: e0ba b1bd a4d7 f53e 4102 d23d a5da 843d
00000380: 167b 6fbd 7556 54be a217 cd3d 1e61 d2bd
00000390: c344 29bd b1c5 dd3e b3bb 49be 6ac8 683e
000003a0: 8ae5 dd3e 86cd a8be 5182 bd3d fadf 90bd
000003b0: a3c3 0c3f b23b fa3e 3124 723e 7d51 8c3e
000003c0: 2f7d 023f 28a5 bc3c 9e31 c83e 354d fb3e
000003d0: 0d21 c6be dab7 ed3e ff0f 213e 8cdb 3e3e
000003e0: cf72 2cbe 242f c73e 4aad a93e 62e3 f43e
000003f0: 92f9 3ebe 40a3 34bd 807b b0be c8d3 5ebe

fc2.bias f4 [48]
0.17613584 0.007627701 0.03561672 -0.058851004 -0.081248164 0.21222307 -0.014740457 0.07353046
0.10462026 -0.13457707 -0.11762897 -0.021840563 -0.007810337 0.050348844 0.065365806 -0.0585068
-0.16399634 0.035129536 -0.06725761 -0.07819591 0.036570806 0.15143149 -0.008360143 0.009587593
-0.002826348 0.0051853172 -0.16466309 -0.19616681 -0.019596785 -0.06601456 0.046903774 -0.1026737
-0.039054736 0.093797855 0.16845109 0.09062314 -0.2359967 0.020770518 0.053561583 -0.071631536
0.14341988 -0.061945643 0.06852201 -0.11178612 0.093687996 -0.07197516 0.02992165 -0.15375365
00000000: f45c 343e cbf1 f93b d6e2 113d c00d 71bd
00000010: 7065 a6bd 0151 593e f581 71bc 2397 963d
00000020: 2643 d63d 92ce 09be 75e7 f0bd fbea b2bc
00000030: dbed ffbb 973a 4e3d 82de 853d d4a4 6fbd
00000040: a8ee 27be fde3 0f3d 5cbe 89bd 2d25 a0bd
00000050: 45cb 153d db10 1b3e fbf8 08bc 4815 1d3c
00000060: 403a 39bb 98e9 a93b 719d 28be f4df 48be
00000070: 7089 a0bc a432 87bd 2c1e 403d 9746 d2bd
00000080: dcf7 1fbd 1719 c03d 717e 2c3e a098 b93d
00000090: 1ea9 71be ef26 aa3c 6463 5b3d 8eb3 92bd
000000a0: a9dc 123e b7ba 7dbd 4555 8c3d 1ff0 e4bd
000000b0: 7edf bf3d b667 93bd 401e f53c 9971 1dbe

fc2.weight_g f4 [48, 1]
0.5912418 0.5733288 0.5491689 0.67496103 0.5839244 0.68535286 0.55891633 0.55232906
0.607172 0.5455342 0.64852244 0.5962976 0.5821515 0.5725225 0.53047055 0.5450606
0.6370626 0.63950884 0.6276541 0.5338742 0.61608076 0.666301 0.6221177 0.57779515
0.5269586 0.6112988 0.7843219 0.5999995 0.59259385 0.610828 0.57833844 0.61024195
0.5764813 0.6415423 0.6762505 0.5692874 0.6869121 0.6255484 0.5858522 0.53758186
0.55201906 0.6324001 0.5914994 0.63592166 0.74564797 0.6632524 0.5592848 0.5933681
00000000: 9f5b 173f adc5 123f 5596 0c3f 3fca 2c3f
00000010: 127c 153f 4973 2f3f 2415 0f3f 7065 0d3f
00000020: a06f 1b3f 21a8 0b3f 9105 263f f6a6 183f
00000030: e107 153f d690 123f ebcc 073f 1789 0b3f
00000040: 8916 233f dab6 233f f0ad 203f fbab 083f
00000050: 78b7 1d3f b492 2a3f 1b43 1f3f 62ea 133f
00000060: c2e6 063f 147e 1c3f 52c9 483f 9199 193f
00000070: 3bb4 173f 395f 1c3f fd0d 143f d138 1c3f
00000080: 4794 133f 1e3c 243f c11e 2d3f d2bc 113f
00000090: 79d9 2f3f f123 203f 69fa 153f f79e 093f
000000a0: 1f51 0d3f f9e4 213f 816c 173f c3cb 223f
000000b0: c9e2 3e3f e9ca 293f 4a2d 0f3f f9e6 173f

fc2.weight_v f4 [48, 96]
0.01658235 0.055175338 -0.06718669 0.080388315 -0.091100365 -0.00696529 0.0796181 0.1624666
0.009401101 0.052952483 0.078319475 -0.091788486 0.019722907 -0.04678105 0.09487654 -0.0734805
0.065255225 0.04087691 -0.095726095 -0.07827322 0.026425162 0.03428183 -0.026264727 -0.0060731233
0.07513125 -0.036271077 0.072571464 -0.00030712973 -0.0107860435 0.05280665 0.13278526 -0.08352571
-0.096683905 -0.029878745 0.09554486 0.06395189 0.054276194 0.04725389 -0.01966466 -0.087131724
0.07131521 -0.092030995 0.15147452 0.015963601 0.09158294 0.055393238 -0.09565432 -0.008661059
-0.039519135 0.015493707 0.05808056 -0.08078307 -0.036089115 0.045484338 -0.06892044 -0.009803789
-0.009066702 0.0023996034 0.045937423 0.085720606 0.020544581 0.04378934 0.0033630237 -0.090492904
0.06275109 -0.03786067 0.06479745 -0.06881187 -0.091769114 0.093408994 -0.008361708 0.07857647
0.014900551 0.09589872 -0.052250046 0.055725902 -0.0068220003 0.054101314 -0.1066573 0.061072733
-0.08417116 0.019984517 0.029862985 0.008526661 0.026126236 -0.043618888 -0.07881094 -0.003012179
0.06572312 -0.013539046 -1.5599086e-05 -0.04821848 -0.0041311122 0.04603237 -0.053206656 0.016235769
-0.007802234 -0.010806075 0.00035173737 0.054893736 0.07640454 -0.07561086 -0.040108554 0.06054808
0.016046824 0.01243609 0.004395331 2.132792e-39 -0.06352403 0.018255603 1.244226e-39 0.03153066
0.06445422 -0.030855948 0.026461752 0.007266354 7.5690115e-10 -5.68504e-40 -0.040168557 -0.01925556
0.056766316 -0.08052158 -0.057398267 -0.037212785 0.015076165 -0.040675975 1.502489e-39 0.0037852623
0.01464201 -0.05124368 0.05369715 -0.08049438 -0.07697193 0.0029028873 -0.01220941 -0.026658446
-4.647534e-09 -0.0061843405 -0.0709071 -0.04487175 0.0085944375 -0.0803554 4.54476e-40 -3.72804e-40
0.08080895 0.031664856 -0.0052543227 0.022426648 0.019336076 5.1195213e-05 -0.007391637 -0.10081242
-0.09210271 0.050520137 -0.050192133 -0.013147587 0.02672524 0.008524414 0.050845843 0.01651745
0.04233093 0.06581912 0.1201978 0.08839649 0.041534908 0.009807547 0.022339001 0.018230515
1.07803326e-16 0.00046545386 0.012918453 -0.018058768 0.0026895339 0.057427768 0.0402143 0.04347193
-0.038648535 -0.071983084 0.026191525 0.012205187 5.3780636e-23 0.03152904 0.027652062 0.07495127
2.7024973e-07 -6.1228006e-20 0.02596547 8.433881e-05 0.058220174 6.48342e-40 0.012086356 -0.0783446
0.0898984 0.027070468 -0.05920807 -0.007175496 -0.07012511 -0.0665817 -0.048453476 0.1647091
-0.032045357 0.053046122 -0.009055461 -0.0013343244 0.04940883 -0.05726406 0.056000877 -0.030360155
0.101645395 0.046823848 0.020314714 0.022453517 0.010236159 0.04045293 -0.005158854 -0.017091496
0.052420277 0.109392025 1.8253588e-05 -0.059625167 -0.014699418 -0.07638907 0.011621701 0.04418731
0.036453642 0.03018004 0.08124583 0.050086472 0.05086513 0.0009813661 -0.066958554 0.046726238
-0.03873158 -0.043244824 -0.015305081 0.027318815 0.006541991 0.069486335 0.01249005 0.008732799
0.10571669 -0.0837775 0.010043571 -0.045823272 0.022815993 0.07431198 0.070651844 0.06639308
-0.0329412 -0.0010229821 7.2285217e-13 0.0375249 -0.00941563 0.004529284 0.04863704 -0.079012424
00000000: b5d7 873c 89ff 613d 2d99 89bd a1a2 a43d
00000010: d492 babd 163d e4bb d00e a33d a55d 263e
00000020: 1307 1a3c b4e4 583d f665 a03d 9afb bbbd
00000030: ef91 a13c 7c9d 3fbd a24e c23d f27c 96bd
00000040: 88a4 853d 8c6e 273d 0b0c c4bd b64d a0bd
00000050: 9579 d83c 1b6b 0c3d 2029 d7bc 0d01 c7bb
00000060: 6ade 993d fb90 14bd 59a0 943d 4106 a1b9
00000070: f2b7 30bc c94b 583d dcf8 073e 870f abbd
00000080: 3602 c6bd 45c4 f4bc 06ad c33d 35f9 823d
00000090: b750 5e3d 4c8d 413d c817 a1bc 1e72 b2bd
000000a0: b50d 923d bf7a bcbd 231c 1b3e 19c6 823c
000000b0: d68f bb3d 05e4 623d 6ae6 c3bd 1de7 0dbc
000000c0: d1de 21bd 51d9 7d3c e2e5 6d3d 9871 a5bd
000000d0: 2ed2 13bd c94d 3a3d 2926 8dbd 12a0 20bc
000000e0: 818c 14bc aa42 1d3b e128 3c3d 498e af3d
000000f0: 1c4d a83c 735c 333d 2d66 5c3b 5854 b9bd
00000100: a583 803d ca13 1bbd 87b4 843d 3ded 8cbd
00000110: 72f1 bbbd 374d bf3d 8cff 08bc b3ec a03d
00000120: 7121 743c 8c66 c43d 2504 56bd d840 643d
00000130: 168b dfbb 5799 5d3d 246f dabd 6727 7a3d
00000140: ee61 acbd 92b6 a33c 38a3 f43c 69b3 0b3c
00000150: b006 d63c b8a9 32bd a167 a1bd fa67 45bb
00000160: d899 863d e0d2 5dbc c8da 82b7 be80 45bd
00000170: 485e 87bb 708c 3c3d 39ef 59bd e000 853c
00000180: e2a9 ffbb f70b 31bc 6469 b839 41d8 603d
00000190: fc79 9c3d ded9 9abd de48 24bd 4301 783d
000001a0: a174 833c bec0 4b3c b506 903b 5b39 1700
000001b0: e318 82bd c68c 953c 658c 0d00 4b26 013d
000001c0: 9300 843d 9dc5 fcbc 51c6 d83c 981a ee3b
000001d0: 2f0e 5030 c230 0680 c987 24bd d6bd 9dbc
000001e0: cc83 683d 80e8 a4bd 721a 6bbd 6f6c 18bd
000001f0: 0502 773c da9b 26bd 545c 1000 2a12 783b
00000200: 0be5 6f3c e5e4 51bd 8bf1 5b3d 3dda a4bd
00000210: 76a3 9dbd 5e3e 3e3b fa09 48bc d062 dabc
00000220: 24b0 9fb1 02a6 cabb be37 91bd 71cb 37bd
00000230: afcf 0c3c 5f91 a4bd e5f2 0400 3a0f 0480
00000240: 2a7f a53d 02b3 013d 742c acbb 17b8 b73c
00000250: b166 9e3c 71ba 5638 8c35 f2bb be76 cebd
00000260: 58a0 bcbd 34ee 4e3d 4496 4dbd fa68 57bc
00000270: e4ee da3c fca9 0b3c bb43 503d 9a4f 873c
00000280: 3263 2d3d 2dcc 863d 442a f63d 3809 b53d
00000290: 8220 2a3d d5af 203c 4800 b73c 2958 953c
000002a0: da93 f824 2908 f439 eba7 533c fbef 93bc
000002b0: e442 303b 6139 6b3d c0b7 243d 9f0f 323d
000002c0: ed4d 1ebd de6b 93bd 9c8f d63c 44f8 473c
000002d0: 9a08 821a 9824 013d 9486 e23c 0d80 993d
000002e0: d716 9134 0f92 909f 8ab5 d43c 0edf b038
000002f0: 4778 6e3d 500f 0700 da05 463c 2273 a0bd
00000300: a71c b83d e3c2 dd3c 2984 72bd 6c20 ebbb
00000310: c19d 8fbd fd5b 88bd 2777 46bd 81a9 283e
00000320: fe41 03bd e446 593d 5b5d 14bc 7fe4 aeba
00000330: ea60 4a3d b88d 6abd 2d61 653d dcb5 f8bc
00000340: 762b d03d 5dca 3f3d 0b6b a63c 70f0 b73c
00000350: 90b5 273c f9b1 253d 9b0b a9bb 7703 8cbc
00000360: a5b6 563d ed08 e03d 481f 9937 8539 74bd
00000370: d4d5 70bc df71 9cbd f268 3e3c c1fd 343d
00000380: 6a50 153d 223c f73c 3764 a63d 7927 4d3d
00000390: f457 503d 2fa1 803a 9121 89bd 0364 3f3d
000003a0: 01a5 1ebd 7c21 31bd 2ac2 7abc b5cb df3c
000003b0: 335e d63b da4e 8e3d 11a3 4c3c 0414 0f3c
000003c0: fe81 d83d 8a93 abbd ca8d 243c 2fb1 3bbd
000003d0: 9be8 ba3c e130 983d eab1 903d 18f9 873d
000003e0: 5aed 06bd 9515 86ba fd76 4b2b b6b3 193d
000003f0: 0444 1abc 636a 943b a237 473d 44d1 a1bd

fc3.bias f4 [24]
-0.09551374 -0.109660685 0.18560949 -0.08206529 -0.093489125 0.20659451 -0.12924431 -0.061333638
0.12310776 -0.020290308 -0.06207934 -0.14588898 0.044726625 -0.11358569 -0.13586107 -0.045639656
-0.05827436 0.10160869 -0.07432925 0.15608858 -0.07989828 -0.13716106 -0.036633343 -0.022304105
00000000: b59c c3bd c895 e0bd 6a10 3e3e d911 a8bd
00000010: 3a77 bfbd 838d 533e 9f58 04be fb38 7bbd
00000020: ec1f fc3d dc37 a6bc e846 7ebd ec63 15be
00000030: 4433 373d 9d9f e8bd 2a1f 0bbe a6f0 3abd
00000040: 18b1 6ebd 3818 d03d ef39 98bd afd5 1f3e
00000050: b6a1 a3bd f373 0cbe d80c 16bd 19b7 b6bc

fc3.weight_g f4 [24, 1]
0.6348551 0.5553179 0.7014728 0.60242707 0.64219445 0.6674755 0.6092428 0.625622
0.6060119 0.6382618 0.51499325 0.6677983 0.5615289 0.5545644 0.56754583 0.56309223
0.5033749 0.60877824 0.6157941 0.59674525 0.52135396 0.62391126 0.59800845 0.6449909
00000000: dd85 223f 5029 0e3f b993 333f a938 1a3f
00000010: db66 243f addf 2a3f 56f7 1b3f c328 203f
00000020: 9923 1b3f 2065 233f 99d6 033f d4f4 2a3f
00000030: 5cc0 0f3f eff7 0d3f af4a 113f d026 103f
00000040: 2ddd 003f e4d8 1b3f afa4 1d3f 4cc4 183f
00000050: 7477 053f a6b8 1f3f 1517 193f 201e 253f

fc3.weight_v f4 [24, 48]
-0.037453555 -0.067300215 -0.051148243 0.056430962 6.26592e-40 -0.12812702 -0.037741378 0.05677919
-0.0043201135 -0.036856838 0.13529482 0.01653634 0.12019074 -0.111285955 -9.27735e-40 0.056381278
0.10402585 0.027416801 -0.0074486625 -1.734614e-39 -0.017607434 -0.02882883 9.5825e-40 6.866e-40
-1.201822e-39 -0.11234729 0.07715055 0.08323863 1.1394253e-30 1.693113e-39 -1.908099e-39 0.026548386
-0.029329 0.05455278 -0.149721 -9.588534e-10 0.23356774 -0.045089234 -0.101742715 0.03691337
-0.033289228 3.48398e-40 0.06779226 -0.100279614 -0.058523804 -0.009013523 -7.11557e-40 0.14846683
-0.035848185 -0.13654882 0.03578037 0.098302186 -0.13934991 0.012774676 -0.009515449 -0.061714895
-0.08572689 0.08828947 0.0999725 -0.13630079 0.014360145 -0.10987197 -0.11268982 -0.081940025
0.048900187 0.08071557 0.039291173 0.02848874 0.027257606 -0.066881776 -0.07188254 0.07906145
0.14115077 -0.11460258 0.04490818 0.005605504 0.08099151 -0.019431166 0.028024942 0.11011511
0.042399287 -0.122539975 -0.08755225 0.063691676 -0.11567585 0.040863156 -0.12658042 -0.07949887
0.003699109 0.053184673 0.08523661 -0.08610292 0.10336481 -0.0153345615 0.002849713 -0.037258282
0.033969212 -0.062441435 -0.01572972 -0.023736564 6.29898e-40 -0.037745897 0.1187219 0.04963967
0.09912924 0.04171614 -0.11170769 0.06265318 0.095959015 0.037129045 -0.04703913 0.12427478
-0.10970462 0.028414672 -0.116694674 -0.0001609776 -0.028584745 -0.09811416 0.04656999 -2.040471e-39
0.02095846 0.084044516 0.14987685 0.13328104 -1.311967e-39 -4.0988e-40 2.05313e-40 -0.05470687
-0.13549109 0.072155826 -0.010254949 0.036733028 -0.16352364 -0.014407125 -0.0070484574 -0.074887656
0.046719786 -4.90826e-40 0.00029655552 -0.13888071 -0.029882742 -0.12798306 0.033474892 -0.050162673
-0.06959037 -0.0816648 0.09997451 0.07761402 0.08664556 0.080073334 -0.12510832 -0.09108082
-0.04171478 -0.0032287505 0.11714647 0.014319365 0.06292316 -0.013143592 -0.12477602 -0.06659822
-0.012184884 0.08444023 0.06584575 0.05826288 -0.071223654 0.12725525 2.298277e-16 -0.104511134
0.011926067 -0.03644916 0.015525248 0.12044167 -0.04356036 0.028194614 -0.048939057 0.10188713
0.11252177 -0.10629547 0.062129293 -0.0026340815 0.2021859 0.13398033 -0.06944158 -0.016233124
0.043878403 -0.0923386 -0.08308759 -0.076460876 0.0754882 -0.031129869 -0.037667334 0.13593696
0.06944114 -0.037837535 -0.02668327 -0.06719311 -0.14292201 -0.129933 0.013907656 -0.09353466
-0.04070086 0.08882578 0.010779992 -0.13895838 -0.029715002 0.048705474 0.10608035 -0.12760462
-0.14212993 0.121089876 -0.01853399 0.11443716 0.054945216 0.12304002 0.055846542 0.024827689
0.12680343 -0.10005027 0.12262094 0.05203031 -0.14037341 -0.03855875 -0.11529939 -0.10698153
-0.088860705 0.09549476 0.11513206 -0.021097295 -0.115800925 -0.122176245 0.008493245 -0.056654133
-0.09672202 0.006797448 0.13777795 -0.041121095 0.02584581 -0.07598342 -0.14278503 -0.12538184
-0.038136598 0.082112186 0.08269317 0.055776093 7.01484e-40 0.180391 -0.0124600725 0.0069594095
0.106521495 -0.052812334 -0.009258688 -0.004115412 0.0839859 -0.006079043 0.047531974 0.062049657
00000000: e668 19bd b2d4 89bd d280 51bd 2724 673d
00000010: afd2 0600 bb33 03be b496 1abd 4c91 683d
00000020: bd8f 8dbb 32f7 16bd ba8a 0a3e 3877 873c
00000030: 9026 f63d e4e9 e3bd 261a 0a80 0ef0 663d
00000040: 810b d53d 3399 e03c e913 f4bb 66e3 1280
00000050: 773d 90bc 702a ecbc 366f 0a00 f679 0700
00000060: 3116 0d80 5616 e6bd 1c01 9e3d 0479 aa3d
00000070: e0e1 b80d b66f 1200 01c7 1480 007c d93c
00000080: 5f43 f0bc bc72 5f3d 7650 19be a8c8 83b0
00000090: 622c 6f3e 7daf 38bd 7c5e d0bd 7932 173d
000000a0: 495a 08bd 31cb 0300 abd6 8a3d 665f cdbd
000000b0: a8b6 6fbd 75ad 13bc 88bf 0780 b007 183e
000000c0: 8cd5 12bd 74d3 0bbe 708e 123d a852 c93d
000000d0: beb1 0ebe e04c 513c b0e6 1bbc c2c8 7cbd
000000e0: 9491 afbd 1cd1 b43d 62be cc3d 6f92 0bbe
000000f0: d046 6b3c 8e04 e1bd ecc9 e6bd 2cd0 a7bd
00000100: 904b 483d 344e a53d c8ef 203d 3861 e93c
00000110: 584b df3c 50f9 88bd 2737 93bd f8ea a13d
00000120: d489 103e c2b4 eabd a4f1 373d 60ae b73b
00000130: e0de a53d 1c2e 9fbc 9094 e53c 0884 e13d
00000140: e0aa 2d3d 3df6 fabd 984e b3bd c870 823d
00000150: 76e7 ecbd 2060 273d 4c9e 01be 4ed0 a2bd
00000160: c06c 723b 2cd8 593d 8890 ae3d ba56 b0bd
00000170: eeb0 d33d d03d 7bbc 40c2 3a3b 249c 18bd
00000180: 4d23 0b3d 97c2 7fbd 9ddb 80bc 2f73 c2bc
00000190: e6db 0600 719b 1abd 7824 f33d f752 4b3d
000001a0: 4504 cb3d 8bde 2a3d 00c7 e4bd 4f50 803d
000001b0: 2986 c43d a014 183d 1aac 40bd c783 fe3d
000001c0: d1ac e0bd e3c5 e83c 9efd eebd 18cc 28b9
000001d0: 8e2a eabc 14f0 c8bd 2dc0 3e3d 0138 1680
000001e0: 14b1 ab3c 881f ac3d 5179 193e d37a 083e
000001f0: 3b49 0e80 9476 0480 543c 0200 5014 60bd
00000200: 2dbe 0abe 6fc6 933d 6004 28bc 5f75 163d
00000210: be72 27be dd0b 6cbc bff6 e6bb b35e 99bd
00000220: 3f5d 3f3d 3958 0580 027b 9b39 bf36 0ebe
00000230: a7cc f4bc fe0d 03be f81c 093d 6077 4dbd
00000240: 6585 8ebd e03f a7bd 70bf cc3d 19f4 9e3d
00000250: 3a73 b13d 7dfd a33d 651c 00be 9588 babd
00000260: 1edd 2abd 7299 53bb 7dea ef3d c59b 6a3c
00000270: dcdd 803d 3858 57bc 928a ffbd a664 88bd
00000280: 1ca3 47bc 00ef ac3d 23da 863d 0fa5 6e3d
00000290: b5dd 91bd 334f 023e 957c 8425 ef09 d6bd
000002a0: 8d65 433c b74b 15bd 9c5d 7e3c 1faa f63d
000002b0: 596c 32bd 64f8 e63c 5274 48bd 33aa d03d
000002c0: d071 e63d 70b1 d9bd 497b 7e3d 8ea0 2cbb
000002d0: d209 4f3e 2432 093e 6337 8ebd 54fb 84bc
000002e0: d7b9 333d 051c bdbd d429 aabd 8597 9cbd
000002f0: 8f99 9a3d 1104 ffbc 1049 1abd 0f33 0b3e
00000300: 2837 8e3d 88fb 1abd e096 dabc 8b9c 89bd
00000310: 265a 12be 280d 05be f0dc 633c 1a8f bfbd
00000320: f2b5 26bd 4aea b53d 909e 303c 1b4b 0ebe
00000330: e06c f3bc 647f 473d a840 d93d c9aa 02be
00000340: 828a 11be f8fd f73d 98d4 97bc 085e ea3d
00000350: 3c0e 613d 68fc fb3d 58bf 643d 7063 cb3c
00000360: c2d8 013e 28e7 ccbd b020 fb3d bc1d 553d
00000370: 0cbe 0fbe c8ef 1dbd 1622 ecbd 2219 dbbd
00000380: 9afc b5bd c292 c33d 5cca eb3d 3cd4 acbc
00000390: 0929 edbd 8a37 fabd 4027 0b3c 2a0e 68bd
000003a0: 3216 c6bd 20bd de3b aa15 0d3e 986e 28bd
000003b0: 98ba d33c 329d 9bbd 3d36 12be 1964 00be
000003c0: 1f35 1cbd 6f2a a83d 095b a93d 7975 643d
000003d0: 74a3 0700 6bb8 383e 5525 4cbc c20b e43b
000003e0: f127 da3d bf51 58bd c1b1 17bc 94da 86bb
000003f0: cd00 ac3d b532 c7bb e3b0 423d c827 7e3d

fc4.weight f4 [2, 24]
0.21291964 -0.0661079 -0.1677881 0.15730497 -0.19916336 -0.27786106 0.18499908 0.06995611
-0.1512081 -0.21690504 0.11948785 -0.09413332 0.08378407 0.107646585 -0.082979746 -0.140011
-0.17790754 0.20525652 -0.077613585 -0.24518278 -0.15370175 -0.10562951 0.15075064 -0.13752836
-0.39160627 0.100860715 -0.12968586 0.07324481 0.19017503 -0.06612318 -0.08001526 -0.16128816
0.1531352 -0.056810997 0.09438908 -0.32504588 0.016694427 0.013766849 -0.023709074 -0.08422999
0.051463693 -0.07944819 -0.059151594 -0.08437509 0.12880343 0.0026708692 0.0062797964 -0.089342654
00000000: 9b07 5a3e 9463 87bd a5d0 2bbe 8e14 213e
00000010: 7bf1 4bbe ce43 8ebe 6670 3d3e 2645 8f3d
00000020: 4cd6 1abe 5b1c 5ebe 0cb6 f43d f8c8 c0bd
00000030: fc96 ab3d d075 dc3d 49f1 a9bd 0b5f 0fbe
00000040: 652d 36be c42e 523e dff3 9ebd 3211 7bbe
00000050: fe63 1dbe 4954 d8bd 605e 1a3e 3cd4 0cbe
00000060: 9e80 c8be 1090 ce3d 5fcc 04be 6001 963d
00000070: 3ebd 423e 976b 87bd 0adf a3bd b928 25be
00000080: 79cf 1c3e a6b2 68bd 104f c13d 6a6c a6be
00000090: c0c2 883c 5a8e 613c 8839 c2bc c680 acbd
000000a0: 98cb 523d bcb5 a2bd f148 72bd d9cc acbd
000000b0: 0ce5 033e c009 2f3b c0c6 cd3b 48f9 b6bd

fc4.bias f4 [2]
-0.03492319 0.1128023
00000000: 9e0b 0fbd e404 e73d

exp_avg f4 [96]
0.0 -0.0001262747 0.0 -1.478254e-05 -0.00025192503 -0.00010142736 0.00022333833 9.698498e-05
0.00021012189 0.0 0.0 0.0 -0.00022602953 -1.2616551e-05 0.0 0.0
0.000119444776 -6.01602e-05 0.0 1.8520488e-05 0.0 0.0 0.0 0.0
-0.0003810566 3.4086333e-05 6e-45 0.0 -2.1859509e-05 0.00046605908 0.0006174261 0.00012741622
-6.342236e-05 0.00059680315 0.0 -8.2338505e-05 0.00017414153 5.1433322e-05 9.558939e-05 0.0
0.0 1.5456837e-05 0.00045826926 0.0004351139 0.0 3.95486e-05 0.0 0.0
-0.0003420561 0.0 5.7525296e-05 -0.00022819903 0.00030576 9.00451e-05 -0.000101522004 -1.9796425e-06
-0.0001289692 -5.2536412e-05 0.0 0.00012582539 1.4662484e-05 0.00014541982 0.0 -8.646223e-05
-5.40407e-05 2.0836264e-06 -0.0005985673 0.00012863726 -8.0933125e-05 0.0 -8.131838e-05 0.0
0.0 0.0 -0.0001311784 6e-45 0.00027062919 -0.0001736492 -0.00017138185 1.0999754e-05
-2.7160793e-05 -8.273963e-05 -7.094842e-05 -0.00016088721 0.0 -0.00014809426 -1.8187522e-05 -0.00035461932
0.00014078285 -0.00031639868 0.0 0.0 -0.00019339117 0.0 -7.274809e-05 -2.4640394e-05
00000000: 0000 0000 9b68 04b9 0000 0000 8702 78b7
00000010: ce14 84b9 66b5 d4b8 ed2f 6a39 6a64 cb38
00000020: 2a54 5c39 0000 0000 0000 0000 0000 0000
00000030: 5702 6db9 adab 53b7 0000 0000 0000 0000
00000040: 6d7e fa38 8654 7cb8 0000 0000 725c 9b37
00000050: 0000 0000 0000 0000 0000 0000 0000 0000
00000060: 8dc8 c7b9 ecf7 0e38 0400 0000 0000 0000
00000070: f05e b7b7 6459 f439 c4da 213a 089b 0539
00000080: 9f01 85b8 c872 1c3a 0000 0000 26ad acb8
00000090: c399 3639 1cba 5738 2a77 c838 0000 0000
000000a0: 0000 0000 4ea9 8137 dc43 f039 0020 e439
000000b0: 0000 0000 fce0 2538 0000 0000 0000 0000
000000c0: fe55 b3b9 0000 0000 5147 7138 b648 6fb9
000000d0: 6a4e a039 98d6 bc38 36e8 d4b8 00da 04b6
000000e0: e83b 07b9 8b5a 5cb8 0000 0000 ffef 0339
000000f0: e4fe 7537 d67b 1839 0000 0000 0e53 b5b8
00000100: c3a9 62b8 6ed4 0b36 2ce9 1cba cde2 0639
00000110: a4ba a9b8 0000 0000 7989 aab8 0000 0000
00000120: 0000 0000 0000 0000 ef8c 09b9 0400 0000
00000130: 3ce3 8d39 9a15 36b9 f7b4 33b9 958b 3837
00000140: 5cd7 e3b7 8084 adb8 25ca 94b8 d5b3 28b9
00000150: 0000 0000 c049 1bb9 6891 98b7 33ec b9b9
00000160: 1c9f 1339 50e2 a5b9 0000 0000 0000 0000
00000170: 0cc9 4ab9 0000 0000 5590 98b8 d8b2 ceb7

exp_avg_sq f4 [96]
0.0 2.2456139e-07 0.0 3.9319949e-07 4.352001e-06 5.099001e-06 5.920127e-06 6.575334e-05
7.2016746e-06 0.0 0.0 0.0 1.0182187e-05 6.9652234e-10 0.0 0.0
5.8922495e-07 2.8675965e-06 0.0 4.131786e-09 0.0 0.0 0.0 0.0
3.025658e-05 1.4128525e-05 8.8667466e-36 0.0 6.8317668e-06 1.3588801e-06 8.113259e-06 6.8887493e-06
4.0377076e-06 1.4549462e-06 0.0 2.080288e-06 3.3765848e-06 1.4417108e-06 2.0948912e-05 0.0
0.0 1.2149767e-08 3.0371131e-05 9.16889e-07 0.0 1.7190861e-06 0.0 0.0
3.206029e-06 0.0 2.9934547e-06 2.5534305e-06 2.8471886e-06 3.7344664e-06 3.059367e-06 2.991741e-06
1.3023871e-06 1.4981772e-07 0.0 2.3126527e-06 2.342662e-09 2.4424037e-06 0.0 9.0700365e-07
2.3118043e-06 1.274019e-08 1.5013974e-05 4.163613e-06 3.8873185e-07 0.0 3.3307008e-06 0.0
0.0 0.0 2.1262524e-06 1.854586e-39 9.468061e-06 7.016935e-06 1.6647702e-05 5.0932306e-07
3.3781373e-06 1.0474171e-05 5.8829264e-06 6.4169562e-06 0.0 3.0412327e-06 1.0556091e-06 2.6759003e-06
1.1203718e-06 2.9771509e-06 0.0 0.0 2.7041306e-06 0.0 7.2271587e-06 5.7389534e-06
00000000: 0000 0000 f71e 7134 0000 0000 ed18 d334
00000010: 6707 9236 1618 ab36 81a5 c636 0ee5 8938
00000020: eaa5 f136 0000 0000 0000 0000 0000 0000
00000030: 29d4 2a37 6775 3f30 0000 0000 0000 0000
00000040: 3b2b 1e35 ef70 4036 0000 0000 93f7 8d31
00000050: 0000 0000 0000 0000 0000 0000 0000 0000
00000060: 83cf fd37 8e09 6d37 2993 3c05 0000 0000
00000070: 6e3c e536 c462 b635 2f1e 0837 e825 e736
00000080: a57b 8736 9247 c335 0000 0000 139b 0b36
00000090: 4999 6236 ce80 c135 72bb af37 0000 0000
000000a0: 0000 0000 3ebb 5032 82c5 fe37 2220 7635
000000b0: 0000 0000 59bb e635 0000 0000 0000 0000
000000c0: 2927 5736 0000 0000 29e3 4836 9a5b 2b36
000000d0: 5412 3f36 a59d 7a36 864f 4d36 b8c5 4836
000000e0: aecd ae35 95dd 2034 0000 0000 1233 1b36
000000f0: 8cfc 2031 2de8 2336 0000 0000 d178 7335
00000100: 7f24 1b36 f3df 5a32 87e4 7b37 2ab5 8b36
00000110: e6b2 d034 0000 0000 0185 5f36 0000 0000
00000120: 0000 0000 0000 0000 bdb0 0e36 d531 1400
00000130: 03d9 1e37 0373 eb36 aba6 8b37 6ab8 0835
00000140: f5b3 6236 39ba 2f37 f465 c536 3c51 d736
00000150: 0000 0000 fb17 4c36 74ae 8d35 9e93 3336
00000160: af5f 9635 10cb 4736 0000 0000 0000 0000
00000170: 9c78 3536 0000 0000 d280 f236 3c91 c036

exp_avg f4 [96, 1]
0.0 -0.00013574335 0.0 -0.00064014195 -0.0020561558 -0.0016722124 0.0048747137 0.0005755903
-9.633729e-05 0.0 0.0 0.0 -0.0044884016 9.645855e-07 0.0 0.0
0.00035117753 -0.0020393713 0.0 3.779881e-05 0.0 0.0 0.0 0.0
0.0034546223 0.001603456 -6e-45 0.0 -0.0015243889 0.0018512115 7.344761e-05 0.0026867006
-0.0024234545 0.0014741999 0.0 -4.0809507e-05 -0.00021417552 0.0012598606 0.00084650656 0.0
0.0 1.8522504e-05 0.0025306842 0.0056588706 0.0 -0.0007108795 0.0 0.0
-0.00057638006 0.0 -0.00058535003 -0.007444282 0.0016029761 0.0011563076 -0.0024851456 -0.00025057673
0.00022962243 0.0006874079 0.0 0.0018832299 2.0247846e-05 0.004742045 0.0 0.0006631235
-0.003231543 -1.5359268e-05 0.0010633293 0.0031262885 -0.0010989093 0.0 -0.0029654019 0.0
0.0 0.0 -0.0031973957 6e-45 -0.0022137032 -0.0022091381 -0.0012817458 0.0003730202
-0.002583866 4.198149e-05 -0.0035677794 -0.002370243 0.0 -0.0003248483 -0.00019572699 -0.004683946
9.64989e-05 3.4586756e-05 0.0 0.0 0.0010249505 0.0 -0.0017596057 0.0015730024
00000000: 0000 0000 5456 0eb9 0000 0000 33cf 27ba
00000010: 92c0 06bb 232e dbba 10bc 9f3b 36e3 163a
00000020: b008 cab8 0000 0000 0000 0000 0000 0000
00000030: 7113 93bb e876 8135 0000 0000 0000 0000
00000040: 401e b839 f9a6 05bb 0000 0000 2a8a 1e38
00000050: 0000 0000 0000 0000 0000 0000 0000 0000
00000060: f266 623b 0e2b d23a 0400 0080 0000 0000
00000070: 01ce c7ba 5aa4 f23a e307 9a38 5b13 303b
00000080: d2d2 1ebb f139 c13a 0000 0000 e02a 2bb8
00000090: 4e94 60b9 e821 a53a 18e8 5d3a 0000 0000
000000a0: 0000 0000 c660 9b37 d6d9 253b 0c6e b93b
000000b0: 0000 0000 515a 3aba 0000 0000 0000 0000
000000c0: 3618 17ba 0000 0000 2d72 19ba 2aef f3bb
000000d0: f41a d23a 3f8f 973a d3dd 22bb d75f 83b9
000000e0: cdc6 7039 2a33 343a 0000 0000 b6d6 f63a
000000f0: ebd9 a937 2863 9b3b 0000 0000 77d5 2d3a
00000100: 4cc8 53bb c7d7 80b7 695f 8b3a 6be2 4c3b
00000110: 4709 90ba 0000 0000 3057 42bb 0000 0000
00000120: 0000 0000 0000 0000 668b 51bb 0400 0000
00000130: c713 11bb 30c7 10bb 4100 a8ba ec91 c339
00000140: 1456 29bb 4815 3038 68d1 69bb 1456 1bbb
00000150: 0000 0000 6750 aab9 103c 4db9 c97b 99bb
00000160: 745f ca38 3f11 1138 0000 0000 0000 0000
00000170: a257 863a 0000 0000 92a2 e6ba 342d ce3a

exp_avg_sq f4 [96, 1]
0.0 2.1600877e-06 0.0 3.1252082e-05 0.00022626869 4.8804122e-05 0.0006517178 0.00023305634
6.3064275e-05 0.0 0.0 0.0 0.0009141713 3.1029918e-10 0.0 0.0
0.0001120843 0.00023549098 0.0 4.86862e-09 0.0 0.0 0.0 0.0
0.00021661882 0.00080739404 2.3029903e-37 0.0 0.00049988827 2.065451e-05 9.266537e-06 0.0006862925
0.00040051923 1.1573781e-05 0.0 3.4375422e-05 0.00023197844 1.4826149e-05 0.0004368022 0.0
0.0 1.9902012e-08 5.878212e-05 0.00016149576 0.0 0.00016797286 0.0 0.0
1.6005575e-05 0.0 4.0537387e-05 0.0005235972 2.6918691e-05 0.00025366992 0.00025336715 1.0606397e-05
2.1009697e-05 8.076812e-06 0.0 0.00047008746 2.323713e-09 0.0004337661 0.0 0.00015735414
0.00017163805 2.6415673e-08 1.6880227e-05 0.0009885418 2.1266287e-05 0.0 0.0010739515 0.0
0.0 0.0 0.00053751864 9.00268e-40 0.00018666443 0.0009431371 0.00010821828 0.00013317532
0.00074655644 0.00068860856 0.000957366 0.001039851 0.0 1.0162077e-05 1.8070542e-06 0.00031062122
1.6488868e-06 5.826803e-07 0.0 0.0 7.910515e-05 0.0 0.00022141874 0.00085356826
00000000: 0000 0000 06f6 1036 0000 0000 ab14 0338
00000010: 8a42 6d39 07b3 4c38 0bd8 2a3a 9660 7439
00000020: 6041 8438 0000 0000 0000 0000 0000 0000
00000030: ffa4 6f3a ba96 aa2f 0000 0000 0000 0000
00000040: cd0e eb38 21ee 7639 0000 0000 d648 a731
00000050: 0000 0000 0000 0000 0000 0000 0000 0000
00000060: 2c24 6339 4ca7 533a c0bb 9c02 0000 0000
00000070: ef0a 033a 3943 ad37 7977 1b37 4fe8 333a
00000080: c8fc d139 032d 4237 0000 0000 542e 1038
00000090: 3d3f 7339 d3bd 7837 9902 e539 0000 0000
000000a0: 0000 0000 fdf4 aa32 d28c 7638 3057 2939
000000b0: 0000 0000 df21 3039 0000 0000 0000 0000
000000c0: b643 8637 0000 0000 b006 2a38 0342 093a
000000d0: 73cf e137 00ff 8439 5dd6 8439 21f2 3137
000000e0: fb3d b037 a581 0737 0000 0000 1276 f639
000000f0: 31af 1f31 1a6b e339 0000 0000 6eff 2439
00000100: bdf9 3339 aee8 e232 039a 8d37 f591 813a
00000110: 0165 b237 0000 0000 d5c3 8c3a 0000 0000
00000120: 0000 0000 0000 0000 44e8 0c3a 95cd 0900
00000130: 5abb 4339 dc3c 773a 3ff3 e238 faa4 0b39
00000140: 8eb4 433a bd83 343a bff7 7a3a 9c4b 883a
00000150: 0000 0000 ca7d 2a37 e989 f235 e0da a239
00000160: 524f dd35 7c69 1c35 0000 0000 0000 0000
00000170: 41e5 a538 0000 0000 a42c 6839 ffc1 5f3a

exp_avg f4 [96, 3]
0.0 0.0 0.0 -0.0007616333 -0.00027594238 4.7017915e-05 0.0 0.0
0.0 -7.874676e-05 -8.635418e-05 -6.010913e-05 -0.006297388 -0.005368676 -0.0009417856 -0.0008301651
0.0005587494 0.0011408845 0.0043574036 0.0045587085 0.0011601916 0.01323797 0.005042346 -0.0003235623
-0.0013036071 -0.0006388965 -0.00014213042 0.0 0.0 0.0 0.0 0.0
0.0 0.0 0.0 0.0 -0.00653034 -0.0062234816 0.002152274 -0.000112676804
-0.00016284478 -9.660332e-07 0.0 0.0 0.0 0.0 0.0 0.0
0.0012670364 -0.0008824901 -7.542528e-05 -0.0023002764 -0.0022578207 -0.00058034656 0.0 0.0
0.0 0.00020289932 0.00020332703 -1.2162e-41 0.0 0.0 0.0 0.0
0.0 0.0 0.0 0.0 0.0 0.0 0.0 0.0
-0.0025932179 -0.002864449 0.0022456916 0.0034998714 0.0027082434 -0.001381949 6e-45 6e-45
6e-45 0.0 0.0 0.0 -0.0036615073 -0.0036614165 -0.00027203996 0.007160923
0.0041019674 0.0012037762 0.017942414 0.002894708 -0.0003339023 0.0028836275 0.00046896684 0.0021251626
-0.0042259283 0.0009508561 -0.0005473643 0.009079241 0.003650021 0.0011368957 0.0 0.0
0.0 0.0020680106 0.0011504901 2.980473e-05 0.0006095619 0.00069383555 -0.00010180855 0.0027814587
0.0025499102 -0.0011651223 -0.0022180113 0.0025614938 -0.0008348766 0.0 0.0 0.0
0.0 0.0 0.0 8.785584e-05 0.00014353522 -8.496991e-06 0.009063584 0.0013376592
0.001016371 0.003558037 -0.00024539724 0.0037267494 0.0 0.0 0.0 8.637342e-05
-0.0009092431 -0.00065819593 0.0 0.0 0.0 0.0 0.0 0.0
-0.007658508 -0.0034975407 0.00022325084 0.0 0.0 0.0 0.002411855 -0.00041452333
-0.00046629005 -0.0023017335 -0.0019234403 -0.0041416194 0.0053719473 0.00046352806 0.0015210204 0.0027769175
-0.0006437157 0.001110561 -0.0006864874 -0.0006745522 0.00021763542 0.0033808914 0.0023618874 0.0002854963
-0.0012496503 -0.00063126325 -4.63579e-05 0.00017655612 -0.00038577316 -0.00039085967 0.0 0.0
0.0 0.0004353231 0.0014399011 -0.0011859543 0.00012696833 0.00013849481 1.9220763e-05 0.0025905827
0.002156083 -0.0032126068 0.0 0.0 0.0 -0.00013400102 0.0009166827 -0.00037115545
-0.0038637142 -0.0039154906 -0.0018278335 5.3139665e-05 4.555088e-05 -1.0312155e-05 -0.009885997 -0.0049369894
0.0006015985 -5.6998662e-05 0.0010736599 0.0012944905 -0.0010673204 -0.0012350446 -0.00094158284 0.0
0.0 0.0 0.0003169122 -0.0005809446 -0.00020563122 0.0 0.0 0.0
0.0 0.0 0.0 0.0 0.0 0.0 -0.0006442022 -0.00040258508
-0.001575574 6e-45 6e-45 6e-45 0.0024639864 -0.00020815621 -0.0009736266 -0.001726834
-4.8860184e-05 -0.0012545921 -0.007425512 0.0005653303 0.0013219379 0.00039336333 -0.00067747815 -0.00011706117
-0.0011238641 -0.0010846065 0.0015287943 0.0009335161 0.0011023215 -6.840349e-05 -0.0016524983 -0.0006127253
-0.002220898 -0.0034271965 0.001566477 0.0017018716 0.0 0.0 0.0 -0.0029851508
00000000: 0000 0000 0000 0000 0000 0000 58a8 47ba
00000010: 5cac 90b9 1a35 4538 0000 0000 0000 0000
00000020: 0000 0000 d824 a5b8 0c19 b5b8 b01d 7cb8
00000030: 525a cebb b8eb afbb 29e2 76ba 709f 59ba
00000040: 0a79 123a bb89 953a 8dc8 8e3b 3861 953b
00000050: 9211 983a 12e4 583c 443a a53b cca3 a9b9
00000060: ccdd aaba 9e7b 27ba d808 15b9 0000 0000
00000070: 0000 0000 0000 0000 0000 0000 0000 0000
00000080: 0000 0000 0000 0000 0000 0000 0000 0000
00000090: 76fc d5bb 59ee cbbb 2a0d 0d3b e64c ecb8
000000a0: 50c1 2ab9 a6a8 81b5 0000 0000 0000 0000
000000b0: 0000 0000 0000 0000 0000 0000 0000 0000
000000c0: b012 a63a e856 67ba a42d 9eb8 3cc0 16bb
000000d0: f2f7 13bb 6622 18ba 0000 0000 0000 0000
000000e0: 0000 0000 5fc1 5439 2f34 5539 e721 0080
000000f0: 0000 0000 0000 0000 0000 0000 0000 0000
00000100: 0000 0000 0000 0000 0000 0000 0000 0000
00000110: 0000 0000 0000 0000 0000 0000 0000 0000
00000120: faf2 29bb 7bb9 3bbb 742c 133b 195e 653b
00000130: c97c 313b 8422 b5ba 0400 0000 0400 0000
00000140: 0400 0000 0000 0000 0000 0000 0000 0000
00000150: e6f5 6fbb 60f4 6fbb 96a0 8eb9 2da6 ea3b
00000160: cc69 863b 07c8 9d3a f8fb 923c 24b5 3d3b
00000170: 9c0f afb9 3efb 3c3b aadf f539 5046 0b3b
00000180: a879 8abb df42 793a ff7c 0fba 19c1 143c
00000190: 3135 6f3b e403 953a 0000 0000 0000 0000
000001a0: 0000 0000 7687 073b 0bcc 963a 2c05 fa37
000001b0: 02cb 1f3a 84e2 353a 0d82 d5b8 2249 363b
000001c0: 651c 273b 04b7 98ba 0e5c 11bb bcde 273b
000001d0: 9fdb 5aba 0000 0000 0000 0000 0000 0000
000001e0: 0000 0000 0000 0000 0000 0000 3f3f b838
000001f0: f181 1639 4c8e 0eb7 6d7f 143c 6554 af3a
00000200: c037 853a f52d 693b a9a8 80b9 7b3c 743b
00000210: 0000 0000 0000 0000 0000 0000 6023 b538
00000220: 465a 6eba c88a 2cba 0000 0000 0000 0000
00000230: 0000 0000 0000 0000 0000 0000 0000 0000
00000240: 39f4 fabb ff36 65bb 7118 6a39 0000 0000
00000250: 0000 0000 0000 0000 3610 1e3b 6154 d9b9
00000260: 6478 f4b9 aed8 16bb f21b fcba 6cb6 87bb
00000270: 2907 b03b af05 f339 fa5c c73a f2fc 353b
00000280: 08bf 28ba 3e90 913a 64f5 33ba 6fd4 30ba
00000290: 1035 6439 f291 5d3b e5c9 1a3b aaae 9539
000002a0: 4ecb a3ba 5c7b 25ba 6b70 42b8 ec21 3939
000002b0: 9941 cab9 4cec ccb9 0000 0000 0000 0000
000002c0: 0000 0000 143c e439 10bb bc3a 0672 9bba
000002d0: cd22 0539 eb38 1139 463c a137 c4c6 293b
000002e0: 124d 0d3b 998a 52bb 0000 0000 0000 0000
000002f0: 0000 0000 a082 0cb9 894d 703a a497 c2b9
00000300: 5e36 7dbb 844d 80bb ea93 efba 48e2 5e38
00000310: e30d 3f38 5e02 2db7 e0f8 21bc 78c6 a1bb
00000320: 98b4 1d3a d911 6fb8 0cba 8c3a e5ab a93a
00000330: 54e5 8bba 38e1 a1ba 8ed4 76ba 0000 0000
00000340: 0000 0000 0000 0000 3c27 a639 884a 18ba
00000350: b69e 57b9 0000 0000 0000 0000 0000 0000
00000360: 0000 0000 0000 0000 0000 0000 0000 0000
00000370: 0000 0000 0000 0000 aedf 28ba 0e12 d3b9
00000380: 7e83 ceba 0400 0000 0400 0000 0400 0000
00000390: d57a 213b 8244 5ab9 fa3a 7fba ef56 e2ba
000003a0: 39ef 4cb8 2071 a4ba b651 f3bb ad32 143a
000003b0: e044 ad3a 553c ce39 ca98 31ba bd7e f5b8
000003c0: 9f4e 93ba 5b29 8eba d361 c83a 34b7 743a
000003d0: c67b 903a d873 8fb8 a498 d8ba 4c9f 20ba
000003e0: 7c8c 11bb d19a 60bb 3f52 cd3a 5611 df3a
000003f0: 0000 0000 0000 0000 0000 0000 85a2 43bb

exp_avg_sq f4 [96, 3]
0.0 0.0 0.0 6.0708237e-05 1.0014837e-05 9.429878e-07 0.0 0.0
0.0 4.2388758e-05 6.769145e-05 8.610813e-07 0.00077081117 0.00047454875 5.3354423e-05 0.0012806256
0.0003038618 1.730222e-05 0.0007584167 0.0008615911 3.6591548e-05 0.023062773 0.0032652877 0.00015164226
0.0031895463 0.00052196253 8.222875e-05 0.0 0.0 0.0 0.0 0.0
0.0 0.0 0.0 0.0 0.001524729 0.001293439 0.00022232252 4.568997e-08
1.0934167e-07 3.0989902e-10 0.0 0.0 0.0 0.0 0.0 0.0
4.7890284e-05 1.2869411e-05 1.185736e-05 0.00041134644 0.00041410595 1.7493516e-05 0.0 0.0
0.0 5.152265e-07 5.210346e-07 3.4247443e-37 0.0 0.0 0.0 0.0
0.0 0.0 0.0 0.0 0.0 0.0 0.0 0.0
0.011341201 0.0017654789 0.00010281223 0.0027714549 0.00089215726 0.0005750784 1.570272e-33 8.426947e-36
1.1594719e-35 0.0 0.0 0.0 0.00095543853 0.00093817926 1.48416175e-05 0.0003323722
0.00012334037 1.0029237e-05 0.0030926287 7.4911644e-05 1.7104097e-06 0.0010695865 0.0004270161 0.00043048477
0.0010263355 5.0494535e-05 2.3922461e-05 0.0003246441 5.4301814e-05 6.3883335e-06 0.0 0.0
0.0 0.0005065756 0.00013464964 4.6316827e-06 0.0005975772 0.0005347416 2.8808843e-05 0.00043389233
5.608008e-05 1.466128e-05 0.007927692 0.0005809444 0.00041441104 0.0 0.0 0.0
0.0 0.0 0.0 3.9865253e-07 1.0625255e-06 4.188905e-09 0.009462881 0.0005750218
3.252521e-05 4.7682694e-05 9.402478e-06 6.786704e-05 0.0 0.0 0.0 0.00031304813
1.3207815e-05 0.00010617266 0.0 0.0 0.0 0.0 0.0 0.0
0.0010830533 0.00022721922 2.5157326e-06 0.0 0.0 0.0 0.0010670898 5.7258545e-05
2.6431913e-05 5.0484843e-05 5.8124344e-05 0.0001601309 0.00065424497 0.000212492 2.6945432e-05 0.000825957
9.056795e-05 0.00021436888 0.00039681452 0.00041329066 2.5352215e-06 0.0008713117 0.00016109968 9.026506e-06
0.0003347415 7.312406e-05 5.172965e-06 1.9698227e-05 1.4490345e-05 3.3942663e-06 0.0 0.0
0.0 0.0001341921 2.3909033e-05 0.00018810476 2.6800265e-07 2.2524821e-07 2.092223e-09 0.00014847291
6.610061e-05 0.00019934896 0.0 0.0 0.0 3.0145622e-05 6.5145045e-06 5.5450942e-05
0.0002407496 0.00026042544 5.5971937e-05 6.564889e-07 1.0464586e-06 1.1914627e-08 0.0039102337 0.0011439906
4.5796114e-06 0.00012284514 4.267816e-05 0.00017780089 6.293976e-05 1.0441571e-05 1.6198932e-05 0.0
0.0 0.0 1.4356976e-05 4.0076862e-05 7.5758367e-06 0.0 0.0 0.0
0.0 0.0 0.0 0.0 0.0 0.0 6.0612656e-05 1.9148243e-05
0.00012028988 3.869562e-38 1.7492612e-37 1.48618e-40 0.00325503 6.440151e-05 3.9229784e-05 0.0011544612
3.3882206e-05 0.00031607415 0.0055196113 0.00067296525 9.209384e-05 5.704632e-06 3.6018512e-06 2.4887444e-05
0.00014433426 0.00013260997 0.00026431828 0.0015267752 0.0010151835 0.00023932396 0.00064939325 4.7782854e-05
0.00034848473 0.00078996643 3.4035926e-05 0.00048028966 0.0 0.0 0.0 0.0012982739
00000000: 0000 0000 0000 0000 0000 0000 f9a0 7e38
00000010: 6605 2837 a121 7d35 0000 0000 0000 0000
00000020: 0000 0000 95ca 3138 92f5 8d38 0e25 6735
00000030: 4310 4a3a dbcc f839 e0c8 5f38 aada a73a
00000040: a44f 9f39 3c24 9137 7cd0 463a 66dc 613a
00000050: e079 1938 24ee bc3c 70fe 553b 2902 1f39
00000060: b507 513b 50d4 083a 3972 ac38 0000 0000
00000070: 0000 0000 0000 0000 0000 0000 0000 0000
00000080: 0000 0000 0000 0000 0000 0000 0000 0000
00000090: 6ad9 c73a 9c88 a93a 3f1f 6939 a73c 4433
000000a0: 38cf ea33 695e aa2f 0000 0000 0000 0000
000000b0: 0000 0000 0000 0000 0000 0000 0000 0000
000000c0: cddd 4838 b3e9 5737 f9ee 4637 fca9 d739
000000d0: 5c1c d939 0abf 9237 0000 0000 0000 0000
000000e0: 0000 0000 184e 0a35 3add 0b35 7613 e902
000000f0: 0000 0000 0000 0000 0000 0000 0000 0000
00000100: 0000 0000 0000 0000 0000 0000 0000 0000
00000110: 0000 0000 0000 0000 0000 0000 0000 0000
00000120: 72d0 393c a467 e73a e59c d738 4ca1 353b
00000130: a9df 693a dcc0 163a fe73 0209 aa38 3305
00000140: a897 7605 0000 0000 0000 0000 0000 0000
00000150: 6576 7a3a 25f0 753a 4300 7937 3e42 ae39
00000160: ee54 0139 3f43 2837 b3ad 4a3b e219 9d38
00000170: 3b91 e535 5e31 8c3a 21e1 df39 b0b2 e139
00000180: 1b86 863a 18ca 5338 18ad c837 fe34 aa39
00000190: 21c2 6338 5e5b d636 0000 0000 0000 0000
000001a0: 0000 0000 b7cb 043a bd30 0d39 da69 9b36
000001b0: baa6 1c3a e72d 0c3a 85aa f137 0b7c e339
000001c0: 8737 6b38 b8f9 7537 26e3 013c 854a 183a
000001d0: 4f45 d939 0000 0000 0000 0000 0000 0000
000001e0: 0000 0000 0000 0000 0000 0000 6306 d634
000001f0: 199c 8e35 ffed 8f31 330a 1b3c 0fbd 163a
00000200: ae6b 0838 e7fe 4738 56bf 1d37 d753 8e38
00000210: 0000 0000 0000 0000 0000 0000 9c20 a439
00000220: 2297 5d37 03a9 de38 0000 0000 0000 0000
00000230: 0000 0000 0000 0000 0000 0000 0000 0000
00000240: 3df5 8d3a b241 6e39 f5d3 2836 0000 0000
00000250: 0000 0000 0000 0000 98dd 8b3a e528 7038
00000260: 1aba dd37 b0bf 5338 8aca 7338 d0e8 2739
00000270: a381 2b3a 63d0 5e39 e008 e237 0985 583a
00000280: 4cef bd38 35c8 6039 8b0b d039 efae d839
00000290: c622 2a36 bd68 643a deec 2839 8c70 1737
000002a0: 3e80 af39 2e5a 9938 6e93 ad36 9f3d a537
000002b0: 8f1b 7337 0dc9 6336 0000 0000 0000 0000
000002c0: 0000 0000 ebb5 0c39 4290 c837 fd3d 4539
000002d0: 01e2 8f34 c2db 7134 c7c6 0f31 65af 1b39
000002e0: 7f9f 8a38 5408 5139 0000 0000 0000 0000
000002f0: 0000 0000 3be1 fc37 2b97 da36 ff93 6838
00000300: bb71 7c39 b689 8839 69c3 6a38 9339 3035
00000310: 0b74 8c35 15b1 4c32 6b21 803b f4f1 953a
00000320: 90aa 9936 fecf 0039 5301 3338 1070 3a39
00000330: 87fe 8338 352e 2f37 f1e2 8737 0000 0000
00000340: 0000 0000 0000 0000 bede 7037 3418 2838
00000350: f133 fe36 0000 0000 0000 0000 0000 0000
00000360: 0000 0000 0000 0000 0000 0000 0000 0000
00000370: 0000 0000 0000 0000 583a 7e38 8aa0 a037
00000380: 2344 fc38 d3ad 5201 db18 6e02 499e 0100
00000390: 5752 553b 4c0f 8738 a98a 2438 4a51 973a
000003a0: be1c 0e38 c1b6 a539 dbdd b43b ef69 303a
000003b0: 8122 c138 6a6a bf36 55b7 7136 61c5 d037
000003c0: 6f58 1739 380d 0b39 3394 8a39 131e c83a
000003d0: e80f 853a 09f3 7a39 0b3c 2a3a 736a 4838
000003e0: d4b4 b639 c015 4f3a ccc1 0e38 63cf fb39
000003f0: 0000 0000 0000 0000 0000 0000 d82a aa3a

exp_avg f4 [48]
-0.00032741993 -0.0007761968 -0.00030972195 -0.0004801331 0.0 -0.00048489234 1.7283164e-05 -0.0001878642
-0.00011443958 0.0006633941 0.0005025338 -0.00018945677 0.00010372794 -5.649515e-05 0.0 -0.0001512607
-0.0014372147 4.5036224e-05 5.154246e-05 0.0 0.00013969354 -7.953387e-05 6e-45 0.0
0.0 -8.060882e-05 0.00014155093 0.00021852425 0.0 0.0 0.0 -0.00010321531
-5.295762e-06 -7.1591916e-05 -0.00011641534 0.0 -0.000756584 8.840329e-05 -0.00012415538 0.00024642586
-0.00040100573 0.0 -8.214994e-05 -0.0006242641 -0.00010307171 -1.2788223e-06 0.0 0.00070203195
00000000: 8fa9 abb9 af79 4bba 2d62 a2b9 60ba fbb9
00000010: 0000 0000 2639 feb9 50fb 9037 6afd 44b9
00000020: 48ff efb8 a0e7 2d3a 79bc 033a eaa8 46b9
00000030: 8488 d938 35f5 6cb8 0000 0000 bc9b 1eb9
00000040: ec60 bcba 47e5 3c38 4c2f 5838 0000 0000
00000050: b37a 1239 6ccb a6b8 0400 0000 0000 0000
00000060: 0000 0000 880c a9b8 4a6d 1439 a823 6539
00000070: 0000 0000 0000 0000 0000 0000 4c75 d8b8
00000080: 40b2 b1b6 9e23 96b8 0224 f4b8 0000 0000
00000090: 7e55 46ba 2865 b938 b52f 02b9 b832 8139
000000a0: 143e d2b9 0000 0000 ea47 acb8 a8a5 23ba
000000b0: 3428 d8b8 00a4 abb5 0000 0000 9108 383a
